Assets/results/Maze01/Mouse/Mouse-9472.pt (torch, 453474 bytes, 33 tensors)

network_body._body_endoder.seq_layers.0.weight f4 [128, 9]
000000 e7 62 b1 3e a5 49 91 3e 28 25 0e 3e 3e 13 c7 3e
       0.3464577 0.283765 0.13881361 0.38881868
000010 79 bb de be 52 ca e1 3c 61 68 d1 be c5 5c b4 3e
       -0.43502405 0.027562294 -0.40899947 0.35227028
000020 d4 7b 8f 3e cc 45 13 3f 4b 68 43 3d b0 72 ab 3e
       0.2802416 0.57528377 0.047706883 0.33485937
000030 c2 b2 df be ea f6 22 3e 2e 2c 61 bf 40 07 16 3f
       -0.4369107 0.15914503 -0.8795804 0.5860481
000040 ea 39 c3 3e 59 98 98 be 42 01 e5 3e 97 f8 0f bf
       0.38130122 -0.29803732 0.44727522 -0.56238693
000050 a7 5c 6a 3d ca 5d 87 3d 62 37 14 bf 7e ce 41 be
       0.057217266 0.06609686 -0.5789701 -0.18926427
000060 2b f9 31 bd 10 03 32 bf 5b 57 e3 3e 5c 77 0d 3e
       -0.043450516 -0.69535923 0.44402584 0.13815063
000070 3d a3 1d bf 75 46 08 bd 49 8f ae bc 4b 23 41 be
       -0.61577207 -0.033270318 -0.021308558 -0.1886112
000080 68 f9 76 bb 05 9b 43 be fe c9 dc 3e 29 1e a1 3e
       -0.0037685279 -0.19102104 0.43122858 0.31468323
000090 60 bc 15 bf 61 94 e2 bd 1e e6 39 be bc cb dc 3e
       -0.5849056 -0.11063457 -0.18154189 0.43124187
0000a0 11 90 42 3f af 3c b7 3e 66 38 8c 3e 12 b1 e8 3e
       0.7600108 0.35788485 0.2738678 0.45447594
0000b0 87 38 84 bd a4 4b 26 3e 36 d6 76 bf 8e 33 2f 3d
       -0.06456094 0.16239792 -0.9642061 0.042773776
0000c0 22 cd d1 3e 55 c0 a4 3e bd 2a 03 bf 91 0d b2 be
       0.40976816 0.32177988 -0.5123709 -0.34775975
0000d0 39 9c ad 3e 0e d6 45 3e 42 0b 03 3e f2 20 26 be
       0.3390825 0.19319937 0.12797263 -0.16223505
0000e0 b0 39 2e 3e 22 c8 6a be 92 e4 bc 3d 52 54 f0 bd
       0.17014194 -0.22927907 0.09223284 -0.11734833
0000f0 f6 90 0f bd 2b 3f 14 bc d9 9f 82 3e 47 2a 40 bd
       -0.035050355 -0.009048264 0.2551258 -0.04691532
000100 af 8a 60 3e 62 56 cb 3d c7 5f f8 be eb 80 a7 be
       0.21927904 0.099285856 -0.48510572 -0.32715544
000110 8a 7d 98 3e ab ae f8 be 61 e8 b7 be 65 f5 e1 3e
       0.2978328 -0.4857076 -0.3591948 0.44132534
000120 0a 8b 9f 3d bc d6 c4 be 7e 8c d7 3d 2c b5 b8 bb
       0.077901915 -0.3844508 0.10524844 -0.0056368317
000130 09 e7 6c 3e 04 40 d0 3e bd a3 d5 bd 08 c7 f0 3c
       0.23135008 0.4067384 -0.10431621 0.02939178
000140 24 58 76 3e a3 34 03 3f da ca 07 bf 69 b7 92 be
       0.2405706 0.5125219 -0.530439 -0.28655556
000150 17 9d 64 bd 34 c5 fb 3d 3c bd ad 3e 3b d8 32 bc
       -0.055813875 0.12293473 0.33933437 -0.010915811
000160 1c 3d 95 3d f9 35 8a be ed 2d 7c ba d8 a4 34 3d
       0.07287046 -0.26994303 -0.00096198806 0.04410252
000170 9f 57 aa 3e 97 b3 7d 3e 61 a1 2a 3d ca f3 b5 bc
       0.33269975 0.2477554 0.04165781 -0.022210974
000180 08 c9 99 3d b4 c6 00 3e cd fc 87 3c 90 b0 6e be
       0.07509047 0.12575799 0.016600037 -0.23309541
000190 32 5c d9 3d 6f c7 f0 3e cd ae 1f 3f 31 84 60 3e
       0.10613288 0.47027156 0.623761 0.21925427
0001a0 06 e5 e5 3d a4 b8 0f be df ae 29 3e 7b f4 99 3e
       0.112253234 -0.14035279 0.16570614 0.30069336
0001b0 36 59 0b bf bc 0f 91 3e a0 21 1b bd 25 a3 a9 3e
       -0.54433 0.28332317 -0.037873864 0.33132282
0001c0 eb 3e 41 be 20 64 74 be 64 f0 fd bd b4 75 bb bd
       -0.18871658 -0.2386632 -0.123993665 -0.091533095
0001d0 45 e0 f3 be c2 19 0d be cd 7c f9 be 5d 8a a5 3e
       -0.47632042 -0.13779357 -0.48728028 0.32332125
0001e0 0d ae fc 3d 26 a7 81 3e 14 82 8e be 0d 06 8d 3e
       0.12337885 0.25322837 -0.27833617 0.2754368
0001f0 e3 61 df be a2 45 9d be 01 aa c7 bd 53 aa 59 3d
       -0.4362937 -0.30717188 -0.097492225 0.05314095
000200 bc bb 7b 3e c0 55 93 3c 2e 25 fc bd 7c 1c 0f bf
       0.24583334 0.017985225 -0.12311779 -0.5590284
000210 03 1c 5f 3c c0 1b 26 be 91 e9 1e bd 36 dd 9f 3e
       0.013617518 -0.16221523 -0.038796965 0.31223458
000220 4b 3d b6 bc 24 a4 92 3e db 42 7d 3e 14 37 da bc
       -0.022246024 0.28640854 0.24732535 -0.026637591
000230 ca 7a a2 3e 93 75 c7 bd 6f 89 88 be 6a 42 69 3f
       0.31734306 -0.097392224 -0.26667354 0.91116965
000240 a7 fb ee be ac 7e a6 3e de 4a 5b 3f f3 7d 7d bb
       -0.4667637 0.32518518 0.85661113 -0.0038679808
000250 6f b9 28 3f 89 a4 08 bf 7c 50 60 bd 14 ce 91 3e
       0.6590795 -0.5337606 -0.054764256 0.28477538
000260 70 ea b7 3e b7 63 90 bd 7a 65 57 be fb 28 a9 3e
       0.3592105 -0.07050269 -0.21034804 0.33039078
000270 d7 1a 41 bf 33 87 26 3b 57 99 24 3e 01 38 28 3d
       -0.7543158 0.0025410175 0.1607412 0.041069034
000280 f1 99 18 be d8 6b 82 be f2 ac e0 bc 7b 3b c1 3e
       -0.14902474 -0.25472903 -0.027426217 0.37740692
000290 9a a1 fb bb 21 73 02 bb 9b 1b e8 3c 84 34 b5 3d
       -0.0076791765 -0.0019905048 0.028333476 0.08847907
0002a0 22 ef 1f bf 6b 28 e3 3d db 80 65 3e 3a a5 b3 3d
       -0.6247426 0.110916935 0.22412436 0.08771749
0002b0 eb 60 7f bc d0 74 ac 3e f5 05 b9 3e 7f e2 48 3e
       -0.015587072 0.3368287 0.36137357 0.19617651
0002c0 b7 0c 8c 3e 9d ab 1a bf 06 77 1c bf a9 ad 3b 3f
       0.2735345 -0.6041811 -0.61119115 0.7331186
0002d0 21 41 80 bd b5 db 79 3e 06 62 89 3e 3d ae 87 be
       -0.06262422 0.24400218 0.26832598 -0.2650012
0002e0 b5 a2 db 3e 45 2b 9a be 3a 21 d8 3d bd 28 ea bd
       0.42897573 -0.30111137 0.105532125 -0.114335515
0002f0 6f 3c 2d 3e d2 e7 d0 be d5 4e e6 3e ce 6f 83 be
       0.16917585 -0.40801865 0.4498202 -0.25671238
000300 d4 1e f5 3d 07 4f df 3c a2 49 b2 3d 01 d5 00 3f
       0.119687706 0.027259363 0.087054506 0.5032502
000310 8b 0d dc be f0 5f 22 be 33 65 f3 3e e5 aa 7e bd
       -0.42979082 -0.1585691 0.47538146 -0.062174696
000320 27 18 03 3c ce 4d 5e 3e 7f 95 58 be cf a4 10 bf
       0.008001364 0.21709368 -0.21150778 -0.5650148
000330 af c1 23 bf ca 0c e2 3d 65 a3 12 3f f2 c4 1e 3e
       -0.6396741 0.110375956 0.5728057 0.15504816
000340 95 f2 bf bd 60 c0 44 be 11 4a 1d 3f f8 a5 a0 3e
       -0.09372441 -0.1921401 0.6144114 0.31376624
000350 4b f2 2f 3e 12 90 3e 3d 83 9b 0f 3f 2c e5 cc bd
       0.17182271 0.046524115 0.5609667 -0.100046486
000360 7f fd 39 be 74 30 0f 3f cd 9d bd 3d 19 26 04 3f
       -0.18163107 0.5593331 0.09258614 0.5162063
000370 56 55 91 be 3a db 31 3e df 71 77 be 69 bb 39 bd
       -0.2838542 0.17368785 -0.24164532 -0.045344744
000380 b8 80 5b 3e e3 ea d2 3e 4d 16 28 3d 7a 95 3f 3f
       0.21435821 0.4119483 0.041036893 0.7483746
000390 9b ed cc 3b 19 5c 5d be ad 08 39 be 2c c0 eb be
       0.0062539107 -0.21617164 -0.18069716 -0.46045053
0003a0 3c db 10 3d 2a 80 f2 3d 79 af 15 3f 0e 1c a1 bd
       0.03536533 0.118408516 0.58470875 -0.07866679
0003b0 07 9e 51 be 45 62 be bd 78 19 03 3e 2c d5 f9 be
       -0.20470439 -0.09296087 0.12802684 -0.4879545
0003c0 08 5b bc be a1 2d fb be c5 95 14 3f cd f8 05 bf
       -0.367882 -0.4905825 0.5804103 -0.52332765
0003d0 4c 02 f7 3d c4 e6 e0 be 68 da 2c 3f d6 65 13 bc
       0.12060985 -0.4392606 0.6752076 -0.008996448
0003e0 24 c2 27 be 34 93 1f 3e e1 4c da bc ea ca c3 be
       -0.16382653 0.15583497 -0.026647987 -0.3824075
0003f0 ed e8 3a bf 14 1b 2f bf ab 2a 18 bf 96 5e 6c bd
       -0.73011667 -0.6840069 -0.59440106 -0.05770739

network_body._body_endoder.seq_layers.0.bias f4 [128]
000000 24 a3 7e 3d 86 1f 91 3d 11 7b c3 bc af ff 82 bd
       0.0621673 0.07086091 -0.023862394 -0.06396424
000010 d7 cd e7 3c 20 b7 e8 3c f4 f1 14 3d 43 ba 6e 3d
       0.028296394 0.028407633 0.036363557 0.0582831
000020 2d ef 83 3d c3 87 47 bd 12 9c ac 3c 32 6e 58 3d
       0.064421035 -0.048713457 0.021070514 0.052839465
000030 98 a2 7d bd ae 6a 84 3c a5 2b 94 bb 33 83 36 3d
       -0.06192264 0.01616415 -0.0045218044 0.044558715
000040 82 7d 1a 3d 27 6f 8d bc a9 66 82 3d 94 2c 61 3d
       0.03771735 -0.017264916 0.06367237 0.054974154
000050 e2 dd 33 3c a4 29 ec 3c 4a 81 21 3c 79 43 29 3d
       0.010978194 0.02882845 0.009857485 0.041324113
000060 af a5 86 3d de d8 24 3d 80 47 40 3d b4 f2 1e bd
       0.065745704 0.040245883 0.046943188 -0.03880568
000070 f8 74 1e bd 4c 47 5f 3d 7a 95 8e 3d 2b 56 8a 3d
       -0.03868577 0.054511353 0.06962104 0.067547165
000080 18 d0 7a 3d 99 60 7d 3c 63 b6 88 3c 75 96 c0 3c
       0.06123361 0.015464925 0.016688531 0.023509244
000090 85 0d 8a bc a3 db a4 bc 8a e5 40 3d 90 51 a2 3c
       -0.01685215 -0.020124262 0.047093906 0.019814283
0000a0 65 76 88 3d 4d 33 29 bd e6 1c 96 3d 11 54 33 bd
       0.06663207 -0.04130869 0.07329731 -0.043781344
0000b0 4e 32 a9 3c df dd 0d 3d 5d c7 30 bd ba ce 26 3d
       0.02065387 0.03463542 -0.043158878 0.040724494
0000c0 6e 4f e9 bc 81 31 4c 3d 08 ab 8f 3d d3 b5 6b 3d
       -0.028480258 0.049851898 0.070150435 0.057546448
0000d0 35 36 ba 3d 16 2c 8d 3c ff e1 95 3d 79 6c 8c 3c
       0.090923704 0.017232936 0.07318496 0.017141568
0000e0 c9 83 64 3d bf b9 82 3d 6c 0e 6a 3c d3 f3 66 bb
       0.055789743 0.063830845 0.014285665 -0.0035240545
0000f0 33 3b 26 3d 7d 07 a7 3d f4 c5 da 3c 10 25 03 3c
       0.0405838 0.08155725 0.02670572 0.008004442
000100 52 cf 47 bd 5b 12 ac 3c 49 02 6a 3d f9 d3 95 3d
       -0.0487817 0.021004846 0.057131086 0.07315821
000110 43 36 26 3d 81 0b 81 3d b3 fa c4 bb 0b cc 81 3d
       0.04057909 0.06301022 -0.006011331 0.06337746
000120 76 25 81 3d 14 c8 a7 3c c1 6d 0e 3c 57 66 f9 bc
       0.06305973 0.020481147 0.00869316 -0.030444307
000130 51 8a 1a 3d a9 04 03 bd ef 6d 1f 3d 51 22 97 3d
       0.037729565 -0.031986866 0.0389232 0.07379592
000140 14 d7 93 bb 33 52 2d 3d 24 67 56 3d 9e fc 6e bd
       -0.0045117233 0.04231472 0.052344456 -0.058346383
000150 51 ab d1 3c 8f 3a ba 3c b9 04 c1 bc 82 24 0a bd
       0.025594385 0.022733001 -0.023561822 -0.033726223
000160 26 17 84 3d da 10 f5 bc 41 86 62 bd bf 11 80 3c
       0.06449728 -0.029915262 -0.055303816 0.015633462
000170 af e4 8f 3c ae 29 9b bc 56 2f 91 3d 34 f7 82 3d
       0.0175651 -0.018940773 0.07089107 0.063948065
000180 98 d1 92 3d f6 49 9c bc ca 12 87 3d 8b 51 47 bd
       0.07168883 -0.019078236 0.065953806 -0.04866175
000190 ab 0d 08 3c 0b bf 7c bd 67 c2 aa 3b cc c9 02 bb
       0.00830404 -0.06170563 0.005211163 -0.0019956706
0001a0 3f 99 b3 3d 54 02 19 3d 0b dd 8b 3c b9 10 05 3d
       0.08769464 0.037355736 0.017073175 0.03248665
0001b0 93 25 01 bd 51 b0 88 3d c9 c0 71 3d e2 5b 1a 3d
       -0.031529974 0.06674255 0.059021745 0.037685283
0001c0 72 59 77 bc 84 bf 91 3d 31 c7 90 3c 06 e0 0f bd
       -0.015097009 0.07116607 0.017673107 -0.035125755
0001d0 5b cd ce bc 4a ea 07 bc 2e cf 1c 3d 70 5a 8d 3b
       -0.025244405 -0.008295605 0.03828352 0.0043137595
0001e0 1b db b9 bb 22 9d 53 3d fa 2d 84 3d d8 aa ff 3c
       -0.0056718714 0.051663525 0.06454082 0.031209394
0001f0 f3 84 21 bd 08 6e 17 3d e0 26 15 3c 9e d3 4b 3d
       -0.03943343 0.03697017 0.009103507 0.04976236

network_body._body_endoder.seq_layers.2.weight f4 [128, 128]
000000 4a d8 c2 bc ee 9c 82 3e 81 2f 7f 3e 35 2c c6 3d
       -0.023784775 0.25510353 0.24920465 0.096764006
000010 57 5e 08 bd 9c d9 8e bd 6b 1a 27 3d a2 5c ad bd
       -0.033293094 -0.069750994 0.04079668 -0.08464934
000020 8d 56 af 3d 3d ba 19 be 30 74 50 3e 80 cd f4 bc
       0.0856143 -0.1501245 0.20356822 -0.029883146
000030 41 e0 68 3d 8b bd 06 3b b2 d3 0f be 49 83 6d 3d
       0.05685449 0.0020559754 -0.14045599 0.05798653
000040 0e a5 ca 3d 79 e1 aa 3c b9 4b f5 3c 0f 92 58 bd
       0.09894763 0.020859467 0.029943334 -0.052873667
000050 fb 7f 57 3d ab ae 82 ba 62 28 27 bd ae d4 8d bb
       0.052612286 -0.0009970268 -0.040809996 -0.004328332
000060 59 4b a9 bd af cc 62 bd ce 0d 3c bd 9d 4f 4f bd
       -0.082663245 -0.055370983 -0.045911603 -0.050613035
000070 b4 4e f9 bc f1 b9 5e bd 48 31 af 3d 51 3b 06 be
       -0.030433036 -0.054376546 0.085543215 -0.13108565
000080 3e e2 86 bd ac 0d df bd 6f 72 8b 3d 23 ef 5c bc
       -0.06586121 -0.108912796 0.06808936 -0.013484749
000090 0a 87 33 bd e0 34 3c bd 19 d7 00 3e 5a dd 99 bc
       -0.043829955 -0.045948863 0.12582053 -0.018782306
0000a0 2f 21 0b 3e 69 0f 73 3e 1f 51 01 be 8b 70 27 bd
       0.13586877 0.23736347 -0.12628601 -0.040878814
0000b0 df db 39 3c 45 25 34 3e 67 73 e0 bd a1 af 97 bc
       0.011343925 0.17592342 -0.10959511 -0.018516364
0000c0 33 99 c5 bd 5b 6d b7 bd 43 30 87 3d 1b 5a fb bc
       -0.09648361 -0.08956405 0.06601002 -0.030682614
0000d0 a7 f1 ca bc 24 3c f5 bc 0a fa 71 3d f5 48 25 be
       -0.024773432 -0.029935904 0.059076346 -0.16141112
0000e0 af b6 6c bd 19 09 ea bd 00 7a 9d bd 6a e5 ab 3b
       -0.05779141 -0.114275165 -0.07689285 0.005245854
0000f0 17 46 43 3c ba fc f1 3d 7b 59 46 bd 9f 2f b3 3d
       0.011918566 0.11815782 -0.04842518 0.087493174
000100 02 be 65 3e 6a 23 62 3d 88 58 e4 bd 8c 66 9d bd
       0.22435763 0.055209555 -0.111496985 -0.07685575
000110 63 0e e0 3d 80 e3 42 ba 2a 87 c1 3d 4f 21 fd ba
       0.10940244 -0.0007434413 0.094496086 -0.0019312295
000120 17 92 85 bd 58 b9 b3 bd e0 90 59 bd c2 ea d3 3d
       -0.06522005 -0.08775586 -0.05311668 0.10347511
000130 40 71 84 bc f1 c8 a0 bd 66 cd 69 be 1b 90 52 be
       -0.016167283 -0.078508265 -0.2283226 -0.20562784
000140 41 cc 0c 3d be 32 b4 3d 5e e9 e2 3c 0d 6e d3 bd
       0.03437448 0.08798741 0.027699169 -0.10323725
000150 c0 14 81 3d 3d 99 5a 3d 07 59 85 bd b3 d5 e0 bd
       0.06302786 0.053368796 -0.06511121 -0.1097826
000160 a6 84 1f bd 05 9e ca 3b 77 f2 d0 bd 0f cd 61 3d
       -0.038944863 0.006183388 -0.102024965 0.0551272
000170 23 0e 17 3d 0f e6 84 3c ae a7 9a 3d 9c 14 1a bc
       0.036878716 0.016222982 0.075515136 -0.009404328
000180 cc f3 03 3e e8 80 24 3c 11 6e a2 3d 30 58 0f 3e
       0.1288597 0.010040499 0.0793115 0.13998485
000190 26 b6 9c 3d b1 62 1a 3e 8f 68 da bd c5 31 df bd
       0.076519296 0.1507671 -0.10664474 -0.10898165
0001a0 09 f1 15 3e 7f 94 39 be ec 48 36 3d 79 26 25 3d
       0.14642729 -0.18123053 0.044503137 0.040319894
0001b0 57 78 3d bd f4 ce 78 be 9c 2a e7 bc 1d 10 01 3e
       -0.046257343 -0.24297696 -0.02821856 0.12603803
0001c0 dc 82 13 3d de 4a c1 bd 16 a1 05 3e 03 d7 16 be
       0.03601347 -0.09438108 0.1304973 -0.14730458
0001d0 8a 2f 33 3e a4 9a 1e 3d 25 6a 56 3d 22 52 6d 3e
       0.17498603 0.038721696 0.05234732 0.23175862
0001e0 e7 dc 3d be 01 e5 c4 bd 18 55 cf 3d de c7 e2 3d
       -0.18541299 -0.096139915 0.10123652 0.11073278
0001f0 24 92 87 bd 6d 02 66 3e bb 02 72 3d 7b 28 ca 3b
       -0.06619671 0.22461863 0.059084635 0.0061693764
000200 4d 35 6b bc 0c 76 6b 3e 17 e0 09 be eb b5 73 bd
       -0.01435597 0.2299425 -0.1346439 -0.059499662
000210 40 f5 35 bd 31 28 30 bd 78 69 6e 3b df 7f 62 be
       -0.04442334 -0.04300708 0.0036378782 -0.22119091
000220 da b7 29 3d 7d ec 9c bd 3b 62 97 3c e9 28 10 3e
       0.0414351 -0.07662294 0.018479457 0.14078106
000230 2f ac fa bc dc fb 0f bd 44 d5 25 bc 14 c2 f9 bd
       -0.030599682 -0.0351523 -0.010121647 -0.121952206
000240 70 56 55 3e e3 50 e1 3b 7f 04 05 be 08 6c 3d 3a
       0.20833755 0.0068760975 -0.12989996 0.0007225876
000250 f7 60 57 3d 21 14 c9 bc 65 5f c8 bc 68 8c 8d bd
       0.052582707 -0.024545731 -0.02445955 -0.06911546
000260 c2 98 4a bc 24 a4 73 3d 57 65 de 3d ab 17 70 bc
       -0.012365522 0.05948271 0.10859173 -0.01465408
000270 98 58 d0 bd 6b 16 05 be 95 5e 07 3e 5e 74 36 be
       -0.10173148 -0.12996833 0.13219674 -0.17817828
000280 5b 9f 83 be 19 3c 0f 3e bb 1f 7f 3e 9c 40 f7 bd
       -0.25707516 0.13987769 0.24914448 -0.1207287
000290 a3 1b c7 3c 48 a6 89 3d ff a8 ab 3d e7 04 1e bd
       0.02430517 0.06721169 0.08381843 -0.038578894
0002a0 2c 16 e6 3d ac 11 fb 3d bd 6a 83 3c 32 2f 08 3d
       0.11234698 0.1225923 0.016042108 0.033248134
0002b0 b8 2e 39 bd fb 84 7b 3d 23 4c b9 bd d2 ba 23 bd
       -0.04521057 0.061406117 -0.09047725 -0.039973088
0002c0 6f 7e 85 bd eb 4e c3 bd c8 53 e1 3d f5 4b 4f 3d
       -0.06518256 -0.09536537 0.11002308 0.050609548
0002d0 8e 8b 01 be b2 cd 06 3e 0f f5 94 bc 30 b9 3d 3d
       -0.12650892 0.13164404 -0.01818326 0.046319187
0002e0 f5 42 ca bc 33 47 55 be 91 f2 15 bd 3a db c2 bd
       -0.02469013 -0.20827942 -0.036608282 -0.095144704
0002f0 2b f9 e2 3c e6 80 2e 3d d0 fc 24 3e 04 d6 02 be
       0.027706703 0.042603396 0.16112065 -0.12776953
000300 20 19 34 bc 9c 0c 66 bd 4a 7c 35 3d 6d 3a 50 bd
       -0.010992318 -0.05616437 0.044307984 -0.05083697
000310 77 29 a2 bd 83 35 8a bd 83 4e a9 bd 50 bd 86 3e
       -0.07918065 -0.06748488 -0.08266928 0.2631631
000320 94 80 74 3e 78 cf 31 be a9 47 bc bd d2 81 88 be
       0.23877174 -0.173643 -0.091933556 -0.26661545
000330 a4 1d 19 3e 50 8a 1e bd 51 ab 7a bd 36 41 92 3d
       0.14952713 -0.038706124 -0.061198536 0.07141344
000340 d5 8e 10 be 56 71 c5 3d 21 af 86 bd 0d 45 0c be
       -0.14116986 0.09640758 -0.06576372 -0.13698216
000350 bd 81 2c bc 08 ca 53 3e 36 56 e3 bd 76 1a b4 3c
       -0.010528979 0.20682538 -0.11100428 0.021985274
000360 bb a1 ea bd 4a 43 fb 3d 40 45 5f 3d ef a3 60 bd
       -0.11456629 0.12268694 0.0545094 -0.05484384
000370 0d 0c 29 3e bb fc bf bb 0e e5 b5 bd 57 ed 00 bb
       0.16508503 -0.0058589852 -0.08881579 -0.0019672716
000380 f8 a7 42 3e e4 ea 6b be ce 30 5c 3d 55 ed c2 3c
       0.19009387 -0.23038822 0.05375748 0.02379481
000390 39 df 7b bc cb fe e9 3d 46 a3 52 bd 19 68 62 bd
       -0.015373045 0.11425551 -0.05142524 -0.055275057
0003a0 0b 9a 1b 3e b0 23 0d be 28 e8 c4 3d e8 5c dc 3d
       0.15195481 -0.13783145 0.09614593 0.10759908
0003b0 12 26 43 bd d0 c8 71 3d dd 68 a6 bd 18 c3 4c 3d
       -0.04764373 0.0590294 -0.0812547 0.049990743
0003c0 3c 8f ac 3b 9d 97 d9 bb c7 df bd bc 67 fd 92 be
       0.0052660983 -0.006640388 -0.023177994 -0.28708956
0003d0 18 90 b8 3d c9 aa 39 3e 57 fa bd 3d 6e 15 34 3d
       0.09011859 0.18131556 0.09276264 0.04396575
0003e0 76 11 ee bc 18 7b 9f bd d7 82 f6 3d df 56 05 3e
       -0.02906106 -0.0778715 0.120366745 0.1302142
0003f0 50 30 ea bc e5 a1 f3 3d f4 45 67 bd 85 c3 9c bc
       -0.02858749 0.11896113 -0.056463197 -0.0191362

network_body._body_endoder.seq_layers.2.bias f4 [128]
000000 c9 3e 85 3c 43 3e 2a 3d 73 44 20 3d da 8e 09 3d
       0.01626529 0.041563284 0.03912778 0.0335835
000010 69 c4 38 3c cd a7 29 3d 2f aa a9 3b 89 3c 7a bc
       0.011277297 0.041419793 0.005177758 -0.015273222
000020 cd 90 d7 3c 92 c4 2e 3d 35 23 52 bc 1e 0b d5 3b
       0.026314164 0.042667933 -0.012825777 0.0065015694
000030 00 d5 1d 3d b4 91 f0 3c 17 1c 56 bc 36 17 b4 bc
       0.03853321 0.029366352 -0.013068221 -0.021983724
000040 cc 2f 23 3d c2 c9 fd 3c f2 79 3e 3c 9c bd 8f bc
       0.039840505 0.030979995 0.011625754 -0.017546467
000050 55 c5 f8 3c a8 9a 12 3d 26 f2 50 3d 17 cc 1f 3d
       0.030367533 0.035792023 0.05101218 0.039012995
000060 33 e3 30 3d ec f5 17 3d a7 b9 47 3d 60 62 12 3d
       0.043185424 0.037099764 0.048761036 0.03573835
000070 86 10 2f 3d fb 1a 29 3d 2a b8 17 3d 2d 5e 94 3c
       0.042740367 0.041285496 0.037040867 0.018111313
000080 61 72 1f 3d a8 17 22 3d 65 95 3a 3d ba 39 7c 3c
       0.03892744 0.03957334 0.04555263 0.015394622
000090 19 0a 43 bc 8b 47 1a 3d bc 90 cd 3c 1b 0a 25 3d
       -0.011904263 0.037665885 0.025093429 0.04029284
0000a0 fe a0 90 3c 54 ba fd 3c 2f 82 38 3d a0 0d e9 bb
       0.017654892 0.030972637 0.045046028 -0.00711222
0000b0 e6 31 95 bc c0 80 c0 bc ad 2c f4 3c 9f 37 dc 3c
       -0.01821227 -0.023498893 0.02980646 0.026881991
0000c0 81 fe fd 3c 7d d0 0d 3d de de 71 3d db fe 18 3d
       0.031005146 0.034622658 0.059050433 0.037352424
0000d0 c5 03 b3 3c a3 36 25 3d d9 f9 6d 3c 04 ea 8f bc
       0.021852383 0.04033531 0.0145249 -0.017567642
0000e0 9d e6 cf 3c b7 6e fb 3c f8 58 86 3c 6b ba 03 3d
       0.02537852 0.030692441 0.016399845 0.032160204
0000f0 f5 e2 90 3b 24 3b bd 3c 82 7c 7c bb c0 96 65 bc
       0.0044215866 0.02309949 -0.003852636 -0.014012992
000100 80 9b 05 3d 2c 82 f7 3b b4 1e 2a 3d 2d 09 82 3d
       0.032619 0.0075533595 0.041533187 0.063494064
000110 2d 6a 38 bc ca 60 62 3d ba fd 4f 3d 6c 0f cb 3c
       -0.011255783 0.055268086 0.050779082 0.024787627
000120 e9 01 3f 3d a9 b3 b0 bc f9 17 a9 3c b9 af 21 bb
       0.04663268 -0.021570044 0.020641314 -0.002467139
000130 24 3f 1b 3d 9c 94 fb 3c 93 05 25 3d c2 98 c1 bc
       0.037902012 0.03071051 0.04028852 -0.02363241
000140 1e 2c e6 3c 7c 32 28 3d da 1f c0 3c a7 dc 82 bc
       0.028097209 0.04106377 0.023452688 -0.015974356
000150 c6 99 da 3c a9 1b a9 3c db 99 18 3d 2f 4a c5 bc
       0.026684653 0.020643072 0.037256103 -0.024083225
000160 09 9a 81 bc b0 04 b8 ba 67 5c 51 3c e7 a8 86 bc
       -0.01582052 -0.0014039483 0.012778378 -0.01643796
000170 fb 91 12 3d 7c 29 41 3d 9d b7 a0 bc 3a 08 87 bc
       0.03578375 0.047158703 -0.019618804 -0.016483415
000180 89 09 10 3d 65 4c 93 3c 45 e6 dd 3c 62 6a 90 bc
       0.035165343 0.017980764 0.02708734 -0.017628852
000190 33 35 ac 3c cc a8 0b 3d 2c d9 2f 3c ca 1b c4 3c
       0.021021461 0.034096524 0.01073293 0.023939032
0001a0 d7 c1 d0 3c 7f e3 38 bc 29 58 2c 3d ad a0 39 3c
       0.025483055 -0.011284708 0.042076264 0.011329812
0001b0 3a 14 1f 3d e4 85 3e ba 98 a4 f6 3c eb 43 00 3b
       0.03883765 -0.0007267876 0.030107781 0.0019571732
0001c0 ac b1 12 3c 62 ad 1c 3d 73 be 29 3d 1a 3f 38 3d
       0.008953493 0.03825129 0.041441392 0.044982053
0001d0 c2 f1 c9 bc 45 cb 16 3d 25 16 38 3d 31 e8 2a 3d
       -0.024651412 0.036814947 0.044942994 0.04172534
0001e0 b5 e0 2d 3d a3 d2 82 3c 5b 8a 2c 3d c0 a8 0b 3d
       0.042450625 0.01596958 0.042124134 0.03409648
0001f0 1e 03 86 bc 7b e7 1d 3d 0e 01 14 3d 65 7f 97 bc
       -0.016358908 0.038550835 0.03613382 -0.018493364

action_model._discrete_distribution.branches.0.weight f4 [4, 128]
000000 0d a8 9f bc 55 3a a1 3c d4 65 05 bd d4 4c 26 bb
       -0.019489313 0.019681135 -0.032567814 -0.0025375383
000010 7f 0f 65 bc a8 1d 55 bd 92 9f 34 3c 9d 51 df 3c
       -0.013980745 -0.052030236 0.011024373 0.027260596
000020 56 af 6d bd 09 58 29 bd d1 18 08 3d 74 d2 91 bb
       -0.05802854 -0.041343722 0.03322679 -0.004450137
000030 a2 96 50 bc 6d 47 ea 3c ea 81 eb 3c d1 53 f9 3b
       -0.012731226 0.028598512 0.028748471 0.0076088686
000040 57 af 9b bc ee 03 ff bc 22 88 31 3c d7 96 f2 3b
       -0.019004507 -0.031129804 0.010835679 0.0074032354
000050 c9 11 e2 bc 32 b3 de bc 37 5d ac bc 8c 25 3f bc
       -0.027596371 -0.027185056 -0.021040542 -0.011666667
000060 88 b1 25 bd 7d 56 63 3c c7 3b 0b bd 14 34 c0 bc
       -0.04045251 0.013875601 -0.033992555 -0.023462333
000070 f5 76 cc bc 7e a7 4f 3b 26 1d 7b bd fb b8 7e 3c
       -0.024959067 0.0031685526 -0.061307095 0.0155470325
000080 63 97 d5 bc 8f 0e 16 bd 7a 85 2e bd 10 b6 91 3c
       -0.026073163 -0.036634978 -0.042607762 0.01778701
000090 69 fe 86 3c 80 04 26 bd da 3d 46 bc ae 8c 0a bb
       0.016478734 -0.040531635 -0.0120997075 -0.002114098
0000a0 32 df db 3a fe 76 55 3c b5 8b 8c bb 92 07 a8 bb
       0.0016774891 0.013028858 -0.0042891153 -0.0051278556
0000b0 2d aa bf 3c 2b 96 a8 3c 90 3d c4 3c 86 e2 3f 3b
       0.023396576 0.020579418 0.023955137 0.0029279306
0000c0 fd 75 7a bd c3 46 d4 bc 13 84 b6 bc b7 5e 4c bd
       -0.06114768 -0.025912648 -0.022279775 -0.049895015
0000d0 c4 b5 1f bd ad 2d 1f bc b0 a6 91 bb b9 cd b9 3c
       -0.038991705 -0.00971548 -0.0044449195 0.022681104
0000e0 3b 23 c5 bc e5 14 6c ba 61 81 3c 3b 56 88 97 bc
       -0.02406465 -0.0009005799 0.002876364 -0.018497627
0000f0 5e 44 66 3b d1 a3 b6 bc 1f ba d4 3c 0b 41 b0 3c
       0.0035135965 -0.02229491 0.025967656 0.02151539
000100 4e a3 5c bd b1 c5 8a 3c c8 5e 26 bd 6d 6c 03 bb
       -0.053866677 0.01693997 -0.040617734 -0.002005364
000110 bd c8 f6 bc 09 4e 11 bc 47 5d 94 bc 83 4b 51 3c
       -0.030125016 -0.008868703 -0.018110884 0.012774351
000120 a2 47 75 bc 91 18 27 3d da ba 96 3c d5 75 4e 3c
       -0.014970692 0.040794913 0.018399645 0.0126013355
000130 17 55 f4 bc 8a 7f a5 bc 46 c2 39 bc 5c 6a d9 3c
       -0.02982573 -0.020202417 -0.011337822 0.026539974
000140 bf ed b8 3c 3d 2a e4 bc 8b 35 4d 3c 5d 61 73 3c
       0.022574304 -0.027852172 0.012524973 0.014854756
000150 9d 76 49 bd 9f 98 b5 3b 82 3d 8d bc 7d 9c 57 bb
       -0.049185384 0.0055418755 -0.017241243 -0.003289967
000160 86 bb 9c 3c 41 96 27 bc 1a a5 0e bd 70 78 fb 3c
       0.019132387 -0.010228694 -0.034825422 0.030697078
000170 e8 91 98 bc b1 26 13 bd 7c 3e 2a 3b 8e 5f 85 3c
       -0.018624261 -0.03592557 0.0025977185 0.016280916
000180 cf f1 07 bc b1 3f 02 bc f2 bc b2 bb 53 cd 5a 3c
       -0.008297398 -0.0079497555 -0.005454653 0.013354617
000190 b6 ff b1 3a 32 7a 3d bd 76 fd 09 3d 68 79 be 3b
       0.0013580236 -0.046259113 0.033688985 0.0058128126
0001a0 f5 db 6b bc 9e 09 03 3d ce f5 a8 bc 66 ae eb 3b
       -0.014395704 0.031991594 -0.020625021 0.007192421
0001b0 c5 ef 20 bc 3c 54 1a 3c ff a8 12 bc a9 91 7c 3d
       -0.0098227905 0.009419497 -0.008951425 0.06166235
0001c0 ab 8c eb bc 66 da 15 bd c5 23 0e bc fa 7a fe bc
       -0.0287536 -0.036585234 -0.00867552 -0.0310645
0001d0 2e f7 bd 3b 1b be d1 bc 93 30 95 bb 5f 82 d1 bc
       0.0057972884 -0.025603345 -0.0045529096 -0.025574861
0001e0 90 d8 6d bd a0 a7 db b7 c6 be f0 bc 36 f0 0b bd
       -0.05806786 -2.618489e-05 -0.029387843 -0.03416463
0001f0 d3 c7 5b 3c 2d 63 02 3b 75 13 08 bc 15 3c cb 3b
       0.013414341 0.001989554 -0.00830542 0.0062022307
000200 8e 52 6c 3c 69 cb 15 bd b3 03 42 bd ff 0a af bc
       0.014423979 -0.03657094 -0.04736681 -0.021367548
000210 e7 4f 10 3c f9 dd 7b bb 45 ad 3c 3d a9 0e ec 3c
       0.008808113 -0.0038431867 0.04606368 0.028815584
000220 3e 97 b8 bb 39 4f 70 bd 41 99 df 3c bf 74 b2 bc
       -0.005633264 -0.058669303 0.027294757 -0.021784185
000230 47 e1 37 bd 69 be 3f bd e4 b5 ce 3c b7 59 17 3d
       -0.044892576 -0.04681245 0.025233217 0.036950793
000240 ad 6f 20 bd 01 47 40 bd 22 d0 25 bd 21 62 f9 3c
       -0.039169002 -0.046942715 -0.040481694 0.0304423
000250 d2 f8 25 bd 51 88 36 bd 7d db 10 bd c2 b5 78 bd
       -0.040520497 -0.044563595 -0.03536557 -0.060720213
000260 62 c8 be bc b5 fb 92 bd 96 cc 02 bd 63 8a 01 bd
       -0.02328891 -0.071769156 -0.03193339 -0.031626116
000270 33 51 ff bc d5 5a 76 bd 45 c3 f0 39 4f 7a 1b bd
       -0.031166648 -0.060145218 0.00045921854 -0.03795844
000280 f7 39 32 bd 4a 8a 25 bd df f7 3c bd 22 ad 33 bd
       -0.04351231 -0.040415086 -0.046134826 -0.043866284
000290 79 a2 18 3d 0c 07 18 bd 91 11 e0 bc d8 18 4d bd
       0.03726432 -0.037116095 -0.027352126 -0.05007252
0002a0 2c c2 37 bd 4d 92 5b bd 90 ca 7b bd 20 86 1d 3d
       -0.04486291 -0.05360632 -0.061472476 0.03845799
0002b0 ac 7e 13 3d 14 03 57 3d 8b b0 e3 3b 01 54 2f bd
       0.036009476 0.05249317 0.006948536 -0.04280472
0002c0 77 bc 58 bc 66 ea b0 bc 87 5f a7 bc 0c e4 ee bc
       -0.013228527 -0.021596145 -0.020431293 -0.029161476
0002d0 1f 59 41 bc 79 66 75 bd 3f 02 0d 3d 90 48 c2 3c
       -0.011801033 -0.05991218 0.03442597 0.023716241
0002e0 f0 37 54 bc 19 f1 62 bd 42 2f 9d 3c 00 a3 08 bd
       -0.01295279 -0.05540571 0.019187573 -0.033358574
0002f0 a9 48 f4 3a b4 86 0b bd 79 1d 07 3d ad 8e fd 3c
       0.0018637377 -0.03406401 0.03298709 0.030951822
000300 75 82 5b bc e8 65 e6 3c 28 b0 83 bc 8b 88 1a 3b
       -0.013397803 0.028124765 -0.016075209 0.002357992
000310 1c ce 12 3d 1d 7d 7d bd f0 a2 70 bd 46 14 15 bd
       0.035841092 -0.061886895 -0.05874914 -0.036396287
000320 36 c9 83 bd 72 54 75 ba 6f 68 07 bd a1 9e d8 3c
       -0.06434862 -0.00093585916 -0.03305858 0.026442828
000330 fa 87 6f bd 43 4b cb 3c f5 0e 7a bd da 2a 1a 3d
       -0.058479287 0.024816161 -0.06104942 0.037638523
000340 1c ee 37 bd 65 8e 59 bd c5 96 67 bd 82 b8 0d 3d
       -0.044904813 -0.053114314 -0.05654027 0.03459979
000350 80 25 b5 3b 02 6e 24 bd 56 fc 20 bd 8e 53 57 3d
       0.005528152 -0.040143974 -0.039303146 0.05256992
000360 45 f4 b1 3c 77 c4 f5 3c 59 dd c3 3c a1 04 c5 3c
       0.021722922 0.030000908 0.023909258 0.024050059
000370 ff 31 98 bb fb 1b 78 bd 0d 87 4e 3d 41 8c 14 3d
       -0.004644632 -0.06057356 0.050421763 0.03626657
000380 5f cb 39 bd c5 47 da bc 0b aa 45 bd 7d 8f 05 3d
       -0.045359965 -0.02664555 -0.04825787 0.032607544
000390 00 86 73 bd 78 fe 87 3b 06 7e 44 bd 4a f8 16 bd
       -0.059453964 0.004150208 -0.047971748 -0.03685788
0003a0 83 75 45 bd 5a f2 08 3d 24 00 82 bc d8 ec 4d bd
       -0.04820777 0.03343425 -0.015869208 -0.0502747
0003b0 bd 7e 7f bd ac d8 d4 3c 93 ec 20 bd a6 bb 4b bb
       -0.062376726 0.025982223 -0.039288115 -0.003108719
0003c0 13 87 c1 3c 2c 2b 47 bd 51 a5 cf bb bd 86 27 bd
       0.023623979 -0.048625156 -0.006336846 -0.04089998
0003d0 d0 ce 04 3d 2e a7 df bc ba 9c 39 bd b9 37 41 bd
       0.032423794 -0.027301397 -0.04531548 -0.047172282
0003e0 3d ac b5 bb a7 1b 20 bd f5 0e 43 bd 1b 94 e9 bc
       -0.005544214 -0.03908887 -0.047621686 -0.028513005
0003f0 1b 51 3d 3d 2a e6 52 bd 7c 4a 7a bd c6 5c 00 3d
       0.046219926 -0.051489033 -0.06110619 0.031338476

action_model._discrete_distribution.branches.0.bias f4 [4]
000000 6c d3 8a bc 03 cd ee bc ce 60 99 3c 7f df b4 3c
       -0.016946517 -0.029150492 0.018722918 0.022079227

exp_avg f4 [128, 9]
000000 2c 69 9f b7 97 72 15 b8 3c fb b6 b7 2c 69 9f b6
       -1.9003252e-05 -3.563109e-05 -2.181308e-05 -4.750813e-06
000010 d0 dc 1d b8 b5 b7 c1 b6 8f be 08 b8 15 b7 fd 00
       -3.7637365e-05 -5.7732345e-06 -3.26024e-05 2.3300058e-38
000020 5d 64 03 b8 a3 67 00 39 52 c2 70 39 98 31 1e 39
       -3.1326304e-05 0.00012245639 0.00022960574 0.0001508653
000030 a3 67 00 38 24 0d 80 39 40 ed da 36 d9 ac 7a 39
       3.0614097e-05 0.00024423853 6.524526e-06 0.00023906249
000040 9a b9 aa 81 fc 36 53 39 71 2c 3d 35 aa 59 b1 35
       -6.271446e-38 0.00020143011 7.047266e-07 1.3213623e-06
000050 17 cd 55 35 71 2c 3d 34 17 d5 b7 35 0b 63 82 34
       7.964713e-07 1.7618164e-07 1.369658e-06 2.428645e-07
000060 06 eb a1 35 0f 32 02 80 73 0b 9c 35 53 1b ad b4
       1.2063836e-06 -2.01629e-40 1.1626238e-06 -3.2243642e-07
000070 9c 49 22 b5 38 be 34 b5 53 1b ad b3 d4 50 3d b5
       -6.045682e-07 -6.733203e-07 -8.0609105e-08 -7.0525607e-07
000080 48 62 53 35 0c 24 b8 b5 fd 40 2b 80 cb 21 0b b5
       7.8746643e-07 -1.3719559e-06 -3.97224e-39 -5.183071e-07
000090 10 3f 62 37 20 1b d4 37 fb 6b 89 37 10 3f 62 36
       1.3485333e-05 2.5285e-05 1.6381955e-05 3.3713332e-06
0000a0 2b 04 e2 37 7a b3 c8 35 bb ee d5 37 ed a5 11 80
       2.694324e-05 1.4953396e-06 2.5502746e-05 -1.620726e-39
0000b0 a8 24 ba 37 e1 86 97 36 73 0e 0e 37 5b c7 b2 36
       2.2189997e-05 4.5158527e-06 8.467224e-06 5.3280214e-06
0000c0 e1 86 97 35 29 bb 17 37 74 da 7d 35 f2 74 07 37
       1.1289632e-06 9.043878e-06 9.4567736e-07 8.0738555e-06
0000d0 0d 13 7f 80 43 8d f9 36 82 b2 81 37 b5 2e f3 37
       -1.1669942e-38 7.4372233e-06 1.5461123e-05 2.8989607e-05
0000e0 7e 5e 9d 37 82 b2 81 36 4a 59 01 38 dd 06 e7 35
       1.875986e-05 3.8652806e-06 3.0839154e-05 1.7212839e-06
0000f0 07 a7 f5 37 4f 23 38 80 2a 6f d5 37 99 63 29 b8
       2.9284054e-05 -5.155454e-39 2.5443343e-05 -4.0385497e-05
000100 5f cd 9e b8 72 97 42 b8 99 63 29 b7 d1 e7 a7 b8
       -7.5722804e-05 -4.639425e-05 -1.0096374e-05 -8.00636e-05
000110 36 2b 4d b7 f9 39 91 b8 8e ea 0c 01 13 9c 8b b8
       -1.2229013e-05 -6.924937e-05 2.5882224e-38 -6.6571076e-05
000120 71 5a 18 b8 cb d4 8e b8 a5 48 31 b8 71 5a 18 b7
       -3.6323854e-05 -6.8107234e-05 -4.2267744e-05 -9.0809635e-06
000130 19 42 97 b8 92 f6 1c b7 f7 d3 85 b8 47 e2 02 01
       -7.212553e-05 -9.355734e-06 -6.381416e-05 2.4039575e-38
000140 f2 0a 7b b8 29 a6 f5 b6 c9 4b 66 b7 70 0e 13 b7
       -5.9853257e-05 -7.3209126e-06 -1.3726713e-05 -8.765244e-06
000150 29 a6 f5 b5 90 f1 74 b7 8d cc 9f b5 33 61 62 b7
       -1.8302281e-06 -1.45997765e-05 -1.1905955e-06 -1.3493281e-05
000160 10 e9 13 00 0a 33 4a b7 ed cc b9 37 1e 30 2e 38
       1.828481e-39 -1.2052022e-05 2.2149145e-05 4.1529645e-05
000170 ab 29 e2 37 ed cc b9 36 f6 4c 39 38 89 50 14 36
       2.6960703e-05 5.537286e-06 4.4179113e-05 2.2100596e-06
000180 dd 07 31 38 7b 6a 35 80 81 dd 18 38 dd a8 3a 36
       4.220741e-05 -4.905479e-39 3.6445916e-05 2.7814451e-06
000190 51 fe ae 36 7f 0e 7b 36 dd a8 3a 35 d1 11 bd 36
       5.2152104e-06 3.7410352e-06 6.953613e-07 5.634713e-06
0001a0 55 ed 44 b5 97 dd d0 36 04 16 3e 00 ca 09 99 36
       -7.3361053e-07 6.2246795e-06 5.701698e-39 4.560895e-06
0001b0 34 f4 e3 b5 f1 b4 55 b6 ca 38 11 b6 34 f4 e3 b4
       -1.698389e-06 -3.1844795e-06 -2.163974e-06 -4.2459726e-07
0001c0 13 22 65 b6 9c eb ef 33 b1 45 6a b6 7f 1e 07 80
       -3.4143493e-06 1.1172162e-07 -3.4909283e-06 -6.53788e-40
0001d0 3c 42 3b b6 b6 46 88 37 96 84 ff 37 7f 08 a6 37
       -2.7903725e-06 1.624539e-05 3.0460109e-05 1.9792698e-05
0001e0 b6 46 88 36 61 e0 07 38 1e c9 cb 35 c3 4e 02 38
       4.0613477e-06 3.2395477e-05 1.5183211e-06 3.1067768e-05
0001f0 2b cf 21 80 23 3d e0 37 70 fb cb 37 ba 3b 3f 38
       -3.104889e-39 2.673135e-05 2.431657e-05 4.5593573e-05
000200 e8 ec f7 37 70 fb cb 36 be 2f 4b 38 6b e1 26 36
       2.9555013e-05 6.0791426e-06 4.8443435e-05 2.4867138e-06
000210 0e 59 42 38 e3 ab 9b 80 7c d6 27 38 af 66 02 b8
       4.6336143e-05 -1.4296163e-38 4.0015657e-05 -3.1090047e-05
000220 8c 80 74 b8 e2 cd 16 b8 af 66 02 b7 c2 2b 81 b8
       -5.8293852e-05 -3.595453e-05 -7.772512e-06 -6.15935e-05
000230 c1 9b 10 b7 4a 1c 63 b8 56 96 0b 01 f1 ea 56 b8
       -8.619333e-06 -5.4147364e-05 2.563813e-38 -5.1240382e-05
000240 e4 9e a8 38 f5 14 1e 39 0e d6 ca 38 e4 9e a8 37
       8.04046e-05 0.00015075861 9.6719814e-05 2.010115e-05
000250 ff 34 28 39 aa 01 3f 37 ac 18 1d 39 a4 bc 5b 81
       0.00016041471 1.1384875e-05 0.00014981878 -4.035929e-38
000260 a4 c7 0a 39 8c 2f d2 b5 93 0c 45 b6 78 13 07 b6
       0.00013235077 -1.5660057e-06 -2.9362607e-06 -2.01279e-06
000270 8c 2f d2 b4 53 fc 53 b6 e7 33 19 34 02 f6 59 b6
       -3.9150143e-07 -3.1588322e-06 1.4268117e-07 -3.2478715e-06
000280 6f 50 0b 80 d7 98 2c b6 b1 67 e8 b7 37 e1 59 b8
       -1.039045e-39 -2.5718962e-06 -2.770484e-05 -5.194658e-05
000290 94 38 06 b8 b1 67 e8 b6 d9 e2 66 b8 6d ba 03 b7
       -3.2000782e-05 -6.92621e-06 -5.504754e-05 -7.851614e-06
0002a0 f0 fd 48 b8 ef 84 17 01 44 83 3f b8 ca f9 57 b8
       -4.7920214e-05 2.7829695e-38 -4.56602e-05 -5.149263e-05
0002b0 2c 7a ca b8 11 e2 7b b8 ca f9 57 b7 55 9c d6 b8
       -9.654867e-05 -6.0053604e-05 -1.2873157e-05 -0.00010233434
0002c0 99 c3 57 b7 ca 5e be b8 95 e6 31 01 de ec b1 b8
       -1.286054e-05 -9.077562e-05 3.26752e-38 -8.484138e-05
0002d0 de 9d 77 38 ff 23 e8 38 c0 56 95 38 de 9d 77 37
       5.9036414e-05 0.00011069327 7.121032e-05 1.4759104e-05
0002e0 21 d8 f6 38 a8 7e 02 37 c6 13 e8 38 d2 70 12 81
       0.00011770451 7.778093e-06 0.00011066305 -2.689691e-38
0002f0 09 c8 cb 38 60 f8 58 37 d9 68 cb 37 70 09 86 37
       9.717054e-05 1.2932433e-05 2.424831e-05 1.597844e-05
000300 60 f8 58 36 ad 90 d8 37 5b 57 1f 35 59 65 d4 37
       3.2331081e-06 2.5816576e-05 5.9359235e-07 2.5319563e-05
000310 5c 2b 09 80 40 6d b2 37 7f 0c 9a 36 b8 6b 10 37
       -8.42074e-40 2.1270127e-05 4.5910124e-06 8.608149e-06
000320 b8 99 ad 36 7f 0c 9a 35 73 0c 19 37 89 3c e2 35
       5.173697e-06 1.1477531e-06 9.122409e-06 1.685593e-06
000330 f5 89 fd 36 e1 83 37 80 e4 0f fe 36 27 8e 05 37
       7.556048e-06 -5.098262e-39 7.57164e-06 7.960515e-06
000340 88 6a 7a 37 11 70 24 37 27 8e 05 36 1d b3 85 37
       1.4925965e-05 9.801254e-06 1.9901288e-06 1.5938242e-05
000350 57 6c 01 35 cd 5d 81 37 ed fe 2f 80 cf ab 5b 37
       4.82139e-07 1.5421678e-05 -4.407718e-39 1.30934195e-05
000360 7d 55 12 b8 25 30 89 b8 6d 1b 29 b8 7d 55 12 b7
       -3.488873e-05 -6.541637e-05 -4.0318282e-05 -8.722182e-06
000370 bc f1 90 b8 68 47 24 b7 a2 60 7e b8 40 2d 0f 01
       -6.9114816e-05 -9.791787e-06 -6.0648315e-05 2.6297417e-38
000380 40 2e 71 b8 15 46 36 b6 b3 e1 aa b6 3c 3d 58 b6
       -5.750195e-05 -2.7160906e-06 -5.0926697e-06 -3.2222151e-06
000390 15 46 36 b5 65 be b4 b6 ae dd 05 b5 0f 12 a7 b6
       -6.7902266e-07 -5.386583e-06 -4.986895e-07 -4.97909e-06
0003a0 eb f9 3c 00 21 19 96 b6 62 82 48 37 3c fa bb 37
       5.599783e-39 -4.4732737e-06 1.1951286e-05 2.2408662e-05
0003b0 be cd 72 37 62 82 48 36 f0 28 c8 37 85 b9 c1 35
       1.4472227e-05 2.9878215e-06 2.3860921e-05 1.4433614e-06
0003c0 3e c0 bc 37 ab ea 14 80 c7 fc a4 37 04 52 8e 36
       2.2500866e-05 -1.920893e-39 1.9668032e-05 4.2414777e-06
0003d0 e3 6c 05 37 37 79 a6 36 04 52 8e 35 74 9f 0c 37
       7.95277e-06 4.961297e-06 1.0603694e-06 8.381776e-06
0003e0 18 08 89 35 21 c7 fd 36 96 35 18 80 45 7d ea 36
       1.0209651e-06 7.563169e-06 -2.223275e-39 6.9883267e-06
0003f0 68 11 37 33 50 a0 ab 33 5b 74 5e 33 68 11 37 32
       4.262384e-08 7.991969e-08 5.1794228e-08 1.065596e-08

exp_avg_sq f4 [128, 9]
000000 13 44 98 36 d8 d3 85 37 53 82 84 36 1e a7 67 34
       4.537878e-06 1.5953483e-05 3.9490783e-06 2.1574348e-07
000010 d2 1c 8f 37 96 69 31 37 7b f5 00 36 4c b0 ca 36
       1.7060349e-05 1.0574606e-05 1.9216375e-06 6.040593e-06
000020 45 1f 69 37 b6 de 7e 38 b6 01 60 39 83 35 ba 38
       1.3895163e-05 6.0765735e-05 0.00021362942 8.8791385e-05
000030 01 29 24 36 bf b6 7d 39 8a 6e 74 37 b8 90 14 39
       2.4461772e-06 0.00024196038 1.456927e-05 0.00014168292
000040 2c f6 b8 38 d7 13 41 39 8c 6f 1e 33 0f 40 0b 34
       8.819657e-05 0.00018413305 3.6888693e-08 1.2968688e-07
000050 66 ea 07 33 55 2e 08 32 c5 e9 ab 33 cd b5 a6 33
       3.164532e-08 7.926777e-09 8.0053304e-08 7.763047e-08
000060 d7 8c bd 33 39 0d f7 30 35 39 ea 33 76 3a 44 34
       8.826617e-08 1.7975373e-09 1.090688e-07 1.827519e-07
000070 77 77 2c 35 f9 ad 49 34 0a bc 6b 32 27 69 1e 35
       6.424884e-07 1.8782875e-07 1.37215554e-08 5.9012604e-07
000080 11 cc b1 34 ab e2 3a 34 99 46 99 34 97 27 19 35
       3.3117297e-07 1.7405061e-07 2.8549837e-07 5.705455e-07
000090 2d f5 7f 36 82 f6 60 37 05 27 9a 36 7c 53 a6 34
       3.8140672e-06 1.3408835e-05 4.5941e-06 3.0980652e-07
0000a0 93 ba 77 37 e4 9b 8b 36 15 7c 08 37 7a bc 59 36
       1.47657875e-05 4.160671e-06 8.135122e-06 3.2445228e-06
0000b0 1c d9 38 37 9b b3 08 35 ad 4b f0 35 73 b7 23 35
       1.1017804e-05 5.092531e-07 1.7903418e-06 6.0989186e-07
0000c0 6a 3f 81 32 2d 25 08 36 ba 3f e2 34 37 c3 a9 34
       1.5046414e-08 2.0287218e-06 4.2142148e-07 3.162074e-07
0000d0 9f 78 ae 35 43 8e e0 35 b2 23 cf 35 66 0e b6 36
       1.2999116e-06 1.6730704e-06 1.543309e-06 5.425699e-06
0000e0 d6 97 02 36 13 27 93 33 2d ce cd 36 5b 16 c4 35
       1.945989e-06 6.8523285e-08 6.133478e-06 1.4609644e-06
0000f0 d0 ec 42 36 db ee f6 35 44 d2 9a 36 40 de 94 37
       2.9046096e-06 1.8397944e-06 4.614036e-06 1.7746468e-05
000100 61 d7 82 38 f9 e3 5e 37 92 ec 6c 35 04 00 90 38
       6.2390005e-05 1.328531e-05 8.8261106e-07 6.866458e-05
000110 1d 5e 4e 38 70 34 24 37 0d 96 52 37 05 6b 5a 38
       4.9201877e-05 9.787371e-06 1.2551912e-05 5.207492e-05
000120 a0 68 2d 37 ee 68 18 38 96 9b 0c 37 48 1b 08 35
       1.0335963e-05 3.6337347e-05 8.380875e-06 5.070365e-07
000130 99 b9 28 38 30 e5 dd 37 bc 4e eb 36 9a 69 0b 37
       4.0227173e-05 2.6451977e-05 7.0127116e-06 8.309633e-06
000140 6c 49 ff 37 e9 f5 12 35 2a 2a 01 36 f0 fd 1b 35
       3.0432559e-05 5.4747085e-07 1.924704e-06 5.811153e-07
000150 dc af 1a 33 f6 1b 0c 36 bb 38 72 35 36 98 71 35
       3.6015862e-08 2.08779e-06 9.023458e-07 9.000099e-07
000160 d5 9e f0 34 94 48 d6 35 ab e1 5d 36 69 03 43 37
       4.481905e-07 1.5965365e-06 3.3062922e-06 1.16237e-05
000170 51 3b 8e 36 6b 8f 4a 34 11 46 58 37 95 8e 48 36
       4.238835e-06 1.8864891e-07 1.2890917e-05 2.9885316e-06
000180 17 88 f0 36 d4 ba 58 36 64 03 23 37 ae 78 99 35
       7.1684003e-06 3.2295256e-06 9.7163465e-06 1.1434511e-06
000190 02 e3 86 36 4b 88 c0 35 3d e5 3f 34 b8 4b 83 36
       4.0199384e-06 1.4344781e-06 1.7871658e-07 3.912919e-06
0001a0 fa b9 9b 35 55 da 43 36 31 92 68 35 47 96 57 36
       1.1602526e-06 2.918435e-06 8.663947e-07 3.212497e-06
0001b0 d3 fa 0f 34 cb 16 fd 34 c3 88 46 34 e9 84 96 32
       1.3409162e-07 4.7141506e-07 1.848994e-07 1.7522739e-08
0001c0 de 10 03 35 8f a2 88 33 56 9c d7 34 ab 0d c8 33
       4.882585e-07 6.362563e-08 4.016062e-07 9.315712e-08
0001d0 64 e6 ca 34 d9 06 0d 35 d6 e5 f7 35 88 4d 27 35
       3.7793063e-07 5.253656e-07 1.8469825e-06 6.232517e-07
0001e0 80 2d 0f 33 b9 fa 0b 36 88 52 38 35 23 aa ad 35
       3.3336164e-08 2.0858554e-06 6.866544e-07 1.2939021e-06
0001f0 8c 9c 10 34 31 25 c4 35 dc 6e 03 36 d4 08 e7 36
       1.3467996e-07 1.4613962e-06 1.958505e-06 6.885364e-06
000200 b0 fe 22 36 1b 8d bc 33 e3 3f 00 37 b7 13 0a 36
       2.4288129e-06 8.780099e-08 7.644269e-06 2.0575078e-06
000210 15 36 5b 36 42 0d 2e 36 90 c8 c6 36 1f 23 2a 37
       3.2665023e-06 2.5935738e-06 5.9242084e-06 1.0140967e-05
000220 df 88 15 38 0b cb 07 37 78 80 0e 35 ab 83 1c 38
       3.565184e-05 8.093902e-06 5.308607e-07 3.7315924e-05
000230 80 83 df 37 f9 c2 16 37 57 87 d6 36 ea 46 f9 37
       2.6644906e-05 8.986092e-06 6.3934526e-06 2.9716135e-05
000240 62 4d 67 38 1e 4b 4b 39 ac 8f 89 38 fb 74 36 36
       5.514676e-05 0.00019387572 6.55943e-05 2.7188205e-06
000250 9a c7 64 39 ad 0b 88 38 6e 9d cd 38 23 0c 75 38
       0.00021818132 6.48716e-05 9.804485e-05 5.8423855e-05
000260 95 6d 2b 39 8d 6f 8c 33 0f dc 76 34 5d af c5 33
       0.00016348653 6.539549e-08 2.2990592e-07 9.205426e-08
000270 78 60 89 31 37 3a 85 34 81 c2 29 33 ce 52 45 34
       3.998192e-09 2.4815537e-07 3.952528e-08 1.8377179e-07
000280 0e ca 3a 33 b9 54 4a 34 45 e6 00 37 a5 94 e2 37
       4.3490267e-08 1.8843538e-07 7.683008e-06 2.7010517e-05
000290 84 39 e1 36 3f 2c b6 34 c2 cf f8 37 89 a1 95 37
       6.7122182e-06 3.3932335e-07 2.9660649e-05 1.7837405e-05
0002a0 fa 29 66 36 83 4f 23 37 01 41 c4 37 ed 98 cb 37
       3.4297104e-06 9.73407e-06 2.339529e-05 2.4270697e-05
0002b0 67 f1 b2 38 fb 6e a3 37 8d f5 aa 35 c1 b8 bf 38
       8.532666e-05 1.9482794e-05 1.2737452e-06 9.142003e-05
0002c0 ed aa 85 38 73 3e a6 37 ad c9 7d 37 66 c5 94 38
       6.3737716e-05 1.9817822e-05 1.5126931e-05 7.093958e-05
0002d0 f3 7f b5 37 6e 85 9f 38 b5 0c d5 37 d2 ce 8c 35
       2.1636462e-05 7.606564e-05 2.5397496e-05 1.0491005e-06
0002e0 92 e2 b2 38 24 36 e5 37 79 ba 23 38 15 42 ae 37
       8.5299034e-05 2.7324139e-05 3.9035895e-05 2.0773188e-05
0002f0 75 ba 85 38 01 2a 33 35 e6 77 1d 36 90 69 71 35
       6.3766645e-05 6.674382e-07 2.3464613e-06 8.993311e-07
000300 47 51 87 33 a5 bc 25 36 0e bd ec 34 c3 bf 10 36
       6.3012116e-08 2.4696722e-06 4.409598e-07 2.1569292e-06
000310 b5 5e 50 34 71 c3 f8 35 4b 0e 63 35 94 8f 47 36
       1.9405964e-07 1.8534321e-06 8.458489e-07 2.9736884e-06
000320 19 27 48 35 c4 af 76 33 c8 35 4c 36 1a 28 f4 35
       7.45627e-07 5.7436196e-08 3.0429674e-06 1.8191088e-06
000330 32 90 77 35 e6 b3 46 35 89 20 2a 36 2d ed 0f 36
       9.22245e-07 7.4022535e-07 2.5350912e-06 2.1446715e-06
000340 d3 fe fc 36 ed 1b 2f 36 0e c3 19 34 d0 e0 0b 37
       7.5398507e-06 2.6093287e-06 1.4320196e-07 8.337389e-06
000350 34 c8 e9 35 70 57 8a 36 03 a1 38 36 82 ba d7 36
       1.741812e-06 4.1228996e-06 2.7511858e-06 6.4292117e-06
000360 3a da 43 37 d0 22 2c 38 74 d1 14 37 9c 28 2a 35
       1.1673716e-05 4.1040417e-05 8.8702545e-06 6.338903e-07
000370 03 ff 36 38 ce 6e 06 38 f0 7b 00 37 01 5a 09 37
       4.362968e-05 3.2051285e-05 7.658251e-06 8.186792e-06
000380 c2 e6 0f 38 a3 86 87 34 b5 3a 6e 35 60 57 a8 34
       3.4308767e-05 2.524367e-07 8.874734e-07 3.1356012e-07
000390 bd 9f d2 32 60 ae 65 35 4a 5b 9d 34 30 4b 05 35
       2.4519858e-08 8.5562897e-07 2.930995e-07 4.9655773e-07
0003a0 aa ff 9c 34 2f 8d 49 35 ba 88 92 35 38 ca 80 36
       2.9243284e-07 7.5083784e-07 1.091764e-06 3.8382386e-06
0003b0 5b 53 b3 35 21 2e 65 33 a4 8a 91 36 9b 44 a1 35
       1.3360799e-06 5.336017e-08 4.3374766e-06 1.2015402e-06
0003c0 86 95 12 36 f4 9c 86 35 ec ee 56 36 b8 84 8d 34
       2.184273e-06 1.0029457e-06 3.2027556e-06 2.6359862e-07
0003d0 42 c3 78 35 32 5f 57 34 ca 5a 8d 33 0c 59 51 35
       9.2671337e-07 2.0058067e-07 6.5823386e-08 7.798815e-07
0003e0 78 b9 2a 35 72 79 07 35 b8 36 df 33 e0 e1 3e 35
       6.359983e-07 5.0468145e-07 1.03942e-07 7.1109207e-07
0003f0 be 6a d7 31 e9 54 bd 32 1b cc cc 31 0a 4c 7b 31
       6.2694587e-09 2.2041108e-08 5.9603855e-09 3.656853e-09

exp_avg f4 [128]
000000 2b 69 1f b8 a3 67 80 39 71 2c bd 35 53 1b 2d b5
       -3.80065e-05 0.00024491278 1.4094531e-06 -6.4487284e-07
000010 11 3f e2 37 e1 86 17 37 82 b2 01 38 99 63 a9 b8
       2.6970667e-05 9.031705e-06 3.0922245e-05 -8.0770995e-05
000020 71 5a 98 b8 29 a6 75 b7 ed cc 39 38 de a8 ba 36
       -7.264771e-05 -1.4641825e-05 4.429829e-05 5.5628907e-06
000030 34 f4 63 b6 b6 46 08 38 6f fb 4b 38 af 66 82 b8
       -3.396778e-06 3.249078e-05 4.8633137e-05 -6.2180094e-05
000040 e3 9e 28 39 8c 2f 52 b6 b2 67 68 b8 c8 f9 d7 b8
       0.00016080918 -3.1320114e-06 -5.5409684e-05 -0.00010298524
000050 dc 9d f7 38 60 f8 d8 37 7f 0c 1a 37 27 8e 85 37
       0.000118072814 2.5864865e-05 9.182025e-06 1.592103e-05
000060 7d 55 92 b8 15 46 b6 b6 62 82 c8 37 03 52 0e 37
       -6.977746e-05 -5.4321813e-06 2.3902572e-05 8.482954e-06
000070 68 11 b7 33 ec 60 70 b8 b3 3e 18 38 b2 df 9c b8
       8.524768e-08 -5.7310725e-05 3.6298017e-05 -7.480326e-05
000080 28 41 fb b7 38 ae 69 37 68 e1 1b 39 25 66 d5 b7
       -2.9951872e-05 1.3928446e-05 0.00014865922 -2.5439143e-05
000090 a7 cb 1a b7 7a d0 8a 36 d0 7e 77 36 d2 3c 33 38
       -9.226532e-06 4.1369904e-06 3.6879683e-06 4.273357e-05
0000a0 fd 2a b2 36 e8 4a 1a 37 ee e2 9c b8 78 15 69 b6
       5.309818e-06 9.196556e-06 -7.4809286e-05 -3.4732202e-06
0000b0 dd b7 60 b7 70 84 f4 38 3f c5 21 33 38 ca cf 37
       -1.3394249e-05 0.00011659495 3.7665128e-08 2.4770488e-05
0000c0 ec 6b 2b 37 14 90 26 b8 b1 37 ef b6 08 31 80 b8
       1.0217522e-05 -3.9711667e-05 -7.1292384e-06 -6.1126484e-05
0000d0 e3 fe 1e b7 46 7e 8a 35 6a 08 b0 36 7e 23 b8 b8
       -9.476879e-06 1.0318552e-06 5.2461883e-06 -8.780415e-05
0000e0 4a 45 43 b7 07 db 7f b8 8e 41 a9 b4 30 d5 17 b6
       -1.1639038e-05 -6.1000723e-05 -3.15264e-07 -2.2624845e-06
0000f0 37 45 21 38 70 e3 2e 36 05 f7 4a 38 4d 33 4d b7
       3.8449853e-05 2.6060407e-06 4.8390608e-05 -1.2230897e-05
000100 4b 7f 57 34 ca 06 97 37 ac bb a1 37 f7 86 8a 37
       2.0069744e-07 1.8003764e-05 1.9280087e-05 1.651373e-05
000110 79 6c f7 b8 5f 51 05 b9 4b b4 1e b7 bf 19 1c 39
       -0.000117980824 -0.00012714182 -9.459512e-06 0.0001488691
000120 3f 8b 66 b8 05 fd 20 b7 09 14 13 36 d8 c7 18 35
       -5.4965956e-05 -9.595654e-06 2.191637e-06 5.6915223e-07
000130 07 28 2e 39 ee 54 d6 36 b4 67 b6 b8 4e fd cd b8
       0.00016608844 6.387584e-06 -8.6977525e-05 -9.8223434e-05
000140 3a cf 1a b7 d1 1b e5 38 6a 09 95 b8 93 ef 9f b4
       -9.227364e-06 0.00010924752 -7.106627e-05 -2.979037e-07
000150 48 10 e6 37 6e 40 cb 38 3f b7 15 b8 9e 53 be 34
       2.7425718e-05 9.691795e-05 -3.569503e-05 3.5451097e-07
000160 be 06 98 b8 93 4b e7 33 47 fe ce b5 83 72 1a 38
       -7.2491806e-05 1.07705226e-07 -1.54222e-06 3.682311e-05
000170 6e 17 3f 38 54 1b 25 b4 5a cd b0 b8 0b a0 f9 38
       4.555977e-05 -1.5376764e-07 -8.430584e-05 0.000119030556
000180 4d 8c 14 39 a6 74 98 35 c2 4b f3 37 5a 5e fa 37
       0.00014166646 1.1358832e-06 2.9003135e-05 2.9846258e-05
000190 02 a7 07 b5 ae 25 59 36 09 1a 34 36 9e b8 90 35
       -5.053445e-07 3.2357452e-06 2.6837245e-06 1.0782567e-06
0001a0 20 03 20 39 09 51 8b b8 31 88 97 38 27 03 ba 37
       0.00015259953 -6.6431305e-05 7.225609e-05 2.2174396e-05
0001b0 db 38 36 38 92 fe 57 b8 d5 53 60 b7 71 88 10 b7
       4.3445132e-05 -5.149708e-05 -1.3370959e-05 -8.614837e-06
0001c0 14 97 0d 34 65 1b 22 b8 83 e2 ae 36 98 23 04 b7
       1.318661e-07 -3.8649323e-05 5.2119735e-06 -7.8761e-06
0001d0 99 c5 ac 36 ed fd 70 33 f6 67 47 38 3f 1b bd 38
       5.149003e-06 5.61103e-08 4.754212e-05 9.017297e-05
0001e0 a5 a9 ce b6 5c 07 1d 36 36 aa d1 36 71 58 0d 39
       -6.1590276e-06 2.3399107e-06 6.2485005e-06 0.00013479755
0001f0 d6 13 6c b5 6f 45 22 39 7e 83 27 b5 ff b2 29 38
       -8.7945716e-07 0.0001547539 -6.2403694e-07 4.0459443e-05
