Assets/results/Maze01/Mouse/Mouse-4992.pt (torch, 453474 bytes, 33 tensors)

network_body._body_endoder.seq_layers.0.weight f4 [128, 9]
00000000: 1553 0cbc 0d04 9abd f562 ad3e cdbf 78be
00000010: 1261 a5bd 93b8 ea3e 4a8d 12be 4848 57be
00000020: b58e 6b3f 89a8 e93e 17b3 373e dfec b43d
00000030: 22a4 793e 42ff 1b3f 665d d6be cb46 80bd
00000040: 8222 433e 32bc a4be 9977 cdbe fe12 c8be
00000050: cdd8 723e b3a8 ec3e 5d40 aebe ddd8 b1bd
00000060: 5d69 da3d 4e21 59be 6ac4 703e 03bc 103f
00000070: e48a c23d 5d62 113e 7c82 413e 5d61 063e
00000080: 5271 533f 20bb 1cbf fdaa 36bd 4709 463d
00000090: e84b a8be 0a95 c53e 5259 203f d761 983e
000000a0: 17aa 733f 90ed 5dbc 0a07 873d 9934 aebe
000000b0: facd 253d 33b0 d9be c230 5dbe c06b b7bd
000000c0: 5d66 163f 5060 453f 548b 4b3f 274e b6be
000000d0: 5c3f 75be b85a e2be 1c5d 0e3c 57cc 4d3f
000000e0: 44e3 093e 82f6 f9be f163 33be 6fb6 b93d
000000f0: 31cf fc3d 2768 b8be 2785 3dbf 5a9f 6f3d
00000100: 1058 3dbc 3705 92be cdfa 263d ff02 253f
00000110: 81d2 45be 498e b4be 6d0b 77bd fe04 623e
00000120: dc3f e23e 4f51 d53d 577d 99be c7e5 bbbe
00000130: 6d66 2ebe e3c1 10bf ee63 2bbd 288b 9dbe
00000140: aa12 43bf 0d6f 13be 3060 ce3e 18da 9e3e
00000150: c3ef 0cbf e96e a43e 27ef a1bd 5bb2 19bf
00000160: bb59 083f 01bf 28be 3d5c f1be f039 21bf
00000170: 566a 80bd be6d ccbd 2a41 f53d 1887 8d3e
00000180: 3b2f 18bf 8782 6e3d 1e25 263e 3a2e febe
00000190: f31a 433f 6757 37be 901a 0d3e 619c e0be
000001a0: fb19 3b3f b4fb c3be 47e6 d53e 1676 5abe
000001b0: 6f59 bb3e 92f6 d83e e30a bb3e 94a5 113e
000001c0: 228b 40bd e1cc 263f 6fbf e1be e0d4 4e3f
000001d0: f0e2 c8be baf9 583c 5e16 173f f76f 4b3e
000001e0: cba7 813e 135f d33d 58ca 9ebd 433c 6bbe
000001f0: b61b b53e cfb2 09bf cdec 06bc e00e d73d
00000200: 51bc de3e f642 043f 36df 033e c213 42bf
00000210: e792 d93d 6ee4 58bc b983 09bf 955c 62be
00000220: 44d4 003f 0a16 82be 603d ad3e f4d9 cb3e
00000230: 46cb 22bf f619 d2be f20d 0bbf ee89 ae3e
00000240: 0413 c7be 2376 3abe a3a7 3b3e 4ada 0b3e
00000250: bfce 19be 0d05 acbe f080 8ebc 2cb3 05bf
00000260: 2eda 8a3e 8aa0 6bbe 666b 4ebe ad40 f13d
00000270: fabf c8bd e3a0 72be 30e7 093c c3df f8be
00000280: 3487 aa3c 05c8 473f 4ab3 1e3f 707c 203e
00000290: d1e0 7d3e 5e2b 483e 957f c9be 2549 e3bd
000002a0: 11c8 9a3c f17c 9a3e fb39 22bf fb45 e83d
000002b0: 345a 973e 07b6 a6bc 45e8 613d e3ed c3be
000002c0: d312 7d3e 0959 9d3e cd07 423f dd37 7c3e
000002d0: 20df 0d3f bf1d 473e e5d6 59be 772e 11be
000002e0: 6b3b 713d 93a8 83be 6a9c 9fbd 0283 253f
000002f0: dbb9 99be 4e98 6dbe 8868 303e 4d15 b53e
00000300: bfe7 01bf 7443 473e 2338 71be 6237 e9be
00000310: 535c 2e3f c20b 76be 27a8 2dbf 9cbc ae3e
00000320: 025b 773e 0862 67bf 86ec 42be 6530 2dbe
00000330: b6ac 103f e9fd 243e 98e8 86be 0d93 debc
00000340: 10e3 c6be 243f 983e 77f9 22bf e78b 983c
00000350: bcf9 863e 7834 4cbe f5e9 783d f29e c3bd
00000360: 67ab 8b3e 1340 02bf 69ff 15bf 270e e13e
00000370: fb9d e43e 8183 e0bd 5a32 10be a283 adbc
00000380: b11d f6bb 9217 33be faeb f93d 83ba e63e
00000390: 0264 953d 83a6 053e dad9 12bd 6835 1bbf
000003a0: 2a00 dcbe 4da9 babe 1f3f d03d 4c74 893b
000003b0: 5c18 f3bd fe0c 163f 8253 7abd 3612 a9be
000003c0: fe64 ad3e 7927 bd3e bc55 fbbd 58a1 833e
000003d0: bf10 ec3e 879f 193f 5d5b 74be f874 85be
000003e0: 46c4 b43e 4259 c9be 4d10 79be 4875 d7bd
000003f0: d046 38bf ef53 b7be 512e 273f 07b7 a2bd
-0.00856473 -0.07520304 0.3386456 -0.24291916 -0.08075155 0.45843944 -0.1431171 -0.21023667
0.9201463 0.45636395 0.17939411 0.08834242 0.24379018 0.6093637 -0.41868132 -0.06263503
0.19056132 -0.32174832 -0.40130308 -0.3907699 0.23715515 0.46222457 -0.3403348 -0.086839415
0.10664628 -0.21204111 0.23512426 0.56536883 0.094991475 0.14197679 0.18897432 0.13123079
0.8259479 -0.6122303 -0.04459666 0.04834869 -0.32870412 0.3859027 0.6263629 0.29762146
0.9518141 -0.013545409 0.065931395 -0.34024504 0.040479638 -0.42517242 -0.21600631 -0.089560986
0.58749944 0.77100086 0.7950947 -0.356065 -0.23949951 -0.44209838 0.008689191 0.8038992
0.13465601 -0.48820883 -0.17518593 0.090679996 0.12344206 -0.36016962 -0.740313 0.05850158
-0.01155664 -0.28519604 0.040766526 0.64457697 -0.19318582 -0.35264805 -0.06031363 0.22072217
0.44189346 0.10415899 -0.2997844 -0.36698744 -0.1703126 -0.5654585 -0.041843347 -0.3077023
-0.76200354 -0.14397831 0.4030776 0.31025767 -0.5505335 0.32115868 -0.07906943 -0.60037774
0.5326192 -0.16479112 -0.47140685 -0.6297903 -0.06270282 -0.09981869 0.1197532 0.2764213
-0.5944707 0.05822995 0.16225097 -0.49644643 0.76212996 -0.17904435 0.13779664 -0.43869308
0.7308652 -0.38277972 0.4177725 -0.21334109 0.3659167 0.42375618 0.36531743 0.1422332
-0.047007687 0.6515637 -0.44091365 0.8079357 -0.3923564 0.013243133 0.59018505 0.1986693
0.25323328 0.10320868 -0.07753438 -0.22972207 0.35372704 -0.53788465 -0.008235169 0.10500884
0.4350305 0.51664674 0.12878117 -0.758114 0.106237225 -0.013238056 -0.5371662 -0.2210563
0.5032389 -0.2540744 0.33835888 0.39814723 -0.6359142 -0.41035432 -0.54318154 0.34089607
-0.38881695 -0.18209128 0.18325667 0.1365749 -0.15020274 -0.33597603 -0.017395467 -0.5222652
0.27119583 -0.2301046 -0.20158157 0.11779914 -0.098022416 -0.23694186 0.008416936 -0.48608217
0.020816423 0.7803958 0.61992323 0.15672469 0.24792792 0.19547793 -0.3935515 -0.110979356
0.018894227 0.30173448 -0.6336972 0.11341473 0.29561007 -0.02035047 0.05515315 -0.3826743
0.24714212 0.3073199 0.75793153 0.24630685 0.55418587 0.19444941 -0.21273382 -0.14177881
0.058894556 -0.2571455 -0.077935055 0.6465303 -0.3002461 -0.23202631 0.17227376 0.35367814
-0.5074424 0.19459325 -0.2355657 -0.45550066 0.68109626 -0.24027923 -0.67834705 0.34128273
0.2415581 -0.9038396 -0.19035539 -0.16912992 0.56513536 0.16112484 -0.2634933 -0.027169729
-0.3884511 0.29735672 -0.63661903 0.018621398 0.26362407 -0.1994189 0.060769994 -0.09551801
0.27279207 -0.5087902 -0.5859285 0.4395611 0.4465178 -0.109625824 -0.14081708 -0.021180931
-0.0075108637 -0.1748946 0.12203212 0.45064172 0.072944656 0.130518 -0.03585229 -0.60628366
-0.42968875 -0.3645729 0.101682894 0.004194772 -0.118698806 0.58613575 -0.061114796 -0.33021706
0.33866113 0.36944178 -0.12272212 0.25709033 0.46106526 0.60009044 -0.23862977 -0.26065803
0.35305995 -0.3932591 -0.24322625 -0.105204165 -0.7198305 -0.35806224 0.6530505 -0.07945066

network_body._body_endoder.seq_layers.0.bias f4 [128]
00000000: 1d34 c63b 1fa7 0b3c 29d8 4f3c c039 073d
00000010: ea5b 2f3d 75f0 4e3d 12b2 bdbc d17d f83c
00000020: aa32 27bd 7979 d93c a8b9 093d edba 073d
00000030: 3c5b ac3c a4d5 c13c e699 993b 15e1 493c
00000040: c5db f5bc 5715 b23c d2a1 d03c dded 6b3c
00000050: 6d67 893d 2c2c 863c c1bd 083d fd9e 133c
00000060: 03e5 d63c f7dc aabc 0352 2a3d c1e7 393d
00000070: 61cc 283d 6517 713c 76b6 d83c 9e4d 373c
00000080: dadb dc3c 9fd9 a23c 3088 14bd d898 cfba
00000090: 9613 223d 0b54 813d 268c 1d3d b61f f43b
000000a0: 28c6 d5bc 7e38 06bd 9148 063d f403 3a3c
000000b0: dbba 803b 47cf 0c3d 7f2e b73c 9bcc e7bb
000000c0: e554 c43c e161 af3b edc4 323d 5bd4 233b
000000d0: 23f5 e13c 0a81 1a3b 9bb5 1c3d a3ae f03c
000000e0: fcf4 f53c fab5 f43c c84d f53c e26a 933c
000000f0: 75a2 f23c 66f2 453c c532 8c3d f01a f93c
00000100: 3534 023d 90e0 1a3d 20da 913c b5c7 233d
00000110: 98ea c13c b5e4 463b ea80 e23c b596 e73c
00000120: 6ad6 81bb 97ed 823c 8ef1 933c 74d2 24bd
00000130: 8d3d aa3c 07b2 6b3c 86c1 753d 5200 083d
00000140: 7702 e8bb a385 5e3d 1274 c03c 5981 233d
00000150: 89f3 ea3c dbed 42bc b087 b13c adf6 813a
00000160: e9eb 583d 961c 49bc 78fc 0d3d 7ccc 4b3c
00000170: 6264 da3c f1e1 023d 90e9 5b3c 4828 303d
00000180: b21b 3d3b aba2 953c 348b 193d f3c6 ad3c
00000190: 7cc8 95bc a5fa 763a 7ece 10bd 3735 d4bb
000001a0: 6bf1 3c3d 8127 8e3c 82d8 e7bc 521a dfba
000001b0: ade7 e53c e8a1 4b3b 37ad 613c 0954 2ebd
000001c0: f4fe bf3c f4f7 a83c 918f 8a3c f989 c53c
000001d0: 0bb9 beba 9915 013d 3309 2dbd cb89 b13c
000001e0: 0575 05bc 099d 283d dd35 423d 8e0b 7e3c
000001f0: c9cb 10bc 7a1b 043d f7f5 1f3b 4db7 083d
0.006048693 0.0085237315 0.012685814 0.03301406 0.042812265 0.050522286 -0.0231562 0.030333431
-0.0408198 0.02654718 0.03362432 0.03313725 0.021039598 0.023661442 0.0046875356 0.01232173
-0.03001202 0.021738691 0.025467787 0.014399973 0.0670918 0.016378485 0.03338409 0.009010074
0.026232248 -0.020857317 0.04158212 0.045387033 0.041210536 0.01471505 0.026454192 0.011187939
0.026960302 0.01987916 -0.03626269 -0.0015838398 0.03956946 0.06314858 0.038463734 0.0074500693
-0.026095465 -0.03276872 0.03278405 0.011353482 0.003928525 0.034377363 0.022361038 -0.0070739514
0.023966262 0.0053522442 0.043644834 0.00249984 0.02758271 0.0023575448 0.03825913 0.029380148
0.030024044 0.02987193 0.029944316 0.017995302 0.029618481 0.012081718 0.06845621 0.030408353
0.03178807 0.037811816 0.017804205 0.039985377 0.023671433 0.0030348722 0.027649362 0.028270105
-0.0039623277 0.015982432 0.018059518 -0.040239766 0.020781303 0.014385707 0.05999901 0.03320343
-0.007080372 0.054326665 0.023492847 0.039918277 0.02868058 -0.0118975295 0.021671146 0.0009915434
0.052959356 -0.012274882 0.0346646 0.01243889 0.026659194 0.031953756 0.013422385 0.043007165
0.002885562 0.018266043 0.03748627 0.02121303 -0.018284075 0.0009421504 -0.035353176 -0.0064760703
0.04612867 0.017352821 -0.028301481 -0.0017021394 0.028064573 0.0031071845 0.013774208 -0.04256061
0.023437 0.020626046 0.01691416 0.024113642 -0.0014550997 0.031514738 -0.0422451 0.02167215
-0.008145575 0.041165385 0.04741465 0.015505685 -0.008837649 0.032252766 0.002440808 0.033377934

network_body._body_endoder.seq_layers.2.weight f4 [128, 128]
00000000: 9f5e 953c 3b4b 0e3e cb58 8dbc e5ec 01be
00000010: 5ef5 283e 6a5f 8a3c 580c 20be 3455 1a3d
00000020: 4206 6b3d 0768 5bbe e2ff 193e 55f9 1dbc
00000030: 7f53 8ebd 43cb 3dbd 9cc7 57be b104 e33d
00000040: 97ea dfbd afc6 a3bd c295 663d 28a9 333d
00000050: b096 9dbd aea6 6a3d 5919 263e 3b0f 17bc
00000060: 81ce 193d 8f95 a53d dedf 963b 8ec6 3f3d
00000070: 5941 783d 8615 7f3e 44ea d03d d369 a33d
00000080: c4f0 133d c95a 3a3e a471 36be e8f2 f53c
00000090: f496 d33d 3f80 29bd b1cf 0cbd 33e1 b1bd
000000a0: 63dc ecbd f89b dfbd 667c 193e 096f 03be
000000b0: f36f cb3d b30b 05bb 0b4d b43d fc17 bc3d
000000c0: af28 49be dd7e 33be dabe 083e af97 cabc
000000d0: eb11 083e eea3 cb3d cf44 07be 8afd 823e
000000e0: fec0 293e 2bee 0cbe 8a21 ab3d 1063 d33d
000000f0: 15cd 113e e858 36bc d3ac 923d 3bfb 803c
00000100: bb2b 183d 6d14 983d 0155 673d 3419 ae3c
00000110: ad6d b4bc 81bd 413c 1270 803c 21db df3d
00000120: 08b1 5d3c b2b4 6cbd 6ccb b73d ba29 da3d
00000130: 219b 35bd 6fd2 3fbd ecd0 e63b 1e35 e03d
00000140: 8760 553e cc78 0b3c 784a 453e c304 a1bd
00000150: 720e 2a3d aa88 843d 28d2 59be ddf9 d23c
00000160: fd2c 273e b3d1 15be 7faf e93d 83c0 143e
00000170: e297 593d 3ff9 b43c de8b e63d c1a4 683c
00000180: 0673 c53d 3f98 51bc 0284 263d e245 a7bc
00000190: e5cd 90bd d33f 4cbd 9284 fabd aefb 0e3d
000001a0: 1011 753d 043b 1e3d df10 383d ef4e 763c
000001b0: e50b 34bd ca1e 233e 44d8 3f3d b359 45bc
000001c0: 38c7 00be 8f6d 633d 05e2 f63d 06b3 ad3c
000001d0: d350 b13d 5685 e03b 34c3 b9bd 1a38 363e
000001e0: 8e57 a03b c923 713d 5d6e ba3d 137c 01be
000001f0: 774b e6bc 7417 9fba da88 713c bfee 19bd
00000200: 1fc0 4e3e 4141 bbbc 9f0f e7bc 44ce 343d
00000210: 3a76 46be 3cbf d9bd cf2d 0b3e bb2f 2dbe
00000220: d31a febc dd66 d93c dc04 53be 4d00 cb3b
00000230: 72cb 033e f13d e83d e3fb 11bc 4d32 a8bd
00000240: be7d 283b 9e9a 8f3c bdf5 17bd 19dd be3c
00000250: c9cd 96bb eaa1 f9bc 7021 a33c bf4d 873d
00000260: 866a 37bd dd1c 3fbe 6741 3fbe ce79 c1bd
00000270: 2149 33be a89d 923c b90f 1cbd 58ae 50bd
00000280: 7558 1cbe ed75 c73d 0e9d 493d a767 c1bc
00000290: 2453 403d d0f7 633d 1975 e2bd e4b8 b83d
000002a0: aaa6 0d3d 8a48 0bbd 182a 37be 056c 953d
000002b0: 2824 bcbd ce35 72bc 58e6 c6bd 6e21 2c3d
000002c0: c12a 2cbd 090b 4e3e 8cb7 31be cafe a53d
000002d0: ffbc 45bb f8bf c83a edbf cf3d a0fb 1dbe
000002e0: 99eb 823d 9243 e83d 32d3 273e fa88 81bd
000002f0: cba8 533e 8645 923d 5aff 343e 2d6d 6abc
00000300: 6e43 a33d 079a cf3a f0db db3c 50a8 91be
00000310: bc22 433d cdfc 153e 5ca4 793d 49c3 4f3d
00000320: 5b2d 9abd afc5 873d 0001 b6bc b105 35bd
00000330: a932 d4bd 9ca4 1c3e 4c3c 233c 0dc8 13bd
00000340: 6a96 ed3d ea10 d6bc 831d cc3c eeae c4bd
00000350: 4437 fdbc f81c e4bd 54fd a1bc 4082 87bd
00000360: d7c4 0b3d c173 c0bd 82e3 f83d bf85 85bd
00000370: 8545 ac3d e06b 7d3e 4ab0 28bd f65d d73d
00000380: f5ee ddbb 796c d1bd 47e8 27bd 22aa 16be
00000390: f799 22bd 40bb 11be 4386 f83c 99c8 a2bd
000003a0: 014e f23d a92e d6bb f3a5 0fbe a002 a1bd
000003b0: 332c e7bc 6513 53bd 15f5 a2bd b2ee 77bd
000003c0: b90f 1a3e 3164 77bc ec2f fd3d d6a6 d4bd
000003d0: 3f0f a6bd b089 293d 5eb3 89bd 4770 2ebe
000003e0: 20ae 063d be73 103e 4d3b a13c 103a 2c3c
000003f0: 600a 3c3d d3c7 dbbd 220b 05bd dc05 bd3d
0.018233595 0.13895886 -0.017254254 -0.12688024 0.1649985 0.0168912 -0.15629709 0.037678912
0.057379015 -0.21426402 0.15039018 -0.009641965 -0.06949519 -0.046336424 -0.21072239 0.11084879
-0.10933416 -0.0799688 0.056295164 0.04386249 -0.07694757 0.057287864 0.16220607 -0.00921994
0.037550453 0.08085167 0.0046043238 0.046820216 0.060609195 0.24910554 0.102009326 0.07979169
0.036118284 0.18198694 -0.17816788 0.030023053 0.103315264 -0.04138207 -0.034377757 -0.086855315
-0.11565473 -0.109184206 0.1498886 -0.12835325 0.09933462 -0.0020301163 0.08803757 0.09184262
-0.19644426 -0.17528863 0.13354054 -0.024730531 0.13288085 0.099433765 -0.13209842 0.2558406
0.16577527 -0.13762729 0.083560064 0.10321629 0.14238389 -0.011129595 0.0716187 0.015744796
0.03715108 0.07425771 0.05647755 0.021252252 -0.022024954 0.011824966 0.01567844 0.109304674
0.013530977 -0.057789512 0.089743465 0.1065249 -0.044337396 -0.046831544 0.0070439484 0.10947631
0.20837604 0.008512687 0.19266689 -0.07862236 0.041517682 0.06471379 -0.21271574 0.02575391
0.16325755 -0.14630775 0.11410426 0.14526562 0.053123362 0.022091506 0.11257146 0.014199437
0.096410796 -0.012792646 0.040653236 -0.020419065 -0.07070521 -0.049865555 -0.12232317 0.03490799
0.059830725 0.0386305 0.044937965 0.015033468 -0.043956656 0.15929714 0.046837106 -0.012045312
-0.12575996 0.055524405 0.120548286 0.02120353 0.08657994 0.0068518324 -0.09070435 0.17794839
0.00489325 0.058872018 0.091030814 -0.12644987 -0.028112156 -0.0012137727 0.014742101 -0.0375812
0.20190476 -0.022858264 -0.02820569 0.044142023 -0.19381037 -0.10632178 0.13591693 -0.16912739
-0.03101865 0.026538307 -0.20607322 0.006195104 0.12870577 0.113399394 -0.008910152 -0.08212719
0.0025709714 0.017529782 -0.03709959 0.023298787 -0.004602168 -0.030472714 0.019913405 0.06606626
-0.044779323 -0.18663354 -0.18677293 -0.094470605 -0.17508365 0.017897442 -0.03810093 -0.050947517
-0.15268119 0.097392894 0.049222045 -0.023608996 0.04695429 0.055656254 -0.11057491 0.0901964
0.03458277 -0.034004726 -0.17887151 0.07295994 -0.09186584 -0.014783336 -0.09711903 0.04202407
-0.04203296 0.20121397 -0.17355174 0.08105238 -0.0030172465 0.0015316 0.10144029 -0.15428019
0.06392593 0.11341013 0.16389158 -0.06324954 0.20669858 0.07142167 0.17675534 -0.014308256
0.079718456 0.001583875 0.026838273 -0.28448725 0.047640547 0.14647217 0.06094776 0.050723348
-0.07528182 0.06629502 -0.022217274 -0.04419488 -0.10361225 0.15297168 0.009963106 -0.036079455
0.11600955 -0.026131112 0.024916416 -0.09603678 -0.030910142 -0.11138338 -0.019774117 -0.0661664
0.034123268 -0.09397078 0.12152769 -0.06519651 0.08411697 0.24748182 -0.041183747 0.105159685
-0.0067728707 -0.10225768 -0.040993 -0.14713338 -0.039697614 -0.14231586 0.030337458 -0.07948417
0.11831284 -0.006536324 -0.14028148 -0.07861829 -0.028219318 -0.051532168 -0.07956902 -0.060530372
0.1504506 -0.015099571 0.12362656 -0.10383384 -0.08108377 0.041391075 -0.06723665 -0.17035018
0.032880902 0.14106652 0.019681597 0.01051189 0.045908332 -0.10731473 -0.03248132 0.09229633

network_body._body_endoder.seq_layers.2.bias f4 [128]
00000000: 6681 983c ca3e 083d 0e05 443c 1482 e23c
00000010: 2006 b83c 14cd 2d3c 425d aa3b e997 183d
00000020: 1901 8dbb 28e6 693d 718c 063d 4487 4c3c
00000030: 2b24 083d a93b 0a3d de06 da3c f4aa c33c
00000040: c83a 063d 308b b43c 8870 d53c a289 d13c
00000050: 6851 b53c f4d9 4d3c ae81 bc3b f7c0 0c3d
00000060: ebde a13c 37e8 c83c 22eb 4a3c 8a40 f33b
00000070: 2173 a83c 317f d13a 7a86 c83c 4071 203d
00000080: 3ac1 c93c ec23 223d e876 fd3c b5ca df3c
00000090: 1792 213c 7ede aa3c b9b7 c83c 98d6 a33c
000000a0: 1faf 913c 1fb7 fc3c 1f04 3a3c a68e cf3c
000000b0: da38 013d 6878 da3c e60f 053c cecc fa3c
000000c0: dda7 f23b e3f8 893c 4e3a 143d 7d3f 033d
000000d0: 3dee 873c b76a 0f3d 5cc6 413c cf5a b43c
000000e0: 12e8 ac3c 585f 4e3c 373d a53c 9bce dd3c
000000f0: 18cf 753c 2b35 a53c 615c 363d 915a 083b
00000100: b40c 8f3b d87b 3e3c bd07 4dbc 7665 2ebc
00000110: d7bc ee3c 367f d03b e57e a13b f78e e53c
00000120: 7c59 423c 4ccd cb3c d779 683c 32f2 2d3d
00000130: 0ea0 413c 29ed c23c 7a90 9f3c c8fe 833c
00000140: 06e2 d63c 674d 673c 6b88 0f3c 0827 9a3a
00000150: ac32 bc3c 1819 1d3d c286 6c3b a684 e63c
00000160: 86be 513b 18a6 ed3b d55f 7d3c 202a 4f3c
00000170: 0922 d53c b52e fa3c d284 323d 7de3 483c
00000180: 9576 aa3c 98e5 833c f332 bb3c e1a0 c13c
00000190: 8485 a03c ecd6 083c 482f 963a c467 973c
000001a0: 8f57 643d 8bf0 073b 97d0 043d 7735 a13c
000001b0: 4e09 883c 413e 1b3d 85f3 233d fb73 2d3d
000001c0: a416 1d3b 3575 da3c db58 0f3d 3789 7139
000001d0: 1181 a93c 21c9 e03b 5a6d 8b3c 7807 843c
000001e0: 018b e83c 309b 1e3d bffa b13c deb3 833c
000001f0: a8a2 273c fea0 5a3c 7df8 c73b 7b0e 6a3c
0.01861639 0.033263005 0.011964096 0.027649917 0.022463858 0.0106079765 0.0051991055 0.037254248
-0.0043031094 0.05710426 0.03284878 0.012483422 0.033237617 0.033748303 0.026614603 0.023885228
0.032770902 0.022039026 0.026054636 0.025578324 0.022133544 0.012564171 0.0057527637 0.034363713
0.019759616 0.024524791 0.012385162 0.007423465 0.02056271 0.001598334 0.024478186 0.039170504
0.02462827 0.03958504 0.030940488 0.027318338 0.009861491 0.020858046 0.024501668 0.019999787
0.0177837 0.030849038 0.011353522 0.025336575 0.03154836 0.026668742 0.008121466 0.030615237
0.007405265 0.016842311 0.036188416 0.03204297 0.016593093 0.03501388 0.011827078 0.022015957
0.021106753 0.012595974 0.020170791 0.027076056 0.015002988 0.020166954 0.044521693 0.0020805935
0.004365528 0.011626206 -0.012514052 -0.010644307 0.02914278 0.006362821 0.004928457 0.028022273
0.011862155 0.024878167 0.014189205 0.042467304 0.011817945 0.023794727 0.019478071 0.0161127
0.026230823 0.014117575 0.008760552 0.00117609 0.022973381 0.03835401 0.0036091064 0.028139424
0.003200443 0.007252466 0.015464743 0.012644321 0.026017206 0.03053985 0.0435837 0.012261269
0.020808497 0.01610069 0.022851443 0.023636283 0.019594915 0.008352023 0.0011458183 0.018482096
0.055747565 0.002074274 0.03242549 0.019678814 0.016606 0.037901167 0.04002716 0.042346936
0.0023969794 0.026667217 0.03499685 0.00023034668 0.020691426 0.006859914 0.017019916 0.016116843
0.028386595 0.038722217 0.02172601 0.016076978 0.010231651 0.013344048 0.00610262 0.014285679

action_model._discrete_distribution.branches.0.weight f4 [4, 128]
00000000: b385 e0bc 48b0 573d 42e6 e4bc fd05 803d
00000010: ce9a c2bc e464 5c3d 6113 16bd 7eef bd3c
00000020: 59ca d93c e168 393d 924b 823d b154 fabc
00000030: b281 1cbd 1a10 653d f41f 803d ec37 1d3d
00000040: e855 eabc 7015 dcbc 83ac 4ebd adcb ddbc
00000050: 3856 27bd 708c 6b3c 12b3 13bd 3e43 82bc
00000060: 4e49 8e3d 8ddd 0abd 711a b8bc 2836 51bc
00000070: 67f3 133d a0a4 8d3c 2c26 893d 7278 18bd
00000080: e467 a6bc ef6e 703d 2c49 20bc 762d 4d3d
00000090: 6f36 e4bc 2c35 95bc c871 c63c 2973 27bd
000000a0: 0e7e 523d 6ca3 27bd 4726 433d fb95 32bd
000000b0: 2d80 1b3d c290 2c3d f82a b73b d4e5 373d
000000c0: 883c 403d bf1e 77bd 2507 2c3c c901 3e3d
000000d0: 4eb2 87bc 361c 8e3d 672b 09bc a0e7 d9bc
000000e0: b393 cfbc e024 0c3d 68f1 e4bb f443 40bd
000000f0: f9bf 933c e7fa 16bd de5d 093d 2e30 a6bc
00000100: 7f3d 58bc af7c f2bc 9cbf 29bc b851 293c
00000110: 36f9 3cbd 61c9 653b 564b 153c 93b5 64bd
00000120: 3b8a 60bb 48bc ebbc c656 8dbc a9cb 123c
00000130: e48f 09bd 7a5f b3bc 349d a33c 8033 213d
00000140: ae29 b7bc eee1 3dbd 83a4 db3c 6256 293d
00000150: cd86 4c3d 7c65 073b f0ff ddbc 9941 923d
00000160: 73c2 35bd 1cf9 6abc 9871 debc aaf0 54bd
00000170: 162b 1b3d cb42 363d fd31 8c3d c235 743c
00000180: ed90 42bd c2e1 c13b 90ad 743d 4dbb 68bd
00000190: efd6 0b3d 7fd5 c4bc 9d09 893b 6446 7abc
000001a0: 934d 003d 0b45 b4bc bc72 1f3d 9e0f 41bd
000001b0: 7dca 653d 397a 8b3d c45f 763d 17b2 783d
000001c0: 8f1b b7bc 394c 64bd 69f4 ec3c 2d36 d63c
000001d0: 60e6 a3bb b43f b53a 384f aebc 256b b43c
000001e0: 4ee0 783d f6f3 0ebd 3ff1 153d 4304 c1bc
000001f0: d221 193d cd10 38bd e743 94bc 61d6 f73b
00000200: 23b0 abbc 5deb 093d 1d6e 2fbd 5b3e 843d
00000210: b29b 9c3b f496 0e3d 3839 d63b 8494 24bd
00000220: b6df 76bb 82a9 2c3d 59ea 25bb ee85 bdbb
00000230: a2e3 4cbc 1112 bb3c a91a b43c e7f9 003b
00000240: 0ec3 37bd 8335 153c a3da 25bd 0e0f 8cbc
00000250: e988 1abc fc95 4fbc 6c23 23bd 95cc 77bc
00000260: e886 b03b 5293 68bd c29e 22bd e8e3 0abd
00000270: 93ab 4a3d f8bd c13b e664 363d 9f3e 51bd
00000280: 30de 62bd a7ed f5bb 1c8f 2ebd 6608 753d
00000290: 0412 37bd ad01 2e3b 2581 03bc 7596 ccbc
000002a0: a7d0 b7bb ddbf 37bd 6179 b63c 399e 16bd
000002b0: 3a82 9b3b 80bd c93c 2563 12bd 62b4 eb3c
000002c0: 4a34 5aba 8fe6 bebc 6cdc 08bd ca82 813d
000002d0: 5f75 8ebc 7a5e 223d c7bd 4b3c 24ff 02bd
000002e0: df9e 32bd 1433 983b d30c e7bc 5538 01bd
000002f0: 7969 0c3a f5a8 1bbd ccd6 523d 12a9 e03c
00000300: 86dd 42bc 131b e6bc a7da a1ba f407 f03b
00000310: 7586 50bd 5086 febb ad81 023d 0a22 2ebd
00000320: 0164 b23b e15b 10bd f59f 95bc c3ff 10bd
00000330: 7e2c 1bbd 8895 643c 936d b03c 2de3 163d
00000340: 1b4b d6bc d9ea 6cbc a845 1f3a 2954 ad3c
00000350: 4b03 123d dfaf 5ebd c00e 81bd 5e8b 633d
00000360: 3bf6 85bc cd17 753c 7015 4ebd 16d2 79bb
00000370: 07c3 043d 5692 543d 2af9 a5bb 5d4a 313d
00000380: 677a e3bc ec3f 5dbc ff9e 0e3c 84b4 33bd
00000390: 74bd 153d 1723 5f3b d580 823b 62c7 ffbb
000003a0: 1043 243c 169d 79bd 641b 143d ae4e fdbc
000003b0: 36d3 123d 3b2b a53a 7172 1a3c a0b0 313d
000003c0: bfb4 19bd 2fb6 2abd be21 a53b 36b9 afbc
000003d0: 671d 63bd 5ff0 603c 826b b33b f656 ecba
000003e0: 8b3e f63c 6f73 acbc 1e56 3abd 21fc e6bc
000003f0: 79c0 943c 79e5 07bd 7b6d 2bbd 8e61 a73c
-0.027407503 0.05265835 -0.027941827 0.06251142 -0.023755457 0.053807154 -0.036639575 0.023185488
0.026585745 0.045266036 0.0636207 -0.030557962 -0.038209625 0.05592356 0.062560946 0.03838341
-0.028605416 -0.026865691 -0.05045749 -0.02707466 -0.04085371 0.014376745 -0.036059447 -0.015901204
0.069475755 -0.033902694 -0.022473546 -0.0127692595 0.0361208 0.017290413 0.06696734 -0.03722424
-0.02031321 0.058699545 -0.009783071 0.050092183 -0.027857987 -0.01821383 0.024224177 -0.04088131
0.051389746 -0.040927336 0.047643926 -0.043600064 0.037964035 0.04213024 0.005589839 0.044896916
0.046932727 -0.060332056 0.01049975 0.04638842 -0.016564514 0.069389746 -0.008372164 -0.026599705
-0.025338983 0.034214854 -0.0069867857 -0.046939805 0.018035876 -0.036860373 0.033536784 -0.020286646
-0.013198256 -0.02960047 -0.010360625 0.010334425 -0.046136104 0.0035062658 0.0091122 -0.055837225
-0.003426208 -0.028776303 -0.01725329 0.008959689 -0.03358449 -0.021896113 0.019972421 0.039355755
-0.022358742 -0.04635804 0.026811844 0.041342147 0.049933244 0.0020659855 -0.02709958 0.07141418
-0.044374894 -0.014341619 -0.027153775 -0.051987328 0.037882887 0.044497292 0.06845472 0.014905395
-0.047501493 0.005916805 0.059735835 -0.05681925 0.034140524 -0.024027584 0.004182054 -0.0152755715
0.03132398 -0.022005579 0.03892778 -0.047134034 0.05610131 0.068104215 0.060149923 0.060716715
-0.022352008 -0.055736754 0.028925138 0.02614888 -0.005001828 0.0013828189 -0.021278009 0.022023747
0.06076079 -0.034900628 0.036607023 -0.023561602 0.03738577 -0.044937897 -0.018098785 0.0075633978
-0.020958012 0.033671726 -0.04282962 0.06457206 0.0047793025 0.03481193 0.0065375827 -0.040180698
-0.0037669963 0.042153843 -0.0025316684 -0.005783788 -0.012505444 0.022835763 0.021985369 0.0019680203
-0.044863753 0.0091069965 -0.04049171 -0.017097022 -0.009432056 -0.012670036 -0.039828703 -0.01512446
0.005387176 -0.05678112 -0.039702184 -0.033908755 0.049480032 0.0059125386 0.044529818 -0.05108511
-0.055387676 -0.007505137 -0.04261695 0.059822462 -0.044694915 0.0026551292 -0.008026396 -0.024974087
-0.00560959 -0.04486071 0.022274675 -0.036771987 0.004745749 0.024626493 -0.035739083 0.028772537
-0.0008323832 -0.023303298 -0.033413336 0.06323774 -0.017389951 0.03964088 0.012435383 -0.031981602
-0.043608543 0.004644761 -0.028204357 -0.031547863 0.0005356293 -0.038002927 0.051474378 0.027424369
-0.011893636 -0.028089082 -0.0012348489 0.007325167 -0.05090948 -0.007767476 0.03186195 -0.04251293
0.0054440503 -0.035243873 -0.01826475 -0.035400163 -0.037884228 0.013951667 0.021536624 0.036837745
-0.02615886 -0.014460289 0.0006075748 0.021158295 0.03564767 -0.054366942 -0.063016415 0.055552833
-0.016352763 0.014959288 -0.050313413 -0.0038119606 0.032412555 0.05189737 -0.005065103 0.04328381
-0.027768327 -0.01350401 0.0087049 -0.043873325 0.03655763 0.0034048015 0.003982643 -0.0078057507
0.010025755 -0.060940824 0.036158934 -0.030921306 0.035845958 0.0012601385 0.009426699 0.043381333
-0.03752589 -0.04167765 0.005039423 -0.02145062 -0.055447962 0.013729184 0.0054754624 -0.0018031287
0.03005912 -0.021051137 -0.045492284 -0.028196396 0.018158184 -0.033177827 -0.041852456 0.02043226

action_model._discrete_distribution.branches.0.bias f4 [4]
00000000: b443 dabb 1bb2 35bc 1511 11ba 1dd2 943c
-0.006660903 -0.011089827 -0.00055338565 0.018166596

exp_avg f4 [128, 9]
00000000: d640 783a 0000 0000 63dc 9e3a 721b 933a
00000010: b8f5 b63a 229c a93a 4ef1 6739 5a1f fa38
00000020: a232 963a e3cd 48ba 0000 0000 edb4 75ba
00000030: bff7 88ba bff1 11bb dea5 caba 8f03 a839
00000040: 1a35 833a 1b6a 88ba d704 4639 0000 0000
00000050: 4261 7f39 8eaf 9839 5300 573a ff13 7139
00000060: e882 9738 64c6 07ba f970 9939 cf8a f33a
00000070: 0000 0000 3688 1a3b 9fc8 0f3b 1321 2f3b
00000080: d090 373b 344a 3439 7d91 9d39 e555 123b
00000090: b0b4 2bba 0000 0000 76c1 4bba 6834 80ba
000000a0: 294b 29bb 648b cdba a95b 083a b227 c93a
000000b0: 182e 7cba e95b 2b39 0000 0000 7787 5539
000000c0: 9c18 2b39 4fe8 9cb6 736e 9a39 5ec2 0ab8
000000d0: 506a 8b39 4a13 2f39 2b13 deb6 0000 0000
000000e0: ae6e f8b6 8b6b ebb6 381f 1eb6 ef59 afb7
000000f0: 060e 2d37 ed48 0ab7 d5c3 e6b6 fd2f 73ba
00000100: 0000 0000 a3a4 9bba 0c91 9dba 81b6 0fbb
00000110: c0ef aaba d1e9 3cb9 98aa 393a 33a2 9fba
00000120: 3a61 0c38 0000 0000 d7ae 3538 c08f 2038
00000130: 3546 2338 9c11 1d38 1814 8737 c01d 7537
00000140: e375 2538 045e d1b9 0000 0000 64b5 03ba
00000150: 5f77 02ba 983e 4dba 3495 23ba d26e 7ab7
00000160: 250a 1739 0711 04ba 5bb0 183a 0000 0000
00000170: b553 413a 03cb 353a 5fa9 673a ad1e 6e3a
00000180: e5d6 c537 3324 4a38 1eaa 383a 3386 403a
00000190: 0000 0000 0e5c 723a 5f8b 683a 534e 9f3a
000001a0: edda 9f3a 63bb 3ab8 3839 29b8 b861 6b3a
000001b0: eebd b339 0000 0000 efa2 c839 3b2f f939
000001c0: 4d17 8a3a 0254 913a eadc 12ba c857 04ba
000001d0: b467 f139 8d7b 3dba 0000 0000 b719 73ba
000001e0: 16fe 64ba 6b6e 9dba bed0 78ba fb6e 59b9
000001f0: d868 3b38 a5be 69ba 069c 37ba 0000 0000
00000200: db8c 68ba 56c1 5dba 8cef 97ba 06b6 83ba
00000210: bcd4 f2b8 45d7 2138 d7b1 61ba 0c59 8fb9
00000220: 0000 0000 14b1 b9b9 67b6 b4b9 8e58 15ba
00000230: c818 b4b9 2f0a c5b8 079f 0a39 c819 b8b9
00000240: 6d26 a6b9 0000 0000 0349 d2b9 d357 c9b9
00000250: ca58 0cba c9be fbb9 ff84 e1b7 28b8 ed37
00000260: 1f78 ccb9 68fa b939 0000 0000 0462 df39
00000270: 39b0 f939 7849 7e3a 1694 533a 562e 7bb9
00000280: b3fa d2b9 097a f739 755d 5dba 0000 0000
00000290: bfb4 99ba f533 59ba 7bbd 0839 3376 deb8
000002a0: 1430 a3ba 4c21 c2ba 60b1 69ba eb45 f2b9
000002b0: 0000 0000 84dc 2dba 429c ceb9 2b4c 0f3a
000002c0: 4977 4439 1def 72ba b284 a8ba 5466 e6b9
000002d0: 3859 45ba 0000 0000 8d63 86ba e378 53ba
000002e0: 906b e0b9 f6cd b4b9 105b 61ba 7d78 4bba
000002f0: f31f 5fba 6202 e7b9 0000 0000 68bc 16ba
00000300: a289 05ba de5b 0fba db13 eeb9 318a 83b9
00000310: 13a0 25b9 ddc7 09ba 565d 64b9 0000 0000
00000320: fca1 9fb9 9228 59b9 faea b438 8f6b b4b6
00000330: 18df b3b9 d7da e3b9 c549 6bb9 1fde 453a
00000340: 0000 0000 c35e 743a a343 763a 6870 c03a
00000350: 55e8 b43a 97e7 34b9 c189 88b9 fbbb 773a
00000360: a7a7 c6b9 0000 0000 bd21 f4b9 a9a0 0fba
00000370: 701f b1ba b040 50ba e84f 4539 6b42 433a
00000380: c05b 0eba 28b4 c3b8 0000 0000 a25c f8b8
00000390: 5cbe f4b8 5b00 43b9 be70 0ab9 f3fb 90b7
000003a0: 42b2 1938 518b f8b8 ab0c 95ba 0000 0000
000003b0: e51a c0ba 8067 b1ba df17 e2ba 5a58 c2ba
000003c0: cc89 b0b9 40ff c5b8 f659 b5ba 912f f13a
000003d0: 0000 0000 6b52 173b 19b6 123b fff0 4f3b
000003e0: 84f1 403b 866f b533 11e1 6fb9 60a3 143b
000003f0: 5e8e b4ba 0000 0000 46c4 deba f781 f1ba
0.00094701105 0.0 0.0012120124 0.0011223389 0.0013958728 0.0012940208 0.0002211977 0.00011926769
0.0011459182 -0.0007660074 0.0 -0.00093729683 -0.0010449811 -0.0022269336 -0.0015460809 0.00032046108
0.0010010332 -0.0010407598 0.00018884554 0.0 0.00024354926 0.00029122498 0.00082016474 0.00022991
7.224624e-05 -0.0005179404 0.00029266605 0.0018580797 0.0 0.0023579723 0.0021939648 0.0026722595
0.00280099 0.0001719378 0.0003005377 0.002232903 -0.0006550057 0.0 -0.00077726634 -0.0009781243
-0.0025832152 -0.00156818 0.00052016467 0.0015346913 -0.00096199056 0.0001634207 0.0 0.00020363728
0.00016316999 -4.6762066e-06 0.0002945546 -3.3082782e-05 0.00026591355 0.00016696486 -6.618347e-06 0.0
-7.4038608e-06 -7.0160654e-06 -2.3562006e-06 -2.0903504e-05 1.0314869e-05 -8.24242e-06 -6.877332e-06 -0.0009276865
0.0 -0.0011874627 -0.0012021377 -0.002192885 -0.0013041422 -0.0001801618 0.00070826104 -0.0012179076
3.346915e-05 0.0 4.3316595e-05 3.828085e-05 3.8927614e-05 3.7448117e-05 1.6102611e-05 1.4610065e-05
3.9448856e-05 -0.00039933634 0.0 -0.0005024283 -0.0004976894 -0.00078294566 -0.00062401895 -1.4926964e-05
0.00014404261 -0.00050379377 0.0005824619 0.0 0.0007374839 0.0006934853 0.0008837189 0.00090835505
2.3584298e-05 4.8194266e-05 0.00070443924 0.0007344216 0.0 0.00092452846 0.00088708656 0.001215408
0.0012195982 -4.4520373e-05 -4.034603e-05 0.00089791 0.0003428305 0.0 0.00038268368 0.0004752817
0.0010535509 0.0011087658 -0.0005602377 -0.0005048481 0.00046044367 -0.00072281883 0.0 -0.0009273546
-0.00087353715 -0.0012011057 -0.0009491554 -0.00020736076 4.4681918e-05 -0.0008916653 -0.00070041453 0.0
-0.0008871087 -0.000845929 -0.0011591776 -0.0010048754 -0.00011579084 3.8585877e-05 -0.0008609569 -0.0002734143
0.0 -0.00035417883 -0.00034468176 -0.00056970946 -0.0003435074 -9.395589e-05 0.00013219948 -0.00035114423
-0.00031690617 0.0 -0.0004010872 -0.00038403142 -0.0005353807 -0.00048016597 -2.6884021e-05 2.8338356e-05
-0.0003899941 0.00035472517 0.0 0.00042606902 0.00047624277 0.0009700279 0.0008071078 -0.00023954487
-0.00040241107 0.00047202435 -0.0008444407 0.0 -0.001172684 -0.0008285635 0.00013040558 -0.00010607801
-0.0012450241 -0.0014810949 -0.00089146756 -0.0004620993 0.0 -0.00066322857 -0.00039407803 0.0005466367
0.00018736454 -0.0009267198 -0.0012856929 -0.0004394526 -0.0007528248 0.0 -0.0010253057 -0.0008067025
-0.0004280475 -0.00034485728 -0.0008596638 -0.00077617896 -0.00085115357 -0.0004406153 0.0 -0.00057501206
-0.0005094056 -0.00054687064 -0.0004540969 -0.00025089228 -0.00015795259 -0.0005255917 -0.00021778545 0.0
-0.0003044753 -0.00020709846 8.626837e-05 -5.3769395e-06 -0.00034307758 -0.00043459862 -0.00022438828 0.0007548052
0.0 0.0009321982 0.0009394234 0.0014681937 0.001380215 -0.00017252412 -0.00026042576 0.00094503135
-0.00037890414 0.0 -0.00046564444 -0.00054789573 -0.0013513397 -0.00079442095 0.00018817151 0.0007448557
-0.0005430542 -9.331881e-05 0.0 -0.00011842816 -0.00011670284 -0.00018596782 -0.00013202705 -1.728346e-05
3.6644058e-05 -0.00011851511 -0.0011371573 0.0 -0.0014656453 -0.0013534874 -0.0017249546 -0.0014827356
-0.00033672003 -9.441236e-05 -0.0013836015 0.0018401017 0.0 0.0023089896 0.002238637 0.0031729338
0.002944083 8.448755e-08 -0.0002287666 0.0022680387 -0.0013775339 0.0 -0.001699575 -0.0018425573

exp_avg_sq f4 [128, 9]
00000000: a439 4037 0000 0000 8b25 5037 b4c2 fd36
00000010: ca2d b237 c068 6937 15aa 2137 8265 1237
00000020: 0f15 2937 0c4e 3a38 0000 0000 2de4 8138
00000030: 6b68 9237 d5dd a438 d52e 8c37 3b8a 8a38
00000040: d87f 9738 7e74 d837 85f6 9037 0000 0000
00000050: 2fe3 b537 a126 f436 6e9f b637 2d0f 8936
00000060: 0abd ff37 e867 ec37 5162 4037 658d 9a38
00000070: 0000 0000 f1b7 6238 128c ec37 1640 e038
00000080: 094f be38 046f 2538 9dff ba38 63cf 4e38
00000090: a8b6 7038 0000 0000 94f2 b738 1c5b c637
000000a0: f4b7 f338 d7b6 7237 af35 e438 128a c338
000000b0: 2904 0f38 a9ca 2b37 0000 0000 da67 1337
000000c0: ba66 5936 87e4 9f37 2e0f 0037 0502 5537
000000d0: ccf7 5837 4ce3 ca36 c3d9 db34 0000 0000
000000e0: 9b57 8434 8a4c 2433 2d31 df34 34a2 0335
000000f0: b5e4 d134 3f97 f834 93d1 4a34 653a 7b38
00000100: 0000 0000 fcf0 7b38 fcf8 8f37 f41c df38
00000110: 1295 b437 b678 a138 dfdd c838 2bf7 0638
00000120: d13f df33 0000 0000 52b7 5a33 4271 0432
00000130: aadb b833 8b71 6f33 dc4f ef33 c837 2d34
00000140: 197f 5c33 6306 1238 0000 0000 6eef 0838
00000150: 5e24 6436 46b2 2438 0984 5637 3a12 db37
00000160: 6a61 9938 386c 4237 a3e9 b136 0000 0000
00000170: 67ba 6f36 4778 df35 d682 f736 e05e f636
00000180: 08d0 a035 fab4 e936 8bfc 5136 3e5f 3637
00000190: 0000 0000 6196 eb36 a58f 1436 d0b6 3837
000001a0: 3221 9637 d8c1 cf35 ae03 8a37 5185 b236
000001b0: a26b 3337 0000 0000 e87a fb36 b612 4236
000001c0: 4f84 7137 b586 4e37 759b c836 2181 8e37
000001d0: 5f2f c136 4737 bd37 0000 0000 6a16 d437
000001e0: 3bdd de36 ff4d 1238 f255 3e37 b0d7 c437
000001f0: 2e17 2538 c7e3 3837 b3cb 3837 0000 0000
00000200: 6eb3 8237 95aa 1937 0cc2 be37 a5f7 ae36
00000210: 75f6 8737 0d08 1f37 a0b2 3837 58eb 9235
00000220: 0000 0000 4557 b035 83c2 3935 a462 0f36
00000230: 6159 9334 f03d e635 b8f5 9935 ec3c 7e35
00000240: 5d57 9235 0000 0000 072c b635 3080 7f35
00000250: b561 1c36 7d2d ba35 4395 8435 2516 a834
00000260: 520b 9b35 f38e 5936 0000 0000 ee57 a936
00000270: e60f f635 fe1c a336 f3db 2336 3490 4236
00000280: d0cd 8f36 dec9 1b36 cae6 c037 0000 0000
00000290: 1c5d ed37 b10e 5a36 f795 a237 9cc1 8e36
000002a0: 7c59 0438 bf89 5e38 5a77 0e37 d76a 3238
000002b0: 0000 0000 e07f 3438 94f5 c636 fea0 1038
000002c0: 544f e436 bdb2 8938 53bb c838 f194 9337
000002d0: 640e 1c37 0000 0000 55d1 e436 16c3 e235
000002e0: 8309 3037 c84c 9636 748c 1137 0771 9837
000002f0: c6ee 9036 9135 5737 0000 0000 301b 4c37
00000300: bc30 e735 655b 8f37 3fdc b536 401f 3d37
00000310: d48a dc37 d4ce 9636 3439 d836 0000 0000
00000320: 4d82 0b37 da77 4435 4fe4 d836 f613 b534
00000330: af7e 4e37 483b 8137 9669 0e36 9931 4a37
00000340: 0000 0000 d12d 4137 d28d 8e36 bbdd ad37
00000350: 6d68 9437 9143 be36 8844 5f37 b020 e436
00000360: 2387 9537 0000 0000 0235 aa37 ef82 c336
00000370: cc44 0538 a744 c236 515d e137 1d2f f337
00000380: 7765 2837 cf1b 5735 0000 0000 4c1b 4435
00000390: 9a37 8e34 e079 a335 3dca 7d35 92af 8634
000003a0: 052f 6635 0184 ec34 e951 0338 0000 0000
000003b0: 5de7 0338 5957 9637 e5d7 5338 049e 8f37
000003c0: 37b1 2a38 8968 2a38 069c d737 4aa8 2038
000003d0: 0000 0000 38be 3238 87ae ad37 3de7 9638
000003e0: 8fb5 7738 561d 9537 39e7 0138 6cfe e637
000003f0: 54cc 0739 0000 0000 1d85 5239 40a9 5a38
1.1457512e-05 0.0 1.2406507e-05 7.562654e-06 2.1240576e-05 1.3912271e-05 9.635948e-06 8.725912e-06
1.0078088e-05 4.4418543e-05 0.0 6.1937004e-05 1.745318e-05 7.861449e-05 1.6711108e-05 6.6061e-05
7.224054e-05 2.5803452e-05 1.7280932e-05 0.0 2.1682672e-05 7.2762637e-06 2.1770331e-05 4.084685e-06
3.0486397e-05 2.8181777e-05 1.1466983e-05 7.369629e-05 0.0 5.4053908e-05 2.8198618e-05 0.00010693089
9.0746275e-05 3.9442457e-05 8.916783e-05 4.930737e-05 5.739057e-05 0.0 8.771304e-05 2.3645865e-05
0.00011621407 1.4466895e-05 0.000108818866 9.324042e-05 3.409773e-05 1.023958e-05 0.0 8.786063e-06
3.2395315e-06 1.9060693e-05 7.632929e-06 1.269626e-05 1.2932298e-05 6.04653e-06 4.095037e-07 0.0
2.4650657e-07 3.8253837e-08 4.1572767e-07 4.903734e-07 3.909569e-07 4.6303646e-07 1.8888959e-07 5.9897447e-05
0.0 6.0067498e-05 1.716287e-05 0.000106388616 2.1527088e-05 7.6995624e-05 9.57807e-05 3.2178283e-05
1.0395855e-07 0.0 5.092381e-08 7.709163e-09 8.608124e-08 5.574979e-08 1.1143831e-07 1.6132174e-07
5.1338336e-08 3.481506e-05 0.0 3.2647913e-05 3.3995816e-06 3.9266677e-05 1.2786136e-05 2.6115322e-05
7.313753e-05 1.1588498e-05 5.30221e-06 0.0 3.5722276e-06 1.66498e-06 7.376405e-06 7.342416e-06
1.1981474e-06 6.9650096e-06 3.1290426e-06 1.0870221e-05 0.0 7.021052e-06 2.213733e-06 1.1009819e-05
1.7896851e-05 1.5479118e-06 1.6452595e-05 5.3203335e-06 1.0694292e-05 0.0 7.494691e-06 2.8919144e-06
1.4395525e-05 1.2309921e-05 5.978562e-06 1.698785e-05 5.757363e-06 2.2556296e-05 0.0 2.5282807e-05
6.64187e-06 3.4881752e-05 1.1344893e-05 2.3465458e-05 3.9360653e-05 1.1020288e-05 1.1014682e-05 0.0
1.5580761e-05 9.159227e-06 2.2740125e-05 5.2144337e-06 1.620802e-05 9.479013e-06 1.1008844e-05 1.0946342e-06
0.0 1.3138421e-06 6.920092e-07 2.1366077e-06 2.7445915e-07 1.7154362e-06 1.1470902e-06 9.4711027e-07
1.0903274e-06 0.0 1.357287e-06 9.518144e-07 2.3302684e-06 1.3871319e-06 9.878207e-07 3.130855e-07
1.1551695e-06 3.2418727e-06 0.0 5.046829e-06 1.8333055e-06 4.8611537e-06 2.441692e-06 2.899219e-06
4.285692e-06 2.3214302e-06 2.2995653e-05 0.0 2.8295959e-05 3.2493083e-06 1.9381738e-05 4.254469e-06
3.155459e-05 5.305721e-05 8.491648e-06 4.253801e-05 0.0 4.3034437e-05 5.929449e-06 3.448221e-05
6.8041645e-06 6.565962e-05 9.571635e-05 1.7593122e-05 9.301675e-06 0.0 6.819299e-06 1.689509e-06
1.0492632e-05 4.479287e-06 8.675375e-06 1.8172444e-05 4.3193313e-06 1.28274705e-05 0.0 1.2165678e-05
1.7225025e-06 1.7089487e-05 5.4198604e-06 1.1272554e-05 2.629069e-05 4.4944263e-06 6.443961e-06 0.0
8.315384e-06 7.3190097e-07 6.4638803e-06 3.37284e-07 1.2308053e-05 1.5405603e-05 2.1221108e-06 1.2051686e-05
0.0 1.1514364e-05 4.24844e-06 2.0726458e-05 1.7691602e-05 5.670307e-06 1.3307792e-05 6.798735e-06
1.7825112e-05 0.0 2.0290263e-05 5.8266955e-06 3.1773743e-05 5.7896427e-06 2.6865544e-05 2.8989796e-05
1.0037204e-05 8.013421e-07 0.0 7.305541e-07 2.6490017e-07 1.2179917e-06 9.454414e-07 2.508719e-07
8.57501e-07 4.405447e-07 3.130912e-05 0.0 3.1448308e-05 1.7922068e-05 5.0507388e-05 1.712051e-05
4.0696203e-05 4.0628514e-05 2.5702651e-05 3.8303704e-05 0.0 4.2615662e-05 2.0704478e-05 7.195629e-05
5.905848e-05 1.7775845e-05 3.097134e-05 2.7536611e-05 0.00012950721 0.0 0.00020076749 5.2132877e-05

exp_avg f4 [128]
00000000: 439a c63a b6a4 a0ba 466a 9e39 75d5 423b
00000010: 585d 89ba 5216 8939 f3a8 31b7 cc8c c2ba
00000020: 909b 6038 697e 27ba 5e4d 743a f704 9a3a
00000030: 24cb 0f3a 0b96 97ba 39e3 92ba 465b e5b9
00000040: 8beb 04ba 53c8 143a 8f17 b1ba 8bd1 41ba
00000050: fae0 9dba b4ce 38ba 14b1 b6b9 4d4b 9e3a
00000060: 89ec 1eba 1f90 1cb9 ab7a eeba daf2 403b
00000070: e571 10bb 7641 413a aff1 2b3a fbf1 9e3a
00000080: 3c9f 0d3b 02b9 343b 1c48 58b7 68f0 03b9
00000090: 1767 90b9 ad44 2137 55f4 bbb9 28f3 96ba
000000a0: 333b 9bb9 3160 76b8 728f d73a 5124 bdba
000000b0: d5fc fa3a c225 9fb9 5af4 acb9 2aa9 7ab9
000000c0: 9121 4a3a fe0f 27ba 4a81 4c3a 3b1f 60b9
000000d0: f5cc a739 23fd 9cb8 4226 c8ba 99b2 e43a
000000e0: 1b8b 003a e2b1 81ba 3cc7 12ba 18f8 3cba
000000f0: 27fc dcba 412e 09ba 7fee 48ba 6862 473a
00000100: 5387 d8ba 89ce 373b c4af 35ba f016 4b3b
00000110: 9694 b8ba 1b66 f9ba 450f 94ba e47d 9c39
00000120: 2d4f a8ba 1e26 4fba cd8a 9dba f96c 24b9
00000130: aa5f 4e39 5fee 2a36 663c 8dba 540e f53a
00000140: 4f68 5fba afc6 cd3a 004a ffb9 baad 0a39
00000150: 91da f83a 6112 f837 1db3 11b7 4fe6 22b9
00000160: f07a f1ba da36 1eb8 fce4 de3a fa02 e43a
00000170: 032f 1138 d2d6 f6b9 e6cd ed39 ffbe b03a
00000180: e36d fe38 effe cbba 71fd 0bba d93b 613a
00000190: 7c70 91b8 c75e 2d39 a51a d9b8 7697 c8ba
000001a0: 6c76 b23a c8e2 a7ba c481 cc38 2e59 4839
000001b0: 596f 44b9 a836 97ba 776d 223a 5a73 0eb8
000001c0: da4d a5ba 6f64 8e3a 5e2c 66ba 495b 1d3a
000001d0: 0ce3 82b9 357d 0c3b 1fd8 d539 be41 a8ba
000001e0: 2138 f439 09cb e63a 74ac 5b39 bd37 0dbb
000001f0: d946 5438 b1dd cc39 f5eb 1cb9 44a4 1fba
0.0015152175 -0.0012256119 0.00030215288 0.002972928 -0.0010480089 0.00026147306 -1.0589359e-05 -0.0014842986
5.355064e-05 -0.0006389381 0.000931939 0.0011750747 0.00054852874 -0.0011565102 -0.0011206634 -0.00043746288
-0.0005070499 0.00056756026 -0.0013511049 -0.000739359 -0.0012045198 -0.0007049844 -0.0003484568 0.0012076885
-0.0006062468 -0.00014931009 -0.0018194517 0.0029441626 -0.0022040543 0.000737212 0.0006559146 0.0012126559
0.0021609804 0.0027576094 -1.28913925e-05 -0.00012582692 -0.00027542628 9.612338e-06 -0.0003584946 -0.0011516558
-0.0002960801 -5.8740556e-05 0.0016445948 -0.0014430379 0.0019148836 -0.00030354975 -0.00032988453 -0.00023904876
0.000771069 -0.00063729275 0.0007801248 -0.00021373939 0.00032005427 -7.48581e-05 -0.0015270191 0.0017448246
0.0004903541 -0.0009894932 -0.0005599146 -0.00072086 -0.0016859815 -0.00052330276 -0.0007664933 0.0007605911
-0.0016519822 0.0028046689 -0.0006930793 0.0030989014 -0.0014082368 -0.0019027622 -0.0011296055 0.00029848434
-0.0012840979 -0.0007902103 -0.0012019515 -0.00015680854 0.00019681329 2.5470724e-06 -0.0010775446 0.0018696287
-0.0008522318 0.0015699471 -0.00048692524 0.00013225424 0.0018986036 2.9572462e-05 -8.684377e-06 -0.0001553532
-0.0018423479 -3.772122e-05 0.0017005499 0.0017395907 3.4614477e-05 -0.0004708083 0.0004535757 0.0013484656
0.00012132132 -0.0015563647 -0.0005340195 0.0008591987 -6.935091e-05 0.00016533873 -0.00010352329 -0.0015303928
0.0013615615 -0.0012808675 9.751649e-05 0.00019106708 -0.00018733497 -0.0011536675 0.0006196121 -3.3962868e-05
-0.0012611703 0.0010863672 -0.0008780415 0.0006002677 -0.00024964695 0.0021436934 0.0004078755 -0.0012836976
0.00046581126 0.0017608117 0.00020949711 -0.0021548115 5.061072e-05 0.00039075085 -0.0001496522 -0.0006089846

exp_avg_sq f4 [128]
00000000: 59cc eb37 04af e838 baf5 3138 a00a 3739
00000010: 21c1 1639 46f7 ca37 965f 7c35 e2e6 1739
00000020: 3537 7e34 9f0c b238 c874 5337 fa6c d837
00000030: 0e7c d537 3fd5 6938 953f e737 5379 3536
00000040: baa1 3436 f1a6 0937 e0c8 6e38 4988 d938
00000050: 76f6 b837 e69e 0338 5c9d 8637 7e27 f637
00000060: 1ade 3638 c5e9 0136 218a 9f38 176a c638
00000070: 2f54 ab39 2f65 8537 52f8 1a37 8c28 0f38
00000080: ca2f 9738 a47a e538 9d09 b835 3161 0a36
00000090: 9b8c 1b37 0956 c435 274f 3c37 c2f8 cc37
000000a0: 9e14 7036 69e4 9334 a1ac 2138 d255 a738
000000b0: ea0e a338 de2c 5039 1b88 fb38 ffaa 0237
000000c0: 75b1 8a38 1e51 9a38 49da e737 3813 3437
000000d0: bf93 b037 7865 8134 8fa4 7f38 92b5 2339
000000e0: aee4 2b38 6560 5338 51ea dc37 b06a ea37
000000f0: cc80 cc38 1fe4 8836 f4fb 7237 60ba 5237
00000100: a0e2 1b39 c6bc 0639 6433 8437 c17a 0939
00000110: c3e1 d538 c215 2f38 289d e337 680e f537
00000120: a4ae 5038 6966 8738 d8d0 d138 a42d b735
00000130: da49 5f38 530c 5538 7c5f 2338 b446 2c38
00000140: 41f3 1f38 59eb 2a38 db24 6239 27fe 2538
00000150: d5c1 7d38 b41a 1437 2360 5a35 de67 a438
00000160: 0c3b 8038 36fa bc35 e46c 6438 126e 4138
00000170: 51d6 1838 b0e8 3839 dad4 a937 1902 b438
00000180: d8b7 0636 1e40 3a39 1544 0638 675c 6938
00000190: 3aeb 0034 6f2e db37 0838 5e36 91e6 b038
000001a0: 02ea 9f38 5149 e838 d060 7335 2ce6 c337
000001b0: 5d59 d238 bdcd d138 9c93 a137 3482 da34
000001c0: 85dc 6b38 a276 bc37 d026 d737 45db 7f37
000001d0: 0e86 b038 dcf0 8838 04be 5236 e9cd 8439
000001e0: a243 7836 dffc 8938 2728 af37 c8a8 8d38
000001f0: 5178 bf35 bfa1 2d36 f484 6737 747d b038
2.810934e-05 0.00011095221 4.242894e-05 0.00017456198 0.00014377061 2.4195422e-05 9.401641e-07 0.00014486493
2.3675678e-07 8.490052e-05 1.260377e-05 2.5799953e-05 2.5449346e-05 5.575013e-05 2.7566954e-05 2.7041722e-06
2.6916227e-06 8.204705e-06 5.69307e-05 0.000103727514 2.2049277e-05 3.138082e-05 1.6047321e-05 2.9343875e-05
4.359903e-05 1.935857e-06 7.607439e-05 9.4611365e-05 0.00032678383 1.5901953e-05 9.236932e-06 3.413162e-05
7.2091425e-05 0.000109424145 1.3711866e-06 2.0620175e-06 9.271457e-06 1.4628177e-06 1.1224102e-05 2.4434532e-05
3.5774788e-06 2.7547074e-07 3.8546164e-05 7.979166e-05 7.775224e-05 0.0001985314 0.00011993964 7.788417e-06
6.613407e-05 7.3584015e-05 2.7638993e-05 1.0733311e-05 2.1049635e-05 2.410195e-07 6.0949995e-05 0.00015612532
4.098255e-05 5.0396095e-05 2.6335156e-05 2.7944654e-05 9.751468e-05 4.0796726e-06 1.4482986e-05 1.2560369e-05
0.00014866376 0.0001284956 1.5759557e-05 0.00013111068 0.00010198683 4.1743515e-05 2.713369e-05 2.9212984e-05
4.975371e-05 6.456377e-05 0.00010004797 1.3647846e-06 5.3236123e-05 5.0794635e-05 3.8951155e-05 4.1073843e-05
3.8135102e-05 4.0750343e-05 0.0002156677 3.9575763e-05 6.050042e-05 8.827705e-06 8.1351226e-07 7.839476e-05
6.114514e-05 1.4079912e-06 5.446085e-05 4.6117297e-05 3.643922e-05 0.0001763429 2.0245487e-05 8.5834596e-05
2.0074567e-06 0.00017762228 3.2011496e-05 5.5637585e-05 1.2006504e-07 2.6128457e-05 3.3113192e-06 8.43528e-05
7.625298e-05 0.00011076278 9.0665435e-07 2.3352994e-05 0.000100302255 0.00010004218 1.9261432e-05 4.07004e-07
5.623374e-05 2.246659e-05 2.564807e-05 1.5250237e-05 8.4173036e-05 6.529849e-05 3.1403042e-06 0.00025330417
3.6994247e-06 6.57977e-05 2.0880323e-05 6.754842e-05 1.4265626e-06 2.5873157e-06 1.37996285e-05 8.4157014e-05
