Assets/results/Maze01/Mouse/Mouse-127886.pt (torch, 453592 bytes, 33 tensors)

network_body._body_endoder.seq_layers.0.weight f4 [128, 9]
0	0x3e46791a	0.19382134
1	0xbf79102c	-0.972903
2	0x3e829e59	0.25511435
3	0x3a69f6b3	0.00089250057
4	0xbd5ede63	-0.054411303
5	0x3cfcbd35	0.03085194
6	0x3dfde57a	0.12397285
7	0x3e435e89	0.19079031
8	0xbdb7b8d4	-0.089708
9	0x3ebe9bff	0.3722839
10	0x3f109b96	0.56487405
11	0x3ebcdaed	0.36885777
12	0x3ccecad2	0.025243197
13	0x3e0c7c66	0.13719329
14	0x3db26d21	0.08712221
15	0x3e85763c	0.26066768
16	0xbec2c9f9	-0.38044718
17	0xbe46555c	-0.193685
18	0xbdd65d81	-0.10467053
19	0xbcc3b71f	-0.02389103
20	0x3eb7e344	0.35915577
21	0x3e9cf33b	0.3065432
22	0xbed990dc	-0.4249333
23	0xbeb38a39	-0.35066393
24	0x3e07a31a	0.13245812
25	0x3ef2cba9	0.47421005
26	0xbea5989d	-0.32342997
27	0x3f1b55b0	0.60677624
28	0xbe293312	-0.16523388
29	0xbe436fdf	-0.19085644
30	0x3e2fdfd8	0.17175233
31	0x3f286c5a	0.6579033
32	0x3d00fb98	0.03148994
33	0x3e380788	0.17971623
34	0xbf207e91	-0.62693125
35	0x3f2854cc	0.6575439
36	0x3f2eaefb	0.6823575
37	0xbe48c82f	-0.19607614
38	0x3e45fdd6	0.19335112
39	0x3da0d144	0.07852414
40	0x3cfbfa73	0.030759072
41	0x3d9ace34	0.075588614
42	0x3e833586	0.25626773
43	0xbe95dd9e	-0.29270643
44	0xbf416f62	-0.7556058
45	0xbee4e44b	-0.44705424
46	0xbe95a5dc	-0.29228103
47	0x3ea0e99e	0.31428236
48	0xbe63bbfd	-0.2223968
49	0x3d630002	0.05541993
50	0xbd6cdb6f	-0.057826456
51	0x3eadb98b	0.3393062
52	0x3e63350b	0.22188203
53	0x3f0d311a	0.5515305
54	0xbc7977d5	-0.015226324
55	0x3f2e9331	0.68193346
56	0xbe3a4320	-0.18189669
57	0x3d8995d3	0.0671803
58	0x3c6708b1	0.014101193
59	0x3ecb81cb	0.39747462
60	0xbe16300a	-0.14666763
61	0x3ebd4af3	0.36971244
62	0xbf02a039	-0.5102573
63	0xbcc911fb	-0.024544707
64	0x3e26cc6f	0.16288923
65	0xbda61df9	-0.081111856
66	0xbd377de8	-0.044797808
67	0xbe7cfd83	-0.24706082
68	0xbf0ee47e	-0.558174
69	0x3e003f6f	0.12524198
70	0x3e8ad84e	0.27118152
71	0xbea90b44	-0.33016407
72	0xbdf6880f	-0.1203767
73	0x3e844f43	0.25841722
74	0x3efe2751	0.4963937
75	0xbec7e916	-0.39045018
76	0x3e77f738	0.242154
77	0xbe95ddef	-0.29270884
78	0x3dca21ed	0.09869752
79	0xbec96bb9	-0.39339998
80	0x3f245618	0.6419387
81	0xbe28dce4	-0.16490513
82	0xbe47722a	-0.19477144
83	0xbe8bbd65	-0.27292934
84	0x3ea7a4f0	0.32743025
85	0x3e618069	0.22021641
86	0xbd5c175a	-0.053733207
87	0x3c5f8a53	0.013643819
88	0x3d8698d8	0.065721214
89	0x3e890784	0.26763546
90	0x3d25e38f	0.04050022
91	0xbec82a44	-0.39094746
92	0xbeba0670	-0.36333036
93	0x3e45a6a2	0.19301847
94	0x3ea6df5e	0.3259229
95	0xbebc3d9d	-0.36765757
96	0xbed75ea1	-0.42064384
97	0x3f7dea4e	0.99185646
98	0x3e645388	0.2229749
99	0xbeffefa0	-0.49987507
100	0x3e357082	0.177187
101	0x3ea92182	0.33033377
102	0x3e8c699d	0.27424327
103	0x3ef70662	0.48247057
104	0xbe911511	-0.28336385
105	0x3eacc96a	0.33747417
106	0x3e34ef70	0.17669463
107	0xbdb1272e	-0.08650051
108	0xbe4bf828	-0.19918883
109	0x3e4733c7	0.19453345
110	0x3d8e1a70	0.06938636
111	0x3e8a79de	0.27046102
112	0x3f3f4752	0.747182
113	0x3e04d641	0.12972356
114	0x3e386d20	0.18010378
115	0xbdcb5acf	-0.0992943
116	0x3e292dd7	0.16521393
117	0x3f0c6d69	0.54854447
118	0x3e30b06c	0.172548
119	0x3e67ed60	0.22649145
120	0x3f020763	0.5079252
121	0x3e0818ba	0.13290682
122	0xbef935ea	-0.48673946
123	0xbef23d84	-0.47312558
124	0xbd4dcd0b	-0.050244372
125	0xbe1243d4	-0.14283687
126	0x3eaa139a	0.3321808
127	0x3f1081c6	0.5644802
128	0xbea15229	-0.31507996
129	0xbc9ffdc6	-0.019530188
130	0xbed12b17	-0.40853187
131	0x3e74b89f	0.23898552
132	0xbe29de72	-0.16588762
133	0x3e8f7929	0.28022125
134	0x3c2e971a	0.010656143
135	0x3eb9656f	0.362102
136	0x3f31e553	0.69490546
137	0xbea6b864	-0.32562554
138	0x3e3d5b44	0.18491846
139	0xbf84326b	-1.0327886
140	0xbc72a32c	-0.014809411
141	0x3d4ce1b4	0.050019935
142	0x3e678ef2	0.22613123
143	0x3e8f4329	0.27980927
144	0x3eb7ee49	0.35923985
145	0xbdbe097d	-0.092791535
146	0xbe793cae	-0.24339554
147	0x3d3843d3	0.044986557
148	0x3ee2aa7d	0.44270697
149	0x3e6a3fcb	0.22875898
150	0xbe370dd4	-0.17876369
151	0xbcdecf8d	-0.027198577
152	0xbe02d565	-0.12776716
153	0x3e7f748f	0.24946807
154	0xbe8516af	-0.2599387
155	0xbe11edfc	-0.1425094
156	0xbe6df58f	-0.23238204
157	0xbe9c5d3b	-0.3053988
158	0xbede1c16	-0.43380803
159	0x3e32d121	0.17462589
160	0xbe1ec6ac	-0.15505475
161	0x3e224593	0.15846853
162	0xbea2caea	-0.31795436
163	0xbdf69ec9	-0.120420046
164	0x3dc75e66	0.09734802
165	0x3cc891c6	0.024483573
166	0x3d854d05	0.06508831
167	0x3edeb716	0.43499058
168	0x3f09b60f	0.53793424
169	0x3edb1e60	0.42796612
170	0xbecf0c43	-0.40439042
171	0x3e8ac9d4	0.27107108
172	0xbf04fb2e	-0.5194577
173	0xbec62ef1	-0.38707688
174	0x3f2226ad	0.63340265
175	0xbdd997a7	-0.106246285
176	0xbcbbeb79	-0.02293943
177	0x3ce3c1e1	0.02780241
178	0x3e871b2c	0.26387918
179	0xbec8879a	-0.39165956
180	0xbeafa8c5	-0.34308448
181	0x3d3047f8	0.043037385
182	0x3e9e5c6c	0.30929887
183	0xbefabb23	-0.489709
184	0x3e787fb4	0.24267465
185	0xbe7fc310	-0.24976754
186	0x3dc65426	0.09684019
187	0x3d458d96	0.04823073
188	0x3e2d2ba7	0.16911183
189	0x3e9ca63c	0.30595577
190	0xbf011fd6	-0.504392
191	0x3d06e7f5	0.032936055
192	0x3e777d18	0.24168813
193	0x3e9ac7d9	0.30230597
194	0xbdcde38c	-0.10053167
195	0x3dec30b6	0.115327284
196	0x3e0b3ffc	0.13598627
197	0x3cb5e663	0.022204584
198	0xbf52b59e	-0.82308376
199	0xbedb9bb6	-0.42892236
200	0x3ebb7a65	0.36616817
201	0xbc935cc1	-0.017988564
202	0xbe205673	-0.15657978
203	0xbd21a092	-0.039459772
204	0x3f73e3d7	0.9526953
205	0xbe2e2988	-0.1700803
206	0x3f218096	0.6308683
207	0x3edfdfb2	0.43725353
208	0xbccacc84	-0.024755724
209	0x3eb331a7	0.3499882
210	0xbd943f3f	-0.07238626
211	0xbf22050c	-0.6328895
212	0x3d631c59	0.055446956
213	0xbd44ee63	-0.048078906
214	0xbee9cfd0	-0.4566636
215	0xbf3a074f	-0.726674
216	0x3e6120b4	0.21985132
217	0xbebf1df6	-0.37327546
218	0x3e98eb60	0.29867077
219	0xbeed68b2	-0.4636894
220	0x3f1e80c6	0.6191524
221	0x3edede8e	0.4352917
222	0xbd7d095f	-0.061776515
223	0xbd48159d	-0.048848737
224	0x3e9f9899	0.3117111
225	0xbe3721e0	-0.17884016
226	0x3e8f2718	0.27959514
227	0xbf36d508	-0.7141881
228	0xbed33f11	-0.41259053
229	0x3ee98ead	0.45616665
230	0x3e9c95e6	0.30583113
231	0xbebb7e42	-0.36619765
232	0xbcbb2da5	-0.022848913
233	0xbe4f3dd8	-0.20238435
234	0xbd249377	-0.040179696
235	0xbec5e4e0	-0.3865118
236	0x3ba03bcb	0.0048899404
237	0xbd1dcd4f	-0.038525876
238	0xbdfaac18	-0.122398555
239	0x3e8b06c8	0.2715361
240	0xbed33eeb	-0.4125894
241	0x3e865a9f	0.26241013
242	0x3f064a0c	0.52456737
243	0x3db0c5ca	0.08631475
244	0xbc85c9a8	-0.016331509
245	0x3e927f69	0.2861283
246	0xbd6c9c23	-0.05776609
247	0x3c2809bb	0.010256226
248	0xbf2f97ca	-0.68590987
249	0x3dd6c583	0.10486891
250	0x3edf0ddd	0.43565264
251	0xbf15f37d	-0.5857466
252	0x3ca8c3fc	0.020601265
253	0x3eeb513f	0.45960423
254	0xbea09724	-0.3136531
255	0x3f14e09e	0.5815524

network_body._body_endoder.seq_layers.0.bias f4 [128]
0	0xbca3b71b	-0.019984772
1	0x3ceb6b14	0.028737582
2	0x3d4f18ed	0.05056088
3	0xbbe38bd7	-0.0069441604
4	0x3cfad962	0.030621234
5	0xbcc8c6e7	-0.024508907
6	0x3cd02e9e	0.025412854
7	0x3e2f9514	0.17146713
8	0x3d862938	0.065508306
9	0x3b6676a6	0.0035165935
10	0x3d2d348f	0.042286452
11	0x3d82656c	0.06367001
12	0xbbb16391	-0.0054134806
13	0x3c364431	0.011124657
14	0x3d3f1635	0.046652038
15	0x3cececa4	0.028921433
16	0xbbdc7425	-0.0067277127
17	0x3d76e286	0.060274623
18	0x3c91a581	0.017779114
19	0x3c3490ff	0.011020898
20	0x3d177883	0.036980163
21	0x3a16025a	0.00057223963
22	0x3dbd36a6	0.09238939
23	0x3b3cdcea	0.0028818198
24	0xbd834cb4	-0.06411114
25	0x3c7b954c	0.015355419
26	0x3c049639	0.0080924565
27	0x3d81a7b4	0.06330815
28	0xbd73bbc8	-0.059505254
29	0x3aacf008	0.0013194093
30	0xbe0a0206	-0.13477334
31	0x3d8bd7d0	0.06828272
32	0x3d02287c	0.03177689
33	0x3d9cc7ab	0.07655271
34	0xbd5cf73c	-0.05394672
35	0xbcd0bee3	-0.025481647
36	0xbdfc326c	-0.12314305
37	0x3cee3901	0.029079916
38	0x3dd18184	0.10229781
39	0x3bc23113	0.0059262603
40	0xbd776d82	-0.06040717
41	0xbc6e7dc9	-0.014556357
42	0xbd5b03d4	-0.053470448
43	0x3b910e33	0.0044267415
44	0x3c944fd5	0.018104473
45	0xbbd8c7a8	-0.0066155978
46	0xbc5ce2cb	-0.013481806
47	0x3cb438e2	0.02199978
48	0x3cb84493	0.022493636
49	0x3c7c2757	0.015390239
50	0xbb9e7e23	-0.004836814
51	0x3d792b7a	0.060832478
52	0xbc56160b	-0.013066779
53	0xbd292f77	-0.04130503
54	0x3d790db3	0.06080408
55	0x3d4c5c30	0.049892604
56	0x3d316fa6	0.043319367
57	0xbc840e76	-0.016120177
58	0x3b6da0fe	0.003625929
59	0xbd840223	-0.0644572
60	0x3db20fe9	0.08694441
61	0x3ceba871	0.028766843
62	0x3d658d96	0.05604323
63	0xbcdefa08	-0.027218834
64	0x3d2ff4ba	0.042958
65	0xbcfcc888	-0.03085734
66	0x3d5078ef	0.05089658
67	0x3d9d8010	0.076904416
68	0x3b41315c	0.0029478883
69	0x3d60a753	0.054847073
70	0x3b2aefc3	0.002608285
71	0x3d0061f8	0.03134343
72	0xbd5798b3	-0.05263586
73	0x3c79e071	0.015251265
74	0xbc3d3915	-0.011549254
75	0x3a90c303	0.0011044446
76	0xbc5116a9	-0.01276175
77	0x3c682607	0.014169223
78	0x3d4e031e	0.05029594
79	0xbd8a3bcc	-0.067496866
80	0x3c1a1ab4	0.009405781
81	0xbd94c3f5	-0.07263938
82	0x3d3ccca7	0.04609361
83	0xbad6a0f7	-0.0016374876
84	0x3cee3a86	0.02908064
85	0x3c47d6bd	0.012197194
86	0x3c229a11	0.009924428
87	0xbc2f5f9a	-0.0107039455
88	0x3c94cb09	0.018163221
89	0x3cddf77d	0.02709555
90	0x3cde7c5b	0.027158907
91	0x3c9e89d9	0.01935284
92	0x3ca48ed1	0.020087631
93	0x3cedaab8	0.02901207
94	0x3d42df03	0.04757596
95	0xbcc16083	-0.02360559
96	0x3cf77dad	0.030211294
97	0xbc8ca4f9	-0.017168509
98	0xbb89ce8e	-0.0042055314
99	0xbcfb0f63	-0.030646985
100	0xbc93013b	-0.017944923
101	0xbc34ce6b	-0.011035542
102	0x3d0f3008	0.034957916
103	0xbb8f424a	-0.004371916
104	0x3cb2aa91	0.021809848
105	0xbd94902e	-0.072540626
106	0xbc494a16	-0.01228573
107	0x3c0ea1e9	0.008705595
108	0x3c720b72	0.014773237
109	0x3cf9f53c	0.030512445
110	0x3d979d91	0.074031
111	0x3d4a1bf9	0.049343083
112	0x3d730944	0.05933501
113	0x3d92b89b	0.07164117
114	0x3c80e74d	0.015735293
115	0x3d975185	0.073885955
116	0x3cb47140	0.022026658
117	0xbd1cf4e5	-0.038319487
118	0x3cc0475e	0.02347153
119	0x3db52aaa	0.08846028
120	0x3d7e309f	0.062058087
121	0xbada3e66	-0.0016650676
122	0x3cf3dca4	0.029768296
123	0x3cac1952	0.021008167
124	0x3d5938af	0.053032573
125	0x3de9bcbf	0.114129536
126	0xbd783683	-0.06059886
127	0x3db1d9a8	0.08684093

network_body._body_endoder.seq_layers.2.weight f4 [128, 128]
0	0xbd5d16db	-0.053976875
1	0x3dd1ce9f	0.10244488
2	0x3cf033b7	0.029321535
3	0x3e10d370	0.14143157
4	0xbc9cf364	-0.019159026
5	0x3d195501	0.03743458
6	0x3e940c3f	0.28915593
7	0xbde60eca	-0.112332895
8	0xbdbc94ec	-0.09208092
9	0xbdaeb6c3	-0.08530953
10	0x3e335117	0.17511402
11	0x3dbda94c	0.092608064
12	0x3ceb2ff9	0.028709399
13	0xbdbb6d1f	-0.091516726
14	0x3cf4af17	0.029868646
15	0xbd2045f0	-0.039129198
16	0xbc0119fe	-0.007879732
17	0xbbbf435b	-0.005836887
18	0x3d975330	0.07388914
19	0xbd22d8d5	-0.03975757
20	0xbdf8a9ab	-0.121417366
21	0xbd556c61	-0.05210531
22	0xbe541fc4	-0.20715243
23	0xbd9d6b17	-0.076864414
24	0x3e134487	0.1438161
25	0x3e245530	0.16048121
26	0x3c4727f9	0.012155526
27	0xbc59d995	-0.0132965045
28	0x3d22ef26	0.03977885
29	0xbe3b37eb	-0.1828305
30	0x3d742c29	0.059612427
31	0x3a4bd155	0.00077750284
32	0x3bd82abd	0.0065968917
33	0xbe08e829	-0.13369812
34	0x3e0e57c1	0.13900663
35	0x3c550c31	0.013003395
36	0xbc23d3c9	-0.009999224
37	0x3c07b32a	0.008282462
38	0xbd6bc000	-0.057556152
39	0x3d1bf05b	0.038071018
40	0x3ded7ba2	0.11595847
41	0xbc927d32	-0.017881963
42	0xb9d6277c	-0.0004084668
43	0x3d608ca8	0.05482164
44	0x3e40947b	0.18806641
45	0x3d89ec34	0.06734505
46	0x3ceb3c6d	0.028715337
47	0xbdb85223	-0.09000041
48	0xbe4a90f2	-0.19781855
49	0xbdbb8711	-0.09156621
50	0x3d4836f5	0.048880536
51	0x3c8d4112	0.017242942
52	0x3ca45e7e	0.020064589
53	0x3d09c166	0.033631705
54	0xbdff5fc5	-0.124694385
55	0xbd96c273	-0.07361307
56	0x3e10fc36	0.14158711
57	0x3db7d8d0	0.089769006
58	0x3cde2e44	0.02712167
59	0xbdff9891	-0.124802716
60	0xbe28c817	-0.16482578
61	0xbcf579ec	-0.029965363
62	0xbd0345cb	-0.03204898
63	0xbd48c290	-0.049013674
64	0xbe23400a	-0.15942398
65	0x3c597f04	0.013274912
66	0x3da4100e	0.08010875
67	0xbe032b95	-0.12809594
68	0x3d5bc24b	0.05365209
69	0xbd73e370	-0.059543073
70	0x3db6d039	0.08926434
71	0x3d9ac31b	0.07556745
72	0x3d53d0f8	0.05171296
73	0x38edaa6e	0.00011332786
74	0x3c8a43a7	0.016877962
75	0x3d706018	0.058685392
76	0x3dcf6c08	0.10128027
77	0xbd69dcf6	-0.05709549
78	0xbdd13517	-0.10215204
79	0x3c46d5e1	0.012135954
80	0xbd481d21	-0.048855904
81	0xbdeee885	-0.11665443
82	0xbe448779	-0.19192304
83	0x3d54a454	0.051914528
84	0xbd0ba906	-0.03409674
85	0xbe47002b	-0.19433658
86	0x3c01d525	0.007924353
87	0x3df36ff7	0.1188659
88	0x3df45054	0.11929384
89	0xbd19491d	-0.037423242
90	0x3e284ddb	0.1643595
91	0xbd706e8b	-0.058699172
92	0x3db0d120	0.086336374
93	0x3e075292	0.13215092
94	0x3cbab349	0.022790568
95	0x3e2c1b6f	0.1680734
96	0x3d9af2e7	0.07565861
97	0x3e11b0af	0.14227556
98	0x3d125991	0.03572995
99	0xbcc4b40b	-0.024011632
100	0x3db9d952	0.09074654
101	0xbb30bb78	-0.0026967209
102	0xbc6b5356	-0.014363131
103	0xbde52f69	-0.111906834
104	0xbd1de6e0	-0.038550258
105	0xbdb99aa3	-0.09062698
106	0xbcd87bdf	-0.026426254
107	0x3ca884ae	0.02057108
108	0xbe173266	-0.14765319
109	0xbd8716b9	-0.06596131
110	0x3e0510cd	0.1299469
111	0xbd25dea6	-0.040495537
112	0xbda73171	-0.08163727
113	0xbe0e1808	-0.13876355
114	0xb9bd9646	-0.00036160852
115	0xbe2f002c	-0.1708991
116	0xbba8f8b6	-0.005156602
117	0xbdec448f	-0.11536514
118	0x3dd69b3e	0.10478829
119	0xbc87db96	-0.016584199
120	0xbdbb31bc	-0.091403455
121	0x3dfbc34d	0.1229311
122	0x3d7c9f6b	0.06167547
123	0x3dd3488f	0.10316574
124	0xbc8b3e8d	-0.0169976
125	0xbd2e0efe	-0.042494766
126	0x3d0c6086	0.03427174
127	0xbe285b61	-0.16441108
128	0x3bcecce6	0.006311047
129	0x3d3a6d07	0.045514133
130	0xbd247d70	-0.04015869
131	0xbcbd2e68	-0.023093417
132	0xbd50f10a	-0.051011123
133	0x3e21328f	0.15741943
134	0xbd96c27d	-0.073613144
135	0x3b56090f	0.0032659208
136	0x3e103a0e	0.14084646
137	0x3c66d079	0.01408779
138	0xbd3cf4a2	-0.046131738
139	0x3cfe36c5	0.031031976
140	0xbd67cb1f	-0.056590196
141	0xbcbad6df	-0.022807537
142	0xbdbd9a51	-0.09257949
143	0xbe119057	-0.14215218
144	0xbe0b3379	-0.13593854
145	0xbc9837ee	-0.018581357
146	0x3dbe49e2	0.09291436
147	0x3d9b4874	0.07582179
148	0xbdc19103	-0.09451487
149	0x3d819cfa	0.06328769
150	0x3e47fabb	0.1952924
151	0xbe26106d	-0.16217203
152	0xbd6b0735	-0.05737992
153	0xbd916c64	-0.07100752
154	0xbd51f55b	-0.05125938
155	0xbd5e7ec9	-0.05432013
156	0xbb5234f8	-0.003207503
157	0xbe83ce54	-0.25743353
158	0xbd97c573	-0.07410707
159	0xbd9b5342	-0.075842395
160	0xbd4a24f9	-0.049351666
161	0x3e1ed3d9	0.15510501
162	0xbe45f0ef	-0.1933019
163	0x3e64a6e0	0.22329283
164	0xbe043ed9	-0.129146
165	0xbc958d9c	-0.018256001
166	0xbda8aead	-0.08236442
167	0xbd849176	-0.06473057
168	0x3d49e8c3	0.049294244
169	0xbe1e5a16	-0.15464053
170	0xbded9dbf	-0.11602353
171	0xbe522579	-0.20522107
172	0xbdd4a80d	-0.10383616
173	0x3dc8707c	0.0978708
174	0xbda1cef2	-0.079008
175	0x3e223d5f	0.15843724
176	0x3ce9ea11	0.028553994
177	0x3c909c90	0.01765278
178	0x3d9ce46b	0.07660755
179	0x3de7edd0	0.11324656
180	0xbd8cf7ce	-0.068832025
181	0x3e04c550	0.12965894
182	0x3de9f0bb	0.11422869
183	0x3d4f798f	0.050653037
184	0x3dd4e962	0.10396077
185	0x3d578adf	0.052622672
186	0x3cf5083a	0.02991115
187	0xbd7eb8f8	-0.06218812
188	0x3dfdc57d	0.123911835
189	0xbbbe84cf	-0.005814172
190	0x3d88d125	0.06680516
191	0xbdff87a2	-0.12477042
192	0x3dfa3b1f	0.12218308
193	0xbd89cf4c	-0.06728992
194	0xbcd2262c	-0.025652967
195	0xbd5cd29e	-0.053911798
196	0xbe496b56	-0.19669852
197	0xbc34f0d2	-0.011043744
198	0xbd1a1418	-0.03761682
199	0xbd370c5c	-0.04468952
200	0x3e5c2ae8	0.21500742
201	0x3d84015c	0.06445572
202	0xbd4a7e9d	-0.049437154
203	0x3db3f96f	0.0878781
204	0xbd6f47a3	-0.058417927
205	0x3dbcc5ff	0.09217452
206	0x3e0c7bf4	0.1371916
207	0xbe009e7c	-0.12560457
208	0xbdb2f505	-0.0873814
209	0xbe58cb04	-0.21171194
210	0x3e11d9c5	0.14243229
211	0x3e500c60	0.2031722
212	0x3cd2ec8e	0.025747564
213	0x3dc5f014	0.09664932
214	0x3dbf422d	0.09338794
215	0xbdb749d3	-0.08949628
216	0x3de344c5	0.11097101
217	0x3dc821a1	0.09772039
218	0xbe16b116	-0.1471599
219	0xbdf59874	-0.11991969
220	0xbd4bb8ab	-0.04973666
221	0xbe1d231f	-0.15345429
222	0x3c6dfa8a	0.014525065
223	0x3bae31ce	0.005315996
224	0x3e134cae	0.1438472
225	0xbe3ec36e	-0.18629238
226	0xbce9c81c	-0.028537802
227	0xbb8f5edb	-0.0043753213
228	0x3d09ef88	0.0336757
229	0xbd07b835	-0.033134658
230	0xbd914bad	-0.07094512
231	0x3d7645f3	0.060125303
232	0xbe098a20	-0.13431597
233	0x3cf6c1fb	0.030121794
234	0x3cd9c1f2	0.026581738
235	0xbd4bdd31	-0.04977149
236	0x3c681b5f	0.014166682
237	0x3e0a2139	0.13489236
238	0xbb1ff730	-0.002440881
239	0x3e9bf9cb	0.30464014
240	0x3d5dc711	0.054144923
241	0x3c910a0c	0.017704986
242	0xbdf6e572	-0.12055482
243	0x3e25e883	0.16201977
244	0xbe305b0a	-0.17222229
245	0x3ccfe5b3	0.025378084
246	0xbe04301a	-0.12908974
247	0xbcd2fc77	-0.02575515
248	0xbe10be87	-0.1413518
249	0xbd4a9910	-0.049462378
250	0xbe557b14	-0.20847732
251	0xbe2f7875	-0.17135794
252	0x3d46bcc8	0.04851988
253	0xba41e5a1	-0.0007396583
254	0xbdd4d848	-0.10392815
255	0xbca104c8	-0.0196556

network_body._body_endoder.seq_layers.2.bias f4 [128]
0	0xbb878bf6	-0.0041365577
1	0x3d5ab7f7	0.0533981
2	0xbc8f97e4	-0.017528482
3	0x3d050b5d	0.03248154
4	0x3d3cc3c8	0.04608515
5	0x3cf32a59	0.029683279
6	0x3d71d462	0.059040435
7	0xbd02fc58	-0.031978935
8	0x3c284a56	0.010271629
9	0x3d9df9a5	0.077136315
10	0xbc0df219	-0.008663678
11	0x3c01feb0	0.007934257
12	0xbcc4e043	-0.024032718
13	0x3d4b8bcb	0.049693864
14	0x3c82dc2a	0.015974123
15	0x3d66231b	0.056185823
16	0xbc002ef7	-0.007823697
17	0x3b2b18ac	0.0026107235
18	0x3b89145f	0.0041833366
19	0xbcacdf67	-0.02110262
20	0x3ceaff80	0.028686285
21	0x3d989907	0.07451063
22	0x3d321b37	0.043482985
23	0x3d37ea02	0.0449009
24	0x3d52d3ab	0.051471394
25	0x3c2aee8f	0.010432853
26	0x3c7ea9bc	0.0155433975
27	0x3d01b0a4	0.0316626
28	0x3cd4d06c	0.02597829
29	0x3ce1eced	0.027578795
30	0x3d75f855	0.06005128
31	0x3b6ba011	0.0035953561
32	0x3d18632d	0.037203956
33	0x3d3edecd	0.046599198
34	0x3d7f965a	0.062399246
35	0x3d2e1d07	0.04250815
36	0xbb5b8535	-0.0033496146
37	0x3cac37be	0.021022674
38	0x3c7ca91c	0.015421178
39	0x3d0c8ecd	0.034315873
40	0x3d57d091	0.05268914
41	0xbc8fe87a	-0.017566908
42	0xbcb8b265	-0.022546003
43	0x3bb82481	0.005619586
44	0x3cba69ee	0.02275559
45	0x3c9415ea	0.018076856
46	0xbd0fd928	-0.035119206
47	0x3b669e16	0.0035189441
48	0xbcf11b20	-0.02943188
49	0x3d25e7f1	0.0405044
50	0xbca46c89	-0.020071285
51	0x3d0fd5eb	0.035116117
52	0x3cc0cb2d	0.023534382
53	0x3acb5e9a	0.0015515864
54	0xbc407c34	-0.011748362
55	0x3d4b8e52	0.049696274
56	0x3ac188fa	0.0014765554
57	0x3d87aeda	0.06625147
58	0x3cce02fe	0.025147911
59	0x3cf2a18c	0.029618047
60	0x3c8fa047	0.01753248
61	0x3ce10f23	0.027473038
62	0xbcb6db0a	-0.022321243
63	0x3ca55ab1	0.020184847
64	0x3cec38d4	0.028835692
65	0xbb27eb23	-0.002562233
66	0xbcad60dd	-0.021164352
67	0x3c22167b	0.009893055
68	0x3d33365b	0.04375301
69	0xbcd9384d	-0.026516104
70	0x3caf9048	0.021431103
71	0x3d6f9e6f	0.058500703
72	0xbb94f5b0	-0.00454589
73	0x3cf9a7f8	0.030475602
74	0xbc99bec8	-0.01876773
75	0x3c2aa451	0.010415153
76	0x3ceb4ed6	0.028724115
77	0x3c829d8e	0.015944269
78	0x3c4b1c42	0.012396874
79	0x3cb29587	0.021799816
80	0xbb594cb9	-0.0033157303
81	0x3ca6f3d1	0.020379933
82	0x3d0113b0	0.031512916
83	0x3d454c04	0.048168197
84	0x3d4bb2dd	0.049731124
85	0x3c7c28d2	0.015390592
86	0x3d6d7cf7	0.057980504
87	0x3d6e7249	0.05821446
88	0x3d3cab98	0.046062082
89	0xbc69b8ef	-0.014265283
90	0x3d12c63b	0.03583358
91	0x3d4d0cd2	0.050061055
92	0x3cae5f76	0.021285754
93	0x3d47eb25	0.048808236
94	0x3d2a2e90	0.04154831
95	0x3ce783d0	0.028261095
96	0x3ce10c2e	0.027471628
97	0x3d1b4fcd	0.0379179
98	0x3d818849	0.063248225
99	0x3d830308	0.063970625
100	0x3ca6ef27	0.020377709
101	0x3d9ed69c	0.07755777
102	0x3c85780d	0.016292596
103	0xbb9bf7be	-0.004759758
104	0x3d465967	0.048425104
105	0x3cc5d66b	0.024150094
106	0xbcee09f0	-0.029057473
107	0x3d902de7	0.07040005
108	0xbc64cbdd	-0.01396462
109	0x3b405196	0.0029345504
110	0x3d2cc3d3	0.04217894
111	0x3d018c49	0.031627927
112	0x3d047b90	0.0323444
113	0x3d3f6d71	0.04673523
114	0x3d24f0f2	0.040268846
115	0xbb514b3d	-0.0031935715
116	0x3b144e77	0.0022629777
117	0x3badbdd2	0.0053021694
118	0x3c004c86	0.007830745
119	0x3c10fc19	0.008849167
120	0x3bb6448c	0.0055623706
121	0x3c1953eb	0.0093583865
122	0x3d35a943	0.044350874
123	0x3d02cbc9	0.031932626
124	0x3bb0f3e7	0.005400169
125	0xbd11ee34	-0.03562756
126	0x3b32d0d2	0.002728511
127	0x3a50f23e	0.0007970667

action_model._discrete_distribution.branches.0.weight f4 [4, 128]
0	0x3cd27a26	0.02569301
1	0xbb2fa298	-0.0026799794
2	0x3ab9ef89	0.0014185767
3	0x3c9c8009	0.01910402
4	0xbcd93fba	-0.026519645
5	0xbc2c515c	-0.010517444
6	0xbc574857	-0.013139806
7	0xbc7fdf3e	-0.01561719
8	0xbc3caa29	-0.011515179
9	0x3dfb58c4	0.1227279
10	0xbb6b63e7	-0.00359177
11	0xbd762347	-0.060092237
12	0xbdb2f313	-0.08737769
13	0x3d96e49a	0.07367821
14	0x3cbe8071	0.023254605
15	0x3c8cdc59	0.017194914
16	0xbd00dbae	-0.031459503
17	0x3c6b7d89	0.014373192
18	0x3d09435b	0.0335115
19	0x3c56ffc1	0.0131225
20	0x3d8e6b40	0.0695405
21	0xbd1cdb05	-0.03829481
22	0x3daf76b4	0.08567563
23	0x3d8a5126	0.06753759
24	0x3dcf86ca	0.10133131
25	0x3cf9053d	0.030398006
26	0xbba0d079	-0.0049076644
27	0x3ad28433	0.0016061127
28	0xbb71f931	-0.0036922211
29	0x3d8af052	0.06784119
30	0xbc010f5d	-0.007877198
31	0xbce12cec	-0.02748724
32	0xbb2a5296	-0.0025989166
33	0x3d451215	0.048112947
34	0x3dba3329	0.09091789
35	0x3da5bbe6	0.080924794
36	0x3d1284fd	0.03577136
37	0x3b6e3c21	0.0036351758
38	0xbc850c05	-0.016241083
39	0xbd050f2f	-0.032485183
40	0x3cdd26bf	0.026996015
41	0x37a92957	2.016562e-05
42	0x3d03d17a	0.032182194
43	0x3c969a74	0.018384196
44	0x3d8cde52	0.06878342
45	0x3d8e0a90	0.069356084
46	0xbd870b31	-0.065939315
47	0x3c2656b6	0.010152509
48	0xbc339c9e	-0.010962633
49	0xbcd70456	-0.026247185
50	0xbbe5c496	-0.0070119603
51	0x3d9871b4	0.07443562
52	0xbc92baf2	-0.017911408
53	0x3b18732f	0.0023262014
54	0x3be7c387	0.007072869
55	0xbd11bf45	-0.0355828
56	0xbc0a3067	-0.008434392
57	0x3a734b50	0.0009280937
58	0xbc9b9905	-0.018993864
59	0x3ca6470f	0.020297555
60	0x3d5e7bc1	0.05431724
61	0xbc61ad3a	-0.013774211
62	0xbd0f11d1	-0.0349291
63	0xbc37c60c	-0.011216652
64	0x3b9212fd	0.00445783
65	0x3c9ab94e	0.018887188
66	0x3c7cfa36	0.015440514
67	0x3d076bc7	0.03306177
68	0xbcc379d6	-0.023861807
69	0xbdb281a6	-0.08716135
70	0x3db89d35	0.0901436
71	0xbc0ab77f	-0.0084666
72	0x3c6841bb	0.014175828
73	0x3daf6d8e	0.08565818
74	0xbd44fd65	-0.04809322
75	0x3bb6ae72	0.0055749947
76	0x3cdfa04d	0.027298117
77	0x3c89c0a9	0.0168155
78	0x3d074317	0.033022966
79	0xbd82ebff	-0.06392669
80	0xba9a0956	-0.001175205
81	0x3d0a283b	0.033729773
82	0x3bfb2827	0.0076646986
83	0x3cd96496	0.02653722
84	0x3dcf861b	0.101330005
85	0x3d5336ab	0.051565807
86	0x3de141a6	0.109988496
87	0xbcb77338	-0.022393808
88	0x3a80793e	0.0009801758
89	0x3cc03a1e	0.023465212
90	0xbd31cfa8	-0.043410927
91	0xbc08b9ed	-0.008345109
92	0xbc3624b8	-0.011117153
93	0xbcf69767	-0.030101491
94	0x3da5fe7d	0.081051804
95	0x3d9b1ff1	0.07574452
96	0x3db307aa	0.08741696
97	0xbc20508d	-0.00978483
98	0xbc427d00	-0.011870623
99	0x3dd290ec	0.10281548
100	0xba3512a5	-0.00069073803
101	0x3dffa101	0.12481881
102	0x3d80ac69	0.06282885
103	0xbd981b40	-0.074270725
104	0xbc9b4d7c	-0.018957846
105	0xbcd198ab	-0.025585493
106	0xbb94bd54	-0.0045391712
107	0xbbbbdd98	-0.005733203
108	0x3afa44a2	0.001909394
109	0xbcf71945	-0.030163417
110	0xbd4255d0	-0.04744512
111	0x3bfdb49a	0.0077424766
112	0x3d1ca265	0.03824081
113	0x3db55f90	0.08856118
114	0xbca7a17f	-0.02046275
115	0x3ab7f97f	0.0014036148
116	0xbbea9afb	-0.0071595884
117	0x3c239b26	0.009985721
118	0x3d5cddcf	0.05392247
119	0x3c40347a	0.011731261
120	0x3d7df222	0.061998494
121	0xbb572822	-0.0032830318
122	0xbd3e410b	-0.04644875
123	0x3dbde127	0.0927146
124	0x3c5ada6e	0.013357742
125	0xbb4ddd79	-0.0031412526
126	0x3cda291e	0.026630934
127	0x3ce51a0f	0.027966527
128	0xbdc1025c	-0.09424278
129	0x3dcb7a6e	0.09935461
130	0xbd792e24	-0.06083502
131	0x3d91665b	0.07099601
132	0x3dfa8398	0.12232131
133	0x3dd159ec	0.10222229
134	0x3db0d844	0.086349994
135	0x3c33e4f0	0.010979876
136	0xbdb9b3e0	-0.090675116
137	0xbd733be4	-0.059383288
138	0x3b654ba4	0.0034987712
139	0x3dadda88	0.08488947
140	0x3cba60d0	0.022751242
141	0xbd922517	-0.071359806
142	0xbe06b770	-0.13155913
143	0x3dbab6f5	0.091169275
144	0xbbb89352	-0.0056327963
145	0xbdee999d	-0.11650393
146	0xbd60f3ba	-0.054919936
147	0x3d01d6f4	0.031699136
148	0x3d0339a2	0.032037385
149	0x3dcd84c5	0.100350894
150	0xbb89b323	-0.004202263
151	0xbd408f1a	-0.047011472
152	0xbd3cfffa	-0.046142556
153	0xbc31c8f3	-0.010851133
154	0xbc7000f3	-0.014648664
155	0x3d9aeb0a	0.075643614
156	0xbb2797f1	-0.0025572742
157	0xbcbeb650	-0.023280293
158	0x3e0703b4	0.13185006
159	0x3d81543c	0.063148946
160	0xbd9407a7	-0.07228022
161	0xbe1530ae	-0.14569351
162	0xbd99a0e5	-0.07501391
163	0xbd208cef	-0.039196905
164	0x3d07047b	0.032963257
165	0x3bf273b9	0.007399049
166	0xbdad29b8	-0.08455223
167	0x3d950e38	0.07278103
168	0x3dc52e5b	0.09627982
169	0x3cf10d25	0.029425213
170	0xbd488328	-0.048953205
171	0xbdc6bc30	-0.09703863
172	0xbd32d763	-0.04366244
173	0xbd2fa5cc	-0.042882726
174	0xbc652624	-0.013986144
175	0xbd9c4b79	-0.07631583
176	0xbd7d4f8e	-0.061843447
177	0x3dad47d7	0.08460968
178	0xbd9a7133	-0.07541122
179	0x3c3836c1	0.011243523
180	0x3d33516c	0.04377882
181	0xbdaec4aa	-0.085336044
182	0xbd9141bf	-0.07092618
183	0x3df4e57b	0.119578324
184	0x3c8c8cec	0.01715704
185	0x3dc4c297	0.096074276
186	0x3d1146aa	0.03546778
187	0xbe0b8ec9	-0.13628687
188	0xbd9df04d	-0.07711849
189	0x3d874179	0.06604285
190	0x3c5df761	0.013547749
191	0xbda66e17	-0.08126467
192	0x3bedfee7	0.0072630527
193	0xbcd57019	-0.026054429
194	0xbd277272	-0.040880628
195	0x3d892e81	0.06698323
196	0x3db7643a	0.089546636
197	0x3c9e965c	0.019358806
198	0xbcaafad2	-0.020871554
199	0x3dedea5c	0.11616966
200	0xbdc113f5	-0.094276346
201	0xbd4fa4d3	-0.050694298
202	0xbcc32520	-0.023821414
203	0xbdcdb186	-0.100436255
204	0x3cadf608	0.02123548
205	0xbd9f2e26	-0.07772474
206	0x3c2e2767	0.010629511
207	0x3da714dd	0.08158276
208	0xbd4f9e44	-0.050688043
209	0xbdcb382c	-0.09922823
210	0x3db980b9	0.09057755
211	0x3d97c436	0.07410471
212	0xbd57f2e7	-0.052721884
213	0xbc5606f7	-0.013063184
214	0x3c597998	0.013273619
215	0x3dba482c	0.09095797
216	0x3d750aa7	0.059824612
217	0xbd865e0a	-0.06560905
218	0x3de8fa5b	0.113758765
219	0x3dd54b26	0.10414724
220	0x3d42346f	0.047413286
221	0x3dd09bf8	0.10185999
222	0xbb7495bd	-0.0037320696
223	0xbba6f29c	-0.0050948393
224	0x3b131445	0.0022442502
225	0x3de0a90e	0.109697446
226	0x3dce5ba0	0.1007607
227	0xbce10392	-0.027467523
228	0xbbe49e23	-0.006976859
229	0xbdac8949	-0.084246226
230	0x3d034dc6	0.032056592
231	0xbc64290a	-0.0139258
232	0x3d874d19	0.06606502
233	0xbdd93ae3	-0.10606935
234	0xbcda631f	-0.026658593
235	0x3dfc4e7c	0.12319657
236	0x3cc238d0	0.023708731
237	0x3b158448	0.0022814441
238	0x3dd4cb3e	0.10390328
239	0x3c9d0e1d	0.019171769
240	0x3d354d6f	0.0442633
241	0xbd2c817c	-0.042115673
242	0x3dc7b141	0.097506054
243	0x3d0dfe84	0.034666553
244	0xbc45a81d	-0.012064007
245	0xbdf72a5a	-0.12068625
246	0xbd5ebba4	-0.054378167
247	0xbd008493	-0.031376433
248	0xbcb4478d	-0.022006774
249	0x3d224cd6	0.039624058
250	0x3dc2b7ba	0.09507699
251	0xbcbcf667	-0.023066713
252	0xbbf61b25	-0.00751056
253	0x3c82d8b2	0.015972469
254	0xbdf62b25	-0.12019948
255	0xbdd46c41	-0.1037221

action_model._discrete_distribution.branches.0.bias f4 [4]
0	0x3ce42e38	0.02785407
1	0xbc3478f1	-0.011015163
2	0x3ce41e14	0.027846374
3	0x388f9cee	6.848002e-05

exp_avg f4 [128, 9]
0	0x3980f955	0.0002459983
1	0x3a4175fe	0.0007379948
2	0x399ac65e	0.00029520964
3	0x37954620	1.7794839e-05
4	0x33969946	7.0127996e-08
5	0x3a03b0cc	0.0005023598
6	0x39954620	0.00028471742
7	0x3a4e5707	0.00078712445
8	0x3a3d3cb1	0.00072188216
9	0xb8600bb7	-5.3416672e-05
10	0xb92808ce	-0.00016025009
11	0xb886b7b2	-6.423834e-05
12	0x37f628f2	2.9344552e-05
13	0xb5cb431d	-1.5144211e-06
14	0xba27b4a8	-0.00063974643
15	0x39f628f2	0.00046951283
16	0xb931a613	-0.00016941903
17	0xb9471f28	-0.00018989726
18	0x3a02b23a	0.0004985664
19	0x3ac40b59	0.0014956995
20	0x3a1cd8f7	0.0005983258
21	0x37d4770d	2.5327807e-05
22	0x34c20141	3.6136228e-07
23	0x3a9bf2c4	0.0011897911
24	0x39d4770d	0.0004052449
25	0x3ad11107	0.0015950509
26	0x3ac12b1c	0.0014737579
27	0x3752488b	1.2533866e-05
28	0x381db653	3.760152e-05
29	0x377b3b85	1.4974624e-05
30	0x3862d567	5.4081345e-05
31	0xb547dbdb	-7.445321e-07
32	0xba583cf6	-0.000824883
33	0x3a62d567	0.0008653015
34	0x382b5974	4.0852887e-05
35	0xb78888d3	-1.6276177e-05
36	0x38eb28a3	0.000112132424
37	0x39b05e7b	0.0003363973
38	0x390d126f	0.00013453675
39	0x37dee210	2.656973e-05
40	0xb4b42ac3	-3.3558726e-07
41	0xb88afc12	-6.6273045e-05
42	0x39dee210	0.0004251157
43	0x39bc4d8c	0.0003591593
44	0x39a2dcba	0.00031063502
45	0x3a667db9	0.0008792538
46	0x3b2cde4b	0.0026377614
47	0x3a8a4d51	0.0010551607
48	0x38cb08ef	9.681458e-05
49	0x342d8066	1.6158592e-07
50	0x3aa5a76f	0.00126384
51	0x3acb08ef	0.0015490333
52	0x3b3861dd	0.0028134503
53	0x3b26ec3f	0.0025470403
54	0xb985a115	-0.00025487752
55	0xba48719a	-0.00076463225
56	0xb9a06260	-0.00030590873
57	0xb948d206	-0.00019151726
58	0xb42a696c	-1.5870836e-07
59	0x3b136ac5	0.002249406
60	0xbb48d206	-0.0030642762
61	0xba55c3e1	-0.00081544934
62	0xba16ce17	-0.00057527557
63	0xb9000557	-0.0001220902
64	0xb9c00802	-0.0003662706
65	0xb91997bb	-0.00014647741
66	0x372bb3f9	1.0234297e-05
67	0x34980b0d	2.8320247e-07
68	0xba1165bd	-0.0005546471
69	0x392bb3f9	0.00016374876
70	0xb9ccfb5c	-0.0003909719
71	0xb9c5cef9	-0.00037728975
72	0x39b7fe75	0.00035094065
73	0x3a89fed6	0.0010528218
74	0x39dccad4	0.0004211279
75	0x390e8aa3	0.00013593821
76	0xb5157377	-5.567485e-07
77	0xba89f58a	-0.0010525447
78	0x3b0e8aa3	0.0021750114
79	0x3a9344a8	0.0011235671
80	0x3a710da2	0.0009195452
81	0x393f278f	0.00018229916
82	0x3a0f5dab	0.00054689747
83	0x396562c3	0.00021875933
84	0x37afd22d	2.0959496e-05
85	0xafd0aa3a	-3.7955933e-10
86	0x398205e7	0.0002479993
87	0x39afd22d	0.00033535194
88	0x3a18ec79	0.0005833577
89	0x3a0a33e8	0.0005272017
90	0x3a06bab3	0.00051395147
91	0x3aca180f	0.0015418547
92	0x3a21b12c	0.0006168063
93	0x375da8a4	1.3211891e-05
94	0x3517d1c9	5.655716e-07
95	0x3abbcc6c	0.001432789
96	0x395da8a4	0.00021139026
97	0x3ad77e28	0.0016440796
98	0x3ac8d0e8	0.0015321048
99	0x3a21bc45	0.0006169717
100	0x3af29a65	0.0018509148
101	0x3a421448	0.0007403535
102	0x390b856f	0.00013305781
103	0xb51dd4ac	-5.8796536e-07
104	0xb9228855	-0.00015500312
105	0x3b0b856f	0.002128925
106	0x3b016d47	0.0019748972
107	0x3ae1be2f	0.0017222817
108	0x39285c67	0.00016056151
109	0x39fc8a98	0.00048168446
110	0x3949dfda	0.00019252245
111	0x3811c215	3.4751447e-05
112	0xb5dace0c	-1.6302233e-06
113	0xb82dca97	-4.143509e-05
114	0x3a11c215	0.00055602315
115	0x3a071db9	0.00051542703
116	0x39eaea76	0.00044806645
117	0x387488d5	5.8301568e-05
118	0x393766a1	0.00017490472
119	0x3892a509	6.992563e-05
120	0xb45bb0fe	-2.0460354e-07
121	0xb4e364ec	-4.2355475e-07
122	0x39473972	0.00018999519
123	0xb65bb0fe	-3.2736566e-06
124	0x3944125f	0.0001869886
125	0x39380484	0.0001754929
126	0x39a58066	0.00031566917
127	0x3a784098	0.00094700744
128	0x39c69d9a	0.00037882925
129	0xb90e3717	-0.00013562698
130	0x35113490	5.40932e-07
131	0x3b506c5e	0.0031802873
132	0xbb0e3717	-0.0021700317
133	0x3a84548c	0.0010095998
134	0x3a8e22fb	0.0010844165
135	0x3968e89e	0.00022211901
136	0x3a2eae74	0.0006663569
137	0x398bc5de	0.00026659569
138	0xb8bcf2be	-9.009753e-05
139	0x3526c27e	6.212284e-07
140	0x3b0d0a86	0.0021521165
141	0xbabcf2be	-0.0014415605
142	0x3a3a29fb	0.00071015925
143	0x3a46a228	0.0007577264
144	0xb90c9cbf	-0.00013409833
145	0xb9d2eb20	-0.00040229503
146	0xb928cfe6	-0.00016099177
147	0xb7fbd769	-3.002184e-05
148	0xb514664d	-5.5283164e-07
149	0x385986c3	5.186234e-05
150	0xb9fbd769	-0.00048034944
151	0xb9e0b098	-0.00042856182
152	0xb9c3b065	-0.00037324723
153	0x394ec5f4	0.00019719434
154	0x3a1b1472	0.00059158274
155	0x39783746	0.00023671714
156	0x38573b29	5.131509e-05
157	0x35410820	7.1909926e-07
158	0xb947e79f	-0.00019064404
159	0x3a573b29	0.00082104147
160	0x3a253ae6	0.0006303027
161	0x3a0e01c9	0.0005417136
162	0x3a45c910	0.0007544914
163	0x3b1456cc	0.0022634743
164	0x3a6d5947	0.0009054136
165	0x38265c8d	3.966368e-05
166	0x33da7b30	1.0173824e-07
167	0x3ae93d27	0.0017794714
168	0x3a265c8d	0.00063461886
169	0x3b1e38bf	0.002414271
170	0x3b121348	0.0022289325
171	0x396735b6	0.00022049886
172	0x3a2d6849	0.0006614966
173	0x398abb08	0.0002646076
174	0x37931f2f	1.7538287e-05
175	0x33a1b1e4	7.529505e-08
176	0x39dec750	0.0004249164
177	0x39931f2f	0.00028061258
178	0x3a38f2b7	0.00070552103
179	0x3a2934b8	0.0006454694
180	0xb9a46f94	-0.0003136365
181	0xba76a760	-0.0009409096
182	0xb9c550ca	-0.0003763496
183	0x36e37fca	6.780004e-06
184	0x336f6f46	5.5747726e-08
185	0xba91ca39	-0.0011122889
186	0x38e37fca	0.00010848006
187	0xba838e56	-0.0010036926
188	0xba78f94d	-0.0009497598
189	0x39a7441e	0.00031903473
190	0x3a7ae62c	0.00095710414
191	0x39c8be37	0.00038288694
192	0x38563c17	5.107754e-05
193	0x34a3b906	3.0495738e-07
194	0x39552009	0.00020325197
195	0x3a563c17	0.0008172406
196	0x3a85c5dd	0.0010206063
197	0x3a6e198b	0.00090827857
198	0x3aac5b63	0.0013149794
199	0x3b81448a	0.003944938
200	0x3aced5d7	0.0015780282
201	0x397a36c5	0.00023862261
202	0x325a2a98	1.2698955e-08
203	0x39cc0515	0.00038913699
204	0x3b7a36c5	0.0038179618
205	0x3b89e29a	0.004207921
206	0x3b738235	0.0037156467
207	0xb855f082	-5.1007148e-05
208	0xb9207464	-0.00015302148
209	0xb88059dc	-6.120253e-05
210	0x32ee307b	2.7728893e-08
211	0x339f7944	7.4260726e-08
212	0xb92ba3ed	-0.00016368898
213	0x34ee307b	4.436623e-07
214	0xb92b3abd	-0.00016329713
215	0xb920d6cf	-0.00015338811
216	0xb85f6de8	-5.32697e-05
217	0xb9279268	-0.00015980902
218	0xb8864c28	-6.403803e-05
219	0xb817c819	-3.618756e-05
220	0xb58d539f	-1.0529656e-06
221	0x39d69977	0.000409316
222	0xba17c819	-0.000579001
223	0xb931a39f	-0.00016940989
224	0xb9021a8a	-0.00012407653
225	0xb9b7f727	-0.00035088623
226	0xba89f95e	-0.0010526588
227	0xb9dcc6fe	-0.0004210993
228	0xb81c4d49	-3.7265276e-05
229	0x33beeda6	8.8907925e-08
230	0xba09de9e	-0.0005259308
231	0xba1c4d49	-0.0005962444
232	0xba932f1b	-0.0011229248
233	0xba856888	-0.0010178247
234	0x3811ad15	3.473189e-05
235	0x38da83c6	0.00010419595
236	0x382ed4b2	4.168292e-05
237	0xb88221e4	-6.205196e-05
238	0x34a0a99b	2.9925727e-07
239	0x3a90bac8	0.0011041993
240	0xba8221e4	-0.0009928313
241	0x38e87430	0.00011084264
242	0x392e6947	0.00016633152
243	0x3975b0dc	0.00023430906
244	0x3a3844a6	0.00070292724
245	0x399370b9	0.0002812201
246	0x384da5ce	4.9030226e-05
247	0x34d597c3	3.9784763e-07
248	0xb81327f3	-3.5084737e-05
249	0x3a4da5ce	0.0007844836
250	0x3a4472c9	0.0007493911
251	0x3a2bdb3b	0.00065558
252	0xb93a466b	-0.00017764575
253	0xba0bb4d2	-0.00053293735
254	0xb95f7bac	-0.00021313009
255	0xb43974f7	-1.7272019e-07

exp_avg_sq f4 [128, 9]
0	0x358ec8ac	1.0638228e-06
1	0x3720a180	9.574345e-06
2	0x36695d7a	3.4774116e-06
3	0x353b7871	6.9838194e-07
4	0x36932849	4.385631e-06
5	0x370d1e75	8.411346e-06
6	0x368126a4	3.848998e-06
7	0x36a6db76	4.972734e-06
8	0x3703e1de	7.860797e-06
9	0x36db9208	6.543709e-06
10	0x3877041f	5.8893227e-05
11	0x3792e9da	1.7513452e-05
12	0x36876515	4.035081e-06
13	0x382aeac4	4.07498e-05
14	0x383e8b20	4.54291e-05
15	0x37c0ff38	2.3007029e-05
16	0x37bb320e	2.2315446e-05
17	0x385a4003	5.2034866e-05
18	0x371c4106	9.313464e-06
19	0x38afc8d6	8.382059e-05
20	0x3807d58f	3.23854e-05
21	0x36e00331	6.6760917e-06
22	0x37ba190d	2.2184593e-05
23	0x385bb69a	5.238373e-05
24	0x384f2492	4.9386705e-05
25	0x3888f11d	6.529896e-05
26	0x388c1e0c	6.681317e-05
27	0x3781f1e2	1.5490634e-05
28	0x39122ff0	0.00013941503
29	0x38508e06	4.9723334e-05
30	0x374eb3cf	1.2320422e-05
31	0x38b6368e	8.688598e-05
32	0x38f01ed5	0.00011449835
33	0x383332e9	4.272434e-05
34	0x3855f867	5.10145e-05
35	0x38e9eab8	0.000111540256
36	0x367b54df	3.7451316e-06
37	0x380d5f26	3.3705634e-05
38	0x3747fd19	1.1920253e-05
39	0x367104c7	3.591458e-06
40	0x375faeec	1.3332563e-05
41	0x37ce8f2e	2.4623787e-05
42	0x37dcbf2f	2.631507e-05
43	0x374a65a1	1.2063801e-05
44	0x37d5b0d7	2.5473926e-05
45	0x37bdadc4	2.2611472e-05
46	0x39556356	0.00020350268
47	0x38897bfa	6.5557615e-05
48	0x36cf3254	6.1749397e-06
49	0x39114414	0.00013853639
50	0x393c69a6	0.00017968434
51	0x386a8cf6	5.5921228e-05
52	0x38a07ff2	7.653226e-05
53	0x3937d19d	0.00017530327
54	0x38b10781	8.4414154e-05
55	0x3a47287c	0.000759728
56	0x3987d4ea	0.0002590784
57	0x38587e36	5.1615956e-05
58	0x394d2b7e	0.00019566526
59	0x399a7e0d	0.00029467084
60	0x3a19ab60	0.00058620237
61	0x3a19eaba	0.0005871464
62	0x3a24ea94	0.00062910584
63	0x35aea244	1.3011236e-06
64	0x37447694	1.1710119e-05
65	0x36985af5	4.540542e-06
66	0x3554228d	7.902643e-07
67	0x362955b6	2.5232853e-06
68	0x36b75872	5.4641214e-06
69	0x370034fc	7.641731e-06
70	0x372d3a4a	1.0325175e-05
71	0x3726ebab	9.949242e-06
72	0x38489507	4.782251e-05
73	0x39e1a7a2	0.0004304024
74	0x391062c5	0.00013769705
75	0x37753a48	1.4616708e-05
76	0x39506891	0.0001987538
77	0x393601de	0.00017357568
78	0x3990681d	0.0002754339
79	0x398ebc01	0.00027224424
80	0x39c9ea0a	0.0003851208
81	0x358c4608	1.0451195e-06
82	0x371dcea0	9.406038e-06
83	0x3657974d	3.2125565e-06
84	0x35291768	6.2991467e-07
85	0x36abe156	5.1224297e-06
86	0x36fa9487	7.4678715e-06
87	0x3673cbb7	3.63284e-06
88	0x36bc8951	5.6188223e-06
89	0x36fd3c01	7.546973e-06
90	0x36e9f157	6.9720368e-06
91	0x3883975e	6.274761e-05
92	0x37bd6b12	2.2580414e-05
93	0x362939fd	2.5216716e-06
94	0x38000cab	3.0529376e-05
95	0x3841a17a	4.6165173e-05
96	0x37b85e03	2.1978287e-05
97	0x3878c227	5.9308626e-05
98	0x3865aedc	5.4760705e-05
99	0x380484bd	3.1594875e-05
100	0x39951538	0.00028435304
101	0x38bbe37f	8.959229e-05
102	0x37316e06	1.0575639e-05
103	0x39220211	0.00015450294
104	0x39149c8f	0.00014172703
105	0x3932ce6d	0.00017052302
106	0x392e4274	0.00016618689
107	0x3982a8b2	0.0002492122
108	0x36b6161e	5.4265975e-06
109	0x384cd8a9	4.883917e-05
110	0x377a790b	1.4929344e-05
111	0x365be578	3.2767111e-06
112	0x383411e9	4.2932024e-05
113	0x3824c199	3.928095e-05
114	0x376d3f66	1.4141062e-05
115	0x373916a5	1.1032132e-05
116	0x3837aba8	4.3790467e-05
117	0x35aaa3f0	1.2713699e-06
118	0x373ff838	1.144228e-05
119	0x36a10f5c	4.799962e-06
120	0x3591eb0a	1.0871747e-06
121	0x37273f7f	9.9687595e-06
122	0x37021954	7.754501e-06
123	0x3658b716	3.2293078e-06
124	0x36916c84	4.3339696e-06
125	0x372862b1	1.0036559e-05
126	0x389f341f	7.591419e-05
127	0x3a331a85	0.000683226
128	0x39687824	0.0002217
129	0x382038c3	3.8199836e-05
130	0x390de547	0.0001353222
131	0x39b540ac	0.00034571195
132	0x39f9a279	0.00047614033
133	0x3a0ce24f	0.0005374299
134	0x3a1618d7	0.00057257473
135	0x381e315e	3.7716112e-05
136	0x39b1f76f	0.00033944423
137	0x38ef2e93	0.00011405083
138	0x379865fb	1.81673e-05
139	0x38069cbc	3.209406e-05
140	0x39144276	0.00014139139
141	0x399000fb	0.0002746655
142	0x399bc19e	0.0002970816
143	0x399370d5	0.0002812209
144	0x369e3dc1	4.715956e-06
145	0x3832057c	4.2443615e-05
146	0x37742378	1.45517915e-05
147	0x3621b787	2.4097696e-06
148	0x3808057b	3.243003e-05
149	0x37f5a2eb	2.928214e-05
150	0x37657125	1.3675807e-05
151	0x376071c3	1.3377928e-05
152	0x3816e59f	3.5976638e-05
153	0x368440a3	3.9414313e-06
154	0x3814c8ac	3.547284e-05
155	0x374576f0	1.1769807e-05
156	0x35c1d962	1.4442887e-06
157	0x3732065a	1.0611106e-05
158	0x36917d2f	4.33591e-06
159	0x38040433	3.1475163e-05
160	0x37e7402b	2.7567226e-05
161	0x37ff47db	3.043183e-05
162	0x37a0cf08	1.9169893e-05
163	0x3934e8c4	0.0001725285
164	0x387489cb	5.8302463e-05
165	0x375072f0	1.2424527e-05
166	0x38b9b7fb	8.8557565e-05
167	0x39323d69	0.0001699828
168	0x38504ec7	4.966443e-05
169	0x38aa493a	8.119871e-05
170	0x390f2da0	0.0001365454
171	0x34e9bc1b	4.3536497e-07
172	0x3683795e	3.9182332e-06
173	0x35b67392	1.3593692e-06
174	0x3549df90	7.520366e-07
175	0x35c0d58b	1.4367264e-06
176	0x3651f55c	3.1286245e-06
177	0x35fde40a	1.8916337e-06
178	0x361eb822	2.3651014e-06
179	0x3640dfa8	2.8740415e-06
180	0x36d3d78c	6.313383e-06
181	0x386e528f	5.682051e-05
182	0x37a64c07	1.9824145e-05
183	0x36396b7b	2.762971e-06
184	0x37bd2e58	2.2552136e-05
185	0x3827f50a	4.0044113e-05
186	0x37c6d3f2	2.3702134e-05
187	0x381b944f	3.7093003e-05
188	0x3850bf99	4.9769504e-05
189	0x365491f9	3.167543e-06
190	0x37ef23fa	2.8507773e-05
191	0x373362f5	1.0692272e-05
192	0x360fd1f6	2.1430874e-06
193	0x37598c20	1.2966833e-05
194	0x3684929d	3.9509746e-06
195	0x37ce22d2	2.4573328e-05
196	0x37b01681	2.0991314e-05
197	0x37cacf8c	2.4176923e-05
198	0x387fede2	6.1018283e-05
199	0x3a0ff5cd	0.0005491644
200	0x39330447	0.00017072364
201	0x37c073e6	2.2942153e-05
202	0x392e9f59	0.00016653295
203	0x3975f4bc	0.00023456191
204	0x39f6add5	0.0004705029
205	0x39bdf6c2	0.00036232738
206	0x39ef1b25	0.00045605857
207	0x3552c1e9	7.851327e-07
208	0x36ed1a0d	7.066183e-06
209	0x361d8f97	2.3478403e-06
210	0x35036d5f	4.896046e-07
211	0x358ebb01	1.063425e-06
212	0x36f6a968	7.351093e-06
213	0x363399bf	2.676257e-06
214	0x358a52cd	1.0305899e-06
215	0x36b0e01d	5.271299e-06
216	0x36c0be23	5.7441807e-06
217	0x3858d5db	5.169758e-05
218	0x37a7dd7b	2.0011086e-05
219	0x367903d1	3.7106113e-06
220	0x37e69d62	2.7491424e-05
221	0x379df73c	1.8830986e-05
222	0x3805395f	3.1763102e-05
223	0x37d6b370	2.5594345e-05
224	0x383aed8f	4.45671e-05
225	0x37a31a6e	1.9443421e-05
226	0x39377dc3	0.0001749909
227	0x3860315f	5.3451742e-05
228	0x369e854e	4.7242856e-06
229	0x39255b04	0.00015769532
230	0x392b33eb	0.00016327172
231	0x37ccfbf0	2.4436013e-05
232	0x38022599	3.102943e-05
233	0x391fdc79	0.00015245554
234	0x3780d894	1.5359641e-05
235	0x3910f36e	0.00013823595
236	0x38340023	4.291547e-05
237	0x36a7d9f8	5.0023627e-06
238	0x385b3299	5.226079e-05
239	0x38aa5be9	8.123351e-05
240	0x389f15d7	7.585779e-05
241	0x38c20242	9.2510614e-05
242	0x390135f8	0.00012322504
243	0x3601d7e2	1.9348158e-06
244	0x379212ed	1.741337e-05
245	0x36e0403a	6.683197e-06
246	0x35b2296e	1.3274091e-06
247	0x36acaab5	5.1458724e-06
248	0x355a1e1e	8.1255155e-07
249	0x3787d444	1.6192098e-05
250	0x378856a3	1.6252807e-05
251	0x3779b061	1.4882623e-05
252	0x36ff684e	7.611735e-06
253	0x388faaa7	6.850558e-05
254	0x37ba8366	2.2234115e-05
255	0x3681e359	3.8709663e-06

exp_avg f4 [128]
0	0x3a4e5bba	0.00078719447
1	0xb9333c95	-0.00017093339
2	0x3ad11d2b	0.0015954127
3	0x382839b7	4.0108072e-05
4	0x39bc2083	0.00035882377
5	0x3b386494	0.002813612
6	0xba55ce7d	-0.00081560743
7	0xb9ccd557	-0.00039068863
8	0x3a9331f8	0.0011230102
9	0x3a18ec72	0.0005833573
10	0x3ad79120	0.0016446449
11	0x3b01636a	0.0019743093
12	0x3a06b052	0.0005137968
13	0x3943a0ac	0.00018656504
14	0x3a8466b1	0.0010101405
15	0x3a3a53b8	0.0007107812
16	0xb9e0facc	-0.00042911468
17	0x3a256b27	0.00063102174
18	0x3b1e3a74	0.0024143727
19	0x3a38f7c5	0.00070559635
20	0xba838c79	-0.0010036371
21	0x3a85d018	0.0010209111
22	0x3b89e2b6	0.0042079343
23	0xb92b26d1	-0.00016322291
24	0xb932be4b	-0.00017046292
25	0xba932c20	-0.001122836
26	0x38e9151b	0.00011114237
27	0x3a448d7c	0.00074978895
28	0xba150523	-0.00056846644
29	0xbaa1df60	-0.0012349896
30	0x39d85978	0.0004126539
31	0x3aef7ac3	0.0018270839
32	0xba5e5dd1	-0.00084826077
33	0x38a49a52	7.848874e-05
34	0xb9c88577	-0.00038246412
35	0x3aa5c760	0.0012647919
36	0x397e5c87	0.00024257797
37	0x3a00ba60	0.00049105845
38	0xb9bd6235	-0.0003612206
39	0x38cf4f8a	9.8853445e-05
40	0xb81b7a94	-3.706904e-05
41	0xb8b513cc	-8.63444e-05
42	0xba7109af	-0.00091948634
43	0xbb0c46dc	-0.002140454
44	0x3a64e697	0.00087318703
45	0x3b1a554a	0.0023549371
46	0xb98313de	-0.0002500107
47	0x3b1a996b	0.002358998
48	0x3ab83778	0.0014054617
49	0x38d94f11	0.000103620936
50	0xba85f704	-0.0010220711
51	0x3ac25d7e	0.0014828888
52	0xb71b4290	-9.254218e-06
53	0xb93d1c0f	-0.00018034897
54	0x3ad99c04	0.0016602282
55	0x3a8bd474	0.0010668174
56	0xb92ed5ba	-0.00016673552
57	0xb8e18a76	-0.000107546264
58	0xbaa828aa	-0.0012829502
59	0xb9156bc1	-0.00014249889
60	0x3a180b12	0.00057999894
61	0x377db932	1.5123094e-05
62	0x3ad80815	0.0016481901
63	0xbad62694	-0.0016338401
64	0x3b7e95f2	0.0038846699
65	0x3a465695	0.00075660023
66	0x3ab7dd23	0.0014027696
67	0x39c61b65	0.00037785913
68	0x394fada5	0.00019805746
69	0x3aee0aa2	0.0018161128
70	0x39e07399	0.00042810736
71	0x3a9ea1b7	0.0012102638
72	0x3a583261	0.0008247253
73	0x3aaa34ee	0.0012985745
74	0x39229239	0.00015503996
75	0xba3093ba	-0.000673588
76	0xba370223	-0.00069812144
77	0x3b44e58c	0.0030044047
78	0x3abd6cac	0.0014451942
79	0xba268e34	-0.00063535874
80	0xba811a7b	-0.0009849811
81	0xba196876	-0.0005852053
82	0x3b864300	0.0040973425
83	0x3a2d0473	0.0006600089
84	0x3ae26920	0.0017273761
85	0x3a25f093	0.0006330099
86	0x3aa9902d	0.0012936644
87	0xb9cced31	-0.00039086633
88	0x3a8a61e7	0.0010557742
89	0xbaa0e838	-0.0012276238
90	0xbaaa4c78	-0.001299276
91	0xba0bbcae	-0.00053305447
92	0xbad296ae	-0.0016066635
93	0xb933e3fd	-0.00017155703
94	0x39176b88	0.0001444054
95	0xba4ac3d6	-0.00077348703
96	0x3a6fd6c2	0.0009149128
97	0xba22b8b9	-0.00062073354
98	0xba1437ee	-0.0005654086
99	0xb9789c43	-0.00023709335
100	0xba404819	-0.0007334962
101	0x3ac39209	0.0014920841
102	0x3a06a53c	0.0005136316
103	0x39ebc17e	0.00044966856
104	0xbb0e2def	-0.002169486
105	0x38958027	7.128744e-05
106	0x3a6e6d78	0.00090952916
107	0xb904ce10	-0.00012665265
108	0x3a30c30b	0.0006742931
109	0x3acde8df	0.001570966
110	0xba0275b7	-0.00049766473
111	0x3b07d39c	0.0020725494
112	0xba41d4ec	-0.00073940936
113	0x3b3bf513	0.0028680011
114	0xba9a060b	-0.0011751069
115	0x3b36aa9d	0.002787269
116	0xbaaaa9db	-0.0013020592
117	0x3a138159	0.0005626879
118	0x392fb431	0.00016756427
119	0x3a8fbea6	0.0010966852
120	0xba0466b8	-0.00050507067
121	0xb7ef0e99	-2.8497818e-05
122	0xba5d7c4a	-0.00084490015
123	0xba1149b5	-0.0005542294
124	0x3afe0c43	0.0019382316
125	0x3ad97826	0.0016591593
126	0xba3bedff	-0.0007168948
127	0x3b54071b	0.0032352868

exp_avg_sq f4 [128]
0	0x3736c31d	1.0893474e-05
1	0x388c8653	6.70074e-05
2	0x38c8010f	9.53694e-05
3	0x39265430	0.00015862356
4	0x3820d995	3.834961e-05
5	0x3972c9e4	0.00023154129
6	0x3a6298fa	0.0008644011
7	0x375f881b	1.3323525e-05
8	0x3a005f58	0.000489702
9	0x37338c9b	1.0701969e-05
10	0x3895b8ba	7.139282e-05
11	0x39a99f84	0.0003235304
12	0x386911e4	5.556819e-05
13	0x375a6b2a	1.3018764e-05
14	0x3a4bc7c9	0.0007773606
15	0x39ca7c9a	0.00038621278
16	0x384a8c82	4.829141e-05
17	0x38294882	4.0360268e-05
18	0x394dd5d5	0.00019629982
19	0x369596a4	4.458083e-06
20	0x38879439	6.46491e-05
21	0x38080b5a	3.24355e-05
22	0x3a23cb70	0.0006248271
23	0x3706e274	8.039748e-06
24	0x3876b5c6	5.882026e-05
25	0x3950c5b2	0.00019910073
26	0x3924ec0c	0.00015728193
27	0x37a6331d	1.9812544e-05
28	0x38a375fd	7.794423e-05
29	0x388afa25	6.626946e-05
30	0x386efb29	5.6977533e-05
31	0x3a35e1bc	0.0006938239
32	0x37c3f785	2.3361072e-05
33	0x3789dfb0	1.6435835e-05
34	0x38ca43a2	9.644708e-05
35	0x3808609c	3.25149e-05
36	0x368f7019	4.274782e-06
37	0x384346f3	4.65577e-05
38	0x365d3b96	3.296625e-06
39	0x38d72e7c	0.00010260657
40	0x35a8a1e5	1.2564093e-06
41	0x389fbab1	7.616485e-05
42	0x38ea8814	0.00011183336
43	0x3a09a342	0.00052504626
44	0x383af79c	4.457646e-05
45	0x38a96b8f	8.078582e-05
46	0x389beec4	7.4354495e-05
47	0x3a122779	0.000557534
48	0x379b5291	1.8515888e-05
49	0x3725d73a	9.884878e-06
50	0x38a8198f	8.015625e-05
51	0x38bc9e2a	8.993999e-05
52	0x37fbb61c	3.0006333e-05
53	0x3810d404	3.452973e-05
54	0x39a17001	0.00030791762
55	0x394403a5	0.00018693374
56	0x38391c43	4.4133758e-05
57	0x3837c107	4.381037e-05
58	0x398b6944	0.00026590575
59	0x38c4efed	9.390698e-05
60	0x3947fcc4	0.00019072281
61	0x38a22d4f	7.733201e-05
62	0x3860027e	5.3408083e-05
63	0x397cb260	0.00024099043
64	0x3a29d508	0.00064785825
65	0x38a7a15c	7.993236e-05
66	0x391c0a77	0.00014881218
67	0x37c5789e	2.3540397e-05
68	0x3883fe46	6.293929e-05
69	0x398ea23a	0.0002720522
70	0x39487c65	0.00019119827
71	0x3904b8fd	0.00012657414
72	0x3880374f	6.113818e-05
73	0x39200f01	0.00015264378
74	0x38abc64a	8.1908496e-05
75	0x3954c9aa	0.00020293021
76	0x391626e0	0.00014319597
77	0x39e0d8a2	0.00042886013
78	0x39894ce4	0.00026187964
79	0x3896b642	7.1865055e-05
80	0x3817fc1f	3.623601e-05
81	0x38644844	5.442674e-05
82	0x397ea109	0.00024283318
83	0x37c2ea8d	2.3235823e-05
84	0x39a1598b	0.00030775028
85	0x39df987c	0.00042647484
86	0x3939ba0e	0.00017712286
87	0x383ec4ec	4.5482928e-05
88	0x37cc14fe	2.432847e-05
89	0x39b0c31b	0.000337147
90	0x390b9348	0.0001331094
91	0x384c49e4	4.8706206e-05
92	0x39c0b6f1	0.00036757396
93	0x399a40e3	0.00029421513
94	0x39f2fecf	0.00046347684
95	0x3904e647	0.00012674286
96	0x38467055	4.7311496e-05
97	0x382cb4a0	4.1176216e-05
98	0x38b887d3	8.799103e-05
99	0x38bd2013	9.0181966e-05
100	0x3841a9a0	4.617276e-05
101	0x393f0ad2	0.0001821921
102	0x385051c9	4.9667233e-05
103	0x3849fcfd	4.8157748e-05
104	0x3a0fe2c9	0.0005488811
105	0x3806dcb5	3.215364e-05
106	0x387de69a	6.0534665e-05
107	0x39671080	0.00022036023
108	0x3886bbbb	6.4245854e-05
109	0x3988455a	0.00025991612
110	0x386b7938	5.614126e-05
111	0x3984469b	0.00025229607
112	0x380be0b2	3.3349446e-05
113	0x39ec572c	0.00045078376
114	0x3981a867	0.00024730267
115	0x39877732	0.00025838014
116	0x38de8085	0.000106097235
117	0x374142b3	1.1519226e-05
118	0x39ee2260	0.0004542051
119	0x3905b560	0.00012751436
120	0x37e3b8b9	2.7146527e-05
121	0x380a40d1	3.296213e-05
122	0x3922d62b	0.00015529308
123	0x39a7f741	0.0003203694
124	0x39221454	0.00015457097
125	0x391b3ff7	0.0001480578
126	0x3756f522	1.2812468e-05
127	0x39e6fe4c	0.00044058484
