Assets/results/Maze01/Mouse/Mouse-768.onnx (onnx, 78167 bytes, 6 tensors)

network_body._body_endoder.seq_layers.0.weight f4 [128, 9]
000000 28 66 81 be 54 13 89 3d 17 d1 59 3c 11 cf b1 be
       -0.25273252 0.0669314 0.01329448 -0.34728292
000010 d2 9e 45 3f 36 23 b0 be 4e f0 2b 3e b9 10 ee be
       0.77195466 -0.34401864 0.16790888 -0.46497133
000020 b4 98 42 3d 89 81 2a be 16 43 59 bd d1 96 b4 be
       0.04750891 -0.16650976 -0.053042494 -0.35271314
000030 52 be 1e bd dd b1 a7 be 04 eb 49 bf e9 d0 ba be
       -0.038755722 -0.32752886 -0.7887423 -0.3648751
000040 92 3c 90 3e 2d 4f 12 bf 11 bc 79 be e9 54 86 3e
       0.2817121 -0.5715206 -0.24388148 0.26236656
000050 75 4c 52 bf b3 ff 2d bd c3 80 84 bf a5 48 4b 3d
       -0.82147914 -0.042480182 -1.0351795 0.049629826
000060 54 de 60 be 25 ed f5 bc 81 bc f1 3e 91 10 dd bc
       -0.21959811 -0.030020306 0.4721413 -0.026985439
000070 dd 63 f1 3d 8e e4 d5 be 34 55 85 be 58 aa 59 3e
       0.117866255 -0.41775936 -0.26041567 0.21256387
000080 f3 42 b8 be c8 8a 3a bd 77 f8 19 3f 45 33 bc 3d
       -0.35988578 -0.04554251 0.6014475 0.091894664
000090 f2 e2 f7 3e ab 94 e3 bd 98 95 7f be b8 85 07 3e
       0.48415333 -0.111123405 -0.24959409 0.13234603
0000a0 dc 64 8c bd d0 60 6a bd 29 55 d1 be 40 f9 25 3e
       -0.06855175 -0.057221234 -0.40885285 0.16208363
0000b0 59 ea c3 3e 98 9a 08 3f cc 9a df 3e 74 88 4a bd
       0.3826473 0.5336089 0.43672788 -0.049446538
0000c0 6f ff ac 3d ce 36 aa bd ea b0 80 bb 99 1e 6d bf
       0.084471576 -0.083112344 -0.00392734 -0.92624813
0000d0 d1 fa 5a 3d e1 80 9f be dc 23 c4 3e f6 8f e8 3e
       0.053461853 -0.31153014 0.3830861 0.45422333
0000e0 6e 3e 85 be 19 f2 d5 be 57 34 e5 bd ad 73 65 bd
       -0.26024193 -0.41786268 -0.11191624 -0.05601852
0000f0 9e 37 df be 55 e9 8a be 58 2d 12 3f 1d 98 fe bb
       -0.4359712 -0.27131143 0.5710044 -0.007769598
000100 20 5c c6 be be cc d7 3e d8 01 73 bd 18 bd 51 3e
       -0.3874216 0.42148393 -0.05932793 0.2048229
000110 69 7d 0a 3e 4d 71 15 3f 67 c8 a3 bd ee 0b 21 3d
       0.13524403 0.5837601 -0.07997208 0.039318018
000120 c4 73 eb bd e8 9f bb 3e 08 58 1a bd e5 7d 9e be
       -0.1149669 0.36645436 -0.03768161 -0.30955425
000130 bc bd 0a 3f ff 6b 36 bf 75 d0 75 3d c1 69 68 bd
       0.5419576 -0.7125854 0.060013253 -0.05674148
000140 fe f9 67 be 2c 95 15 3f 46 2f b1 3e 61 6c da 3e
       -0.22653958 0.58430743 0.3460638 0.42660812
000150 47 9f 0e 3c 1c 05 6e 3d aa 04 9e 3e ae 0d d5 3d
       0.008704967 0.05811034 0.30862933 0.10403
000160 a9 98 0d 3e e3 7d 09 3e 7c 82 74 3e ba 2a 96 be
       0.13827766 0.13426928 0.23877901 -0.29329473
000170 af 19 09 3f 55 8b 34 bd 4c 9d a9 be ac c9 1d be
       0.53554815 -0.04407819 -0.3312782 -0.15408963
000180 36 24 86 be d8 42 a9 3e fb b3 c4 bd ee 45 0e bd
       -0.26199502 0.3305881 -0.09604641 -0.03473466
000190 8d f2 a3 3e a6 d3 bf 3d 7c 0a e7 3e 26 ab 90 be
       0.3202099 0.093665406 0.45125186 -0.28255576
0001a0 70 40 0e bf e0 2c c6 be 9c 3e c1 be 7a 01 cd 3e
       -0.55567074 -0.38706112 -0.3774308 0.4004019
0001b0 dd a2 0c 3f 64 5b 01 3d b8 e7 6a bf e0 e1 d0 3e
       0.5493601 0.031581298 -0.91759825 0.4079733
0001c0 aa e5 84 be 56 ee a2 be 2d 84 d1 3e ac 74 dc 3c
       -0.2595647 -0.3182246 0.40921155 0.026911102
0001d0 03 e5 00 bf 7f f8 4c be 2f c4 04 bf 1b b5 df bd
       -0.50349444 -0.20016669 -0.5186185 -0.10923215
0001e0 e6 14 17 bf db 75 49 3e 99 f9 e6 be d2 b8 2b be
       -0.59016263 0.19673865 -0.45112303 -0.16769722
0001f0 50 7a dc be 72 75 e8 be ad 00 e4 bb 22 5d be 3d
       -0.43062067 -0.45402104 -0.0069580884 0.092951074
000200 b8 9f 10 3e ea cd 9b 3e 93 45 9c be b5 66 1d bf
       0.14123428 0.30430537 -0.3052183 -0.61484843
000210 57 5f b2 3d 4f 5e 06 bd 77 5c c4 be 78 56 60 3e
       0.08709591 -0.032804783 -0.38351795 0.21907985
000220 ca 22 09 3f 16 d4 a1 be b3 5e a3 bd f0 41 22 3e
       0.5356871 -0.3160712 -0.07977047 0.15845466
000230 03 48 21 3f 56 03 0a be 14 05 af 3e 39 42 84 bd
       0.63000506 -0.13477835 0.34183562 -0.064579435
000240 01 25 4d 3e c3 19 57 be d1 69 b0 be 43 c1 04 3e
       0.20033647 -0.21005921 -0.34455732 0.12964348
000250 bf 47 18 bd eb 9c d4 3d 1c 18 d2 3e e8 f7 48 be
       -0.037177797 0.10381492 0.4103402 -0.19625819
000260 2c 77 8f be b4 cb c6 3e 54 11 27 3e 28 c7 09 be
       -0.28020608 0.38827288 0.16315204 -0.13454878
000270 25 ed 6f 3e ec c5 2d bd 44 b3 37 bf 3c 3e a4 be
       0.23430307 -0.04242508 -0.7175791 -0.3207873
000280 f9 b2 95 3e b9 b3 f9 bd 76 fb d3 bc 21 6d b2 bd
       0.29238108 -0.121924825 -0.025876742 -0.08712221
000290 3e cf c1 3d 17 87 e4 3d ac 20 de be 39 ca 30 3e
       0.094633564 0.11158579 -0.43384302 0.17264642
0002a0 17 78 a0 3d 79 27 87 3e a7 ac 07 be 84 8a bf be
       0.07835405 0.26397303 -0.13249455 -0.37410367
0002b0 b3 e1 0d 3e 4b 1b 4f 3e 4b 46 17 3e 17 cf d5 3d
       0.13855629 0.20225255 0.14772908 0.1043989
0002c0 7a 7f 64 be 1a 47 71 be 10 67 76 be 19 df f0 3d
       -0.22314253 -0.2356228 -0.24062753 0.117613025
0002d0 4a 40 f3 3e 84 5d c5 3e e7 be 3e 3e 1a e0 42 3f
       0.47509986 0.3854791 0.18627511 0.761232
0002e0 63 73 a8 be 47 2c 5a be 7e dc 4a be 86 33 06 bf
       -0.32900533 -0.21305953 -0.19810674 -0.5242237
0002f0 1b 13 b9 be a4 a6 a1 be bf 0f 21 bf ef 2c eb bd
       -0.3614739 -0.3157245 -0.6291465 -0.1148318
000300 df cf 7f bd 32 8a 86 3e af ad 40 be ad 06 1a 3e
       -0.0624541 0.2627731 -0.18816255 0.15041609
000310 36 2e 7f be 89 f2 d9 3c 82 d8 c3 bb c0 33 7f be
       -0.24919972 0.026604908 -0.0059767375 -0.24922085
000320 51 11 e9 3c 74 69 4f bf 8d 80 17 3c fe 7d 0b 3e
       0.02845064 -0.81020284 0.0092469575 0.13622281
000330 2e 66 ac 3d 46 a6 27 3e b2 03 ad bd 9d a4 00 bd
       0.08417927 0.16372022 -0.084479704 -0.031406987
000340 13 8e 3c 3e ab 0c 4c bf 37 36 fe bd 2b 88 8e 3e
       0.18413572 -0.7970683 -0.124126844 0.27838263
000350 63 9b 80 bc d7 ae 6f 3d e5 90 a2 be 91 49 c9 bd
       -0.015699094 0.05851635 -0.3175117 -0.09828485
000360 0f eb e9 3e f1 72 f3 3b 25 cf 02 bf 59 b7 8a be
       0.45687148 0.0074294736 -0.5109733 -0.27093008
000370 c9 90 a9 3e d2 5d c0 3c 21 4a d3 3e ed 4d 74 3e
       0.33118275 0.023482237 0.41267493 0.23857851
000380 19 d7 32 3f 3b b0 e6 3e 15 8d 13 bd e4 f5 3f be
       0.6985946 0.45056328 -0.03602322 -0.18746144
000390 16 21 9e 3e b3 45 cd bd 84 e9 1d 3f b3 82 80 3d
       0.30884618 -0.1002306 0.6168444 0.06274929
0003a0 f1 42 2b 3d 73 61 54 3e 86 9a fe bd bf cf 80 be
       0.041811887 0.20740299 -0.12431817 -0.25158498
0003b0 22 8d af 3e 95 c5 1e bd db 47 5c 3d a5 e5 a6 bd
       0.34287363 -0.038762648 0.053779464 -0.0814927
0003c0 e7 1f b1 3d c1 e9 14 be 44 e6 fb be b2 e8 aa 3d
       0.08648663 -0.14542295 -0.49199116 0.08345164
0003d0 18 7d c0 be c5 17 07 bf 3e 93 75 3e cb ef d0 be
       -0.3759544 -0.52770644 0.2398195 -0.40807948
0003e0 01 dc c2 3a d2 74 ea be bd 99 91 bd 5d 15 0a bd
       0.0014866592 -0.45792252 -0.071094014 -0.03371178
0003f0 c6 db 19 be c2 6e fd 3e 16 3f c1 3e 2d b7 05 bf
       -0.15025243 0.49498564 0.37743443 -0.5223263

network_body._body_endoder.seq_layers.0.bias f4 [128]
000000 63 f5 8c bb a7 74 7c 3c df 77 6e 3b 97 60 41 bb
       -0.0043017133 0.015408671 0.0036387367 -0.0029507035
000010 2f c8 06 3b dd 52 07 3b 28 f5 49 3b 23 63 3b bc
       0.0020566096 0.0020648756 0.003081629 -0.01143721
000020 61 05 38 ba 75 09 da 3b 74 bd 1f bb d5 96 92 bb
       -0.00070198445 0.0066539594 -0.0024374397 -0.004473547
000030 4d 3e 6b 3b 77 1b 33 3c 14 f6 2d 3b 8c e6 ce 3b
       0.0035895288 0.010931841 0.002654438 0.0063141044
000040 36 b7 e4 3b d4 86 f8 38 0f e7 77 3b 9c 2f 05 bc
       0.0069798483 0.00011850675 0.003782693 -0.008129027
000050 e3 34 db 3b f6 6c e8 ba 24 c0 69 bb 0c 08 d3 3a
       0.006689654 -0.0017732668 -0.0035667503 0.0016100421
000060 56 23 8f ba 8b 32 2d 3c 4e 1e 32 bb db 10 4c 3b
       -0.0010920565 0.010571132 -0.0027178708 0.0031137976
000070 cf 76 1c bc 4a ae 25 3b 34 7a f0 bb c0 a5 ba bb
       -0.009549811 0.0025280886 -0.0073387865 -0.0056960285
000080 2f f0 9d 3b 6c d5 85 3b 8e 99 15 bc d0 25 01 bc
       0.004819892 0.0040842798 -0.009130849 -0.00788255
000090 b2 1e e8 ba 8f 31 ae 3b 6d 34 0c bc b0 62 f3 3b
       -0.0017709343 0.0053159664 -0.008557421 0.007427536
0000a0 1e 4e 13 3c 11 3a 66 3a 03 98 b8 bb ab 3c 8f 3b
       0.008990793 0.0008782456 -0.0056333556 0.004371246
0000b0 f3 bb fb bb b8 f0 17 3b 98 35 08 39 b4 2a 4e bc
       -0.0076823174 0.002318425 0.00012989936 -0.012583423
0000c0 4e 5c dc 3a 92 57 62 ba be 72 5c 3c 39 f8 75 bb
       0.0016812177 -0.0008634265 0.013455091 -0.0037531985
0000d0 06 b8 90 3b 28 e2 76 bc 9f 1a 08 bc 7a 2d 10 3c
       0.0044164686 -0.015068568 -0.008307128 0.008799905
0000e0 0a bc be ba cc b6 3f 3c e5 d4 bb 3b 7a 23 ad 3b
       -0.001455189 0.011701297 0.005732166 0.00528377
0000f0 f8 9c fc 39 f8 11 b9 bb 49 cc 86 3a 4b de 15 3c
       0.00048182136 -0.005647894 0.001028427 0.009147237
000100 ba 1d 91 3c e7 89 fa 3b 47 9d 32 ba 85 5c c1 3b
       0.01771437 0.007645834 -0.0006813597 0.0059009218
000110 d3 8a d8 bb d7 d3 30 3b a6 1c 2b 3c a0 b2 2a b9
       -0.006608346 0.0026981735 0.010443842 -0.00016279006
000120 bd 2d 1f bc d6 b7 d0 3b 12 3e d9 bb b4 45 0c 39
       -0.009715495 0.006369571 -0.006629714 0.00013377407
000130 73 35 0d bc 43 d0 5a 3b b1 f6 4d bb fb 50 a9 bb
       -0.0086187 0.0033388294 -0.0031427557 -0.0051671243
000140 f6 79 0b 3c 49 50 42 bc c2 78 e9 bb 49 9b 10 3c
       0.0085129645 -0.011859962 -0.007124991 0.008826085
000150 1f ae 3c 3c 93 25 51 bc fb ac 27 bc c4 ae 01 3c
       0.011516123 -0.012765306 -0.010234113 0.0079152025
000160 fd 3c ac 3b 7b 23 1e bc 4e 12 0b 3b fc 7c ae 3a
       0.005256294 -0.009652014 0.0021220627 0.0013312395
000170 ff 31 5c ba ae a8 b1 ba 34 1c 4d 3b d4 76 d1 ba
       -0.0008399784 -0.0013554299 0.0031297328 -0.0015980848
000180 fe 3f 81 3a 4d f3 a9 bb d6 34 29 3c c7 3d 9d ba
       0.000986099 -0.0051864744 0.0103275385 -0.001199656
000190 80 07 19 bc e6 c1 02 3c 03 19 9b 3b 01 14 1e bc
       -0.009340167 0.007980799 0.0047332062 -0.009648324
0001a0 c9 ac 2d 3c 13 4e 03 3c eb 60 e5 3b 30 f1 8a 3c
       0.010600277 0.00801422 0.007000079 0.01696071
0001b0 d5 e7 cd ba 4d 14 fc 3a 45 ee 06 3c 88 3d e7 3a
       -0.001570935 0.0019232124 0.008235519 0.0017642239
0001c0 91 11 26 3c fd f4 23 3c c3 a3 63 3b c8 b4 63 3b
       0.010136024 0.01000714 0.003473506 0.0034745205
0001d0 07 4e f5 bb 71 0e ad 3b 6a 06 06 3c 97 71 e2 3b
       -0.007486108 0.0052812626 0.00818024 0.0069105136
0001e0 fb 62 82 ba 55 4a 9b 3b 5c d2 31 3c 97 f1 2e 3c
       -0.0009947711 0.0047390857 0.010853376 0.010677717
0001f0 c8 39 eb 3b 55 cf 2e bc dd 0f fb 3b 63 c2 2b 3b
       0.007178519 -0.010669549 0.007661803 0.0026208393

network_body._body_endoder.seq_layers.2.weight f4 [128, 128]
000000 bf 51 42 bb 3a ad 57 3e 25 96 34 bc 1e 3f b2 3b
       -0.0029650775 0.21062174 -0.011022125 0.005439653
000010 6a 52 64 3e 16 52 c1 3d c3 5d 92 3c fb 86 2b 3e
       0.22297063 0.09439485 0.017866975 0.1675071
000020 0e 9e d6 bd 5f bd 88 bd 66 e7 24 3c 83 3b 93 bd
       -0.10479365 -0.06676745 0.010064935 -0.07189085
000030 f0 4b 9c 3d 16 5b d2 bd 59 8c b9 bd cc 35 93 bc
       0.076316714 -0.102712795 -0.09059972 -0.017969988
000040 7c 62 b9 bd df ac 14 3e 9d 22 d1 bd bb 8b d5 bc
       -0.090519875 0.1451907 -0.1021168 -0.026067605
000050 4a 3e ef bc a5 d5 8b bc 5b dd c3 bc 84 3e 5e bd
       -0.029204506 -0.017069647 -0.023909261 -0.05425884
000060 10 8a 92 3d 5a 2d 38 be 58 f7 25 3e a0 f3 91 bd
       0.071552396 -0.1798605 0.16207635 -0.07126546
000070 e6 3a 04 3c cf f0 4b 3c ab da c1 3d 89 d3 cc 3d
       0.008070683 0.01244755 0.09465536 0.10001285
000080 0b 47 19 be ec 86 82 3d f0 1b 6e 3c 4e b1 09 3d
       -0.14968507 0.063733906 0.014533028 0.033616357
000090 57 ea a2 3d 70 d9 6c 3d 0b 33 47 3d 1b ef 74 3d
       0.07954853 0.057824552 0.048632663 0.05979834
0000a0 e4 d2 1a 3e 0b f6 76 bd a3 cf 80 3d 79 44 4a be
       0.15119511 -0.06029324 0.062896036 -0.19752683
0000b0 39 03 e0 bc 0a e0 47 3d 16 07 a3 bd d5 a1 30 be
       -0.027345287 0.048797645 -0.07960336 -0.17249234
0000c0 63 e3 02 bc 62 e9 9e 3c 38 9a 63 be c0 c3 bb bd
       -0.0079887835 0.019398395 -0.22226799 -0.09168196
0000d0 6a 09 9b bd 39 eb 0c bd a3 63 2e 3d 05 ec 91 bd
       -0.07570155 -0.034404013 0.04257549 -0.07125095
0000e0 7d a4 a1 3c 35 1f aa bc 09 2a 89 bd dc a0 ae 3d
       0.019731754 -0.020766834 -0.06697471 0.08526775
0000f0 59 0d 44 bd ff 8d af bd 00 94 e4 3d 9c 97 95 bd
       -0.04786429 -0.085720055 0.11161041 -0.07304308
000100 66 c5 dc bd 11 53 cf 3c 55 02 2f 3d b2 92 47 bc
       -0.10779838 0.025308164 0.042726833 -0.012180971
000110 fe a1 6a bd bd df 2b be 7b a1 77 bc b2 60 e9 bd
       -0.057283394 -0.16784568 -0.015114184 -0.11395396
000120 84 b8 de 3d b0 8b d7 bc 4c e1 8b 3d 89 fe af 3d
       0.10875037 -0.026311725 0.06830081 0.085934706
000130 ac fd 94 3d 2b d0 87 bd 04 0d 21 3d 44 1d ab 3d
       0.072749466 -0.06631502 0.039319053 0.08355191
000140 7c b0 a5 bd 02 76 db bb a2 3a 9b 3b 19 e0 d2 3c
       -0.08090302 -0.0066974172 0.004737214 0.025741624
000150 b4 bb f0 bb 17 ab 02 3d a9 7e 07 3d b2 73 98 3d
       -0.0073465947 0.031901445 0.033079777 0.07443942
000160 55 25 47 3d 44 d4 ce bd 6d 36 1f be 89 39 8b 3d
       0.048619587 -0.1009908 -0.15548106 0.06798083
000170 89 24 01 3d 04 a7 12 3e 7b d9 94 bd 65 de 94 3c
       0.031528983 0.14321524 -0.072680436 0.018172452
000180 6e b8 3c 3d 60 6c 8f 3c 16 b1 db 3d 14 6b e5 3c
       0.046074323 0.017507732 0.10727136 0.02800516
000190 0b ad 1f be 63 f6 56 3d 38 4c f0 3d 4c ea e1 bb
       -0.15593354 0.052481066 0.117332876 -0.0068943854
0001a0 6a 13 94 3d 03 9e b8 3d 39 a8 5f bd 3b ce 12 3e
       0.072302654 0.09014513 -0.05460379 0.14336483
0001b0 fb fb fd bd e3 20 ea bd 75 24 d8 3d 98 7d d8 3d
       -0.12401577 -0.11432054 0.105538286 0.1057083
0001c0 f5 3c 46 3e f8 ba 51 bc 1b 55 02 bd 74 13 83 bd
       0.19359191 -0.0128009245 -0.031819444 -0.06400195
0001d0 52 90 21 be 55 1c e7 bc 0f 00 0e 3c c5 a4 a3 bc
       -0.1577771 -0.028211752 0.008667006 -0.01997603
0001e0 9c 44 0b 3e c7 1a 1b 3c 48 b7 55 bc ca ee c6 bc
       0.13600391 0.009466833 -0.013044186 -0.024283785
0001f0 01 43 01 3d 4d 4c fc bd 62 e6 78 3d 68 9e 8a 3d
       0.03155804 -0.12319241 0.060766585 0.06768495
000200 ea 3c de bd 2a c2 3d be 4b 39 38 3e 21 d8 8c 3d
       -0.10851462 -0.18531099 0.17990606 0.06877161
000210 60 11 24 be e2 19 bf 3d be 5c ea 3c 1f ab 40 3d
       -0.16022253 0.09331109 0.028608676 0.047038194
000220 5d c9 6a bd 24 5a 02 be b9 5b 97 3c 73 b9 2c 3d
       -0.05732094 -0.12729698 0.018476354 0.042169046
000230 85 0c de 3d 1b 30 33 bd ea 25 e1 bd 07 9f 4f 3c
       0.10842232 -0.04374705 -0.1099356 0.012672192
000240 05 c9 c0 bb cb 8a 02 3d 5e 12 f0 bc 31 ac 92 3c
       -0.0058833384 0.031870645 -0.029305633 0.017904373
000250 4c 8d 74 be cc b4 30 3d 9b fa 45 3d 87 69 3f bc
       -0.23882025 0.04314117 0.0483347 -0.0116828745
000260 3c 3a c9 bd fa 69 b2 bd f4 1c d0 bb 3e 4d bf 3c
       -0.098255605 -0.0871162 -0.0063511077 0.023352262
000270 57 44 21 bd 8e d4 31 bd 1b be f4 bd d3 71 ac 3c
       -0.039371815 -0.0434156 -0.11950322 0.02105037
000280 15 b6 96 bb 4b fa e7 3d 7d dc 80 3d a5 e5 3c 3e
       -0.0045993426 0.113270365 0.06292055 0.18446977
000290 49 6b f2 bd ed d4 47 3d 3d 6f 2d 3d 1c 03 35 3d
       -0.11836869 0.048787046 0.042342413 0.04419242
0002a0 60 c9 3f be 6f 0e 45 be 1f fc 9d bd f1 47 0b bd
       -0.18729162 -0.19243787 -0.07714104 -0.034004156
0002b0 7d 9e 83 bc b5 c1 3e b9 6b 25 60 3c a2 92 c5 3d
       -0.016066784 -0.00018191974 0.013680796 0.096471086
0002c0 5e cd af 3d de 44 27 be 8f 9c 69 3c 0f d0 a6 bd
       0.085840926 -0.16334864 0.014258518 -0.08145153
0002d0 cf 09 9b 3e 8c 19 2a bd 71 f2 aa bd 97 bc 3b 3e
       0.3028092 -0.04152827 -0.08347023 0.1833366
0002e0 41 e3 0e bc da 3a 99 bd cd f2 be bd 28 ec d5 bc
       -0.008721174 -0.07481928 -0.09323654 -0.026113585
0002f0 50 93 b2 bd cf a1 14 3e ec 92 38 bd 8b d9 17 3e
       -0.08719504 0.1451485 -0.04506199 0.1482908
000300 31 9f 8a 3d dc b6 e8 3d aa 2f 2c bd 35 49 0e bc
       0.067686446 0.11363003 -0.042037643 -0.008684446
000310 95 92 7d bc 43 cc 3e 3d 85 3b eb bd 5a 1c 99 bd
       -0.015476842 0.046581518 -0.11485962 -0.07476111
000320 85 88 b3 3c f5 77 09 bc ae 55 c1 bd da 85 ef 3d
       0.021915684 -0.008390416 -0.0944017 0.11695452
000330 69 2e 89 3d 9b a9 e9 3c cc b6 c7 bd 64 7d 36 be
       0.06698305 0.028523257 -0.097516626 -0.1782127
000340 99 10 cd 3d 2a cc 35 bd 1f ea d9 bc d4 0b f9 3d
       0.100129314 -0.04438416 -0.026600895 0.12160459
000350 b4 61 01 bd 54 61 f0 bd 1a fe c7 3d a0 6a d5 bd
       -0.031587318 -0.11737314 0.09765263 -0.10420728
000360 31 09 da 3b 7e 85 b5 bd 60 2c 90 bd c7 de 76 be
       0.0066539277 -0.08863352 -0.07039714 -0.2410842
000370 73 a7 62 bd f5 a6 9b 3d 80 1f 97 bd 6a 28 33 bd
       -0.055335473 0.07600204 -0.07379055 -0.043739714
000380 f1 d7 1d be dd 94 f3 bd 6b 36 61 be ca fd 27 bb
       -0.15414406 -0.11893628 -0.21993415 -0.0025633448
000390 29 d7 39 bd bf 77 1a bd fa 48 05 be 89 59 fc 3d
       -0.04537121 -0.037711855 -0.1301612 0.12321765
0003a0 a5 fc 7a bd cf 0d c7 bd 69 e6 cc bc f3 f8 fb bd
       -0.061276097 -0.09719431 -0.025012212 -0.12303343
0003b0 92 70 06 3d 4e 7d d9 bd e3 6b 4a bc 8a a8 6b be
       0.0328222 -0.10619603 -0.012354824 -0.23013511
0003c0 e0 ef 8c bd 38 98 74 bd 2e a8 c7 3c c5 aa 12 be
       -0.0688169 -0.05971548 0.024372187 -0.14322956
0003d0 b2 8e 35 3b 9e b6 fa 3d 56 9b ab 3d 05 1d 1f 3e
       0.0027703461 0.12241863 0.08379237 0.15538414
0003e0 f5 d3 ed bd de ba 15 3e b3 2d bf 3d 26 47 50 bd
       -0.11612693 0.14622065 0.09334888 -0.050849102
0003f0 4a 10 a0 3c 6a ac b2 3c ae ff 88 3c c2 f0 d1 3c
       0.019539017 0.021810729 0.01672348 0.025627498

network_body._body_endoder.seq_layers.2.bias f4 [128]
000000 e8 ac d1 bb 28 5c 72 bb 28 6d 58 bb c4 df a1 bb
       -0.006398786 -0.00369812 -0.0033024047 -0.004940005
000010 95 85 10 bb 21 d9 52 3c 1b 08 a5 bb f9 3e a4 3b
       -0.0022052277 0.01286915 -0.0050363666 0.0050123897
000020 df 04 06 bb 4c 17 8e 3b 74 03 0a bb ad db ba b9
       -0.002044968 0.0043362733 -0.0021059187 -0.00035640356
000030 f7 4e dd 3b bc ec 0f bc b3 d7 a7 ba d6 aa 13 3c
       0.006753798 -0.008784469 -0.0012805372 0.009012898
000040 52 ed 9a bb d5 d7 cb 3a 9a 47 20 bb 6b 9b f0 3b
       -0.004727998 0.0015551994 -0.002445674 0.007342746
000050 a6 49 39 3c 58 e8 91 bb 73 76 19 bb 67 dc 70 3b
       0.011309063 -0.0044527464 -0.0023416549 0.0036752464
000060 ff 8c 12 3a d0 ce 27 bc 99 32 0d bc a4 bd 76 bb
       0.0005590468 -0.010242179 -0.00861802 -0.0037649656
000070 68 05 2d 3c 9e 68 c3 3a 43 40 57 bb f1 32 99 3b
       0.010560371 0.0014908498 -0.00328447 0.004675262
000080 a0 61 c7 bb 06 fb e0 3a 59 fa 77 3b 4e 0a fc 3b
       -0.006084636 0.0017164655 0.0037838428 0.007691658
000090 83 73 d1 3a 13 a8 aa 3a bb 1d 06 3c 77 4e 58 3a
       0.001597986 0.0013020061 0.008185799 0.0008251438
0000a0 8e ca a8 39 35 72 20 3b 98 67 2b 3a 72 71 9d bb
       0.00032194372 0.0024482135 0.0006538569 -0.0048047835
0000b0 50 53 93 bb cd 37 82 bb 11 fc 24 bc 97 b7 33 3c
       -0.0044960156 -0.003973937 -0.010069863 0.010969064
0000c0 b1 03 f5 bb e4 84 3f 3c e7 ac e4 bb c8 24 b8 bb
       -0.0074772467 0.011689398 -0.0069786194 -0.005619619
0000d0 e1 0c 4d 3c b4 51 89 38 db 63 32 3b 0d b9 34 3c
       0.012515278 6.5478875e-05 0.0027220163 0.011030448
0000e0 72 1c 05 bb 01 1c 4d bc c0 0b 1b bc 34 fe 1c bc
       -0.0020311144 -0.012518884 -0.009463251 -0.009582091
0000f0 c7 f6 c6 bb 4b 4a d3 3b 70 6f 36 3b 29 76 8e 3b
       -0.0060718986 0.0064480654 0.0027837418 0.004347582
000100 20 18 df 3b 30 ac a7 3b f7 17 39 3c 5c 49 0f bc
       0.006808296 0.005116962 0.011297218 -0.008745518
000110 ea 89 39 bb f5 7e 2d bb 02 25 2f 3c 6d e3 0e bb
       -0.0028310963 -0.0026473377 0.010689976 -0.0021803037
000120 8e 3e 9e bb 4c 12 77 bb e4 10 c1 bb 20 9c 99 bb
       -0.0048292344 -0.0037700115 -0.005891906 -0.004687801
000130 2f a2 02 bc 76 3a a6 3a 8c 1a 61 3b 3b b0 d3 bb
       -0.007973238 0.0012682218 0.0034348099 -0.0064602173
000140 ab 42 77 bb f5 38 38 bb 75 b5 f0 3b 02 63 04 3c
       -0.0037728946 -0.002811012 0.00734585 0.008080246
000150 ec 06 04 3b 3f 04 07 ba 59 cf d8 ba 5e f3 d4 3a
       0.0020145727 -0.0005150474 -0.0016541287 0.0016246845
000160 6d 79 dd b9 ef 55 26 bc 26 92 db 3b 38 cc b6 bb
       -0.00042242874 -0.010152324 0.006700772 -0.005578544
000170 e1 d3 82 bb a5 94 fe bb 3d c9 fd 3b b2 25 31 3c
       -0.003992543 -0.0077691847 0.0077449367 0.01081221
000180 5e 78 ff ba 8e 7d d0 bb 07 69 14 bc 0b b8 82 3b
       -0.0019490828 -0.0063626235 -0.009058244 0.003989225
000190 6d bd 11 bc 36 8f 9a 3b fd da 59 37 ba 60 03 3c
       -0.00889526 0.004716779 1.2985195e-05 0.008018667
0001a0 6e f5 36 3c 05 c1 30 bb 46 00 b5 ba d2 c8 40 bb
       0.011166913 -0.0026970517 -0.0013809286 -0.0029416573
0001b0 7a 51 71 3b 79 7a 9c 3b 20 7b 84 bb 79 d4 b9 b9
       0.0036822245 0.004775342 -0.004042998 -0.00035444254
0001c0 1b 89 f8 ba f0 07 19 3c 7d 36 0a 3c 2f 26 62 3b
       -0.0018961759 0.009340271 0.008435843 0.0034507622
0001d0 83 6a 65 bb d6 96 68 3b 01 c8 39 bb 6d 27 6c bb
       -0.0035006113 0.0035490296 -0.0028347971 -0.0036034242
0001e0 d0 5f b0 ba 63 c8 27 3c 8a f0 0f bc 34 0d 9c 3b
       -0.0013456289 0.010240647 -0.008785376 0.004762316
0001f0 b1 cf a7 3b 00 4c a9 bb fd 11 01 3a a2 82 ac bb
       0.0051211943 -0.0051665306 0.000492364 -0.005264596

action_model._discrete_distribution.branches.0.weight f4 [4, 128]
000000 a6 c0 b6 bc 27 20 21 bc 16 d5 66 bc c4 95 bc bc
       -0.022308659 -0.009834326 -0.01408889 -0.023020633
000010 74 98 56 3c 10 8c 44 3c 43 28 d7 bb 91 9c 44 bb
       0.013097871 0.011996284 -0.006566079 -0.0030000547
000020 63 5a 1e bc e5 8c ca 3b 7c 31 b8 bc 43 b7 72 ba
       -0.009665105 0.0061813467 -0.022484533 -0.00092588755
000030 4e 19 0a 3c 44 ff 25 3a 16 9c 00 bc f1 91 0a 3b
       0.008428885 0.0006332288 -0.007849714 0.0021144117
000040 2f e6 d9 bb 1b 5c 3d ba e9 40 20 bc d6 fd b6 bb
       -0.0066497545 -0.00072235026 -0.009781101 -0.005584459
000050 43 11 93 3b 38 8c 48 bb a6 d3 db bb c1 e2 91 bb
       0.0044881417 -0.0030601155 -0.00670858 -0.00445208
000060 7e 11 9c 3c 88 ab 43 bc 7e ea dc bb 47 e7 24 bc
       0.01905131 -0.011942752 -0.006741821 -0.010064906
000070 00 10 21 3c 36 16 20 3b 7c 46 3b 3c 0f 71 b6 3b
       0.009830475 0.0024427301 0.011430379 0.005567677
000080 d3 7f f4 3b 50 57 85 3a 8f af 0a 3c ff 1b 45 3c
       0.007461527 0.0010173116 0.008464708 0.012030601
000090 4d e4 b6 bb e2 1b 61 3b 9b 63 85 3c 39 dd fb bb
       -0.005581415 0.0034348895 0.016282847 -0.007686284
0000a0 0f a3 4c 3c e6 2c 0a bc 6b 33 24 3b b4 90 26 bc
       0.012490048 -0.008433556 0.0025055062 -0.010166336
0000b0 e3 5f bf bb 06 12 47 3a 7c 63 bd bb 19 d2 5b 3c
       -0.005840288 0.0007593933 -0.0057796817 0.01341679
0000c0 0a 8c 59 39 ac 73 c4 3b 66 c5 8e 3a 15 79 ac bb
       0.00020746901 0.0059952345 0.001089257 -0.0052634575
0000d0 20 18 84 3c 91 05 c2 3b 6f 95 c0 bb 0b 73 65 3b
       0.016124785 0.0059210737 -0.005877189 0.0035011198
0000e0 2c 98 a8 3b 11 14 de bb 8d d6 80 bc f9 4c 81 bc
       0.0051450934 -0.0067772944 -0.015727306 -0.015783774
0000f0 a7 78 63 bc d1 59 a1 3b dc 6a e4 3b 4e c1 d0 bb
       -0.013883746 0.004924037 0.0069707464 -0.0063707
000100 08 62 92 3a 2f fa 3d bb 26 ba 05 3c a0 35 5e bc
       0.0011168132 -0.0028988232 0.008162057 -0.01356259
000110 26 6c 85 bc 00 1c b7 3b 28 a9 af 3b dc d0 d0 b7
       -0.01628692 0.0055880547 0.005360741 -2.489279e-05
000120 94 c5 fc bb 23 e4 97 bc a9 28 95 bc 7d 54 08 3c
       -0.007713983 -0.018541401 -0.018207865 0.008320925
000130 52 a5 5e bb cb 1d 28 bb bd cd da 3b 0c 01 bc bb
       -0.003397305 -0.0025652524 0.006677358 -0.0057374295
000140 71 0c 4a bb 04 24 8d 3c 70 7a 02 3c 3d 21 62 3c
       -0.003083017 0.017229088 0.007963762 0.01380187
000150 d1 8c a0 3c 2f 88 0e ba 2a 47 ad bb b0 c4 58 bb
       0.019598396 -0.0005437163 -0.0052880244 -0.003307622
000160 f0 70 71 ba 5e 67 a6 3b 49 07 c8 3a e8 e8 b3 bc
       -0.00092102494 0.0050782403 0.001526096 -0.021961644
000170 9a 80 38 39 66 d0 fd ba 9e 06 ee 3b 9d 95 b2 3c
       0.00017595515 -0.0019364476 0.0072639724 0.021799857
000180 39 c0 8d 3b 96 d9 0f bc 2e e5 2d bc 5f 89 ed 3b
       0.0043258932 -0.008779904 -0.010613723 0.007249042
000190 52 ac f7 3b 8c 1f 13 3c 3f 8f 3d 3c 14 55 3b 3c
       0.007558384 0.008979689 0.011569797 0.011433858
0001a0 d0 22 08 3c c8 58 46 bc 1e 83 62 bb 5b 23 49 bc
       0.008309081 -0.012106128 -0.0034563015 -0.012276496
0001b0 cd 08 9c 3b fe 50 ab 3b d1 9b 3c bc 49 2b de 3b
       0.0047617913 0.005228161 -0.011511759 0.0067800623
0001c0 26 be 17 bb 05 31 ba 3c 75 9b 33 3b 9c 4d 3e bb
       -0.0023154109 0.022728452 0.0027405892 -0.0029037958
0001d0 27 20 b8 3b 8e e6 f1 3b a3 43 e0 bb 9b a6 44 bc
       0.0056190672 0.0073822206 -0.0068440004 -0.012002612
0001e0 8e e6 7f ba 67 27 5d 3c 9e 88 81 bb 12 0f 8b 3b
       -0.00097618334 0.013498164 -0.0039530536 0.00424374
0001f0 03 a0 c8 3b 40 78 84 bc 4c f7 31 ba 79 ad 0e 3c
       0.0061225905 -0.01617062 -0.0006788864 0.008708351
000200 d1 9d 1a bb 0d 4a c7 3c e4 fa 9d 3a 3e 90 a9 3c
       -0.00235926 0.024327302 0.0012052921 0.020698663
000210 a8 0a 2e 3c 15 eb d4 bc c0 a8 36 3c 40 9c 93 bc
       0.010622658 -0.025991002 0.011148632 -0.018018842
000220 05 e4 56 3c 19 2f 8d 3c 68 fb ff ba 9e bc 40 bc
       0.0131158875 0.017234372 -0.0019529881 -0.01176372
000230 04 61 70 bc 22 05 90 3c 02 71 5f 3c fb 6a 7c ba
       -0.014671568 0.017580573 0.013637783 -0.00096289784
000240 a0 bc f1 3b a5 10 b1 3b 85 2a 2d 3a c0 13 c0 bc
       0.007377222 0.0054035955 0.0006605762 -0.023446918
000250 70 55 bb bc 26 c4 66 3c 21 bc 59 3b e1 ef c2 bb
       -0.022867888 0.014084851 0.0033223706 -0.005949006
000260 ec d0 e2 3b a3 15 b2 bb 71 21 82 3c f0 86 10 3c
       0.006921878 -0.005434708 0.015885087 0.008821234
000270 f9 94 58 bc 5f e2 6c bb 21 bf fd bb a5 81 71 ba
       -0.013219112 -0.003614567 -0.0077437316 -0.0009212739
000280 0c 90 ce 3a 22 94 b9 bc 27 f0 2a 3b 44 9c 13 b7
       0.0015759482 -0.022653643 0.0026083083 -8.798266e-06
000290 a7 9d d7 bb 52 79 0f 3a 40 63 78 3b 53 ec 68 bb
       -0.006580073 0.0005473095 0.0037900954 -0.003554125
0002a0 cb eb d0 bb d8 68 04 3a a5 65 ac 3b 1a 54 80 3c
       -0.006375765 0.00050510233 0.0052611404 0.015665103
0002b0 2b 9c 30 3c f9 7f 9e 3c b5 1e ea 3c 04 c6 53 bc
       0.010779421 0.019348131 0.028579095 -0.012925629
0002c0 5d f1 3f 3c ab 3e 11 bd 4e ec 33 3c b9 bb 14 3c
       0.01171526 -0.035460155 0.010981632 0.00907796
0002d0 4d 6f 4c bc 51 a1 cd 3a bf 3e fa 3b 2b 1c 3a 3a
       -0.012477708 0.0015688335 0.0076368744 0.0007099534
0002e0 06 f1 09 3c 45 f7 4e 3c bd dc 91 3c cf 1b 08 3d
       0.008419281 0.012632196 0.017805452 0.033229645
0002f0 0f ea e6 3b 4c 13 6d bb 37 da 9a bc 25 11 16 3c
       0.007046945 -0.0036174832 -0.018902881 0.009159361
000300 24 b9 b3 bc bd 16 b7 3b 1c 0b 99 bc 02 45 96 3a
       -0.021938868 0.0055874274 -0.018682055 0.0011464658
000310 99 69 60 bc 8f c5 63 bc 38 d2 38 bc a6 63 04 bc
       -0.013697051 -0.013902082 -0.011280589 -0.008080399
000320 7f 31 8c 3a 07 c3 d5 3b ad 4f 1b 3c 96 b0 40 3c
       0.0010695903 0.006523493 0.009479445 0.011760851
000330 b6 6d 11 3c 6a 48 6f bb 8f f3 e8 bb 12 9c 45 bb
       0.008876255 -0.0036511668 -0.0071091126 -0.003015284
000340 5e 7b a0 3b df c1 dd 3b 63 d1 b5 bb 2c b5 b5 b9
       0.004897519 0.006767496 -0.0055486425 -0.00034657994
000350 9f 1a 55 bb 90 f3 f5 bb b9 0d 9d 3b c2 09 b5 bb
       -0.0032517088 -0.0075058416 0.0047928956 -0.005524845
000360 a6 08 04 3b 7c c8 5c 3c 72 75 d0 bb 78 40 f7 b9
       0.0020146756 0.013475534 -0.006361657 -0.00047159544
000370 8a 23 53 3c eb bc a3 3c 61 65 5c bc fb 2c 64 bc
       0.012886891 0.019987544 -0.013451905 -0.01392674
000380 f0 c6 6a 3b bb 0f 4b 3c 93 7d dd 3b f7 c5 ac ba
       0.0035824142 0.012393887 0.0067593544 -0.0013181557
000390 c9 53 c0 3b 1c d0 7a bc cd 8a e0 bb dd c1 43 bc
       0.005869363 -0.015308406 -0.006852484 -0.011948076
0003a0 93 d4 ba bc 97 82 38 bb 8b 62 cd bb e7 18 e0 bb
       -0.022806441 -0.002815401 -0.0062678508 -0.006838906
0003b0 17 c7 93 bb 7b 47 dc ba 75 67 3c 3c 7d ea 5d bb
       -0.0045098173 -0.0016805971 0.011499275 -0.003386169
0003c0 b0 37 2b bb e4 3f 9e 3a 1e 45 83 bb 2e 64 29 bc
       -0.0026125722 0.0012073484 -0.004006042 -0.010338826
0003d0 1a 03 b3 3c b1 56 11 3b 8f 59 12 3c 58 78 63 3a
       0.021852065 0.0022176916 0.008932485 0.00086772954
0003e0 1e e8 2d 3c 42 ce a8 bb 85 cd 27 39 9e 5a 7e bc
       0.010614423 -0.005151541 0.00016002923 -0.0155245345
0003f0 c5 98 87 3b 7e 40 b2 3c 98 47 17 bc ac 0a 31 3c
       0.0041380846 0.021759268 -0.009233378 0.010805767

action_model._discrete_distribution.branches.0.bias f4 [4]
000000 79 f9 cc 3b d7 27 07 bc 1b 9a 3c bb b0 01 d6 3b
       0.0062553254 -0.008249245 -0.0028778377 0.006530963
