Assets/results/Maze03/Mouse.onnx (onnx, 78683 bytes, 6 tensors)

network_body._body_endoder.seq_layers.0.weight f4 [128, 9]
0	0xbe502e34	-0.20330125
1	0x3d96d86d	0.07365499
2	0x3eb7fc4b	0.35934672
3	0xbe99d68c	-0.300465
4	0xbe415265	-0.18879087
5	0x3e89771c	0.26848686
6	0xbecbb0d5	-0.3978335
7	0xbe40ce7f	-0.18828772
8	0x3f354978	0.7081523
9	0x3f1886a5	0.5958045
10	0xbeca8e7e	-0.39561838
11	0xbdd67585	-0.10471634
12	0xbef476c5	-0.47746864
13	0xbe84249f	-0.2580919
14	0xbca92944	-0.02064956
15	0xbedb147b	-0.42789063
16	0xbed3e634	-0.4138657
17	0x3d807b12	0.06273474
18	0xbd034205	-0.032045383
19	0xbd234c10	-0.03986746
20	0x3d4efe1f	0.050535318
21	0xbdbbff5b	-0.091795646
22	0x3f03d9ce	0.5150422
23	0xbc8a0a4c	-0.016850613
24	0xbe10a8d2	-0.141269
25	0xbe8667a1	-0.26250938
26	0x3ea23ad0	0.31685495
27	0x3ec88d72	0.39170414
28	0x3e2ac629	0.16677155
29	0x3ea4da62	0.32197863
30	0xbea0a229	-0.31373718
31	0x3e2cddd5	0.16881497
32	0xbdf5b1b4	-0.11996785
33	0xbe759908	-0.23984158
34	0x3dce0168	0.10058862
35	0xbd9ded11	-0.077112325
36	0xbe6585ce	-0.22414324
37	0xbe51fa47	-0.2050563
38	0xbeae48c4	-0.3403989
39	0x3ebc83b9	0.36819246
40	0x3e23883b	0.15969937
41	0x3e9029ec	0.28156984
42	0x3e151720	0.14559603
43	0x3f1250c8	0.5715451
44	0x3f38180d	0.719117
45	0x3eaf04a0	0.34183216
46	0x3dd9fd86	0.10644059
47	0x3e9ba1f7	0.30397007
48	0xbe12b1f9	-0.14325704
49	0x3eb5bfdf	0.3549795
50	0x3d58cc21	0.052929047
51	0xbf608ec4	-0.87717843
52	0x3aa0905d	0.0012250055
53	0x3d02e202	0.03195382
54	0xbec18625	-0.37797657
55	0xbdef573f	-0.11686563
56	0xbe55d80b	-0.20883195
57	0xbd9327c7	-0.07185321
58	0x3dc3faa1	0.09569288
59	0x3eb2692e	0.3484587
60	0x3e1bae7b	0.15203278
61	0xbea57c2a	-0.32321292
62	0xbddcf3f9	-0.107887216
63	0x3f153300	0.58280945
64	0xbe3834a9	-0.17988838
65	0xbe6d7942	-0.23190787
66	0x3dfbbddf	0.122920744
67	0xbcbd5ee8	-0.023116544
68	0xbe2d7950	-0.16940808
69	0x3e95be67	0.29246828
70	0x3f07c8af	0.53040594
71	0xbe8a0864	-0.26959527
72	0x3b91cb7b	0.0044493056
73	0x3d9724bc	0.073800534
74	0x3e00849c	0.12550586
75	0x3ebbc6ce	0.36675113
76	0xbdd2a514	-0.102853924
77	0xbd9b1c50	-0.075737596
78	0x3e4e92cb	0.20173185
79	0x3e67a915	0.22623093
80	0x3cc4c321	0.024018826
81	0xbe416a28	-0.18888152
82	0xbe579fae	-0.21057007
83	0xbe4f0ee5	-0.20220526
84	0xbe943cac	-0.2895254
85	0xbeae8d9c	-0.34092414
86	0x3e6244ee	0.22096607
87	0xbd5a9ace	-0.05337029
88	0x3d3ee508	0.04660514
89	0x3e9a5fcf	0.3015122
90	0x3da4db86	0.08049683
91	0x3f207b09	0.62687737
92	0xbea32b70	-0.31869078
93	0xbd160546	-0.036626123
94	0xbbd12d4c	-0.0063835736
95	0xbee5648d	-0.44803277
96	0xbed27ce3	-0.41110906
97	0xbf31b273	-0.69412917
98	0xbd8a654a	-0.067576006
99	0xbabbf060	-0.0014338605
100	0x3e9ce985	0.3064691
101	0x3e5dc0b0	0.21655536
102	0xbefe62f9	-0.49684885
103	0xbea2f673	-0.3182865
104	0xbe2455fb	-0.16048424
105	0x3e498cc6	0.19682607
106	0x3ee1e6f8	0.44121528
107	0x3d77c9c8	0.060495168
108	0x3df473bd	0.11936138
109	0x3d2b3fc9	0.041808877
110	0x3e3b11da	0.18268529
111	0xbd0ec327	-0.03485408
112	0x3ed578e0	0.41693783
113	0x3e82b988	0.25532174
114	0x3eeb9a47	0.46016142
115	0xbf2cc180	-0.6748276
116	0xbf5ec344	-0.870167
117	0xbeaa4847	-0.33258268
118	0xbf41fd32	-0.7577697
119	0x3d0fffd4	0.035156086
120	0xbeebbf41	-0.46044353
121	0x3dd6d938	0.1049065
122	0xbd4f81c2	-0.050660856
123	0xbf0a54f3	-0.5403587
124	0xbdd5eac9	-0.10445172
125	0x3ed362b8	0.41286254
126	0xbd1c0f8b	-0.03810076
127	0x3e8e08fb	0.27741227
128	0xbe96b5c0	-0.2943554
129	0xbf12375d	-0.5711573
130	0xbe94f382	-0.29092032
131	0x3dd5808f	0.10424911
132	0xbe71591a	-0.23569146
133	0xbdb23468	-0.08701402
134	0xbe85f48c	-0.26163137
135	0x3ec042e5	0.37551036
136	0xbeb94894	-0.36188185
137	0xba2c7a1c	-0.0006579475
138	0x3eca2a48	0.39485383
139	0x3c685fb9	0.014182978
140	0xbec79502	-0.3898087
141	0x3e1dfe30	0.15428996
142	0xbe8ad3e8	-0.27114797
143	0xbda31dc6	-0.07964663
144	0xbeb3ac52	-0.35092407
145	0x3d5e5009	0.054275546
146	0xbe18ff23	-0.14941077
147	0x3ecc3f8a	0.39892226
148	0x3ec64289	0.38722637
149	0x3e923f0a	0.2856372
150	0xbe94b242	-0.2904225
151	0xbf1af7a1	-0.605341
152	0x3e1ed098	0.1550926
153	0xbe8a767c	-0.2704352
154	0xbebb0178	-0.36524558
155	0xbdd0e063	-0.10199048
156	0xbb0e1fda	-0.0021686465
157	0x3e169b64	0.14707714
158	0xbe143a41	-0.14475347
159	0x3e80d099	0.25159147
160	0xbf087efa	-0.5331875
161	0x3e0b199f	0.13583992
162	0x3e2306f6	0.15920624
163	0x3f2ff516	0.68733346
164	0xbea29aa3	-0.31758603
165	0x3ea43adb	0.32076153
166	0xbdd09ef3	-0.10186567
167	0xbd1b0453	-0.03784592
168	0x3d44a20c	0.048006102
169	0xbdea8e3a	-0.11452909
170	0xbedb4f46	-0.42833918
171	0xbec9f8c9	-0.3944762
172	0xbf0387f8	-0.51379347
173	0x3e0d3100	0.13788223
174	0x3e4dd443	0.20100503
175	0xbe921c16	-0.28537053
176	0x3e1fe9e9	0.15616573
177	0xbf1d5c04	-0.6146853
178	0x3e43275c	0.19057983
179	0x3e86eca6	0.26352423
180	0x3db4cf15	0.0882856
181	0x3f86c93e	1.0530164
182	0x3d9f643c	0.0778279
183	0x3f4e526a	0.80594504
184	0x3d3315e2	0.04372204
185	0x3ec2a497	0.38016197
186	0x3f60df13	0.87840384
187	0x3e478190	0.19483018
188	0x3f03d60a	0.5149847
189	0x3e84828c	0.2588085
190	0x3cb9f6e3	0.022700733
191	0xbe9e9627	-0.30973932
192	0x3e72d336	0.23713383
193	0x3e6b1218	0.22956121
194	0x3de3f621	0.1113093
195	0x3e100f86	0.14068422
196	0x3ee347c1	0.4439068
197	0x3d6d9339	0.05800173
198	0x3e473256	0.19452795
199	0x3ddec66a	0.10877688
200	0x3d906a50	0.070515275
201	0x3e84a384	0.25906003
202	0xbeab051f	-0.33402345
203	0x3e2453ae	0.16047546
204	0xbf08fa31	-0.5350676
205	0xbeabbdbc	-0.33543193
206	0xbf31e3f5	-0.6948846
207	0x3da3deb3	0.08001461
208	0x3efae5af	0.4900336
209	0x3da95d84	0.0826979
210	0x3f042480	0.51618195
211	0xbe34cbfc	-0.17655939
212	0xbdcb9a1f	-0.09941506
213	0xbde84e4e	-0.113430604
214	0x3e66097a	0.22464553
215	0xbdd1bb9c	-0.10240862
216	0x3c03b68a	0.008039126
217	0x3e509cec	0.20372361
218	0xbc74f635	-0.014951278
219	0xbef7bb57	-0.48385116
220	0xbca1fc64	-0.01977367
221	0xbe22b208	-0.15888226
222	0xbe173e6a	-0.14769903
223	0x3e6ea447	0.23304854
224	0xbf0fde1c	-0.56198287
225	0xbed83f97	-0.42236015
226	0xbe69b180	-0.22821617
227	0x3dae1535	0.08500139
228	0xbe19a73d	-0.15005203
229	0xbf0fdb20	-0.56193733
230	0x3e128a18	0.14310491
231	0x3e97b8ed	0.29633275
232	0xbe3fc2e4	-0.18726689
233	0x3db3bc7a	0.087761834
234	0xbed1da3b	-0.4098681
235	0x3e7da2f8	0.24769199
236	0x3dc72ae6	0.09724979
237	0xbe1513ff	-0.14558409
238	0xbce4f03b	-0.027946582
239	0xbe2d0002	-0.16894534
240	0xbd42d946	-0.04757049
241	0xbde49de6	-0.11162929
242	0xbd9d8f04	-0.07693294
243	0x3df2464e	0.11829816
244	0xbed70f9f	-0.42004105
245	0x3eaa2f86	0.33239383
246	0x3e8f9560	0.28043652
247	0xbea151c2	-0.3150769
248	0x3d479aaa	0.048731484
249	0xbf014e65	-0.50510246
250	0x3e2f1288	0.17096913
251	0x3ea0b6e0	0.31389523
252	0xbdb32fed	-0.087493755
253	0xbca78480	-0.020448923
254	0xbe83bfc6	-0.2573225
255	0xbf5ded45	-0.8669017

network_body._body_endoder.seq_layers.0.bias f4 [128]
0	0x3cf41d23	0.02979905
1	0x3d5ab09c	0.053391084
2	0x3b6dfd25	0.0036314216
3	0x3d1fbc9e	0.03899824
4	0xbc14d626	-0.00908426
5	0x3d2e6e2c	0.042585537
6	0x3c5051c8	0.012714811
7	0x3cef838c	0.029237531
8	0xbc607db7	-0.013701848
9	0x3d3a1cc6	0.045437597
10	0xbc7c4e65	-0.01539955
11	0x3cf25d53	0.029585516
12	0x3c8a4574	0.016878821
13	0x3d64a9db	0.05582605
14	0x3c75b000	0.014995575
15	0x3a2771d9	0.0006387509
16	0x3d576526	0.052586697
17	0xbcafa5cc	-0.021441363
18	0x3d548161	0.051881198
19	0x3cb1699b	0.021656802
20	0x3b4619bf	0.0030227748
21	0xbd20004d	-0.039062787
22	0xbcceeab8	-0.025258407
23	0x3c0cb0c6	0.008587068
24	0x3d3bca2d	0.045847107
25	0xbb80d529	-0.0039316607
26	0x3c853781	0.016261818
27	0x3d406429	0.04697052
28	0x3c8b85d9	0.017031597
29	0x3c610c13	0.013735789
30	0x3c86fea4	0.016478844
31	0xbc76ef92	-0.015071766
32	0x3cb78b5a	0.022405315
33	0x3d2041fd	0.03912543
34	0x3d934223	0.07190349
35	0x3c346a95	0.011011739
36	0x3cbe796e	0.023251262
37	0xbc5babf5	-0.013407697
38	0x3ca2bcff	0.019865511
39	0xbd47d37f	-0.048785683
40	0x3c6ed9e3	0.014578315
41	0x3c9f9e0a	0.019484539
42	0x3d654668	0.055975348
43	0x3c72b98a	0.014814744
44	0x3cd790ff	0.026314257
45	0x3c1c88ca	0.009554097
46	0x3ced1a67	0.028943254
47	0x3c3a266f	0.011361702
48	0x3c8ff27d	0.017571682
49	0x3cbf750a	0.023371238
50	0x3bd5318b	0.00650615
51	0x3c5c079e	0.01342955
52	0x3d4b441a	0.049625494
53	0x3c315d96	0.010825535
54	0x3d170630	0.036871135
55	0x3d091066	0.033462904
56	0x3c94a5f0	0.018145531
57	0x3c37fdec	0.011229973
58	0x3c51a180	0.012794852
59	0x3a2de6ff	0.00066338474
60	0xbd041fab	-0.032256763
61	0x3ca7ad90	0.020468503
62	0xbd5bf30a	-0.053698577
63	0x3cb5a1ad	0.02217182
64	0x3ce16a8d	0.027516628
65	0x3b871f5d	0.004123612
66	0x3c72e9e3	0.014826271
67	0x3ce56e45	0.028006682
68	0xbd721d3d	-0.059109915
69	0x3c9f4af3	0.019444918
70	0x3c1f51cb	0.009724091
71	0x3d2bba32	0.041925617
72	0x3cc5a967	0.024128629
73	0x3d039380	0.03212309
74	0x3cb91a5d	0.022595579
75	0xbcd56563	-0.026049322
76	0x3c96888e	0.018375661
77	0x3bd9f9fc	0.006652115
78	0x3bc77e8c	0.0060880836
79	0x3d689eda	0.056792118
80	0x3bb02d8c	0.0053765234
81	0x3d082fde	0.033248775
82	0xbc056258	-0.008141123
83	0x3cb62a0f	0.022236852
84	0x3d9cacc4	0.0765014
85	0xbc89cd7c	-0.016821615
86	0x3d5b1974	0.05349107
87	0xbae7ec62	-0.0017694349
88	0xbbd4f656	-0.006499092
89	0x3cd59099	0.026069926
90	0x3aba3c40	0.001420863
91	0x3d30165c	0.042990074
92	0x3d986584	0.074412376
93	0x3d1272fd	0.035754193
94	0x3c0c7871	0.008573637
95	0xbbbd8409	-0.005783562
96	0x3bbef248	0.005827222
97	0xbc85e852	-0.01634613
98	0x3b7b3a7b	0.0038334418
99	0x3d2e72b4	0.04258986
100	0x3d17e8ec	0.037087366
101	0x3c979f45	0.018508563
102	0xbc6a9a32	-0.01431899
103	0x3d115deb	0.035489958
104	0x3c9fc705	0.01950408
105	0x3de76032	0.11297645
106	0xbc82619f	-0.01591569
107	0x3cbb1490	0.022836953
108	0x3c8a37e5	0.016872356
109	0xbcfd980c	-0.03095629
110	0x3d2c6017	0.042083826
111	0xbcc54ec1	-0.024085404
112	0xbc6d5f38	-0.014488034
113	0xbb3fb1d5	-0.0029250283
114	0xbd0865f7	-0.033300366
115	0x3cf89e71	0.030348988
116	0x3c370335	0.011170198
117	0xbcf4ad30	-0.029867738
118	0x3d311fc9	0.043243203
119	0x3c4b2f85	0.012401466
120	0x3d1511f8	0.03639409
121	0x3d2d6247	0.042330053
122	0x3d2c46a5	0.04205956
123	0x3d7fad6d	0.06242125
124	0xbcb8edb5	-0.022574285
125	0x3d092f8e	0.033492617
126	0x3d7beb88	0.061503917
127	0x3cec515a	0.028847385

network_body._body_endoder.seq_layers.2.weight f4 [128, 128]
0	0xbbc99d1b	-0.0061527616
1	0x3d86cb8d	0.06581793
2	0x3dc118e1	0.094285734
3	0x3d44ca20	0.048044324
4	0xbd525322	-0.051348813
5	0xbd7698c0	-0.060204268
6	0xbda61ddc	-0.08111164
7	0xbe0454fb	-0.12923042
8	0xbdb1db8c	-0.08684453
9	0x3d41ce8c	0.04731612
10	0xbc97000b	-0.018432638
11	0xbd9cd2dd	-0.076574065
12	0x3d265284	0.040606037
13	0x3def0655	0.116711296
14	0x3d238013	0.039917063
15	0x3d93f022	0.07223536
16	0x3e080fb1	0.13287236
17	0x3b4ea231	0.003152978
18	0x3db93fb4	0.090453535
19	0x3d82bab6	0.063832685
20	0xbd9f3ad5	-0.07774893
21	0xbe0dda66	-0.13852844
22	0x3832b837	4.261007e-05
23	0xbd3b7b38	-0.045771807
24	0xbdb31892	-0.08744921
25	0xbd48002c	-0.04882829
26	0xbd8a2cb4	-0.06746808
27	0xbdca17f4	-0.0986785
28	0x3d5eb852	0.054375
29	0xbcd4aa67	-0.02596016
30	0x3d2a5043	0.04158045
31	0x3dcde00a	0.10052498
32	0xbe03f447	-0.12886153
33	0x3d07831a	0.033084013
34	0x3d876077	0.06610196
35	0x3d498559	0.049199436
36	0x3d53ef1f	0.051741716
37	0x3d410e15	0.04713257
38	0x3d90c67c	0.07069108
39	0x3dad044e	0.08448087
40	0x3d244b1e	0.0401107
41	0x3cbb2e8d	0.022849346
42	0xbcb1212d	-0.021622265
43	0xbe0de306	-0.13856134
44	0x3e581247	0.21100722
45	0xbdabba33	-0.08385124
46	0xbd6fd526	-0.058552884
47	0x3d2e3b7b	0.042537194
48	0xbd1e18e0	-0.03859794
49	0x3db30f5f	0.08743166
50	0x3daafc20	0.0834887
51	0x3d737140	0.059434175
52	0x3da03f44	0.07824567
53	0xbd8970aa	-0.06710942
54	0x3cf97be1	0.030454578
55	0x3c8cc7f8	0.017185196
56	0xbdfb558e	-0.12272178
57	0xbdebc2ae	-0.115117416
58	0x3ca8a7f2	0.020587895
59	0xbe05b7be	-0.13058373
60	0xbd48d517	-0.049031343
61	0x3d9e612d	0.077333786
62	0xbde840d1	-0.11340488
63	0x3db5aaf5	0.08870498
64	0x3def5ef5	0.116880335
65	0x3e26c508	0.16286099
66	0xbcba2a60	-0.022725284
67	0xbd860f7b	-0.065459214
68	0xbba779f6	-0.0051109744
69	0xbd067767	-0.032828715
70	0xbb5105a0	-0.0031894222
71	0xbdae575a	-0.08512755
72	0x3e392d52	0.18083695
73	0xbd65de69	-0.05612031
74	0x3d6dc757	0.058051433
75	0xbdc4eec1	-0.09615851
76	0xbd38c2c7	-0.04510763
77	0x3d298bf7	0.041393247
78	0x3d94c3da	0.07263918
79	0xbdf11beb	-0.11772903
80	0xbd13b3bf	-0.03606009
81	0xbc4c9121	-0.012485773
82	0x3e29ce32	0.16582564
83	0x3d882a89	0.06648738
84	0x3de21bd9	0.11040468
85	0x3d643ef8	0.055724114
86	0x3da341e1	0.0797155
87	0xbdf78249	-0.12085397
88	0x3d73b23a	0.059496142
89	0x3e358bce	0.17729113
90	0xbb756bb0	-0.003744822
91	0x3dd759e0	0.10515189
92	0xbe0c0b20	-0.13676119
93	0xbe48bd28	-0.19603407
94	0x38819715	6.1793406e-05
95	0x3bc432d3	0.005987504
96	0xbbdd4b18	-0.0067533366
97	0x3e0bbf48	0.13647187
98	0xbcf6ba9c	-0.03011828
99	0xbe4f7a40	-0.20261478
100	0x3e83a41c	0.25711143
101	0x3e6f27d6	0.2335504
102	0xbc02319d	-0.007946399
103	0xbd28411b	-0.041077714
104	0x3d726aaf	0.059183773
105	0x3cf7858d	0.03021505
106	0xbc337eb9	-0.010955506
107	0x3e3922fa	0.18079749
108	0xbd35726d	-0.044298578
109	0xbc88d627	-0.016703678
110	0xbccb5d19	-0.024824666
111	0xbd2810ce	-0.04103165
112	0xbde9f704	-0.114240676
113	0xbdaae635	-0.0834469
114	0x3e0c2f67	0.13689958
115	0xbb95ba5b	-0.0045693344
116	0xbd7b6178	-0.06137225
117	0xbc82de65	-0.015975187
118	0xbdb5c046	-0.08874564
119	0x3cef9e22	0.029250208
120	0xbe67e707	-0.22646724
121	0xbdc5ba4f	-0.09654676
122	0x3ddbe49e	0.10736965
123	0xbda14e74	-0.07876292
124	0xbe54a822	-0.20767263
125	0x3cb23fc1	0.021758916
126	0x3e0bf4c2	0.13667586
127	0x3d2a0e6d	0.041517664
128	0x3d90961b	0.0705988
129	0xbe348fb5	-0.17632945
130	0xbe2a9a8a	-0.16660514
131	0x3cb6c712	0.022311721
132	0xbe2557c7	-0.16146766
133	0xbd817ee3	-0.0632303
134	0xbe02861e	-0.12746474
135	0x3d83c5d1	0.06434215
136	0x3dd08f67	0.10183602
137	0x3d3170a3	0.04332031
138	0xbe05b406	-0.13056955
139	0xbd18999a	-0.03725586
140	0xbe904fbb	-0.2818583
141	0x3d0da788	0.0345836
142	0x3dbf2c9d	0.09334681
143	0xbd9a4566	-0.07532768
144	0xbd99fc8c	-0.075188726
145	0xbda89214	-0.08230987
146	0x3d936720	0.07197404
147	0xbdb47151	-0.08810676
148	0x3d3f5872	0.046715207
149	0x3c56d86b	0.0131131215
150	0xbd0c0045	-0.034179945
151	0x3dc12b14	0.094320446
152	0xbe302730	-0.17202449
153	0x392612b5	0.00015837963
154	0x3d08dbf4	0.03341289
155	0x3d5c1c50	0.05373794
156	0xbde77afd	-0.11302755
157	0x3d5bad16	0.053631864
158	0x3d793207	0.060838725
159	0x3d3ff24e	0.04686194
160	0x3d99cb01	0.07509423
161	0xbd8f36eb	-0.06992897
162	0x3daac39d	0.083380915
163	0xbe01e917	-0.12686573
164	0xbd9ed11a	-0.07754727
165	0xbdad5cc1	-0.08464957
166	0xbc919313	-0.017770326
167	0x3ce63504	0.028101452
168	0x3de61342	0.11234142
169	0xbc2e1b77	-0.010626665
170	0x3e6a9280	0.22907448
171	0x3dcd6eed	0.10030923
172	0x3d512637	0.051061835
173	0x3d406f55	0.046981174
174	0xbc48096d	-0.0122092785
175	0xbda22e3d	-0.079189755
176	0xbdcf2c31	-0.10115851
177	0xbd4199a5	-0.047265667
178	0xbe093fc9	-0.13403238
179	0xba07385d	-0.000515824
180	0xbd7a7a3a	-0.06115172
181	0xbd86e72d	-0.06587062
182	0xbb8df101	-0.0043317084
183	0x3e01ce29	0.126763
184	0x3bd9636c	0.0066341665
185	0x3dbd1765	0.09232978
186	0x3d23f4eb	0.040028494
187	0xbc953372	-0.018213008
188	0x3dbcefe1	0.09225441
189	0x3d3c73e6	0.046008967
190	0xbd234ddd	-0.039869178
191	0xbb5390c2	-0.0032282327
192	0xbd58882f	-0.05286425
193	0x3e0caf3e	0.13738725
194	0xbc915262	-0.017739478
195	0x3dab4714	0.083631665
196	0xbd38981f	-0.04506695
197	0x3e4286de	0.1899676
198	0xbe1bfcee	-0.15233204
199	0xbb4bbc69	-0.0031087643
200	0x3d39dfa6	0.045379303
201	0x3da2cc1a	0.079490855
202	0x3c903c21	0.017606797
203	0xbe161d1e	-0.14659545
204	0xbda29324	-0.07938221
205	0x3d205524	0.039143696
206	0xbce33e67	-0.027739717
207	0x3e3680f5	0.1782263
208	0xbd81d310	-0.06339085
209	0xbcf3a9e8	-0.029744104
210	0x3d81d91c	0.063402385
211	0xbe52365e	-0.20528552
212	0x3dd012dc	0.10159847
213	0xbcb012a8	-0.021493271
214	0x3dceb296	0.10092656
215	0xbd66441f	-0.05621731
216	0xbd6c3c47	-0.057674672
217	0x3e2d19e7	0.16904412
218	0xbdaf5ea1	-0.08562971
219	0xbd91898d	-0.07106314
220	0x3e43138d	0.19050427
221	0xbc990631	-0.01867971
222	0xbdf2f7d8	-0.11863679
223	0xbccbb548	-0.024866715
224	0x3c4c3d8f	0.012465849
225	0xbe266496	-0.16249308
226	0xbd1bcc7a	-0.0380368
227	0xbc5861e0	-0.013206929
228	0x3dd60af5	0.10451309
229	0x3bb4bf89	0.005515997
230	0x3d897999	0.06712646
231	0xbdbfbb43	-0.09361889
232	0x3d4fea81	0.05076075
233	0x3d0a42b1	0.033755008
234	0xbe18ee8e	-0.14934751
235	0xbe1f71e7	-0.15570794
236	0xbcf8748f	-0.030329017
237	0xbc975b66	-0.0184762
238	0xbde28ae3	-0.11061647
239	0xbde172c2	-0.110082164
240	0xbdf6bd11	-0.1204778
241	0x3d69ea82	0.05710841
242	0xbcd746f9	-0.02627896
243	0xbdd59d44	-0.10430387
244	0xbc055e99	-0.00814023
245	0xbd5a3e1d	-0.053281892
246	0xbe08e077	-0.13366877
247	0x3ccd253f	0.025042174
248	0x3d8f4ead	0.06997428
249	0x3dbd18a2	0.09233214
250	0xba00222c	-0.00048879045
251	0x3db00ca8	0.08596164
252	0xbd6d2327	-0.057894852
253	0xbcb2bd4a	-0.021818776
254	0xbe19946d	-0.14998026
255	0x3dd72c64	0.10506514

network_body._body_endoder.seq_layers.2.bias f4 [128]
0	0x3c536472	0.012902366
1	0x3cd31a7e	0.025769468
2	0x3d2dc1d2	0.04242117
3	0x3cd97a3e	0.026547547
4	0xbc11d4f4	-0.00890087
5	0x3cffe134	0.031235315
6	0xbc96383d	-0.018337363
7	0x3cb8f30f	0.022576837
8	0x3d264b8d	0.040599395
9	0x3d48d072	0.049026914
10	0x3cad606f	0.021164147
11	0x3b99abef	0.0046896855
12	0x3b85ead3	0.004086831
13	0x3c24c066	0.010055637
14	0x3cfaf8c3	0.030636197
15	0xbb80f3ef	-0.003935329
16	0x3d0c3be5	0.034236807
17	0x3cd06787	0.02543999
18	0xbb312261	-0.0027028548
19	0xbabb9304	-0.0014310782
20	0x3cee6098	0.029098794
21	0x3ad84de7	0.0016502709
22	0x3d4cffbc	0.050048575
23	0xb7c2c315	-2.3217444e-05
24	0x3c18b1d3	0.00931974
25	0x3d0b27d9	0.03397355
26	0x3c069b62	0.008215757
27	0xbc3fcfa8	-0.011707224
28	0xbd0663d9	-0.032810066
29	0xbc917eb3	-0.01776061
30	0xbcaad9a0	-0.020855725
31	0x3cb811f9	0.022469508
32	0x3d1923b8	0.03738758
33	0x3d2b5284	0.04182674
34	0x3c2e9971	0.0106567005
35	0xbbe772ab	-0.00706323
36	0x3bbf134e	0.0058311587
37	0x3d32f170	0.043687284
38	0x3c9c61e9	0.019089656
39	0x3ca48a10	0.020085365
40	0x3ce19698	0.027537629
41	0x3d12fc98	0.035885423
42	0x3cbba131	0.02290401
43	0x3c110cd0	0.008853152
44	0x3ad34d83	0.0016121123
45	0x3c6441f4	0.01393174
46	0x3d0b976a	0.034079947
47	0x3d27051c	0.040776357
48	0x3d1f6884	0.038918033
49	0x3b873235	0.004125858
50	0xbca5ac9b	-0.020223906
51	0xba314831	-0.00067627715
52	0x3c06b3a8	0.008221544
53	0x3d13e7f4	0.03610988
54	0x3c8cf1f3	0.017205214
55	0x3cbf045c	0.023317508
56	0x3bd87d52	0.006606736
57	0xbbb8df63	-0.005641864
58	0x3ca0f264	0.01964683
59	0xbb5aadc7	-0.003336774
60	0xbccada11	-0.024762185
61	0x3a0f6c2c	0.0005471136
62	0x3c836efa	0.016044129
63	0x3c951960	0.018200576
64	0x3cf7d811	0.030254396
65	0xbc56c065	-0.013107394
66	0x3ce79496	0.028269093
67	0xb9cd45fb	-0.00039152786
68	0x3d193c94	0.037411287
69	0x3c134908	0.00898958
70	0x3cfaced4	0.030616201
71	0xbb691775	-0.003556696
72	0x3c58fc31	0.013243721
73	0xbcb3ec1e	-0.021963175
74	0x3c98c3c6	0.01864804
75	0x3d5fb470	0.054615438
76	0xbb33d4b0	-0.0027440004
77	0x3cef9190	0.029244214
78	0xbc1f234b	-0.009713004
79	0xbc35e30b	-0.011101495
80	0x3d0badb9	0.03410122
81	0xbbb5ffe8	-0.005554188
82	0xbc4a014f	-0.012329414
83	0x3d1b297e	0.037881367
84	0x3cd27f7a	0.025695551
85	0xbbd81de3	-0.0065953596
86	0xbb57e2b9	-0.0032941534
87	0x3d45d678	0.048300236
88	0x3cf8f59d	0.030390555
89	0x3c901dc5	0.01759232
90	0xbc737cc7	-0.014861292
91	0x3c8fcae7	0.017552806
92	0xbbf27fe9	-0.007400502
93	0xbc25fc4f	-0.010130956
94	0xbbb977be	-0.0056600263
95	0x3d3fcb48	0.046824723
96	0x3bf48998	0.0074626915
97	0x3c39cfcf	0.011341049
98	0x3c588def	0.013217433
99	0x3c365392	0.011128323
100	0xbafd2422	-0.0019313137
101	0x3ccfb545	0.02535499
102	0x3c5c5e49	0.013450214
103	0xbcc79c56	-0.024366539
104	0xbcf79345	-0.03022159
105	0x3c9308cb	0.017948529
106	0x3b9c1bd6	0.0047640605
107	0xbcde47d2	-0.027133856
108	0x3c0e9b84	0.00870407
109	0xbc6d1199	-0.014469528
110	0x3d12b7ce	0.03581982
111	0x3d1830e2	0.037155993
112	0x3d70afb3	0.05876131
113	0xbc8dc31c	-0.01730495
114	0x3c98699d	0.018605048
115	0xbcf2e2ab	-0.0296491
116	0xbc3334ed	-0.010937911
117	0x3cf99945	0.030468592
118	0xbc313c7b	-0.010817642
119	0xbc520909	-0.012819537
120	0xbba4e87c	-0.005032597
121	0xbc1c9e3d	-0.009559211
122	0xbaf62367	-0.0018778861
123	0x3c0b5708	0.008504637
124	0x3d3696f7	0.044577565
125	0x3d07a346	0.033114694
126	0xbcefb277	-0.029259903
127	0xbc8178e8	-0.015804723

action_model._discrete_distribution.branches.0.weight f4 [5, 128]
0	0xbc8522b6	-0.016251903
1	0x3d32ca7a	0.043650128
2	0x3d4b2ebe	0.049605124
3	0x3c277fc9	0.010223337
4	0x3c94d149	0.018166201
5	0x3d639024	0.055557385
6	0xbbf4c34c	-0.0074695703
7	0x3cda3c13	0.026639974
8	0x3d96b9f1	0.07359684
9	0x3db105f5	0.08643714
10	0x3c8bcfa3	0.017066782
11	0xbb14c925	-0.00227029
12	0xbdc1a05e	-0.09454416
13	0xbbfe7c55	-0.0077662864
14	0x3d4f5e74	0.050627187
15	0xbbb5c3fb	-0.0055470443
16	0x3d36f606	0.04466822
17	0x3c6bfea4	0.014403973
18	0xbd8e14a8	-0.069375336
19	0xbd24b37a	-0.040210225
20	0x3d083c4a	0.03326062
21	0xbc6ef201	-0.014584065
22	0x3d79f631	0.061025802
23	0xbd9d84cd	-0.07691345
24	0x3d21e87e	0.039528362
25	0x3c7b0f19	0.015323424
26	0x3c153e24	0.009109054
27	0xbcac1097	-0.021004004
28	0xbd1ae0a0	-0.037811875
29	0xbd148caa	-0.03626696
30	0xbcdcbddd	-0.026946003
31	0xbc67b25e	-0.014141647
32	0x3cc8394c	0.024441384
33	0x3d4952e2	0.04915131
34	0x3bd8febe	0.0066221645
35	0xbcb51023	-0.022102421
36	0xbb168bb6	-0.0022971458
37	0x3d682a68	0.056681067
38	0x3d1f40ed	0.038880277
39	0x3d5505ca	0.052007474
40	0x3d55c420	0.052188993
41	0x3c9c6f21	0.01909596
42	0xbd4e5220	-0.05037129
43	0xbd16c8a8	-0.036812454
44	0xbd7bd2bf	-0.06148028
45	0x3c7c3032	0.01539235
46	0x3cf747e2	0.030185644
47	0x3d8691bb	0.06570765
48	0x3dc74d60	0.09731555
49	0xbbeb8f1d	-0.0071886913
50	0xbd60d1eb	-0.054887693
51	0x3b41d27d	0.0029574924
52	0x3a1ed13b	0.00060583994
53	0x3ce7cc20	0.028295577
54	0x3c5a653e	0.013329802
55	0xbd4489cf	-0.047982987
56	0xbd0499ac	-0.032373115
57	0xbd87fd48	-0.066401064
58	0x3cf15e5a	0.029463936
59	0xbd00a4ce	-0.03140717
60	0xbd058ad1	-0.03260309
61	0xbb2eedb5	-0.0026691977
62	0x3c3fe5b7	0.011712483
63	0xbd171850	-0.03688842
64	0x3d75da49	0.060022626
65	0xbd8299d3	-0.06376996
66	0x3d26a4c1	0.040684465
67	0xbdcaf516	-0.09910028
68	0x3d2d24e3	0.042271506
69	0x3d15752d	0.0364887
70	0x3c886e81	0.016654255
71	0xbc8a5735	-0.016887287
72	0x3c0f2947	0.008737869
73	0xbd0fba48	-0.03508976
74	0x3c6458f7	0.0139372265
75	0x3da7530b	0.08170136
76	0xbd41179c	-0.047141656
77	0x3d7204ca	0.0590866
78	0xbc1931cd	-0.009350252
79	0x3b8bd849	0.0042677266
80	0x3cf30caa	0.029669125
81	0x3d0c1e0a	0.034208335
82	0x3d0f436f	0.03497642
83	0x3d7cb791	0.0616985
84	0x3d3965b9	0.045263026
85	0xbaf2fd7f	-0.0018538682
86	0x3ba4c5d2	0.005028465
87	0x3d85a1e5	0.065250196
88	0x3cf0100a	0.029304523
89	0xbcc95b88	-0.024579778
90	0xbd7f3d3d	-0.06231426
91	0xbc6c590f	-0.01442553
92	0xbdc15c80	-0.09441471
93	0xb99f34fb	-0.00030366317
94	0xbd550b6b	-0.052012842
95	0x3cfd6134	0.03093014
96	0xbc9124ac	-0.017717682
97	0x3cff5379	0.031167733
98	0xbcf3b97e	-0.029751536
99	0xba0c2b0e	-0.0005346992
100	0x3b904861	0.0044031595
101	0x3c5fd131	0.013660715
102	0x3c3f8c37	0.011691145
103	0xbcc4bba7	-0.02401526
104	0xbcedc863	-0.029026216
105	0xbc4669d2	-0.0121101905
106	0xbc792126	-0.015205657
107	0xbcf8a95f	-0.0303542
108	0xbc4b3f7c	-0.012405273
109	0xbd63d19e	-0.05561983
110	0x3d5c83b3	0.053836536
111	0x3d59ab1b	0.053141695
112	0x3dc6ca25	0.09706525
113	0xbd8d6623	-0.06904247
114	0xbd254b88	-0.040355235
115	0xbc93fb34	-0.018064119
116	0xbd36ba77	-0.04461142
117	0x3d2d13a0	0.042255044
118	0xbd5d1960	-0.053979278
119	0xbabda783	-0.0014469478
120	0xb97c1ced	-0.00024043368
121	0xbc204f5e	-0.009784548
122	0xbd8a549f	-0.067544214
123	0x3cff7a69	0.0311863
124	0x3d8b0719	0.06788463
125	0x3c78bdb0	0.015181944
126	0xbc03cd0d	-0.008044493
127	0xbc1913ec	-0.009343129
128	0x3bf01590	0.007326789
129	0xbcb18fef	-0.021675078
130	0xbc2f8c00	-0.010714531
131	0x3c6f3daf	0.014602109
132	0xbbb70b69	-0.005586077
133	0xbc97ac4a	-0.018514771
134	0x3cbc7f7a	0.023010004
135	0xbd04c85b	-0.032417636
136	0xbc91cf1e	-0.017798956
137	0xbdae19e8	-0.08501035
138	0x3c4871db	0.0122341765
139	0x3c129220	0.008945972
140	0x3d8b568f	0.06803619
141	0x3bbf08c4	0.0058299024
142	0xbd56b8b7	-0.05242225
143	0x3bbace56	0.0057008667
144	0xbd75887c	-0.059944615
145	0xbd3e5c73	-0.046474885
146	0x3d127df0	0.035764635
147	0x3cbf5925	0.023357937
148	0xbccb331d	-0.024804646
149	0x3d052af5	0.03251167
150	0x3ba48106	0.0050202636
151	0x3d6b136a	0.05739156
152	0x3d196e95	0.037458975
153	0x3aeaaf24	0.0017904979
154	0xbd03f311	-0.032214228
155	0x3c71de75	0.014762511
156	0x3cc59a97	0.024121566
157	0x3c8c9e5f	0.017165361
158	0x3cbcf308	0.023065105
159	0xbd1d0dcb	-0.038343232
160	0xbd503687	-0.05083325
161	0xbcf2d36e	-0.029641833
162	0x3bf6c8ee	0.007531277
163	0x3c766c11	0.0150404135
164	0x3ca637c2	0.02029026
165	0xbd0f4c36	-0.03498479
166	0x3cf2f400	0.029657364
167	0xbceb77a1	-0.028743567
168	0xbd3773c0	-0.044788122
169	0xbba9018d	-0.0051576556
170	0xbc5598f5	-0.013036956
171	0xbc40acae	-0.01175992
172	0xbcba8bf2	-0.02277181
173	0x3c084b0e	0.008318676
174	0xbd97e110	-0.07415974
175	0xbd606f19	-0.05479345
176	0xbd7a8d15	-0.061169703
177	0x3d1dc5d6	0.03851875
178	0x3d40916c	0.047013685
179	0x3c62f8a8	0.01385323
180	0xbb6c45f3	-0.0036052435
181	0xbcdc220b	-0.026871702
182	0x3c6a4a73	0.014299977
183	0xbc3e7b74	-0.011626113
184	0x3d58e845	0.052955884
185	0x3ad4ba2a	0.0016229798
186	0xbd3f131b	-0.04664908
187	0x3c9764c1	0.01848066
188	0x3cfed73c	0.031108491
189	0x3d496c39	0.049175475
190	0xbc6eda0d	-0.014578355
191	0xbca2d81c	-0.01987844
192	0x3ba0f8e5	0.004912483
193	0x3cc80e6c	0.02442094
194	0xbc921f28	-0.017837122
195	0x3d8bffb9	0.068358846
196	0xbd744003	-0.05963136
197	0x3c7b3920	0.015333444
198	0x3cdbd488	0.026834741
199	0x3c932fc4	0.017967112
200	0xbd2363d7	-0.039890137
201	0x3bcac95a	0.0061885538
202	0x3d1fbac0	0.038996458
203	0xbd97e593	-0.07416835
204	0x3c146823	0.009058031
205	0xbd043de1	-0.032285575
206	0x3cff74de	0.031183656
207	0x3bb1df78	0.005428251
208	0xbbff7168	-0.0077955015
209	0xbc5db5ae	-0.013532085
210	0xbb2474ca	-0.0025094026
211	0xbd18e54c	-0.03732805
212	0xbcc8e090	-0.024521142
213	0x3ca417b3	0.020030832
214	0x3d3704d1	0.044682328
215	0xbd992efa	-0.07479663
216	0xbc394fa7	-0.0113104945
217	0xbccadb84	-0.024762876
218	0x3d505577	0.050862756
219	0xbccc9282	-0.024972204
220	0x3d62e60e	0.05539518
221	0x3bcfad8e	0.006337828
222	0x3abb8c22	0.0014308731
223	0xbc3b4722	-0.011430534
224	0x3d1dba41	0.038507704
225	0xbc1f957a	-0.009740228
226	0x3cb36419	0.021898316
227	0x3d35aac6	0.044352315
228	0x3a800dc6	0.000976973
229	0x3b9a913a	0.0047170194
230	0x3c25ac7e	0.010111926
231	0x3c8a8423	0.01690871
232	0x3ce809c2	0.028324965
233	0x3c6df078	0.014522664
234	0xb88e365c	-6.781213e-05
235	0x3cd3221f	0.025773106
236	0xbce6cb50	-0.028173119
237	0x3d1d5173	0.038407754
238	0xbdaa0bb5	-0.08303014
239	0x3c6675ac	0.014066141
240	0xbdb9a780	-0.09065151
241	0x3d91d843	0.07121327
242	0x3c418f53	0.011813956
243	0x3d103eeb	0.035216253
244	0x3cb2ddfc	0.021834366
245	0xbd092a45	-0.033487577
246	0xba779cb6	-0.0009445654
247	0x3c8cea07	0.017201437
248	0x3c815547	0.015787734
249	0x3c8b8459	0.017030882
250	0xbca0b978	-0.019619688
251	0x3cb999f4	0.022656418
252	0xbcb98b6b	-0.022649487
253	0xbd337ef8	-0.04382226
254	0x3c8fcb38	0.017552957
255	0x3c445839	0.011983925

action_model._discrete_distribution.branches.0.bias f4 [5]
0	0x3cc7d104	0.024391659
1	0xbc9afa40	-0.018918157
2	0x3c354b06	0.01106525
3	0xbd4e56ff	-0.050375935
4	0x3cccfa3c	0.025021665
