Assets/results/Maze02/Mouse/Mouse-45748.onnx (onnx, 78683 bytes, 6 tensors)

network_body._body_endoder.seq_layers.0.weight f4 [128, 9]
000000 48 5b 38 bd 34 4b 14 be 0e bc b0 3e 28 3f 83 ba
       -0.045008928 -0.14481813 0.34518474 -0.0010013329
000010 59 f5 d5 be f3 a3 25 be ad 8d 26 3e 05 f4 ba 3e
       -0.41788748 -0.16175823 0.16264983 0.36514297
000020 ee 3b 85 be 24 8e b4 be bb d7 a1 be 5f 13 78 3e
       -0.26022285 -0.35264695 -0.31609902 0.2422614
000030 85 2c 92 3e b4 e9 a1 be 1c 28 17 bf 9f 76 07 3e
       0.2854959 -0.31623614 -0.5904558 0.13228844
000040 25 b1 02 3f 9a 47 52 be ae aa 4c 3e c4 ff 6d be
       0.5105155 -0.20535126 0.19986984 -0.23242098
000050 bf 81 dc 3e 32 76 04 3f 68 2e 8a be 3d c2 84 3e
       0.43067738 0.5174285 -0.2698853 0.25929442
000060 57 e9 08 3f 60 7a 4e bd d2 89 0b bf c6 76 8f bd
       0.5348105 -0.050409675 -0.5450717 -0.07005076
000070 0b 74 17 3f 1f dc 0a 3f 0a b5 bd 3e 5e 4f 33 bd
       0.5916144 0.5424213 0.37052184 -0.043776862
000080 f4 1c 5e be c7 88 73 3e 97 df fa 3e ba 57 0f 3f
       -0.21690732 0.23782645 0.4899871 0.55993235
000090 99 ee a2 3e 0e 85 bf 3d 06 c1 87 be 58 44 63 3e
       0.3182266 0.0935155 -0.26514453 0.2219404
0000a0 35 64 6a 3f b1 13 bb 3e 8c d7 16 be 46 9a 9b bd
       0.91559154 0.3653846 -0.14730662 -0.07597785
0000b0 dc 1a 05 3f 0b 15 82 bd 3c 9e d9 bc d7 bf bc bd
       0.5199411 -0.0635167 -0.02656471 -0.09216278
0000c0 ac ee b9 be df 59 3d 3b 1f 14 f4 3e 5a 85 00 3e
       -0.36314905 0.0028892679 0.476716 0.1255087
0000d0 10 7d d9 bd fc 38 50 be 8f b0 91 3e bf 29 21 bf
       -0.10619557 -0.20334238 0.28455016 -0.62954324
0000e0 a2 b8 0e 3f 71 74 11 be 91 20 3c 3f a8 a1 a8 3d
       0.5575048 -0.14204575 0.7348719 0.082339585
0000f0 41 69 e3 be 4e 0f 37 bf 6b 35 ab 3d 3c a6 23 3d
       -0.4441624 -0.7150773 0.08359798 0.039953455
000100 3f b6 15 3d 2b 81 15 bd 17 24 cd be 11 6e 2b bf
       0.036550757 -0.036500137 -0.40066597 -0.66964823
000110 5d 2c 7d be 77 08 d1 3e ec c5 cb 3e 3b d1 44 be
       -0.24723954 0.4082677 0.3979944 -0.1922044
000120 8a 0e 46 3e 54 5e cf be 98 52 09 3e a1 a0 59 3e
       0.19341484 -0.40501654 0.13410413 0.21252681
000130 f5 61 29 be 66 a7 99 3d 91 cf fd be e6 1e dd 3e
       -0.16541274 0.07502632 -0.49572423 0.43187636
000140 37 78 1b 3f 18 d5 49 3c dd 3a 91 3c 36 cc b0 3e
       0.6073031 0.012318872 0.017728264 0.345308
000150 a3 0f 55 3d 0c 1b 72 bf 89 f3 ff 3d 57 b7 54 3e
       0.052016865 -0.9457252 0.124976225 0.20773064
000160 3d 36 9c be a7 11 e1 3d a5 e6 7a 3e bc ae bf be
       -0.3051013 0.10989695 0.24502046 -0.37438
000170 03 61 5b be f7 59 42 be b7 87 28 3e e9 a0 bc 3d
       -0.21423726 -0.18979631 0.16458021 0.09210379
000180 6b fd 95 3e 04 35 d3 bd dd 53 b9 3b 7a eb a0 3d
       0.29294905 -0.10312846 0.0056557492 0.078574136
000190 bd ff d8 3d f5 26 cf 3d 82 9e 71 be e6 46 af 3c
       0.10595653 0.10114852 -0.23595622 0.021396112
0001a0 34 0e 55 3e 33 7e 87 be dc ec cd 3e 70 1a b7 bd
       0.208062 -0.2646347 0.40219772 -0.089405894
0001b0 59 cd 75 be b6 58 35 bc 7d 3b 0f bd e4 7d 2f 3e
       -0.24004115 -0.011068514 -0.03496884 0.17137867
0001c0 23 73 0c 3d e5 03 a4 3d 4e c7 0c bf 80 ef 8e 3d
       0.03428949 0.08008555 -0.54991615 0.06979275
0001d0 32 a2 65 3e 7c 43 6b 3d 79 65 c8 be 5a 0e 97 be
       0.22425154 0.057437405 -0.39139917 -0.29503137
0001e0 fe 4a eb 3b 7f 39 49 be 4b 89 21 bd 5c d1 60 be
       0.0071805706 -0.1965084 -0.039437573 -0.21954864
0001f0 9d 6a f0 be 5d ca e4 3e 0a 99 c2 3e 22 37 16 bd
       -0.4695634 0.4468564 0.38007385 -0.036673672
000200 39 d9 90 3d d1 6a 00 3d 94 e3 26 bd 29 43 b9 3e
       0.07072682 0.031351868 -0.04074438 0.36184052
000210 d4 66 5c 3e 0e ed af 3e d2 72 76 3e 7f 6d 29 bf
       0.21523601 0.34360546 0.24067238 -0.661827
000220 ba 0a 2a 3e 70 de 48 3e 6f 79 65 3e b6 97 ee b7
       0.16605654 0.19616103 0.22409604 -2.8442457e-05
000230 08 df ce be 5e 1b 70 bd b1 1c b9 bd 7b cc 0d be
       -0.40404534 -0.05861985 -0.090386756 -0.13847534
000240 4b f6 d9 3e eb 76 86 bd e6 dd b9 be 5f bb 1e be
       0.4257072 -0.065656506 -0.36302108 -0.15501164
000250 70 eb 9c bc bf 84 47 bd 6a ae 90 3e 63 99 d0 bd
       -0.019155234 -0.04871058 0.28258067 -0.10185506
000260 c6 fd ad 3d e9 f9 b8 3e 5c bb 05 3f b8 7a e1 3d
       0.08495669 0.36128166 0.5223901 0.11009735
000270 15 9c a1 be 27 5f 15 3f f3 51 3f be ae 7c 88 3e
       -0.31564394 0.58348316 -0.18683605 0.26657623
000280 5d 6e c6 be cd a6 d2 3b f2 2f c4 bd 8b b8 a0 bd
       -0.38756076 0.0064285756 -0.09579457 -0.07847699
000290 41 45 c3 be 00 d9 2b 3d c3 66 2d 3e a5 f9 d9 3e
       -0.38138774 0.041954994 0.16933732 0.42573276
0002a0 84 ef 6c be a6 6d 2a 3e 8a 14 a7 bd 1d 80 3c 3e
       -0.23138243 0.1664339 -0.081582144 0.18408246
0002b0 dd 86 02 be 9a 66 6f bf 43 d1 c1 3b e3 89 b1 3e
       -0.12746759 -0.9351593 0.0059148385 0.34675512
0002c0 b8 1f c3 3e 7c 7e 23 be 61 25 56 bf 55 26 6d 3e
       0.38110137 -0.15966219 -0.83650786 0.23159154
0002d0 29 47 6c 3e e0 0c 3a 3d 11 40 11 be 4b 55 cb 3e
       0.2307402 0.045422435 -0.14184596 0.3971351
0002e0 cd a5 c4 3c d1 65 26 be ca de 32 be 91 6f 20 bf
       0.024004841 -0.16249777 -0.174678 -0.62670237
0002f0 05 b7 78 3e 64 5a 8e be 26 c8 8f 3d 55 3b 0f bc
       0.24288566 -0.27803338 0.07020597 -0.008742173
000300 e1 c9 27 be 33 95 60 3c 55 b9 23 3e 52 1f da bd
       -0.16385604 0.013707447 0.15988667 -0.10650505
000310 db 0e c2 3e 35 fe 97 3d b2 4f aa be 81 62 5c be
       0.3790196 0.07421533 -0.33263928 -0.21521951
000320 66 e5 e8 3e 60 4a 26 3f b5 d0 74 3d 2f 32 9d 3d
       0.45487517 0.6495724 0.05976935 0.076755874
000330 01 3c 3e 3e 62 86 9f be ec d3 a0 be d7 53 40 3f
       0.18577577 -0.31157213 -0.31411684 0.7512793
000340 d0 d1 1b 3e e9 3f c7 be 68 53 91 3e 48 ac 09 3f
       0.15216756 -0.38915947 0.28383946 0.53778505
000350 44 48 ce be b1 b2 16 3e 2d d3 0b bf 34 0a 74 3e
       -0.4028951 0.14716603 -0.54619104 0.23832017
000360 90 e3 3f be 80 e0 07 3f ae 22 2d bf 9b 40 91 be
       -0.18739152 0.53076935 -0.6763104 -0.28369603
000370 30 e7 23 bf 60 d1 74 3d bc f9 74 bc 6b 44 91 bd
       -0.6402464 0.059769988 -0.014952119 -0.07093128
000380 67 6c 23 bf 61 b9 02 3e d8 26 d3 be 87 bf 79 3e
       -0.63837284 0.12766029 -0.41240573 0.24389468
000390 2f c1 37 be 2d b8 09 be cd d7 35 be 4e 6c 24 3f
       -0.17944787 -0.13449164 -0.17758103 0.6422776
0003a0 01 97 35 3e 98 26 e9 3d 38 cb 88 bd b8 3b 9b 3e
       0.17733385 0.11384314 -0.06679386 0.30319
0003b0 40 bf a4 3e ca 58 56 3d 14 30 2c 3d c3 12 1b 3e
       0.32177162 0.05233077 0.04203804 0.15143876
0003c0 c4 bf f0 3d 65 4e d5 3d b6 8e 1e 3f b8 7c 82 be
       0.117553264 0.10415343 0.6193651 -0.25485778
0003d0 25 ef 4f bd c7 86 50 3e 50 bd 91 be 0f 8e c6 3c
       -0.050765175 0.20363913 -0.28464746 0.02423766
0003e0 12 83 92 3d da 48 15 3d 1d d8 1d 3f 97 84 8b 3e
       0.07153906 0.03644643 0.6165789 0.27249596
0003f0 fd 92 10 bf aa 60 c9 3e c0 89 27 be 60 32 70 bd
       -0.56474286 0.3933156 -0.16361141 -0.05864179

network_body._body_endoder.seq_layers.0.bias f4 [128]
000000 6a ee d5 3c 06 49 2a 3d 63 43 8a 3c 68 0e 49 3c
       0.026114661 0.041573547 0.016877836 0.012271501
000010 44 ed 1f 3c 7f 57 e2 3c a6 fa 37 3d 75 0a 27 3d
       0.009761158 0.027629612 0.04491677 0.040781457
000020 94 5e 3a 3c c8 ec 41 3c 4f a0 cb 3c f1 ad fc 3c
       0.011375088 0.011836238 0.024856715 0.03084466
000030 05 22 6d 3d 5b f4 c9 3c 21 c9 00 3c 9e 7c b7 bb
       0.05789377 0.02465265 0.007860453 -0.0055995723
000040 8b c6 a2 3c e9 a0 94 3c 02 83 14 3d 60 63 44 3d
       0.019870063 0.018143134 0.03625775 0.047946334
000050 7a 8d ea 39 1c 0e d8 3c 0c 34 2b 3b b8 2d 63 3c
       0.00044737366 0.026373915 0.0026123552 0.013865881
000060 d4 72 a1 bc f1 3c 11 3d 0e d9 87 bc 7a 34 1c 3c
       -0.019708075 0.03545851 -0.016582992 0.009533996
000070 0a ea d4 3b 15 70 16 3c 98 bc 03 3d 60 6e 15 bc
       0.006497626 0.009181996 0.03216228 -0.009120554
000080 21 db 98 3c e2 96 cb 3c 7f 67 40 bd 05 fe dd bc
       0.018659176 0.02485222 -0.0469737 -0.027098665
000090 07 c9 0a 3c c3 cc 52 3c 72 83 1c bd b4 8c b5 3b
       0.00847078 0.012866202 -0.038211294 0.0055404548
0000a0 34 33 21 3c f6 7e 5a 3c ae f7 39 3b 39 25 e6 3c
       0.009838868 0.013335934 0.0028376388 0.028093921
0000b0 ff 44 b3 3c 5c 49 75 3c 15 18 2d 3d 55 6e c8 3c
       0.021883486 0.0149711035 0.042259295 0.024466673
0000c0 f4 3a e0 b8 0a bd 56 3c b7 d9 9d 3c 41 53 12 3c
       -0.00010692133 0.013106594 0.019268854 0.008930982
0000d0 63 c4 ed 3c f3 99 a7 3b ad a3 61 3c ca 98 41 3a
       0.029024309 0.0051147877 0.0137719335 0.0007385133
0000e0 6e ea 11 bc f2 ff 93 3c b7 3f 0f 3c c8 46 07 3d
       -0.00890599 0.01806638 0.008743218 0.033026487
0000f0 73 2c b5 3c d0 90 c4 3a fb 37 2d 3d 58 e6 2d 3c
       0.022115922 0.0014996771 0.042289715 0.010614
000100 68 7b 18 3c f4 5f ea bb 56 dc c0 3c 43 fa 43 3d
       0.009306766 -0.007152552 0.023542564 0.04784609
000110 b9 63 18 3d ab d5 0b 3c 4b 88 8d 3c 14 6a 83 3c
       0.037204478 0.008534829 0.017276904 0.016041793
000120 29 52 f8 3b b0 11 05 3d 05 c6 a9 3b 5b f6 8c 3c
       0.0075781536 0.03248757 0.0051810765 0.017207315
000130 09 8c 31 3d 31 69 2e bb 31 62 c9 3a da f1 23 bd
       0.04334644 -0.0026612992 0.0015364346 -0.04002557
000140 66 69 f4 3c 4b 2e 26 bd de 9a e7 bb 62 c1 2c 3d
       0.029835414 -0.040571492 -0.007068022 0.04217661
000150 64 e3 d1 3c fc 32 7c 3c bd 28 8d 3c 3e 09 0f 3d
       0.025621124 0.015393015 0.01723134 0.034920923
000160 3e 3f 0c 3d a6 b0 02 3d 8f 45 d4 3c d3 03 8c bc
       0.03424 0.031906746 0.025912074 -0.017091667
000170 19 8a b4 bc 2a 33 ff bc 6e 40 0e 3c 2b b5 3f 3d
       -0.022038506 -0.031152327 0.008682353 0.046803635
000180 ad af 96 3c 32 e4 8d 3c 9c 18 05 3d 82 f6 07 3c
       0.018394316 0.017320726 0.032494172 0.008298518
000190 e5 32 04 3c 67 90 77 3c 6f 27 51 3b e8 67 1c 3d
       0.008068775 0.015110112 0.0031914373 0.03818503
0001a0 77 12 3c 3c 6c 82 2b 3d d5 35 c9 3c 8f 2a f7 3c
       0.011479012 0.041872427 0.024561802 0.03017166
0001b0 6a 83 78 bb ce fd be bc fc c6 73 3d da 31 ed 3c
       -0.0037920126 -0.023314383 0.05951594 0.028954435
0001c0 79 0e bd 3c e8 77 70 3c 77 97 b4 3c da 58 13 3d
       0.02307819 0.014677025 0.02204488 0.035973407
0001d0 36 4e 36 3c 0f bc 11 3d d0 3a 0f bc fe 21 7b 3c
       0.011127045 0.035579737 -0.008742049 0.015327929
0001e0 60 75 10 3d fa c0 ea 3c 24 02 e3 3c 96 e9 b7 bc
       0.035268188 0.028656472 0.027710982 -0.02245025
0001f0 c7 b5 3f 3d a2 86 9a 3c bf f9 1b 3a e7 58 aa bc
       0.046804216 0.018863026 0.0005949996 -0.020794345

network_body._body_endoder.seq_layers.2.weight f4 [128, 128]
000000 46 04 5a 3c 48 f7 69 3e 43 6c 18 be 8d 3c fe 3d
       0.013306683 0.22848237 -0.14885049 0.12413893
000010 02 b3 ef bd 37 18 12 be 91 77 52 3d 9a 7c bf 3d
       -0.11704065 -0.1426705 0.05138356 0.09349938
000020 25 4f c3 bd ab 8a 84 3d a5 52 d2 3c c0 b0 3f 3c
       -0.0953658 0.06471761 0.025674174 0.011699855
000030 2a 8d 3e bc 04 02 d3 3d 82 9f 9b 3c 71 06 1d 3d
       -0.011630336 0.10303119 0.018996958 0.03833622
000040 22 6a 08 3e 84 ea 89 bd 3a ce bf bd 39 2e 8a bd
       0.13321736 -0.067341834 -0.093655065 -0.067470975
000050 41 64 1b 3e e4 86 49 be 5a ea 39 3d c1 40 4b bd
       0.15174963 -0.19680363 0.04538951 -0.0496223
000060 45 c7 a7 3d 2d e0 11 3d 8b d8 0c 3d 2c f6 8a 3d
       0.081923045 0.03561418 0.0343862 0.06785235
000070 8f ce 85 3c 5e da 46 3d eb c5 30 bd 8e 65 13 be
       0.016333846 0.048548095 -0.0431575 -0.14394209
000080 70 fc f8 3c 78 e2 75 3d 55 4a 9e 3d 03 a1 0f 3d
       0.03039381 0.06003043 0.077290215 0.035065662
000090 29 0e 50 3a cf 7b 4c 3d 0b aa 4e 3d ec af c9 3c
       0.00079366803 0.04992276 0.050455134 0.024620019
0000a0 ad 05 29 3c 67 cb 22 bd 0a e8 cf 3d 4f 9f a2 3d
       0.010316295 -0.03974476 0.1015168 0.07940542
0000b0 cd 1d 1b bd a4 9e f2 3d 69 f2 34 3e b7 8f 82 3c
       -0.037870217 0.118466645 0.17670597 0.01593767
0000c0 62 ea 9e bb cb 24 16 3e fb dc 83 3d 65 b4 ba 3d
       -0.004849718 0.14662473 0.06438633 0.09116439
0000d0 cc 5a 6a bd 13 83 a2 bc d1 c7 a2 bc 67 7c 2e be
       -0.057215497 -0.019837892 -0.01987067 -0.17039643
0000e0 de 06 25 3e b7 d2 2f 3e c8 6e ca 3d c1 2b be bc
       0.16115901 0.17170225 0.09884411 -0.023214223
0000f0 21 a9 3b 3e 1c 6c 1d be 80 73 70 bd f2 d8 f6 bd
       0.18326236 -0.15373272 -0.0587039 -0.12053098
000100 29 57 d2 3d 03 b3 8c 3d f3 51 6c 3d bd 45 9b 3d
       0.10270531 0.06870081 0.05769534 0.07581661
000110 64 86 91 3d 35 b3 e7 3b 6e 2d 5f bd 88 c1 5d bc
       0.07105711 0.0070709237 -0.054486685 -0.013534911
000120 a0 44 5d bd 03 dd 6e 3c a5 67 0b 3b 8d 37 ad 3c
       -0.054020524 0.0145790605 0.0021271494 0.021144653
000130 6b e7 f0 bd 60 52 10 ba b4 36 74 bd 30 44 75 3d
       -0.117628895 -0.0005505439 -0.05962248 0.05987948
000140 af 68 f7 bb 57 af 14 3e 19 74 c6 bd 7a 47 25 bd
       -0.007550321 0.14520012 -0.096901126 -0.04035137
000150 43 a5 30 3e ed f9 52 3d 5c f6 d6 bc 37 88 91 3d
       0.17250542 0.05150788 -0.02624052 0.07106059
000160 14 6b 64 3c 9d a0 47 bd 96 96 99 bd 2c 49 bf 3d
       0.013941545 -0.048737157 -0.07499425 0.09340128
000170 16 f4 1a bd 32 ac 26 3d 2c 83 80 3d c1 d3 45 bd
       -0.037830435 0.040691562 0.06275019 -0.048297647
000180 df a0 48 be 1d b7 22 bc 40 48 ef bd 2c d9 f6 bc
       -0.19592617 -0.009931353 -0.116837025 -0.030132852
000190 fe ff 86 bd 14 5c d5 bd 7b a1 38 3e 19 e6 fb 3c
       -0.065917954 -0.10417953 0.1803035 0.030749368
0001a0 a0 f6 0c bc 97 5d d9 3d d6 70 43 3e 20 07 6e 3e
       -0.008603722 0.10613554 0.19086012 0.23244905
0001b0 01 53 3f be 14 16 22 3e e8 8e a2 bd 4a 96 c3 3d
       -0.18684007 0.15828735 -0.079374135 0.0955015
0001c0 75 8e 9b 3d 30 6e c5 3d 81 fc 64 3d 76 15 9c bd
       0.07595531 0.09640157 0.05590487 -0.07621281
0001d0 db 85 05 3e 0a 62 05 bd bb 47 cb bd e3 1a 7a bc
       0.13039343 -0.0325642 -0.09925791 -0.015265199
0001e0 3e 13 c0 bd a5 b3 67 3d 95 00 0a be 22 37 07 3e
       -0.0937867 0.056567807 -0.13476785 0.13204625
0001f0 29 f9 57 3e 1d a7 bf bb 6f 9a 24 be cb 0e 27 be
       0.21091141 -0.005848779 -0.16074537 -0.16314237
000200 4e 6e bc bd 24 33 d2 3c de 1b b0 bd b1 b7 9e 3d
       -0.092007264 0.025659151 -0.08599065 0.0774988
000210 87 d7 81 3d 33 78 75 bd 98 da 3c be 11 e5 96 3c
       0.06339937 -0.059929084 -0.18442762 0.018419774
000220 85 62 95 bc 59 e1 37 be 6b e1 70 bd 80 7f ad 3d
       -0.018235454 -0.17957057 -0.058808725 0.08471584
000230 d5 99 c9 bc 37 30 52 bc 01 51 14 3e b2 ec 84 3d
       -0.024609486 -0.012828878 0.14484026 0.064904585
000240 aa 38 21 3c ec 78 0e 3d b6 1b f6 bd 8a 33 29 bd
       0.00984017 0.03478329 -0.12017004 -0.041308917
000250 28 30 3e 3d 0c bc 16 3e f2 04 2b be 0a 2f b5 bd
       0.046432644 0.14720172 -0.16701105 -0.088468626
000260 be d8 c2 bd fb 78 a1 3d bd 63 99 bd f7 0a 18 bc
       -0.095139965 0.07884403 -0.07489727 -0.009279958
000270 55 bf 6f bc 1c 08 cd bd f1 3e 68 3e ec 56 5c 3d
       -0.014633019 -0.10011312 0.2268026 0.053793833
000280 94 21 02 3e 42 81 7c 3b ed 57 c5 3c 10 e4 1b be
       0.12708122 0.0038529192 0.024089778 -0.15223718
000290 32 e8 19 be ad 7b 21 3d 56 37 a9 3d d4 f1 a4 3d
       -0.15029982 0.039424587 0.082625076 0.080539376
0002a0 c1 44 85 bd b4 b1 73 bd 9f 8b 8a 3d fd a7 98 bd
       -0.065072544 -0.059495643 0.06764912 -0.07453916
0002b0 fd d8 71 3d e6 0f c6 3c e4 bc d3 3d 98 0b 24 be
       0.059044827 0.024177503 0.103387624 -0.16020048
0002c0 23 ca 66 3e c4 b2 d4 3d 2d f8 5b 3d 75 fa 5e bd
       0.22538047 0.10385659 0.053703476 -0.054438073
0002d0 a2 d5 6a 3d 1a da 43 3e c7 5b 1b 3e 51 f0 40 3d
       0.057332642 0.19126168 0.15171729 0.047104184
0002e0 3d d4 9c bd af 9b 23 3e 0c 60 2c 3d 75 5d 3a 3c
       -0.07657669 0.15977357 0.042083785 0.011374821
0002f0 d8 c5 17 bd 65 61 89 3d f5 9d 17 bc 68 31 33 3e
       -0.037053913 0.0670803 -0.0092539685 0.17499316
000300 b8 df af bc 46 64 23 3e 95 11 d4 bd 70 c4 13 bd
       -0.021468982 0.1595622 -0.10354916 -0.03607601
000310 50 ea f6 3a 5f a9 ae bd fe 98 bc 3c c2 86 98 ba
       0.0018838141 -0.08528399 0.023022171 -0.0011636841
000320 d5 25 b4 3d 31 3d b9 bd 11 f4 f4 bd 16 9d 03 be
       0.087962784 -0.090448745 -0.119606145 -0.12852892
000330 5d bf 03 be b7 e3 2e 3e a2 54 3c bd 29 50 07 3a
       -0.12865968 0.17079054 -0.04597915 0.0005161786
000340 2a e5 d6 3d 58 83 03 be 5e 44 04 3e 94 24 06 be
       0.10492928 -0.12843072 0.12916705 -0.13099891
000350 b9 ea 13 bd d4 ff aa 3d d8 2d 1b 3d 00 16 fa 3d
       -0.03611252 0.083495766 0.037885517 0.122112274
000360 09 bf ae bd ce b9 99 3d fd a5 f4 bd 9c 3c 31 3e
       -0.08532531 0.075061426 -0.11945722 0.17308277
000370 63 88 9e bc 5a e5 01 bc 63 ac 03 be c8 3e fe 3d
       -0.019352144 -0.007928217 -0.12858729 0.12414318
000380 0e 77 b1 bd 62 5b 65 bc 17 c7 aa 3d 7e e8 a7 3d
       -0.08665286 -0.013998838 0.083387546 0.08198641
000390 9b a2 ee bd 3d 60 b5 bd 25 3e 55 3c c0 ad 74 bd
       -0.11652108 -0.088562466 0.013015305 -0.059736013
0003a0 7d 9a a1 3c 0c 8a 7d bd 6d 39 d2 bd 3c 32 ec bc
       0.019726986 -0.06189923 -0.10264859 -0.028832547
0003b0 d9 bd 4f be 96 a3 4d 3d 00 87 20 be 63 9f 35 3e
       -0.20287265 0.050204836 -0.15676498 0.17736582
0003c0 78 47 c2 3d db 57 6b 3c 59 71 2f bd e7 45 d1 bd
       0.09486288 0.014364208 -0.042832706 -0.10218411
0003d0 e7 74 c9 3b 9e fc 7e 3d d8 2f cf 3c 2d 21 b6 bc
       0.006147969 0.062252633 0.025291368 -0.022232616
0003e0 23 75 0a 3d 46 47 d8 3c 1e fb 05 be de 7e a2 bd
       0.033803117 0.026401173 -0.13084075 -0.07934354
0003f0 af 9b 58 bd b5 25 58 be a7 da f6 bc 98 34 38 be
       -0.052882846 -0.21108134 -0.030133558 -0.17988813

network_body._body_endoder.seq_layers.2.bias f4 [128]
000000 0a fa d1 bc 6f 44 61 3c a6 9c ad 3c 87 ff f7 3c
       -0.025631923 0.013749226 0.02119286 0.030273212
000010 43 21 53 3c df b3 68 bc ba 77 86 3c fb d5 52 3c
       0.012886348 -0.014203041 0.016414512 0.0128684
000020 74 90 de 3b a3 98 ea 3c 8d 38 e2 3c 0e 32 dd 3c
       0.0067921225 0.028637236 0.027614856 0.027001407
000030 0a e2 81 3c 63 11 af 3c cf e0 ef 3c f3 a5 3d 3d
       0.015854854 0.021370595 0.029282002 0.04630084
000040 2b a5 9e 3c 4b ea a0 3c 0f 59 81 3c 9a 69 2d 3c
       0.019365868 0.01964297 0.015789537 0.010584259
000050 8a 3c 12 3d b7 35 07 3d 66 27 d4 3b 35 21 cb 3c
       0.035702266 0.03301021 0.006474423 0.024796108
000060 30 3e 78 3c 76 3d c9 3c 4d 25 a2 3c 5e a6 f9 3c
       0.015151545 0.02456544 0.019793177 0.030474838
000070 d9 12 ad 3b 42 bd 20 3c 5b be 53 3c 94 45 ac 3c
       0.005281788 0.009810748 0.012923802 0.021029271
000080 c7 ad 3e 3c 93 f6 7e 3c e5 17 76 3c f2 dd a9 3b
       0.011638111 0.015561718 0.015020345 0.0051839286
000090 77 33 b0 bb f4 71 48 3c 65 a2 35 3c fc 08 ba 3c
       -0.005377229 0.0122342 0.011086081 0.022709362
0000a0 9b 96 05 3d db 67 8b 3c da a0 6c 3c 83 07 c5 3c
       0.03261433 0.017017296 0.014442647 0.024051433
0000b0 fd 32 cc 3c 85 52 b4 3c ff 93 6f 3c 9b 88 36 3c
       0.024926657 0.022012005 0.014622687 0.011140968
0000c0 67 d2 84 3c 06 a6 b1 3c 4b fa b8 bc 5c 43 0b 3c
       0.016213609 0.021685611 -0.022580286 0.008499946
0000d0 38 47 50 3c 32 3c 67 3c 60 3e 1e 3c ff 5d 1d 3c
       0.012712292 0.014113473 0.009658426 0.00960493
0000e0 17 3c 62 3c f3 ac 03 3d d5 03 2a 3c a1 55 a7 3b
       0.013808272 0.03214736 0.01037689 0.0051066433
0000f0 23 7d c9 3c a2 83 2e 3c 46 93 83 3c 1f 9d 00 3b
       0.024595803 0.010651501 0.016061436 0.0019624901
000100 2d 1c 19 3d 97 b5 d8 3b a7 dc 84 3c 8d 27 ff 3b
       0.037380386 0.006613444 0.016218496 0.0077866972
000110 eb 00 ed 3b 8c 14 81 bb 86 4a b1 3c 2e 86 ba 3b
       0.0072327754 -0.003939217 0.02164198 0.005692265
000120 af 52 24 bb 9b 61 88 3c e7 7a 66 3b 5e e2 e5 bc
       -0.0025073697 0.016648104 0.003516847 -0.028062042
000130 e4 a1 bd 3c e4 93 f2 3b 57 ed df bc 9f ec bb 3c
       0.023148485 0.007402884 -0.027334852 0.022939978
000140 f0 d9 e2 ba 19 f4 15 3b a2 f2 b7 3c ff fd 92 3c
       -0.0017307382 0.002288109 0.022454564 0.01794338
000150 09 55 20 3c cb 0a 06 3d ed 59 6a bc 38 1b bd 3c
       0.009785899 0.032725137 -0.014303667 0.023084268
000160 62 a1 9a 3c ae af b6 3c 97 8c 45 3c 2f a4 c9 3c
       0.018875781 0.022300567 0.012057445 0.024614422
000170 1b ee 1d 3d f8 87 80 3c e8 8c d0 3c 31 ed 82 ba
       0.038557153 0.015689835 0.025457814 -0.0009988901
000180 c8 50 17 3d c7 af 04 3d 02 3d b2 3b 36 ba fe 3c
       0.036942273 0.032394197 0.0054394016 0.031094652
000190 8b 2e 9c 3b b9 77 2b b8 78 dd a5 3c 26 7a 94 3c
       0.0047662905 -4.0881077e-05 0.020247206 0.018124651
0001a0 88 c9 05 3d df 37 7c 3c f0 98 08 3a cb 88 89 3c
       0.0326629 0.01539418 0.0005210778 0.01678886
0001b0 c0 f4 a6 3c f9 a0 cc 3c ae 97 19 3d e4 3c c5 3c
       0.020380378 0.024979101 0.03749817 0.024076886
0001c0 67 42 8f 3c 9f 75 e9 bb 8e 9a 28 3c d3 a0 1b 3c
       0.017487718 -0.007124617 0.010290755 0.009498793
0001d0 fd 95 b6 3c 7d 91 e0 3c d8 3c 82 3c 1e 81 c2 3c
       0.022288317 0.027413124 0.015898153 0.023743208
0001e0 ef 45 70 3c 69 54 40 3c ad a2 cf 3c 61 0a 88 3c
       0.014665111 0.011738875 0.025346125 0.016606512
0001f0 60 43 cc 3c 36 fc fa 3c d2 0a 4c 3a eb 97 ab 3c
       0.02493447 0.030637842 0.0007783595 0.020946464

action_model._discrete_distribution.branches.0.weight f4 [5, 128]
000000 b7 ae 10 bc a5 58 63 3d e1 3c 17 3d 70 a1 3d 3c
       -0.008830718 0.05550446 0.036923293 0.011574134
000010 eb 7b 79 bd 9a e0 a7 3a 3f 38 a9 3c ff 6f 9a 3d
       -0.060909193 0.0012808025 0.020656703 0.07540893
000020 08 28 ad bc 0e 19 6f 3c dc 3b b5 bc 85 72 4c 3d
       -0.021137252 0.014593376 -0.02212327 0.0499139
000030 06 18 6f bd 90 4a d8 3c 3c 7a 6a bd 84 6a 12 bd
       -0.05837252 0.026402742 -0.057245478 -0.035746112
000040 a2 d0 56 bb b9 3c 21 3d 3c ca aa bd e1 ea 67 bd
       -0.0032778163 0.03936455 -0.083393544 -0.056620482
000050 0d 4b b3 bc 5d b1 a7 3c 3b ca 32 bc a5 8d b4 bd
       -0.021886373 0.020470316 -0.010912473 -0.08816079
000060 4f fb ec bc f2 a0 9a bb cb e3 8e bd 04 2c 03 bb
       -0.028928427 -0.004718893 -0.06977042 -0.002001525
000070 3d 8c 84 bd 39 40 57 3d d7 2b 01 bd 14 e3 07 bd
       -0.06472061 0.052551482 -0.03153595 -0.033175543
000080 2b d3 7f bd 51 fa 27 3b 8f c0 31 bd c0 52 a5 3c
       -0.062457245 0.0025631378 -0.04339653 0.02018106
000090 1b d4 18 3c 6f 43 2d 3c d7 37 5d 3d c3 02 66 3b
       0.009327914 0.010575159 0.05400833 0.003509686
0000a0 c0 43 2e 3d 85 93 87 bc ff 1b cd bc 51 65 2f 3d
       0.04254508 -0.016549835 -0.025037764 0.042821232
0000b0 78 a8 da bc ca d9 af bd 38 38 0b bd a5 05 8c bc
       -0.02669166 -0.08586462 -0.03398916 -0.017092535
0000c0 06 e2 81 3d 91 13 88 bd f4 87 11 3c 5a 64 96 bc
       0.06341939 -0.06644357 0.008882511 -0.018358398
0000d0 ff 14 7d bc d5 c9 a2 ba b9 49 5b bd dc e4 41 bd
       -0.0154469 -0.001241977 -0.053537104 -0.047337398
0000e0 17 4e 1d 3b 2e f6 9e 3b f4 b9 80 3c 6f 1f d8 3c
       0.0024002844 0.0048511242 0.01571367 0.026382176
0000f0 2c 21 a0 bd 02 32 30 bd a0 07 59 bd 25 af 03 bc
       -0.07818827 -0.04301644 -0.052985787 -0.008037363
000100 de 3c 2b 3d d3 ce 4c 3d 72 e1 25 3d 20 08 b0 bc
       0.041806094 0.05000193 0.040498205 -0.02148825
000110 af cd 88 3c fa 84 f5 bc ad 6a 52 3d 21 d3 b6 bc
       0.01669964 -0.029970635 0.051371265 -0.022317471
000120 40 b3 71 3d 74 d9 53 bd f7 65 01 3d a8 81 22 3a
       0.059008837 -0.05172105 0.031591382 0.000619913
000130 89 f9 5a bd d1 e9 f6 bb 40 c1 08 3c 69 63 f4 bc
       -0.05346063 -0.0075351973 0.008346856 -0.029832559
000140 aa 3b 06 3c da 87 bc 3b 8b f7 56 bd 64 c5 92 bd
       0.008192936 0.0057534995 -0.05248217 -0.071665555
000150 8f 0c f5 3a 98 34 59 3c 81 58 f4 3c f2 c5 3f 3d
       0.0018695759 0.013257168 0.029827358 0.046819635
000160 47 94 af 3c 1d a6 cc 3c 25 41 75 bd ab 87 2a bd
       0.021433009 0.024981553 -0.05987658 -0.04163329
000170 b0 12 c6 3b 5d e6 d4 3a 0c fb 4d 3c 61 3d bc bc
       0.006044708 0.001624297 0.012572061 -0.022978486
000180 15 4c 72 3d ed 64 71 3d 06 ee e5 3b 9c 3e 71 bc
       0.05915459 0.05893414 0.0070169 -0.0147244
000190 56 b6 8b 3c dd 26 c8 bc f1 9f bf bc 49 1a 6d 3c
       0.017054718 -0.024432594 -0.023391696 0.014471599
0001a0 fb 3b c5 bc 61 8a d7 bc ed 19 a8 bc 2f 86 ba bb
       -0.024076452 -0.026311101 -0.020520175 -0.0056922655
0001b0 3b b4 73 3c 66 34 86 bd ac f8 d8 bc af 5d 22 3d
       0.014874513 -0.06552963 -0.026485763 0.039640125
0001c0 ee 7d f0 3c 9d b8 89 3d a1 e0 8b bd 46 e1 aa 3c
       0.029356923 0.06724665 -0.06829954 0.020859372
0001d0 43 ed 28 bd ca 2f b7 3c 79 a6 56 bc ce 69 ba 3b
       -0.041241895 0.022361655 -0.013101214 0.0056888824
0001e0 d2 c6 35 3c ed f2 57 bb 32 6b 48 bc f9 a7 7c 3d
       0.011094766 -0.0032951192 -0.012232589 0.06168363
0001f0 d6 51 f9 3b 86 90 78 bd 36 9f e3 3c 84 06 84 bc
       0.0076086326 -0.060684703 0.027785879 -0.016116388
000200 00 d1 ad 3c 73 11 d2 bc 09 0b 83 bc 93 da f3 3c
       0.021217823 -0.025643086 -0.015996473 0.02976731
000210 78 b6 95 bc 94 25 b5 3c c4 f1 1f bd 85 d8 b5 bd
       -0.018275484 0.022112645 -0.039048925 -0.088791884
000220 db 23 82 bc ee 66 a3 3c 0d b3 a8 3c 14 21 29 bd
       -0.015886238 0.019946542 0.02059319 -0.04129131
000230 4d b1 2e 3b 31 47 88 bd ac c4 95 3d 56 a4 a1 3c
       0.0026655972 -0.06654204 0.07312903 0.019731682
000240 5c d2 08 3c e8 d8 93 bc 4c 43 10 3b 49 5c 28 3d
       0.008350935 -0.018047765 0.0022012768 0.041103635
000250 64 00 88 bd 9b 68 33 3d 08 3e 4e 3d a5 1b 61 3c
       -0.066406995 0.04380093 0.050352126 0.013739501
000260 10 03 19 3d d9 9b 1b bc 9d 2b 23 3d f3 96 1b 3d
       0.037356436 -0.009497606 0.039836515 0.037985753
000270 4f c1 a0 3c d5 5f 8e 39 bd 12 80 3d 9b c3 da 3c
       0.019623427 0.0002715575 0.06253574 0.0267046
000280 3b b7 21 3c 3d 77 84 bd da 60 53 bc 74 d0 2d bd
       0.009870346 -0.064680554 -0.012901509 -0.042435125
000290 2d ae b1 3c 3f 84 3f 3d 0e bc ef bb ef 77 19 bd
       0.021689499 0.04675698 -0.007316119 -0.037467893
0002a0 8d 00 9d bd 11 7c 46 3d fd d4 97 bb 88 d0 59 bd
       -0.07666121 0.048458163 -0.0046335445 -0.053177387
0002b0 2d f8 52 bd 20 20 97 3d 38 89 05 3c 9c 11 00 bd
       -0.05150621 0.07379174 0.008150391 -0.031266794
0002c0 c7 97 b7 bc 1e e9 0d bc 3f d7 fd 3c d5 34 48 bd
       -0.02241124 -0.0086615365 0.030986426 -0.04887851
0002d0 4a 03 01 bd e8 30 3a 3d f2 f7 93 3d 4e c6 8b bc
       -0.031497277 0.045456797 0.07225026 -0.017062332
0002e0 8e d0 44 bd 76 27 0f 3d ec 36 cf 3c d4 1f 28 3d
       -0.048050456 0.034949742 0.025294743 0.04104598
0002f0 dd 14 75 3d 24 c2 54 3d 55 ee dc 3b 80 25 13 3c
       0.05983435 0.05194296 0.0067422786 0.008981109
000300 4b ae 31 bc 27 1c 15 bd 42 d2 e6 bc cc 75 6a 3d
       -0.010844777 -0.0364038 -0.02817643 0.057241246
000310 89 37 3d 3c eb de 0e 3d 97 0c cf bc 2f 89 90 3c
       0.011548885 0.03488056 -0.025274558 0.01764354
000320 17 95 79 bc a8 38 cf bc 93 81 79 3c a7 5c 90 3c
       -0.0152333 -0.02529557 0.015228647 0.017622305
000330 79 e4 50 3c 0d b5 cf bb d6 7d 34 3c 9e dc 1e bd
       0.012749785 -0.0063387216 0.01101633 -0.038784616
000340 12 06 1d bd 62 81 35 3d ba 48 e5 bb d3 60 03 3d
       -0.038335867 0.044312842 -0.006997195 0.03207476
000350 00 e2 09 3d 04 72 14 3d 12 cb 38 bc b9 12 c6 bc
       0.033662796 0.036241546 -0.0112788845 -0.02417885
000360 d2 35 85 3c 6c 36 0f 3c de 05 11 3d 98 14 e9 bc
       0.016261015 0.0087410025 0.035405986 -0.028452203
000370 64 08 05 3d 43 96 69 bc da 5d 23 bc 40 26 d1 bc
       0.032478705 -0.014257017 -0.009971106 -0.025530934
000380 42 d0 a6 bc d9 9d b6 3c e8 0b 36 3d e9 9c 87 bd
       -0.020362977 0.022292065 0.04444495 -0.06621725
000390 39 01 71 bd 25 f8 97 bc 1e cc cf bc 37 4e 51 3c
       -0.058839057 -0.018550942 -0.025365885 0.0127749955
0003a0 04 1d 1d bd a7 ab 2f 3d 2f a2 b3 3c a9 66 8f bd
       -0.03835775 0.04288831 0.021927921 -0.07002003
0003b0 f8 83 e4 3c 73 da 9c 3b 7d 5a 9e bd 36 14 a0 bd
       0.027894959 0.0047867834 -0.07732103 -0.07816355
0003c0 83 5f 1a 3c f2 c3 0d bd 74 52 77 3d be 6a ae bb
       0.009422186 -0.034610696 0.060381368 -0.0053227833
0003d0 81 3b d9 bc 6d c7 0c bd 4c 3b 9d 3c d8 96 8c 3b
       -0.026517631 -0.034369875 0.019193314 0.004290443
0003e0 66 f1 98 bd f9 2d 32 bb 86 62 ce 3b 84 26 7c bd
       -0.07467918 -0.0027188046 0.006298366 -0.06156017
0003f0 0d 28 66 b8 20 b1 85 3c 38 c1 17 bd cb 9a 3a bc
       -5.4873573e-05 0.016319811 -0.037049502 -0.011389445

action_model._discrete_distribution.branches.0.bias f4 [5]
000000 33 d5 79 bb ac e9 3a bc 6c 3e 63 bc 21 a7 d5 bb
       -0.0038121461 -0.011408251 -0.013869863 -0.0065201675
000010 9b 76 10 3d
       0.03526936
