Assets/results/Maze02/Mouse/Mouse-2368.pt (torch, 153570 bytes, 11 tensors)

network_body._body_endoder.seq_layers.0.weight f4 [128, 9]
0.06703812 -0.7409939 -0.18165176 0.3575754 -0.40156358 -0.025135666 0.05997209 -0.68240947
-0.03043659 -0.507179 0.23954529 0.0061372546 0.5085155 -0.13687481 -0.060723886 -0.24007414
0.21383753 0.15482235 -0.495061 -0.42957002 0.26956016 -0.12700711 -0.0061901556 0.060313176
0.22845088 -0.10965598 0.028717002 0.48204023 -0.19988552 -0.039467104 1.069112 0.16919914
0.082501054 -0.4390359 0.37349743 -0.21143912 0.55595446 0.43588027 0.21041566 0.69032025
0.080916345 -0.37518474 0.16865826 0.20441055 0.005591515 0.49605852 0.13461278 0.39656836
-0.0015423893 -0.23185174 -0.05257557 -0.37093413 -0.21556175 -0.14736557 -0.028682616 -0.042499997
0.16574192 0.20114723 0.26041993 0.058380138 -0.19729786 0.44686735 0.37188083 0.11949222
-0.094730735 -0.4126477 -0.4229487 0.4619556 -0.24742764 -0.3648299 0.066787794 0.17248176
-0.69392073 0.29669154 -0.24596326 -0.3237359 0.39730603 0.07131508 0.498465 0.19542454
0.1542939 0.13563144 0.73805904 0.26943362 -0.44719303 -0.0481953 -0.30821264 -0.043862205
0.06724807 0.28560928 0.038114164 -0.21018311 -0.0480632 -0.004722315 0.25832212 -0.2602611
0.3072371 0.4846009 -0.51246715 -0.20310931 -0.4359766 0.06625044 0.5713272 -0.37378854
-0.1075651 0.38411185 -0.0020598061 0.38349855 -0.21745619 -0.52035975 0.22323917 0.119637206
0.13690996 -0.08474284 -0.43857357 0.0983484 0.43159354 -0.094797224 0.27191803 0.3172779
-0.24280775 0.38651368 -0.18712197 0.37559694 0.059669986 -0.13651901 -0.101551875 0.06266962
-0.4658173 -0.24454665 0.55902934 -0.18192738 0.37047097 -0.3713176 -0.19827324 -0.6927229
-0.2586211 -0.10540092 0.48959678 0.35810515 -0.15720803 -0.010950372 0.053684395 0.4064414
-0.6591245 -0.06518281 -0.09809237 0.012617699 -0.52226996 0.11162489 -0.17670485 -0.20273393
0.5100882 0.115015715 0.012875254 0.025084695 -0.23683012 0.11212255 -0.34084043 -0.2980102
0.024716724 0.37928987 -0.40422353 0.4129531 -0.46047634 0.10711336 0.10967439 0.04262377
-0.066473946 0.25808245 -0.09665036 0.16475102 -0.37258476 0.005276327 -0.00037966418 -0.40781686
-0.5052874 0.16718292 -0.37493837 0.6525161 -0.07136568 -0.22784463 -0.32907584 -0.30841112
0.6538441 0.04409416 0.005502222 -0.4188916 -0.67904013 -0.11897965 0.32669842 0.35105917
-0.70551485 -0.3003205 -0.2168152 0.27936408 -0.5181513 -0.4549874 -0.09258141 0.2670136
-0.087298475 0.45607096 0.07282312 -0.20847385 -0.049264975 0.3331348 0.044842623 0.505634
-0.1276184 0.5003694 0.11449695 -0.3126556 -0.45273376 -0.049984336 -0.036994837 0.14329371
-0.13859844 0.064330816 0.13319185 0.331372 -0.11906501 -0.53488696 -0.05207064 -0.95023006
-0.30162054 -0.08389643 -0.017319795 0.36040568 -0.29534936 -0.6941345 0.30677837 0.3408098
0.3141265 0.32263446 0.13147703 0.5383832 -0.3001621 0.40458736 0.11427514 -0.2416161
-0.111615896 -0.17498162 -0.68937373 0.4931974 0.36694694 0.15255225 -0.39883798 0.6955339
0.07705924 -0.23090407 -0.16288495 0.30077037 -0.27406183 0.10575866 -0.1292836 0.6011221
00000000: 484b 893d c7b1 3dbf eb02 3abe 1f14 b73e
00000010: be99 cdbe 50e9 cdbc 4ba5 753d 63b2 2ebf
00000020: 2856 f9bc 7cd6 01bf 5c4b 753e 061b c93b
00000030: 122e 023f e928 0cbe 9cb9 78bd ffd5 75be
00000040: 3af8 5a3e c089 1e3e a378 fdbe 9af0 dbbe
00000050: ca03 8a3e 270e 02be cad6 cabb f30a 773d
00000060: 07ef 693e 5093 e0bd eb3f eb3c facd f63e
00000070: caae 4cbe 42a8 21bd a9d8 883f 8a42 2d3e
00000080: 50f6 a83d 50c9 e0be 0e3b bf3e 7f83 58be
00000090: 0853 0e3f b32b df3e 3477 573e d4b8 303f
000000a0: 78b7 a53d 3718 c0be c0b4 2c3e 0051 513e
000000b0: 0739 b73b 62fb fd3e efd7 093e 020b cb3e
000000c0: ff29 caba 8b6a 6dbe 7b59 57bd 14eb bdbe
000000d0: 38bc 5cbe 00e7 16be cef7 eabc 7a14 2ebd
000000e0: 40b8 293e 8af9 4d3e c355 853e 0320 6f3d
000000f0: 7308 4abe cccb e43e 2a67 be3e 56b8 f43d
00000100: 3002 c2bd 8f46 d3be bb8c d8be 7285 ec3e
00000110: ac5d 7dbe fcca babe 0ac8 883d 0f9f 303e
00000120: caa4 31bf f4e7 973e cbdd 7bbe b6c0 a5be
00000130: b26b cb3e a40d 923d ce36 ff3e 5f1d 483e
00000140: 38ff 1d3e f8e2 0a3e 70f1 3c3f 34f3 893e
00000150: 7cf6 e4be 6f68 45bd 0cce 9dbe dba8 33bd
00000160: 5bb9 893d 613b 923e 991d 1c3d 3e3a 57be
00000170: ebdd 44bd a6bd 9abb cc42 843e f140 85be
00000180: 2e4e 9d3e 9c1d f83e 0c31 03bf e3fb 4fbe
00000190: 5338 dfbe 50ae 873d 8042 123f 3661 bfbe
000001a0: 174b dcbd 4faa c43e d0fd 06bb ec59 c43e
000001b0: d6ac 5ebe 4c36 05bf cf98 643e 5a04 f53d
000001c0: 2032 0c3e a78d adbd b78c e0be e36a c93d
000001d0: d4f9 dc3e 0c25 c2bd d738 8b3e 4072 a23e
000001e0: 98a2 78be 1fe5 c53e e79c 3fbe 3e4e c03e
000001f0: 8468 743d a4cb 0bbe 6efa cfbd ee58 803d
00000200: 9b7f eebe 706a 7abe 8c1c 0f3f 2c4b 3abe
00000210: 5fae bd3e 571d bebe 2408 4bbe 4a56 31bf
00000220: fc69 84be 70dc d7bd 6eac fa3e 8f59 b73e
00000230: 24fb 20be 3069 33bc 2be4 5b3d 1619 d03e
00000240: 62bc 28bf 917e 85bd a7e4 c8bd 77ba 4e3c
00000250: 7cb3 05bf 979b e43d 1ef2 34be 7c99 4fbe
00000260: 2495 023f 5c8d eb3d bbf2 523c 6b7e cd3c
00000270: 9883 72be 82a0 e53d a382 aebe cb94 98be
00000280: ba7a ca3c 4832 c23e 63f6 cebe 976e d33e
00000290: 8ec3 ebbe 405e db3d f79c e03d 4396 2e3d
000002a0: 7e23 88bd 6223 843e a0f0 c5bd 7eb4 283e
000002b0: 6ec3 bebe 0ae5 ac3b aa0d c7b9 5fcd d0be
000002c0: 845a 01bf 0032 2b3e ecf7 bfbe 4c0b 273f
000002d0: 2b28 92bd 1a50 69be a17c a8be 10e8 9dbe
000002e0: 5462 273f 149c 343d fc4b b43b f678 d6be
000002f0: 93d5 2dbf 9aab f3bd 0445 a73e 07be b33e
00000300: 9f9c 34bf 9cc3 99be ce04 5ebe cf08 8f3e
00000310: 90a5 04bf 1cf4 e8be 539b bdbd 02b6 883e
00000320: 8bc9 b2bd 2282 e93e 4a24 953d 2b7a 55be
00000330: 12ca 49bd a590 aa3e e6ac 373d 3b71 013f
00000340: 66ae 02be 3618 003f 607d ea3d 6514 a0be
00000350: b8cc e7be 60bc 4cbd e687 17bd 96bb 123e
00000360: c0ec 0dbe e0bf 833d 7263 083e 97a9 a93e
00000370: 5bd8 f3bd 5aee 08bf 0648 55bd 4742 73bf
00000380: 026e 9abe e4d1 abbd 3ee2 8dbc 1887 b83e
00000390: 0838 97be ccb2 31bf 0e12 9d3e 9f7e ae3e
000003a0: 30d5 a03e 5830 a53e eaa1 063e 7bd3 093f
000003b0: d9ae 99be 1326 cf3e 1609 ea3d 366a 77be
000003c0: e096 e4bd 622e 33be cc7a 30bf 5f84 fc3e
000003d0: 78e0 bb3e a836 1c3e 7e34 ccbe 820e 323f
000003e0: 3cd1 9d3d 1e72 6cbe 50cb 26be 93fe 993e
000003f0: d551 8cbe ff97 d83d ec62 04be 23e3 193f

network_body._body_endoder.seq_layers.0.bias f4 [128]
0.0 0.0 0.0 0.0 0.0 0.0 0.0 0.0
0.0 0.0 0.0 0.0 0.0 0.0 0.0 0.0
0.0 0.0 0.0 0.0 0.0 0.0 0.0 0.0
0.0 0.0 0.0 0.0 0.0 0.0 0.0 0.0
0.0 0.0 0.0 0.0 0.0 0.0 0.0 0.0
0.0 0.0 0.0 0.0 0.0 0.0 0.0 0.0
0.0 0.0 0.0 0.0 0.0 0.0 0.0 0.0
0.0 0.0 0.0 0.0 0.0 0.0 0.0 0.0
0.0 0.0 0.0 0.0 0.0 0.0 0.0 0.0
0.0 0.0 0.0 0.0 0.0 0.0 0.0 0.0
0.0 0.0 0.0 0.0 0.0 0.0 0.0 0.0
0.0 0.0 0.0 0.0 0.0 0.0 0.0 0.0
0.0 0.0 0.0 0.0 0.0 0.0 0.0 0.0
0.0 0.0 0.0 0.0 0.0 0.0 0.0 0.0
0.0 0.0 0.0 0.0 0.0 0.0 0.0 0.0
0.0 0.0 0.0 0.0 0.0 0.0 0.0 0.0
00000000: 0000 0000 0000 0000 0000 0000 0000 0000
00000010: 0000 0000 0000 0000 0000 0000 0000 0000
00000020: 0000 0000 0000 0000 0000 0000 0000 0000
00000030: 0000 0000 0000 0000 0000 0000 0000 0000
00000040: 0000 0000 0000 0000 0000 0000 0000 0000
00000050: 0000 0000 0000 0000 0000 0000 0000 0000
00000060: 0000 0000 0000 0000 0000 0000 0000 0000
00000070: 0000 0000 0000 0000 0000 0000 0000 0000
00000080: 0000 0000 0000 0000 0000 0000 0000 0000
00000090: 0000 0000 0000 0000 0000 0000 0000 0000
000000a0: 0000 0000 0000 0000 0000 0000 0000 0000
000000b0: 0000 0000 0000 0000 0000 0000 0000 0000
000000c0: 0000 0000 0000 0000 0000 0000 0000 0000
000000d0: 0000 0000 0000 0000 0000 0000 0000 0000
000000e0: 0000 0000 0000 0000 0000 0000 0000 0000
000000f0: 0000 0000 0000 0000 0000 0000 0000 0000
00000100: 0000 0000 0000 0000 0000 0000 0000 0000
00000110: 0000 0000 0000 0000 0000 0000 0000 0000
00000120: 0000 0000 0000 0000 0000 0000 0000 0000
00000130: 0000 0000 0000 0000 0000 0000 0000 0000
00000140: 0000 0000 0000 0000 0000 0000 0000 0000
00000150: 0000 0000 0000 0000 0000 0000 0000 0000
00000160: 0000 0000 0000 0000 0000 0000 0000 0000
00000170: 0000 0000 0000 0000 0000 0000 0000 0000
00000180: 0000 0000 0000 0000 0000 0000 0000 0000
00000190: 0000 0000 0000 0000 0000 0000 0000 0000
000001a0: 0000 0000 0000 0000 0000 0000 0000 0000
000001b0: 0000 0000 0000 0000 0000 0000 0000 0000
000001c0: 0000 0000 0000 0000 0000 0000 0000 0000
000001d0: 0000 0000 0000 0000 0000 0000 0000 0000
000001e0: 0000 0000 0000 0000 0000 0000 0000 0000
000001f0: 0000 0000 0000 0000 0000 0000 0000 0000

network_body._body_endoder.seq_layers.2.weight f4 [128, 128]
-0.06244848 0.007997001 -0.105118535 0.13973479 -0.20028476 0.10617086 -0.08005718 -0.042405043
-0.00777504 -0.06876032 0.040496178 -0.1117532 -0.0328587 -0.0065094116 -0.21026011 -0.07044535
-0.19625942 -0.14966418 0.007523253 -0.023234751 0.11013811 -0.0687448 -0.036922406 -0.10250302
-0.1530149 -0.15191016 -0.16285409 -0.13621141 0.10838958 0.049548354 -0.010562665 -0.053122025
0.041670766 -0.1819814 -0.09112503 -0.05465358 0.0032986375 0.015608706 0.0012382942 0.12017277
-0.17549525 -0.15587379 0.049952764 0.091222405 -0.00026912906 -0.14299227 -0.00954442 -0.08890583
-0.15102372 -0.08498424 -0.03583915 -0.12439678 -0.042305198 -0.20182905 -0.104795426 -0.06944337
-0.047854483 0.06857749 -0.15309384 0.07631749 0.0428834 -0.00066120556 -0.003077071 0.0006497639
0.0443941 0.18932448 0.0051036756 -0.10879708 0.012263239 -0.009687242 0.048514932 0.012397299
-0.05008945 -0.007512262 0.019748205 0.0072585004 -0.09880327 0.18571664 -0.024403537 -0.01479889
0.10077259 -0.039089333 -0.05015611 -0.081227824 -0.08111408 0.046202738 0.101504825 -0.099021435
-0.055483703 0.03011742 -0.028913364 -0.105067655 0.014051306 0.04890077 0.14626637 -0.070928186
0.098204285 -0.19184074 0.12670882 -0.13402951 0.038221404 0.11126966 0.12419517 -0.009676684
0.16927469 0.015796287 -0.23442848 -0.023974739 -0.042547163 -0.06681909 -0.08145644 -0.053573273
0.0284102 -0.051107816 -0.07011381 -0.075262144 -0.0808683 -0.007074155 -0.06338142 -0.007197437
0.07211345 -0.11063331 -0.0731118 -0.010327291 -0.1483949 -0.012438154 -0.055612877 -0.032067604
-0.023064304 -0.09327048 0.065331206 0.17283598 0.1713092 0.050649177 -0.113576345 0.009732183
-0.031118032 0.019735618 0.043560844 0.07780963 0.014126982 -0.055069372 0.032893103 -0.04955412
-0.18420205 0.039238118 0.06482438 -0.10769343 0.04456161 -0.22893544 0.1503932 0.12422733
0.024535734 0.08492265 0.043011997 0.05662037 -0.08703242 -0.078552596 -0.043856017 -0.04846671
0.18761724 0.071486376 -0.005274831 -0.09185504 0.06552546 -0.053759594 0.05346469 -0.1362812
0.04570658 0.043218795 -0.065152355 0.001400737 0.22985186 -0.06380809 0.05237943 0.15198678
-0.11208678 -0.07105427 -0.0626254 0.057547975 -0.045384448 -0.19803259 -0.01464689 0.049156465
0.046700723 0.10755117 0.14207727 -0.015115713 -0.10978574 0.09869402 0.11240956 0.0012043752
0.086465575 -0.011694373 -0.005423915 0.059962757 -0.04982588 -0.08729443 -0.18192221 0.08725987
0.098214455 0.12605958 -0.055985577 -0.022390405 -0.00034617502 -0.12945071 -0.059159297 0.09299114
-0.1105274 0.051645793 -0.031328727 0.08220525 -0.037957173 -0.17883584 -0.049317766 0.052730974
-0.16960116 -0.06058443 0.07765063 0.07975791 -0.10065465 -0.019388631 -0.074362606 -0.11106652
-0.07550375 0.13850184 -0.090722784 0.056282032 0.030575594 -0.21180332 -0.013636319 0.013912463
0.09720404 -0.054221645 0.017555546 0.017876264 -0.056104578 0.11412414 0.08762518 0.051642165
-0.044041812 -0.17951198 -0.10035608 -0.050880328 -0.062597804 -0.10194407 -0.01802563 0.011316098
-0.076115444 0.009631937 -0.06286424 -0.020650277 0.053228997 0.018489797 -0.14087547 0.20557354
00000000: fac9 7fbd da05 033c 6348 d7bd a316 0f3e
00000010: 7317 4dbe 1c70 d93d 05f5 a3bd e9b0 2dbd
00000020: c3c5 febb 36d2 8cbd 52df 253d ddde e4bd
00000030: d896 06bd e74c d5bb 6d4e 57be a745 90bd
00000040: 3bf8 48be 9141 19be 9f85 f63b ce56 bebc
00000050: 1790 e13d 13ca 8cbd f33b 17bd 1aed d1bd
00000060: f0af 1cbe 568e 1bbe 39c3 26be 017b 0bbe
00000070: 5bfb dd3d 37f3 4a3d 070f 2dbc 7b96 59bd
00000080: f7ae 2a3d 5559 3abe c29f babd 6fdc 5fbd
00000090: f42d 583b a8bb 7f3c 424e a23a 241d f63d
000000a0: 07b5 33be 619d 1fbe 459b 4c3d d0d2 ba3d
000000b0: e419 8db9 916c 12be 3360 1cbc 4314 b6bd
000000c0: f6a5 1abe 380c aebd 13cc 12bd bdc3 febd
000000d0: 3748 2dbd 46ac 4ebe fc9e d6bd 5338 8ebd
000000e0: 1003 44bd 5b72 8c3d a2c4 1cbe 584c 9c3d
000000f0: 81a6 2f3d c154 2dba afa8 49bb eb54 2a3a
00000100: 96d6 353d 47de 413e bc3c a73b 01d1 debd
00000110: c1eb 483c 3db7 1ebc 98b7 463d 0a1e 4b3c
00000120: 982a 4dbd 6c29 f6bb fdc6 a13c b7d8 ed3b
00000130: 5e59 cabd 812c 3e3e ede9 c7bc 0b77 72bc
00000140: dc61 ce3d 231c 20bd 7e70 4dbd c65a a6bd
00000150: 241f a6bd 153f 3d3d c3e1 cf3d c0cb cabd
00000160: e142 63bd cfb8 f63c b8db ecbc b62d d7bd
00000170: 7337 663c 2c4c 483d dac6 153e cc42 91bd
00000180: 541f c93d e671 44be f5bf 013e 083f 09be
00000190: 0c8e 1c3d 59e1 e33d 0a5a fe3d f48a 1ebc
000001a0: 5856 2d3e 3767 813c 050e 70be ac66 c4bc
000001b0: ef45 2ebd 72d8 88bd a2d2 a6bd a66f 5bbd
000001c0: 82bc e83c 6e56 51bd d497 8fbd 0a23 9abd
000001d0: 479e a5bd 50ce e7bb 1ece 81bd 7ad8 ebbb
000001e0: 37b0 933d b893 e2bd a4bb 95bd cc33 29bc
000001f0: d5f4 17be 66c9 4bbc 54ca 63bd 5259 03bd
00000200: 5af1 bcbc 9804 bfbd 5ecc 853d eafb 303e
00000210: ae6b 2f3e 8375 4f3d b79a e8bd bc73 1f3c
00000220: 3eeb febc 97ac a13c db6c 323d a85a 9f3d
00000230: db74 673c 6c90 61bd ebba 063d 43f9 4abd
00000240: 769f 3cbe 26b8 203d a5c2 843d 5f8e dcbd
00000250: 3c86 363d 0d6e 6abe ad00 1a3e e66a fe3d
00000260: 2aff c83c edeb ad3d 592d 303d c3ea 673d
00000270: 0e3e b2bd 2fe0 a0bd 5ea2 33bd 0785 46bd
00000280: bc1e 403e 7367 923d 7dd8 acbb 7f1e bcbd
00000290: 3632 863d 0533 5cbd cafd 5a3d 4d8d 0bbe
000002a0: d336 3b3d 3106 313d 996e 85bd ef98 b73a
000002b0: 495e 6b3e d1ad 82bd d08b 563d 6ca2 1b3e
000002c0: c18d e5bd e784 91bd bf41 80bd 6db7 6b3d
000002d0: 0be5 39bd 0ec9 4abe 82f9 6fbc 4a58 493d
000002e0: 4249 3f3d ca43 dc3d b47c 113e e5a7 77bc
000002f0: 59d7 e0bd 1720 ca3d fc36 e63d 20dc 9d3a
00000300: dd14 b13d c199 3fbc 19bb b1bb 829b 753d
00000310: 3916 4cbd 6cc7 b2bd d149 3abe 4db5 b23d
00000320: a924 c93d c315 013e 2251 65bd 156c b7bc
00000330: d37e b5b9 ba8e 04be 0551 72bd 2472 be3d
00000340: 315c e2bd 8a8a 533d 8d52 00bd 3a5b a83d
00000350: fb78 1bbd be20 37be 6d01 4abd 6ffc 573d
00000360: edab 2dbe 6127 78bd 4b07 9f3d 1d58 a33d
00000370: 0624 cebd e8d4 9ebc 6c4b 98bd d876 e3bd
00000380: b6a1 9abd 6dd3 0d3e decc b9bd fd87 663d
00000390: ab79 fa3c f8e2 58be de6a 5fbc 19f1 633c
000003a0: e912 c73d 8417 5ebd a6d0 8f3c 3e71 923c
000003b0: eacd 65bd ebb9 e93d d574 b33d bc86 533d
000003c0: 3065 34bd fdd1 37be 7d87 cdbd e467 50bd
000003d0: 4733 80bd 0dc8 d0bd 7caa 93bc 2867 393c
000003e0: 6ae2 9bbd 46cf 1d3c f7be 80bd c52a a9bc
000003f0: a606 5a3d ea77 973c a941 10be df81 523e

network_body._body_endoder.seq_layers.2.bias f4 [128]
0.0 0.0 0.0 0.0 0.0 0.0 0.0 0.0
0.0 0.0 0.0 0.0 0.0 0.0 0.0 0.0
0.0 0.0 0.0 0.0 0.0 0.0 0.0 0.0
0.0 0.0 0.0 0.0 0.0 0.0 0.0 0.0
0.0 0.0 0.0 0.0 0.0 0.0 0.0 0.0
0.0 0.0 0.0 0.0 0.0 0.0 0.0 0.0
0.0 0.0 0.0 0.0 0.0 0.0 0.0 0.0
0.0 0.0 0.0 0.0 0.0 0.0 0.0 0.0
0.0 0.0 0.0 0.0 0.0 0.0 0.0 0.0
0.0 0.0 0.0 0.0 0.0 0.0 0.0 0.0
0.0 0.0 0.0 0.0 0.0 0.0 0.0 0.0
0.0 0.0 0.0 0.0 0.0 0.0 0.0 0.0
0.0 0.0 0.0 0.0 0.0 0.0 0.0 0.0
0.0 0.0 0.0 0.0 0.0 0.0 0.0 0.0
0.0 0.0 0.0 0.0 0.0 0.0 0.0 0.0
0.0 0.0 0.0 0.0 0.0 0.0 0.0 0.0
00000000: 0000 0000 0000 0000 0000 0000 0000 0000
00000010: 0000 0000 0000 0000 0000 0000 0000 0000
00000020: 0000 0000 0000 0000 0000 0000 0000 0000
00000030: 0000 0000 0000 0000 0000 0000 0000 0000
00000040: 0000 0000 0000 0000 0000 0000 0000 0000
00000050: 0000 0000 0000 0000 0000 0000 0000 0000
00000060: 0000 0000 0000 0000 0000 0000 0000 0000
00000070: 0000 0000 0000 0000 0000 0000 0000 0000
00000080: 0000 0000 0000 0000 0000 0000 0000 0000
00000090: 0000 0000 0000 0000 0000 0000 0000 0000
000000a0: 0000 0000 0000 0000 0000 0000 0000 0000
000000b0: 0000 0000 0000 0000 0000 0000 0000 0000
000000c0: 0000 0000 0000 0000 0000 0000 0000 0000
000000d0: 0000 0000 0000 0000 0000 0000 0000 0000
000000e0: 0000 0000 0000 0000 0000 0000 0000 0000
000000f0: 0000 0000 0000 0000 0000 0000 0000 0000
00000100: 0000 0000 0000 0000 0000 0000 0000 0000
00000110: 0000 0000 0000 0000 0000 0000 0000 0000
00000120: 0000 0000 0000 0000 0000 0000 0000 0000
00000130: 0000 0000 0000 0000 0000 0000 0000 0000
00000140: 0000 0000 0000 0000 0000 0000 0000 0000
00000150: 0000 0000 0000 0000 0000 0000 0000 0000
00000160: 0000 0000 0000 0000 0000 0000 0000 0000
00000170: 0000 0000 0000 0000 0000 0000 0000 0000
00000180: 0000 0000 0000 0000 0000 0000 0000 0000
00000190: 0000 0000 0000 0000 0000 0000 0000 0000
000001a0: 0000 0000 0000 0000 0000 0000 0000 0000
000001b0: 0000 0000 0000 0000 0000 0000 0000 0000
000001c0: 0000 0000 0000 0000 0000 0000 0000 0000
000001d0: 0000 0000 0000 0000 0000 0000 0000 0000
000001e0: 0000 0000 0000 0000 0000 0000 0000 0000
000001f0: 0000 0000 0000 0000 0000 0000 0000 0000

action_model._discrete_distribution.branches.0.weight f4 [4, 128]
0.00691446 -0.00019619729 -0.0039682407 0.007325392 -0.0129731065 0.0073492564 -0.0086487075 -0.014866001
-0.025106782 -0.008688136 -0.0039244615 -0.0029324729 0.008889376 0.0010354106 -0.0029841845 0.0027464726
-0.017487084 0.002867307 -0.0027571004 -0.008031447 0.004681503 -0.020412307 -0.012235964 -0.0005724311
-0.0011713369 -0.012626964 -0.007846176 0.0009960079 -0.0022776423 -0.005290609 0.0015164312 0.007591523
-0.011661009 0.0041782004 -0.0110134985 0.011171387 0.0030895039 0.0047894428 -0.00093484804 -0.010598434
0.006240974 0.0074300044 0.007055445 0.0060434653 -0.0013918899 -0.010610449 0.014266702 -0.00015795341
-0.014276713 -0.0063404166 0.0001846343 -0.0013442372 0.0115646 0.016402042 -0.0039279824 -0.002910287
0.00036422638 -0.017534306 0.011614109 -0.0051704147 -0.010586513 -0.012182155 -0.009705793 -0.00018418615
0.002664101 -0.0016217673 -0.0011371811 0.0003495715 -0.010763814 0.0047736675 -0.0006327773 -0.0042333775
0.0040631574 -0.0016115773 -0.008122341 -0.02005655 0.002447428 0.016713066 0.010285652 -0.008726601
0.0048838076 -0.0042524105 -0.0028010726 0.0007969068 0.0047131306 -0.0020507225 0.009345656 -0.009123022
0.00042144323 -0.013839384 -0.0024616772 0.010098128 0.0006597664 0.015651427 0.010509686 0.010609699
-0.0060185995 0.0048000063 -0.008460396 -0.0011058868 -0.016450115 -0.0039280807 -0.0010619796 0.006723719
-0.0033570311 0.006568111 0.0071939626 -0.010499122 -0.0012828698 0.012178466 -0.0117658805 -0.0010523382
0.0009389491 0.0008919743 -0.022891784 0.012598239 0.008585808 -0.00064869586 0.006779071 -0.005942733
0.00015045144 -0.014125335 -0.0062025664 0.0010581046 0.0018947771 0.0015545551 -0.013859502 0.0017372285
-0.0011421641 -0.0033641618 -0.0022990778 -0.0045014056 -0.0072994977 -0.00073920423 0.0074766143 0.0039100326
-0.0032820203 0.0077431942 -0.010845186 -0.005120344 0.014159023 -0.0067804493 -0.0010666505 -0.013466815
0.007049753 0.004632672 0.008722084 -0.0020186303 0.013855778 0.0025852239 -0.0023681868 -0.0061818655
0.014064995 -0.0019781326 0.01831421 -0.0012121374 0.015194595 -0.0038205057 -0.022792133 -0.006496768
-0.0056785094 -0.0089261765 -0.0020414458 -0.0028458866 0.00040467377 -0.00022532155 0.0019011846 -0.009600498
-0.004200447 0.003034416 0.0010368457 0.0044296524 0.0043570874 -0.0019200052 -0.0100162765 -0.004482898
0.004824349 -0.004382111 0.0037590691 -0.008396677 0.0033648887 0.0039867642 0.003465987 0.011621252
0.003730566 0.0043622204 0.00089357106 -0.00438094 0.0031804391 -0.0044230614 -0.008490353 0.0023240733
-0.0014998264 0.01361791 0.006675531 -0.0003705004 0.008716056 0.00415162 0.0075594033 0.0050171516
0.00046881774 -0.00022998382 -0.016632957 0.0016428654 -0.00048918254 0.012881413 0.010025484 0.018965084
0.0079401275 0.013348455 -0.0043506394 0.0005825159 -0.0067369053 -0.00065942743 -1.757999e-05 0.00059989595
-0.009181062 4.4923047e-05 0.008386914 0.0017727263 0.009950879 -0.014595635 -0.018355105 0.01226808
-0.0029307092 0.008665281 -0.007146183 -0.010613093 0.018242223 -0.0038594566 0.003948362 -0.01123825
0.00834166 0.009911166 0.007801061 0.007462032 0.014233695 -0.004204673 0.0050694006 0.011543672
0.0029582481 -0.008996867 0.007850267 -0.008908756 -0.008669685 -0.017495805 -0.002058328 0.0009917248
-0.010932796 -0.01043937 0.0016690091 -0.009267913 0.0067292177 -0.0023472896 0.00916167 -0.005706884
00000000: b292 e23b 4fba 4db9 0408 82bb d809 f03b
00000010: 278d 54bc 08d2 f03b 4fb3 0dbc 8790 73bc
00000020: bdac cdbc af58 0ebc c598 80bb bb2e 40bb
00000030: bfa4 113c 9db6 873a 4f92 43bb 2afe 333b
00000040: 1341 8fbc 6ee9 3b3b 78b0 34bb 5596 03bc
00000050: 4b67 993b b637 a7bc 5a79 48bc 330f 16ba
00000060: 8b87 99ba 53e1 4ebc 3f8d 00bc 7b8c 823a
00000070: 7f44 15bb d85c adbb fdc2 c63a 50c2 f83b
00000080: d10d 3fbc 49e9 883b f671 34bc 3108 373c
00000090: 4679 4a3b c2f0 9c3b 9710 75ba 0ea5 2dbc
000000a0: 1681 cc3b 6577 f33b 5d31 e73b 4308 c63b
000000b0: 1370 b6ba 73d7 2dbc e3be 693c 4ca0 25b9
000000c0: e0e8 69bc 45c3 cfbb 649a 4139 1e31 b0ba
000000d0: 7379 3d3c 935d 863c 4eb6 80bb 83ba 3ebb
000000e0: a3f5 be39 1ba4 8fbc 1b49 3e3c 956c a9bb
000000f0: 0e73 2dbc a997 47bc 0c05 1fbc 1822 41b9
00000100: 3398 2e3b 7b91 d4ba 770d 95ba b146 b739
00000110: b55a 30bc 6d6c 9c3b f7e0 25ba 25b8 8abb
00000120: 3c24 853b 903b d3ba 9113 05bc a24d a4bc
00000130: 0765 203b d7e9 883c 2785 283c 04fa 0ebc
00000140: 5908 a03b ce57 8bbb 3392 37bb 83e7 503a
00000150: 9b70 9a3b 6a65 06bb 861e 193c ba78 15bc
00000160: 27f5 dc39 95be 62bc 1754 21bb 9e72 253c
00000170: 2cf4 2c3a 6c37 803c d130 2c3c 4ed4 2d3c
00000180: ac37 c5bb 5f49 9d3b 799d 0abc 67f3 90ba
00000190: 64c2 86bc 21b7 80bb 1f32 8bba a552 dc3b
000001a0: a301 5cbb 4f39 d73b 55bb eb3b 8204 2cbc
000001b0: f825 a8ba 3088 473c aec5 40bc 9cee 89ba
000001c0: cf23 763a 62d3 693a 8d87 bbbc d868 4e3c
000001d0: 7dab 0c3c 3e0d 2aba f822 de3b 42bb c2bb
000001e0: 80c2 1d39 f36d 67bc e63e cbbb 19b0 8a3a
000001f0: 2b5a f83a 37c2 cb3a f712 63bc b7b3 e33a
00000200: abb4 95ba 4579 5cbb 20ac 16bb 8780 93bb
00000210: a030 efbb 28c7 41ba 63fe f43b bb1f 803b
00000220: 2a17 57bb 9fba fd3b 02b0 31bc 8fc8 a7bb
00000230: 3ffb 673c 882e debb dace 8bba eba3 5cbc
00000240: 9d01 e73b abcd 973b 12e7 0e3c ff4a 04bb
00000250: 5803 633c dc6c 293b 9533 1bbb 3f91 cabb
00000260: dd70 663c 8fa3 01bb af07 963c 95e0 9eba
00000270: c0f2 783c 7361 7abb 91b6 babc d7e2 d4bb
00000280: ca12 babb 193f 12bc c7c9 05bb 0e82 3abb
00000290: 652a d439 4b44 6cb9 2b31 f93a 684b 1dbc
000002a0: e7a3 89bb 0ddd 463b c5e6 873a 9e26 913b
000002b0: e6c5 8e3b afa8 fbba 4f1b 24bc 46e5 92bb
000002c0: 9315 9e3b d097 8fbb b75a 763b 3792 09bc
000002d0: 7785 5c3b 67a3 823b 9d25 633b 1067 3e3c
000002e0: 837c 743b f5f0 8e3b 8a3e 6a3a fd8d 8fbb
000002f0: ea6e 503b 54ef 90bb 1f1b 0bbc 7b4f 183b
00000300: d395 c4ba a81d 5f3c 6abe da3b b93f c2b9
00000310: cacd 0e3c 500a 883b dfb4 f73b eb66 a43b
00000320: a7cb f539 d027 71b9 d741 88bc 6a55 d73a
00000330: 7c3c 00ba 900c 533c ed41 243c aa5c 9b3c
00000340: 4f17 023c 7ab3 5a3c cf8f 8ebb fbb3 183a
00000350: 42c1 dcbb 6ddd 2cba be78 93b7 5642 1d3a
00000360: 2a6c 16bc c16b 3c38 4469 093c d35a e83a
00000370: 0309 233c 8822 6fbc 725d 96bc 0f00 493c
00000380: 2411 40bb d3f8 0d3c 872a eabb 8ae2 2dbc
00000390: b770 953c f0ee 7cbb 4361 813b a320 38bc
000003a0: 75ab 083c 7162 223c 0ba0 ff3b 1084 f43b
000003b0: 7234 693c 5bc7 89bb 371d a63b ab21 3d3c
000003c0: 2bdf 413b 9867 13bc 689e 003c 08f6 11bc
000003d0: 4b0b 0ebc 5d53 8fbc 03e5 06bb c3fc 813a
000003e0: 781f 33bc e409 2bbc a7c2 da3a 72d8 17bc
000003f0: c580 dc3b fcd4 19bb d41a 163c d000 bbbb

action_model._discrete_distribution.branches.0.bias f4 [4]
0.0 0.0 0.0 0.0
00000000: 0000 0000 0000 0000 0000 0000 0000 0000

network_body._body_endoder.seq_layers.0.weight f4 [128, 9]
-0.1140471 -0.07261782 0.38296503 0.1521235 -0.5923387 0.17130053 -0.6105512 -0.5207859
0.23156498 -0.10260323 -0.5539815 -0.74731565 0.25333774 -0.116632104 -0.06043356 -0.52704155
-0.31743228 0.06808946 -0.27453217 0.030202128 -0.06608536 0.21269801 -0.0562445 0.43284488
-0.3049483 -0.13145095 -0.38977075 -0.16692263 -0.22739255 0.27594215 0.10293254 0.44350433
0.049673103 0.108025454 0.22524111 -0.058190487 0.031420436 -0.27739787 0.2900712 -0.32404834
0.076855995 -0.061385866 -0.4376667 0.4328117 -0.049815387 -0.44288474 0.20529161 0.19914928
-0.6632549 0.22258732 -0.33482218 0.13803798 0.35671467 -0.14531472 -0.14658153 0.5471206
0.21760362 0.39111802 0.5900825 -0.07417398 0.21314698 -0.06261222 0.5989157 0.29496884
-0.07429242 0.22526126 0.22381914 0.041019008 -0.020187084 0.083157144 0.5343081 0.22001004
0.39489818 -0.64924634 -0.1297358 -0.095504895 0.13554035 0.021264639 0.130372 0.072140306
-0.11717743 0.0063720434 0.21334612 -0.24018055 -0.18534893 0.43056715 0.19862351 0.15379551
0.41666377 -0.12938452 -0.6293949 -0.13504732 0.11072211 -0.32170314 0.43944523 0.028088078
-0.64300776 0.58064157 0.29584205 0.37692887 -0.2662787 0.32488352 0.079060614 0.026345156
0.38846004 0.18843463 -0.5654413 -0.12807775 0.20999703 -0.495647 -0.22235665 0.13750228
-0.14779708 0.0339702 0.083907776 -0.19232947 -0.05970865 0.09007278 0.15391758 0.26017812
0.23909357 -0.035529174 -0.30032972 0.064811945 0.0633521 -0.1633889 -0.09533014 0.04715581
0.37398642 0.31615883 1.1491457 0.38179585 -0.05458237 -0.013720195 0.6029387 0.7697345
-0.77584755 0.41921192 -0.06955606 -0.40715358 -0.31735975 0.38185093 0.42822897 -0.14670533
-0.18013075 -0.57453597 0.5127514 -0.48162138 -0.11710082 -0.23891518 -0.23862766 0.20794302
0.07680683 0.111124635 0.11022301 -0.47243845 -0.29822075 0.11631462 0.03908965 -0.45682043
0.3531098 -0.18389353 0.20552622 -0.3462089 0.72946084 0.34297687 0.6559719 -0.05290101
-0.3072883 -0.0060140323 -0.27451828 -0.031441092 0.5160912 -0.09763487 -0.007026295 0.3216713
-0.29580343 0.33279932 0.06121818 0.02575907 -0.16639942 0.40229747 0.35898334 -0.44589597
0.09992015 0.6113993 -0.5144861 -0.2995671 0.06738721 -0.32611412 0.063157335 -0.37875497
0.26655397 -0.07660397 -0.16192639 -0.0003653001 -0.041951623 -0.24078411 -0.026908051 -0.14506009
0.012086863 -0.015504385 0.08062969 -0.46191454 -0.14619431 -0.31631893 -0.16922581 0.13015355
-0.2655874 -0.08168821 0.32015666 -0.25361088 0.11391019 -0.13703227 -0.2339217 -0.51337016
0.19968933 -0.034894794 0.5067772 0.10713556 0.09060094 0.11267015 0.4025719 0.088099
-0.52150834 0.22498822 0.11586842 -0.33670717 0.38602048 0.3398243 0.33087766 -0.052393343
-0.13651901 0.47891623 -0.39102226 -0.26675287 -0.23057818 -0.47930726 0.1164349 0.68629575
0.13491423 -0.15221037 0.21464133 -0.35645616 -0.1499851 0.07818008 0.099433474 0.56303847
0.6659597 -0.018064748 -0.073537216 -0.40360737 -0.13380475 0.11976858 -0.07871425 0.42066678
00000000: 8791 e9bd a7b8 94bd fe13 c43e 43c6 1b3e
00000010: 82a3 17bf 6869 2f3e 154d 1cbf 3a52 05bf
00000020: 5f1f 6d3e a421 d2bd bbd1 0dbf 1450 3fbf
00000030: 7cb5 813e d0dc eebd 2e89 77bd 32ec 06bf
00000040: 7c86 a2be 7d72 8b3d 7b8f 8cbe 746a f73c
00000050: c357 87bd 82cd 593e a260 66bd d89d dd3e
00000060: 2f22 9cbe 149b 06be 0890 c7be c4ed 2abe
00000070: 98d9 68be 4a48 8d3e 4cce d23d 0013 e33e
00000080: 0676 4b3d 733c dd3d 9ba5 663e 2659 6ebd
00000090: b7b2 003d 1807 8ebe 3684 943e aae9 a5be
000000a0: ad66 9d3d bf6f 7bbd da15 e0be 7f99 dd3e
000000b0: 380b 4cbd cac1 e2be f737 523e caed 4b3e
000000c0: 13cb 29bf eeed 633e d06d abbe d459 0d3e
000000d0: 4ea3 b63e 62cd 14be 7819 16be 1810 0c3f
000000e0: 7cd3 5e3e 9f40 c83e a60f 173f 87e8 97bd
000000f0: 3443 5a3e d63a 80bd 8a52 193f 2806 973e
00000100: a026 98bd e3aa 663e d830 653e 8c03 283d
00000110: 625f a5bc 4b4e aa3d 6ac8 083f 504a 613e
00000120: 1830 ca3e 0235 26bf 76d9 04be 1298 c3bd
00000130: 17cb 0a3e 2e33 ae3c 3d80 053e 4cbe 933d
00000140: b8fa efbd 93cc d03b 6877 5a3e e4f1 75be
00000150: 1ccc 3dbe 4c73 dc3e f663 4b3e 927c 1d3e
00000160: f454 d53e 607d 04be 0620 21bf d849 0abe
00000170: 46c2 e23d 46b6 a4be f7fe e03e f818 e63c
00000180: 289c 24bf eda4 143f 9c78 973e d2fc c03e
00000190: af55 88be 2257 a63e 88ea a13d ccd1 d73c
000001a0: 3ce4 c63e 02f5 403e c3c0 10bf d026 03be
000001b0: 7609 573e 72c5 fdbe 76b1 63be 66cd 0c3e
000001c0: 1e58 17be 5624 0b3d d7d7 ab3d 04f2 44be
000001d0: 0f91 74bd 1478 b83d 929c 1d3e 1136 853e
000001e0: f2d4 743e 0a87 11bd d1c4 99be 20bc 843d
000001f0: bfbe 813d 6b4f 27be 733c c3bd 7326 413d
00000200: 267b bf3e 92df a13e 3517 933f bf7a c33e
00000210: c391 5fbd abca 60bc 315a 1a3f 520d 453f
00000220: f29d 46bf f2a2 d63e 6873 8ebd 6f76 d0be
00000230: fa7c a2be f781 c33e d440 db3e ec39 16be
00000240: 3274 38be ca14 13bf ad43 033f 1497 f6be
00000250: 8ed2 efbd 2ea6 74be cf5a 74be 04ef 543e
00000260: e64c 9d3d 5095 e33d 9abc e13d 74e3 f1be
00000270: 64b0 98be 5c36 ee3d 781c 203d 5ee4 e9be
00000280: cfca b43e 964e 3cbe 7775 523e 4b42 b1be
00000290: f2bd 3a3f aa9a af3e c6ed 273f bbae 58bd
000002a0: e454 9dbe 5c11 c5bb a98d 8cbe 60c8 00bd
000002b0: 8e1e 043f caf4 c7bd d63c e6bb 1ab2 a43e
000002c0: 8c73 97be ac64 aa3e eabf 7a3d af04 d33c
000002d0: 9c64 2abe eff9 cd3e aacc b73e 7a4c e4be
000002e0: f0a2 cc3d aa84 1c3f 5cb5 03bf dc60 99be
000002f0: 4e02 8a3d 6ef8 a6be a258 813d 2cec c1be
00000300: c379 883e 8be2 9cbd 08d0 25be c085 bfb9
00000310: 77d5 2bbd 1c90 76be 466e dcbc a28a 14be
00000320: fa07 463c 1b06 7ebc 2e21 a53d 1080 ecbe
00000330: f6b3 15be 8ef4 a1be 8849 2dbe f946 053e
00000340: 12fb 87be 264c a7bd 93eb a33e 49d9 81be
00000350: bf49 e93d 3052 0cbe 2c89 6fbe 3a6c 03bf
00000360: 5c7b 4c3e d8ed 0ebd 27bc 013f e369 db3d
00000370: fc8c b93d 9cbf e63d e71d ce3e 406d b43d
00000380: 9281 05bf 5063 663e 6c4c ed3d e264 acbe
00000390: 7aa4 c53e 73fd ad3e cc68 a93e 679a 56bd
000003a0: a4cb 0bbe 8234 f53e 1234 c8be d593 88be
000003b0: b01c 6cbe c367 f5be 6c75 ee3d 14b1 2f3f
000003c0: f526 0a3e 09dd 1bbe f0ca 5b3e 6c81 b6be
000003d0: b295 19be e11c a03d c7a3 cb3d 4a23 103f
000003e0: 567c 2a3f 86fc 93bc ae9a 96bd a0a5 cebe
000003f0: 1d04 09be 3b49 f53d f034 a1bd a361 d73e

network_body._body_endoder.seq_layers.0.bias f4 [128]
0.0 0.0 0.0 0.0 0.0 0.0 0.0 0.0
0.0 0.0 0.0 0.0 0.0 0.0 0.0 0.0
0.0 0.0 0.0 0.0 0.0 0.0 0.0 0.0
0.0 0.0 0.0 0.0 0.0 0.0 0.0 0.0
0.0 0.0 0.0 0.0 0.0 0.0 0.0 0.0
0.0 0.0 0.0 0.0 0.0 0.0 0.0 0.0
0.0 0.0 0.0 0.0 0.0 0.0 0.0 0.0
0.0 0.0 0.0 0.0 0.0 0.0 0.0 0.0
0.0 0.0 0.0 0.0 0.0 0.0 0.0 0.0
0.0 0.0 0.0 0.0 0.0 0.0 0.0 0.0
0.0 0.0 0.0 0.0 0.0 0.0 0.0 0.0
0.0 0.0 0.0 0.0 0.0 0.0 0.0 0.0
0.0 0.0 0.0 0.0 0.0 0.0 0.0 0.0
0.0 0.0 0.0 0.0 0.0 0.0 0.0 0.0
0.0 0.0 0.0 0.0 0.0 0.0 0.0 0.0
0.0 0.0 0.0 0.0 0.0 0.0 0.0 0.0
00000000: 0000 0000 0000 0000 0000 0000 0000 0000
00000010: 0000 0000 0000 0000 0000 0000 0000 0000
00000020: 0000 0000 0000 0000 0000 0000 0000 0000
00000030: 0000 0000 0000 0000 0000 0000 0000 0000
00000040: 0000 0000 0000 0000 0000 0000 0000 0000
00000050: 0000 0000 0000 0000 0000 0000 0000 0000
00000060: 0000 0000 0000 0000 0000 0000 0000 0000
00000070: 0000 0000 0000 0000 0000 0000 0000 0000
00000080: 0000 0000 0000 0000 0000 0000 0000 0000
00000090: 0000 0000 0000 0000 0000 0000 0000 0000
000000a0: 0000 0000 0000 0000 0000 0000 0000 0000
000000b0: 0000 0000 0000 0000 0000 0000 0000 0000
000000c0: 0000 0000 0000 0000 0000 0000 0000 0000
000000d0: 0000 0000 0000 0000 0000 0000 0000 0000
000000e0: 0000 0000 0000 0000 0000 0000 0000 0000
000000f0: 0000 0000 0000 0000 0000 0000 0000 0000
00000100: 0000 0000 0000 0000 0000 0000 0000 0000
00000110: 0000 0000 0000 0000 0000 0000 0000 0000
00000120: 0000 0000 0000 0000 0000 0000 0000 0000
00000130: 0000 0000 0000 0000 0000 0000 0000 0000
00000140: 0000 0000 0000 0000 0000 0000 0000 0000
00000150: 0000 0000 0000 0000 0000 0000 0000 0000
00000160: 0000 0000 0000 0000 0000 0000 0000 0000
00000170: 0000 0000 0000 0000 0000 0000 0000 0000
00000180: 0000 0000 0000 0000 0000 0000 0000 0000
00000190: 0000 0000 0000 0000 0000 0000 0000 0000
000001a0: 0000 0000 0000 0000 0000 0000 0000 0000
000001b0: 0000 0000 0000 0000 0000 0000 0000 0000
000001c0: 0000 0000 0000 0000 0000 0000 0000 0000
000001d0: 0000 0000 0000 0000 0000 0000 0000 0000
000001e0: 0000 0000 0000 0000 0000 0000 0000 0000
000001f0: 0000 0000 0000 0000 0000 0000 0000 0000

network_body._body_endoder.seq_layers.2.weight f4 [128, 128]
-0.19192888 -0.015680198 0.007979994 0.053816713 0.049106404 -0.04111337 -0.094743416 -0.13052948
0.0414289 0.06845123 -0.020975994 0.060581643 0.036857396 0.045889888 -0.007442888 -0.016013881
0.049913373 0.04599868 0.02404317 -0.017160144 -0.00021197287 0.12152904 0.00038693563 0.038075432
0.21322834 0.1296855 -0.09183592 0.05356092 -0.16889514 0.032998268 0.10211946 -0.057243817
-0.002988034 -0.013475864 0.0118195405 0.13257907 -0.05905657 0.057336304 0.032615937 0.015128563
-0.13980217 -0.10221019 -0.12373306 -0.07533322 0.010839889 -0.0163483 0.13673365 0.016567426
0.032794323 0.082083635 0.11681191 0.105552115 0.11977128 0.0680365 0.057365432 0.03094558
0.046981897 -0.04610531 0.06803291 -0.14480935 0.04161712 -0.11590843 0.04674887 0.33121127
0.06259438 0.09471228 -0.08889375 0.08031043 0.0650728 -0.10168101 0.0058057946 -0.02443749
-0.0040746117 -0.06589983 -0.015971513 -0.0006653882 0.01617717 0.023794087 -0.053763267 0.07070575
0.06382886 0.14903548 -0.02265072 0.043336444 0.013131409 -0.12703663 0.09636867 0.00083045225
0.14707285 -0.14356656 0.058708616 -0.02657534 0.042458735 -0.0033293066 -0.04672106 -0.06320978
-0.10262376 0.058607187 -0.046452675 0.008432395 0.08153651 0.12166337 0.08036796 0.08926077
-0.02777644 0.059076834 -0.09625577 -0.018857807 -0.024262823 -0.1261001 0.063897505 -0.052879564
0.037221916 0.02567577 -0.076523796 0.035787504 -0.06380775 -0.054594472 -0.22601515 -0.007660915
-0.15676466 -0.042542834 0.004653292 0.08915347 0.00942655 -0.0061662346 0.036722805 0.19701181
0.13781804 -0.00048100683 0.02990075 -0.02671347 0.02947249 -0.01899472 -0.008638362 -0.079662606
-0.06658827 -0.02221423 0.088497125 0.19555493 0.05200327 0.090889215 -0.080249414 -0.0026672964
0.08669404 0.09802722 -0.076630406 0.17368689 -0.019532638 0.017540487 -0.23564526 0.09007324
-0.04197076 0.026894536 -0.029084317 -0.051196594 0.053536847 0.10786017 -0.13324182 -0.03641072
0.017821109 0.08480355 0.00253158 0.02804642 -0.027241979 -0.044815592 0.15469383 0.08523152
-0.06455335 0.18766828 -0.041691206 0.05920522 -0.030403888 0.1352297 -0.08810888 -0.027955819
0.0511647 0.040640257 -0.0333718 -0.019003158 0.108362004 0.26594365 -0.02688827 -0.1222826
-0.029277844 0.014449361 -0.06569769 0.109845296 0.059529837 -0.040329922 0.0041678976 -0.04138659
-0.046156906 0.0638538 -0.13284934 -0.08461607 0.023914387 -0.091956906 0.17209645 0.11746081
0.02709147 -0.0093485685 0.1159583 0.077655934 0.041072547 0.06147342 0.055261154 -0.05540751
0.0076891924 0.11462431 -0.116821684 -0.039520763 -0.09048494 -0.10782819 0.0568085 0.12807211
-0.039453484 0.004593371 -0.019701976 0.016781965 0.016998852 0.036887936 0.090240605 -0.040488288
0.024044061 0.062723234 0.06978527 0.05222006 -0.014771412 0.03572653 -0.12750861 0.014686646
0.07692372 -0.041875903 0.045216046 -0.05065547 0.002101502 -0.017907346 0.028914642 -0.05639754
-0.03525373 0.07456468 0.08886584 0.02325583 0.1403513 -0.032426495 -0.012696138 0.09418584
-0.10462442 0.22074205 0.0021575203 -0.098346055 -0.11417622 0.008006961 0.08221682 0.116269715
00000000: 0189 44be c273 80bc 85be 023c ea6e 5c3d
00000010: cc23 493d 7e66 28bd d608 c2bd 85a9 05be
00000020: 5ab1 293d 2930 8c3d d9d5 abbc 7524 783d
00000030: c8f7 163d 09f7 3b3d 78e3 f3bb 8b2f 83bc
00000040: f771 4c3d 1d69 3c3d 2ff6 c43c 6e93 8cbc
00000050: 0945 5eb9 38e4 f83d 9fdd ca39 fcf4 1b3d
00000060: 8858 5a3e 47cc 043e 7914 bcbd b262 5b3d
00000070: d9f2 2cbe 3129 073d 0224 d13d 7e78 6abd
00000080: e4d2 43bb dfc9 5cbc bfa6 413c cfc2 073e
00000090: 4de5 71bd 79d9 6a3d 4a98 053d cbdd 773c
000000a0: 4d28 0fbe 9353 d1bd c267 fdbd 4e48 9abd
000000b0: ca99 313c dfec 85bc e803 0c3e 69b8 873c
000000c0: 5753 063d 771b a83d 153b ef3d b52b d83d
000000d0: a54a f53d b856 8b3d 04f8 6a3d 9681 fd3c
000000e0: 1770 403d ecd8 3cbd d754 8b3d e748 14be
000000f0: b776 2a3d 6661 edbd be7b 3f3d 8694 a93e
00000100: 7b31 803d 83f8 c13d ed0d b6bd cb79 a43d
00000110: e344 853d 223e d0bd 893e be3b 2231 c8bc
00000120: 5284 85bb 7df6 86bd b1d6 82bc 726d 2eba
00000130: fc85 843c d1eb c23c df36 5cbd 2dce 903d
00000140: b5b8 823d c29c 183e 018e b9bc 8e81 313d
00000150: 1f25 573c e415 02be f05c c53d b5b2 593a
00000160: 449a 163e 1d03 13be 7278 703d 87b4 d9bc
00000170: 36e9 2d3d 7f30 5abb 955e 3fbd 2174 81bd
00000180: 682c d2bd 170e 703d 2945 3ebd 0728 0a3c
00000190: 9dfc a63d a52a f93d f597 a43d 5ace b63d
000001a0: 6b8b e3bc 8dfa 713d bf21 c5bd b07b 9abc
000001b0: d4c2 c6bc 6220 01be b2dc 823d 3e98 58bd
000001c0: 0276 183d fe55 d23c 82b8 9cbd eb95 123d
000001d0: a3ad 82bd 749e 5fbd 8470 67be 6a08 fbbb
000001e0: ea86 20be 6541 2ebd a47a 983b 1896 b63d
000001f0: d171 1a3c 200e cabb a76a 163d 77bd 493e
00000200: 2c20 0d3e a52f fcb9 6bf2 f43c 35d6 dabc
00000210: 4b70 f13c d19a 9bbc eb87 0dbc 2626 a3bd
00000220: 6e5f 88bd 9efa b5bc fb3d b53d 8d3f 483e
00000230: 6101 553d 2024 ba3d ce59 a4bd cfcd 2ebb
00000240: a58c b13d 7fc2 c83d 67f0 9cbd fada 313e
00000250: e902 a0bc 11b1 8f3c fe4c 71be 5278 b83d
00000260: 88e9 2bbd ee51 dc3c 3c42 eebc 85b3 51bd
00000270: 7449 5b3d cbe5 dc3d 8b70 08be 6823 15bd
00000280: 93fd 913c 7cad ad3d dde8 253b 9bc1 e53c
00000290: 922a dfbc 8e90 37bd 0f68 1e3e dd8d ae3d
000002a0: 8c34 84bd 1d2c 403e 66c4 2abd 2c81 723d
000002b0: 9311 f9bc a879 0a3e 6e72 b4bd 9a03 e5bc
000002c0: 1492 513d 6676 263d deb0 08bd 83ac 9bbc
000002d0: e6ec dd3d c429 883e ca44 dcbc 4d6f fabd
000002e0: 17d8 efbc 03bd 6c3c 838c 86bd 92f6 e03d
000002f0: 8fd5 733d fd30 25bd dc92 883b fc84 29bd
00000300: 060f 3dbd c8c5 823d a809 08be 314b adbd
00000310: 1be8 c33c e753 bcbd 0d3a 303e 4b8f f03d
00000320: eeee dd3c bd2a 19bc 8c7b ed3d 130a 9f3d
00000330: b03b 283d 8ecb 7b3d 8559 623d fcf2 62bd
00000340: 9ff5 fb3b 26c0 ea3d 3540 efbd 86e0 21bd
00000350: 2b50 b9bd 07d5 dcbd 08b0 683d 5625 033e
00000360: fa99 21bd fd83 963b 0a66 a1bc 557a 893c
00000370: 2d41 8b3c ce17 173d 11d0 b83d 0cd7 25bd
00000380: 0df8 c43c 0a75 803d 94eb 8e3d b4e4 553d
00000390: cb03 72bc fb55 123d 9e91 02be 42a0 703c
000003a0: 2f8a 9d3d 1186 2bbd 7634 393d 1c7c 4fbd
000003b0: 5ab9 093b 6db2 92bc 66de ec3c 1b01 67bd
000003c0: 3766 10bd 5eb5 983d 4bff b53d 0383 be3c
000003d0: 40b8 0f3e a5d1 04bd 7603 50bc 81e4 c03d
000003e0: 5445 d6bd 340a 623e 2f65 0d3b a869 c9bd
000003f0: 39d5 e9bd a12f 033c 4b61 a83d d11e ee3d

network_body._body_endoder.seq_layers.2.bias f4 [128]
0.0 0.0 0.0 0.0 0.0 0.0 0.0 0.0
0.0 0.0 0.0 0.0 0.0 0.0 0.0 0.0
0.0 0.0 0.0 0.0 0.0 0.0 0.0 0.0
0.0 0.0 0.0 0.0 0.0 0.0 0.0 0.0
0.0 0.0 0.0 0.0 0.0 0.0 0.0 0.0
0.0 0.0 0.0 0.0 0.0 0.0 0.0 0.0
0.0 0.0 0.0 0.0 0.0 0.0 0.0 0.0
0.0 0.0 0.0 0.0 0.0 0.0 0.0 0.0
0.0 0.0 0.0 0.0 0.0 0.0 0.0 0.0
0.0 0.0 0.0 0.0 0.0 0.0 0.0 0.0
0.0 0.0 0.0 0.0 0.0 0.0 0.0 0.0
0.0 0.0 0.0 0.0 0.0 0.0 0.0 0.0
0.0 0.0 0.0 0.0 0.0 0.0 0.0 0.0
0.0 0.0 0.0 0.0 0.0 0.0 0.0 0.0
0.0 0.0 0.0 0.0 0.0 0.0 0.0 0.0
0.0 0.0 0.0 0.0 0.0 0.0 0.0 0.0
00000000: 0000 0000 0000 0000 0000 0000 0000 0000
00000010: 0000 0000 0000 0000 0000 0000 0000 0000
00000020: 0000 0000 0000 0000 0000 0000 0000 0000
00000030: 0000 0000 0000 0000 0000 0000 0000 0000
00000040: 0000 0000 0000 0000 0000 0000 0000 0000
00000050: 0000 0000 0000 0000 0000 0000 0000 0000
00000060: 0000 0000 0000 0000 0000 0000 0000 0000
00000070: 0000 0000 0000 0000 0000 0000 0000 0000
00000080: 0000 0000 0000 0000 0000 0000 0000 0000
00000090: 0000 0000 0000 0000 0000 0000 0000 0000
000000a0: 0000 0000 0000 0000 0000 0000 0000 0000
000000b0: 0000 0000 0000 0000 0000 0000 0000 0000
000000c0: 0000 0000 0000 0000 0000 0000 0000 0000
000000d0: 0000 0000 0000 0000 0000 0000 0000 0000
000000e0: 0000 0000 0000 0000 0000 0000 0000 0000
000000f0: 0000 0000 0000 0000 0000 0000 0000 0000
00000100: 0000 0000 0000 0000 0000 0000 0000 0000
00000110: 0000 0000 0000 0000 0000 0000 0000 0000
00000120: 0000 0000 0000 0000 0000 0000 0000 0000
00000130: 0000 0000 0000 0000 0000 0000 0000 0000
00000140: 0000 0000 0000 0000 0000 0000 0000 0000
00000150: 0000 0000 0000 0000 0000 0000 0000 0000
00000160: 0000 0000 0000 0000 0000 0000 0000 0000
00000170: 0000 0000 0000 0000 0000 0000 0000 0000
00000180: 0000 0000 0000 0000 0000 0000 0000 0000
00000190: 0000 0000 0000 0000 0000 0000 0000 0000
000001a0: 0000 0000 0000 0000 0000 0000 0000 0000
000001b0: 0000 0000 0000 0000 0000 0000 0000 0000
000001c0: 0000 0000 0000 0000 0000 0000 0000 0000
000001d0: 0000 0000 0000 0000 0000 0000 0000 0000
000001e0: 0000 0000 0000 0000 0000 0000 0000 0000
000001f0: 0000 0000 0000 0000 0000 0000 0000 0000

value_heads.value_heads.extrinsic.weight f4 [1, 128]
-0.032788005 -0.06898333 -0.02121357 0.101389885 -0.036438037 -0.00421493 0.10395912 0.11703037
-0.18898565 0.08223594 -0.06425938 -0.16469331 -0.20148209 0.011567171 -0.061913893 0.02369447
0.085499816 -0.039928656 -0.1532435 0.16820082 0.083939776 -0.16702126 -0.19011925 0.06858012
0.030923704 0.09913893 -0.14385954 -0.16231713 -0.030677846 0.18758452 0.01693577 -0.20232339
0.18049255 0.19531658 -0.19310027 -0.071049646 -0.16277862 -0.1853957 -0.11456452 0.20460244
0.11014744 0.046415355 -0.116801634 0.193699 -0.09910083 0.12781587 -0.15028961 -0.094113655
-0.19829278 0.104534626 -0.051669534 0.15105966 -0.012605687 0.06564812 -0.030569443 0.20400503
-0.015444858 0.17019877 0.20648302 0.20975852 -0.021423437 -0.041714992 0.17921035 0.209568
0.10357372 -0.028909467 0.029899342 -0.13306637 -0.089544974 -0.044713203 0.017605111 -0.037152704
-0.1985861 0.12220193 -0.10278129 -0.044625096 -0.20694375 -0.123081036 -0.16964382 0.019669237
0.013083893 -0.19845143 0.17506094 0.07920152 0.005212902 -0.18383877 -0.005308438 0.02270371
0.17531916 0.19747758 0.032768633 0.09560436 0.089534074 0.18728933 -0.02896135 -0.13178992
0.05809832 0.08112154 0.1331792 0.18066747 0.0033451961 0.1754464 0.033402085 0.16151133
-0.013519525 -0.06294291 -0.12389847 -0.0994378 -0.08428076 -0.08072187 -0.09319123 -0.022307066
-0.044440273 -0.052164346 0.17268994 0.1327512 0.06552318 0.0129013825 -0.09525964 -0.20881417
-0.053884815 0.1683949 -0.07652604 0.108316265 0.19283514 -0.19561502 0.1708246 -0.07142744
00000000: b74c 06bd 2247 8dbd 15c8 adbc 80a5 cf3d
00000010: 0d40 15bd 651d 8abb 85e8 d43d 9ead ef3d
00000020: 7485 41be 516b a83d 6c9a 83bd 5da5 28be
00000030: 5251 4ebe 3b84 3d3c 6c99 7dbd e81a c23c
00000040: 871a af3d 3b8c 23bd ddeb 1cbe d63c 2c3e
00000050: 9ee8 ab3d 9f07 2bbe 9fae 42be bc73 8c3d
00000060: b553 fd3c 5a09 cb3d ea4f 13be 7636 26be
00000070: 1b50 fbbc 2816 403e e2bc 8a3c dd2d 4fbe
00000080: 0ad3 383e 1201 483e 14bc 45be 7a82 91bd
00000090: 70af 26be 5fd8 3dbe cea0 eabd 4d83 513e
000000a0: fb94 e13d 071e 3e3d b235 efbd 0859 463e
000000b0: 60f5 cabd 2ae2 023e 85e5 19be a9be c0bd
000000c0: 430d 4bbe 4016 d63d 6fa3 53bd 62af 1a3e
000000d0: 1588 4ebc 8672 863d c56c fabc b2e6 503e
000000e0: 6e0c 7dbc 9648 2e3e 4970 533e f0ca 563e
000000f0: 3480 afbc 57dd 2abd eb82 373e fe98 563e
00000100: 751e d43d 8cd3 ecbc 77ef f43c 8d42 08be
00000110: 5b63 b7bd 3125 37bd 9838 903c 6f2d 18bd
00000120: 285a 4bbe 0145 fa3d ff7e d2bd cec8 36bd
00000130: 10e9 53be e911 fcbd 1cb7 2dbe 6121 a13c
00000140: d35d 563c da36 4bbe 2d43 333e 6834 a23d
00000150: fed0 aa3b 3b40 3cbe 68f2 adbb 21fd b93c
00000160: de86 333e 9037 4a3e 6738 063d 38cc c33d
00000170: a45d b73d c6c8 3f3e 5a40 edbc f0f3 06be
00000180: 81f8 6d3d 0d23 a63d 2160 083e e500 393e
00000190: 143b 5b3b 39a8 333e a0d0 083d 3a63 253e
000001a0: ff80 5dbc 36e8 80bd 7bbe fdbd 0ca6 cbbd
000001b0: 649b acbd 8251 a5bd 0bdb bebd 4fbd b6bc
000001c0: 0107 36bd 48aa 55bd a2d5 303e eeef 073e
000001d0: 0431 863d 5260 533c 7c17 c3bd 62d3 55be
000001e0: 53b6 5cbd b66f 2c3e afb9 9cbd ebd4 dd3d
000001f0: 9376 453e 4e4f 48be a5ec 2e3e 8d48 92bd
