Assets/results/Maze02/Mouse/Mouse-2368.onnx (onnx, 77714 bytes, 5 tensors)

network_body._body_endoder.seq_layers.0.weight f4 [128, 9]
00000000: 484b 893d c7b1 3dbf eb02 3abe 1f14 b73e
00000010: be99 cdbe 50e9 cdbc 4ba5 753d 63b2 2ebf
00000020: 2856 f9bc 7cd6 01bf 5c4b 753e 061b c93b
00000030: 122e 023f e928 0cbe 9cb9 78bd ffd5 75be
00000040: 3af8 5a3e c089 1e3e a378 fdbe 9af0 dbbe
00000050: ca03 8a3e 270e 02be cad6 cabb f30a 773d
00000060: 07ef 693e 5093 e0bd eb3f eb3c facd f63e
00000070: caae 4cbe 42a8 21bd a9d8 883f 8a42 2d3e
00000080: 50f6 a83d 50c9 e0be 0e3b bf3e 7f83 58be
00000090: 0853 0e3f b32b df3e 3477 573e d4b8 303f
000000a0: 78b7 a53d 3718 c0be c0b4 2c3e 0051 513e
000000b0: 0739 b73b 62fb fd3e efd7 093e 020b cb3e
000000c0: ff29 caba 8b6a 6dbe 7b59 57bd 14eb bdbe
000000d0: 38bc 5cbe 00e7 16be cef7 eabc 7a14 2ebd
000000e0: 40b8 293e 8af9 4d3e c355 853e 0320 6f3d
000000f0: 7308 4abe cccb e43e 2a67 be3e 56b8 f43d
00000100: 3002 c2bd 8f46 d3be bb8c d8be 7285 ec3e
00000110: ac5d 7dbe fcca babe 0ac8 883d 0f9f 303e
00000120: caa4 31bf f4e7 973e cbdd 7bbe b6c0 a5be
00000130: b26b cb3e a40d 923d ce36 ff3e 5f1d 483e
00000140: 38ff 1d3e f8e2 0a3e 70f1 3c3f 34f3 893e
00000150: 7cf6 e4be 6f68 45bd 0cce 9dbe dba8 33bd
00000160: 5bb9 893d 613b 923e 991d 1c3d 3e3a 57be
00000170: ebdd 44bd a6bd 9abb cc42 843e f140 85be
00000180: 2e4e 9d3e 9c1d f83e 0c31 03bf e3fb 4fbe
00000190: 5338 dfbe 50ae 873d 8042 123f 3661 bfbe
000001a0: 174b dcbd 4faa c43e d0fd 06bb ec59 c43e
000001b0: d6ac 5ebe 4c36 05bf cf98 643e 5a04 f53d
000001c0: 2032 0c3e a78d adbd b78c e0be e36a c93d
000001d0: d4f9 dc3e 0c25 c2bd d738 8b3e 4072 a23e
000001e0: 98a2 78be 1fe5 c53e e79c 3fbe 3e4e c03e
000001f0: 8468 743d a4cb 0bbe 6efa cfbd ee58 803d
00000200: 9b7f eebe 706a 7abe 8c1c 0f3f 2c4b 3abe
00000210: 5fae bd3e 571d bebe 2408 4bbe 4a56 31bf
00000220: fc69 84be 70dc d7bd 6eac fa3e 8f59 b73e
00000230: 24fb 20be 3069 33bc 2be4 5b3d 1619 d03e
00000240: 62bc 28bf 917e 85bd a7e4 c8bd 77ba 4e3c
00000250: 7cb3 05bf 979b e43d 1ef2 34be 7c99 4fbe
00000260: 2495 023f 5c8d eb3d bbf2 523c 6b7e cd3c
00000270: 9883 72be 82a0 e53d a382 aebe cb94 98be
00000280: ba7a ca3c 4832 c23e 63f6 cebe 976e d33e
00000290: 8ec3 ebbe 405e db3d f79c e03d 4396 2e3d
000002a0: 7e23 88bd 6223 843e a0f0 c5bd 7eb4 283e
000002b0: 6ec3 bebe 0ae5 ac3b aa0d c7b9 5fcd d0be
000002c0: 845a 01bf 0032 2b3e ecf7 bfbe 4c0b 273f
000002d0: 2b28 92bd 1a50 69be a17c a8be 10e8 9dbe
000002e0: 5462 273f 149c 343d fc4b b43b f678 d6be
000002f0: 93d5 2dbf 9aab f3bd 0445 a73e 07be b33e
00000300: 9f9c 34bf 9cc3 99be ce04 5ebe cf08 8f3e
00000310: 90a5 04bf 1cf4 e8be 539b bdbd 02b6 883e
00000320: 8bc9 b2bd 2282 e93e 4a24 953d 2b7a 55be
00000330: 12ca 49bd a590 aa3e e6ac 373d 3b71 013f
00000340: 66ae 02be 3618 003f 607d ea3d 6514 a0be
00000350: b8cc e7be 60bc 4cbd e687 17bd 96bb 123e
00000360: c0ec 0dbe e0bf 833d 7263 083e 97a9 a93e
00000370: 5bd8 f3bd 5aee 08bf 0648 55bd 4742 73bf
00000380: 026e 9abe e4d1 abbd 3ee2 8dbc 1887 b83e
00000390: 0838 97be ccb2 31bf 0e12 9d3e 9f7e ae3e
000003a0: 30d5 a03e 5830 a53e eaa1 063e 7bd3 093f
000003b0: d9ae 99be 1326 cf3e 1609 ea3d 366a 77be
000003c0: e096 e4bd 622e 33be cc7a 30bf 5f84 fc3e
000003d0: 78e0 bb3e a836 1c3e 7e34 ccbe 820e 323f
000003e0: 3cd1 9d3d 1e72 6cbe 50cb 26be 93fe 993e
000003f0: d551 8cbe ff97 d83d ec62 04be 23e3 193f
0.06703812 -0.7409939 -0.18165176 0.3575754 -0.40156358 -0.025135666 0.05997209 -0.68240947
-0.03043659 -0.507179 0.23954529 0.0061372546 0.5085155 -0.13687481 -0.060723886 -0.24007414
0.21383753 0.15482235 -0.495061 -0.42957002 0.26956016 -0.12700711 -0.0061901556 0.060313176
0.22845088 -0.10965598 0.028717002 0.48204023 -0.19988552 -0.039467104 1.069112 0.16919914
0.082501054 -0.4390359 0.37349743 -0.21143912 0.55595446 0.43588027 0.21041566 0.69032025
0.080916345 -0.37518474 0.16865826 0.20441055 0.005591515 0.49605852 0.13461278 0.39656836
-0.0015423893 -0.23185174 -0.05257557 -0.37093413 -0.21556175 -0.14736557 -0.028682616 -0.042499997
0.16574192 0.20114723 0.26041993 0.058380138 -0.19729786 0.44686735 0.37188083 0.11949222
-0.094730735 -0.4126477 -0.4229487 0.4619556 -0.24742764 -0.3648299 0.066787794 0.17248176
-0.69392073 0.29669154 -0.24596326 -0.3237359 0.39730603 0.07131508 0.498465 0.19542454
0.1542939 0.13563144 0.73805904 0.26943362 -0.44719303 -0.0481953 -0.30821264 -0.043862205
0.06724807 0.28560928 0.038114164 -0.21018311 -0.0480632 -0.004722315 0.25832212 -0.2602611
0.3072371 0.4846009 -0.51246715 -0.20310931 -0.4359766 0.06625044 0.5713272 -0.37378854
-0.1075651 0.38411185 -0.0020598061 0.38349855 -0.21745619 -0.52035975 0.22323917 0.119637206
0.13690996 -0.08474284 -0.43857357 0.0983484 0.43159354 -0.094797224 0.27191803 0.3172779
-0.24280775 0.38651368 -0.18712197 0.37559694 0.059669986 -0.13651901 -0.101551875 0.06266962
-0.4658173 -0.24454665 0.55902934 -0.18192738 0.37047097 -0.3713176 -0.19827324 -0.6927229
-0.2586211 -0.10540092 0.48959678 0.35810515 -0.15720803 -0.010950372 0.053684395 0.4064414
-0.6591245 -0.06518281 -0.09809237 0.012617699 -0.52226996 0.11162489 -0.17670485 -0.20273393
0.5100882 0.115015715 0.012875254 0.025084695 -0.23683012 0.11212255 -0.34084043 -0.2980102
0.024716724 0.37928987 -0.40422353 0.4129531 -0.46047634 0.10711336 0.10967439 0.04262377
-0.066473946 0.25808245 -0.09665036 0.16475102 -0.37258476 0.005276327 -0.00037966418 -0.40781686
-0.5052874 0.16718292 -0.37493837 0.6525161 -0.07136568 -0.22784463 -0.32907584 -0.30841112
0.6538441 0.04409416 0.005502222 -0.4188916 -0.67904013 -0.11897965 0.32669842 0.35105917
-0.70551485 -0.3003205 -0.2168152 0.27936408 -0.5181513 -0.4549874 -0.09258141 0.2670136
-0.087298475 0.45607096 0.07282312 -0.20847385 -0.049264975 0.3331348 0.044842623 0.505634
-0.1276184 0.5003694 0.11449695 -0.3126556 -0.45273376 -0.049984336 -0.036994837 0.14329371
-0.13859844 0.064330816 0.13319185 0.331372 -0.11906501 -0.53488696 -0.05207064 -0.95023006
-0.30162054 -0.08389643 -0.017319795 0.36040568 -0.29534936 -0.6941345 0.30677837 0.3408098
0.3141265 0.32263446 0.13147703 0.5383832 -0.3001621 0.40458736 0.11427514 -0.2416161
-0.111615896 -0.17498162 -0.68937373 0.4931974 0.36694694 0.15255225 -0.39883798 0.6955339
0.07705924 -0.23090407 -0.16288495 0.30077037 -0.27406183 0.10575866 -0.1292836 0.6011221

network_body._body_endoder.seq_layers.0.bias f4 [128]
00000000: 0000 0000 0000 0000 0000 0000 0000 0000
00000010: 0000 0000 0000 0000 0000 0000 0000 0000
00000020: 0000 0000 0000 0000 0000 0000 0000 0000
00000030: 0000 0000 0000 0000 0000 0000 0000 0000
00000040: 0000 0000 0000 0000 0000 0000 0000 0000
00000050: 0000 0000 0000 0000 0000 0000 0000 0000
00000060: 0000 0000 0000 0000 0000 0000 0000 0000
00000070: 0000 0000 0000 0000 0000 0000 0000 0000
00000080: 0000 0000 0000 0000 0000 0000 0000 0000
00000090: 0000 0000 0000 0000 0000 0000 0000 0000
000000a0: 0000 0000 0000 0000 0000 0000 0000 0000
000000b0: 0000 0000 0000 0000 0000 0000 0000 0000
000000c0: 0000 0000 0000 0000 0000 0000 0000 0000
000000d0: 0000 0000 0000 0000 0000 0000 0000 0000
000000e0: 0000 0000 0000 0000 0000 0000 0000 0000
000000f0: 0000 0000 0000 0000 0000 0000 0000 0000
00000100: 0000 0000 0000 0000 0000 0000 0000 0000
00000110: 0000 0000 0000 0000 0000 0000 0000 0000
00000120: 0000 0000 0000 0000 0000 0000 0000 0000
00000130: 0000 0000 0000 0000 0000 0000 0000 0000
00000140: 0000 0000 0000 0000 0000 0000 0000 0000
00000150: 0000 0000 0000 0000 0000 0000 0000 0000
00000160: 0000 0000 0000 0000 0000 0000 0000 0000
00000170: 0000 0000 0000 0000 0000 0000 0000 0000
00000180: 0000 0000 0000 0000 0000 0000 0000 0000
00000190: 0000 0000 0000 0000 0000 0000 0000 0000
000001a0: 0000 0000 0000 0000 0000 0000 0000 0000
000001b0: 0000 0000 0000 0000 0000 0000 0000 0000
000001c0: 0000 0000 0000 0000 0000 0000 0000 0000
000001d0: 0000 0000 0000 0000 0000 0000 0000 0000
000001e0: 0000 0000 0000 0000 0000 0000 0000 0000
000001f0: 0000 0000 0000 0000 0000 0000 0000 0000
0.0 0.0 0.0 0.0 0.0 0.0 0.0 0.0
0.0 0.0 0.0 0.0 0.0 0.0 0.0 0.0
0.0 0.0 0.0 0.0 0.0 0.0 0.0 0.0
0.0 0.0 0.0 0.0 0.0 0.0 0.0 0.0
0.0 0.0 0.0 0.0 0.0 0.0 0.0 0.0
0.0 0.0 0.0 0.0 0.0 0.0 0.0 0.0
0.0 0.0 0.0 0.0 0.0 0.0 0.0 0.0
0.0 0.0 0.0 0.0 0.0 0.0 0.0 0.0
0.0 0.0 0.0 0.0 0.0 0.0 0.0 0.0
0.0 0.0 0.0 0.0 0.0 0.0 0.0 0.0
0.0 0.0 0.0 0.0 0.0 0.0 0.0 0.0
0.0 0.0 0.0 0.0 0.0 0.0 0.0 0.0
0.0 0.0 0.0 0.0 0.0 0.0 0.0 0.0
0.0 0.0 0.0 0.0 0.0 0.0 0.0 0.0
0.0 0.0 0.0 0.0 0.0 0.0 0.0 0.0
0.0 0.0 0.0 0.0 0.0 0.0 0.0 0.0

network_body._body_endoder.seq_layers.2.weight f4 [128, 128]
00000000: fac9 7fbd da05 033c 6348 d7bd a316 0f3e
00000010: 7317 4dbe 1c70 d93d 05f5 a3bd e9b0 2dbd
00000020: c3c5 febb 36d2 8cbd 52df 253d ddde e4bd
00000030: d896 06bd e74c d5bb 6d4e 57be a745 90bd
00000040: 3bf8 48be 9141 19be 9f85 f63b ce56 bebc
00000050: 1790 e13d 13ca 8cbd f33b 17bd 1aed d1bd
00000060: f0af 1cbe 568e 1bbe 39c3 26be 017b 0bbe
00000070: 5bfb dd3d 37f3 4a3d 070f 2dbc 7b96 59bd
00000080: f7ae 2a3d 5559 3abe c29f babd 6fdc 5fbd
00000090: f42d 583b a8bb 7f3c 424e a23a 241d f63d
000000a0: 07b5 33be 619d 1fbe 459b 4c3d d0d2 ba3d
000000b0: e419 8db9 916c 12be 3360 1cbc 4314 b6bd
000000c0: f6a5 1abe 380c aebd 13cc 12bd bdc3 febd
000000d0: 3748 2dbd 46ac 4ebe fc9e d6bd 5338 8ebd
000000e0: 1003 44bd 5b72 8c3d a2c4 1cbe 584c 9c3d
000000f0: 81a6 2f3d c154 2dba afa8 49bb eb54 2a3a
00000100: 96d6 353d 47de 413e bc3c a73b 01d1 debd
00000110: c1eb 483c 3db7 1ebc 98b7 463d 0a1e 4b3c
00000120: 982a 4dbd 6c29 f6bb fdc6 a13c b7d8 ed3b
00000130: 5e59 cabd 812c 3e3e ede9 c7bc 0b77 72bc
00000140: dc61 ce3d 231c 20bd 7e70 4dbd c65a a6bd
00000150: 241f a6bd 153f 3d3d c3e1 cf3d c0cb cabd
00000160: e142 63bd cfb8 f63c b8db ecbc b62d d7bd
00000170: 7337 663c 2c4c 483d dac6 153e cc42 91bd
00000180: 541f c93d e671 44be f5bf 013e 083f 09be
00000190: 0c8e 1c3d 59e1 e33d 0a5a fe3d f48a 1ebc
000001a0: 5856 2d3e 3767 813c 050e 70be ac66 c4bc
000001b0: ef45 2ebd 72d8 88bd a2d2 a6bd a66f 5bbd
000001c0: 82bc e83c 6e56 51bd d497 8fbd 0a23 9abd
000001d0: 479e a5bd 50ce e7bb 1ece 81bd 7ad8 ebbb
000001e0: 37b0 933d b893 e2bd a4bb 95bd cc33 29bc
000001f0: d5f4 17be 66c9 4bbc 54ca 63bd 5259 03bd
00000200: 5af1 bcbc 9804 bfbd 5ecc 853d eafb 303e
00000210: ae6b 2f3e 8375 4f3d b79a e8bd bc73 1f3c
00000220: 3eeb febc 97ac a13c db6c 323d a85a 9f3d
00000230: db74 673c 6c90 61bd ebba 063d 43f9 4abd
00000240: 769f 3cbe 26b8 203d a5c2 843d 5f8e dcbd
00000250: 3c86 363d 0d6e 6abe ad00 1a3e e66a fe3d
00000260: 2aff c83c edeb ad3d 592d 303d c3ea 673d
00000270: 0e3e b2bd 2fe0 a0bd 5ea2 33bd 0785 46bd
00000280: bc1e 403e 7367 923d 7dd8 acbb 7f1e bcbd
00000290: 3632 863d 0533 5cbd cafd 5a3d 4d8d 0bbe
000002a0: d336 3b3d 3106 313d 996e 85bd ef98 b73a
000002b0: 495e 6b3e d1ad 82bd d08b 563d 6ca2 1b3e
000002c0: c18d e5bd e784 91bd bf41 80bd 6db7 6b3d
000002d0: 0be5 39bd 0ec9 4abe 82f9 6fbc 4a58 493d
000002e0: 4249 3f3d ca43 dc3d b47c 113e e5a7 77bc
000002f0: 59d7 e0bd 1720 ca3d fc36 e63d 20dc 9d3a
00000300: dd14 b13d c199 3fbc 19bb b1bb 829b 753d
00000310: 3916 4cbd 6cc7 b2bd d149 3abe 4db5 b23d
00000320: a924 c93d c315 013e 2251 65bd 156c b7bc
00000330: d37e b5b9 ba8e 04be 0551 72bd 2472 be3d
00000340: 315c e2bd 8a8a 533d 8d52 00bd 3a5b a83d
00000350: fb78 1bbd be20 37be 6d01 4abd 6ffc 573d
00000360: edab 2dbe 6127 78bd 4b07 9f3d 1d58 a33d
00000370: 0624 cebd e8d4 9ebc 6c4b 98bd d876 e3bd
00000380: b6a1 9abd 6dd3 0d3e decc b9bd fd87 663d
00000390: ab79 fa3c f8e2 58be de6a 5fbc 19f1 633c
000003a0: e912 c73d 8417 5ebd a6d0 8f3c 3e71 923c
000003b0: eacd 65bd ebb9 e93d d574 b33d bc86 533d
000003c0: 3065 34bd fdd1 37be 7d87 cdbd e467 50bd
000003d0: 4733 80bd 0dc8 d0bd 7caa 93bc 2867 393c
000003e0: 6ae2 9bbd 46cf 1d3c f7be 80bd c52a a9bc
000003f0: a606 5a3d ea77 973c a941 10be df81 523e
-0.06244848 0.007997001 -0.105118535 0.13973479 -0.20028476 0.10617086 -0.08005718 -0.042405043
-0.00777504 -0.06876032 0.040496178 -0.1117532 -0.0328587 -0.0065094116 -0.21026011 -0.07044535
-0.19625942 -0.14966418 0.007523253 -0.023234751 0.11013811 -0.0687448 -0.036922406 -0.10250302
-0.1530149 -0.15191016 -0.16285409 -0.13621141 0.10838958 0.049548354 -0.010562665 -0.053122025
0.041670766 -0.1819814 -0.09112503 -0.05465358 0.0032986375 0.015608706 0.0012382942 0.12017277
-0.17549525 -0.15587379 0.049952764 0.091222405 -0.00026912906 -0.14299227 -0.00954442 -0.08890583
-0.15102372 -0.08498424 -0.03583915 -0.12439678 -0.042305198 -0.20182905 -0.104795426 -0.06944337
-0.047854483 0.06857749 -0.15309384 0.07631749 0.0428834 -0.00066120556 -0.003077071 0.0006497639
0.0443941 0.18932448 0.0051036756 -0.10879708 0.012263239 -0.009687242 0.048514932 0.012397299
-0.05008945 -0.007512262 0.019748205 0.0072585004 -0.09880327 0.18571664 -0.024403537 -0.01479889
0.10077259 -0.039089333 -0.05015611 -0.081227824 -0.08111408 0.046202738 0.101504825 -0.099021435
-0.055483703 0.03011742 -0.028913364 -0.105067655 0.014051306 0.04890077 0.14626637 -0.070928186
0.098204285 -0.19184074 0.12670882 -0.13402951 0.038221404 0.11126966 0.12419517 -0.009676684
0.16927469 0.015796287 -0.23442848 -0.023974739 -0.042547163 -0.06681909 -0.08145644 -0.053573273
0.0284102 -0.051107816 -0.07011381 -0.075262144 -0.0808683 -0.007074155 -0.06338142 -0.007197437
0.07211345 -0.11063331 -0.0731118 -0.010327291 -0.1483949 -0.012438154 -0.055612877 -0.032067604
-0.023064304 -0.09327048 0.065331206 0.17283598 0.1713092 0.050649177 -0.113576345 0.009732183
-0.031118032 0.019735618 0.043560844 0.07780963 0.014126982 -0.055069372 0.032893103 -0.04955412
-0.18420205 0.039238118 0.06482438 -0.10769343 0.04456161 -0.22893544 0.1503932 0.12422733
0.024535734 0.08492265 0.043011997 0.05662037 -0.08703242 -0.078552596 -0.043856017 -0.04846671
0.18761724 0.071486376 -0.005274831 -0.09185504 0.06552546 -0.053759594 0.05346469 -0.1362812
0.04570658 0.043218795 -0.065152355 0.001400737 0.22985186 -0.06380809 0.05237943 0.15198678
-0.11208678 -0.07105427 -0.0626254 0.057547975 -0.045384448 -0.19803259 -0.01464689 0.049156465
0.046700723 0.10755117 0.14207727 -0.015115713 -0.10978574 0.09869402 0.11240956 0.0012043752
0.086465575 -0.011694373 -0.005423915 0.059962757 -0.04982588 -0.08729443 -0.18192221 0.08725987
0.098214455 0.12605958 -0.055985577 -0.022390405 -0.00034617502 -0.12945071 -0.059159297 0.09299114
-0.1105274 0.051645793 -0.031328727 0.08220525 -0.037957173 -0.17883584 -0.049317766 0.052730974
-0.16960116 -0.06058443 0.07765063 0.07975791 -0.10065465 -0.019388631 -0.074362606 -0.11106652
-0.07550375 0.13850184 -0.090722784 0.056282032 0.030575594 -0.21180332 -0.013636319 0.013912463
0.09720404 -0.054221645 0.017555546 0.017876264 -0.056104578 0.11412414 0.08762518 0.051642165
-0.044041812 -0.17951198 -0.10035608 -0.050880328 -0.062597804 -0.10194407 -0.01802563 0.011316098
-0.076115444 0.009631937 -0.06286424 -0.020650277 0.053228997 0.018489797 -0.14087547 0.20557354

action_model._discrete_distribution.branches.0.weight f4 [4, 128]
00000000: b292 e23b 4fba 4db9 0408 82bb d809 f03b
00000010: 278d 54bc 08d2 f03b 4fb3 0dbc 8790 73bc
00000020: bdac cdbc af58 0ebc c598 80bb bb2e 40bb
00000030: bfa4 113c 9db6 873a 4f92 43bb 2afe 333b
00000040: 1341 8fbc 6ee9 3b3b 78b0 34bb 5596 03bc
00000050: 4b67 993b b637 a7bc 5a79 48bc 330f 16ba
00000060: 8b87 99ba 53e1 4ebc 3f8d 00bc 7b8c 823a
00000070: 7f44 15bb d85c adbb fdc2 c63a 50c2 f83b
00000080: d10d 3fbc 49e9 883b f671 34bc 3108 373c
00000090: 4679 4a3b c2f0 9c3b 9710 75ba 0ea5 2dbc
000000a0: 1681 cc3b 6577 f33b 5d31 e73b 4308 c63b
000000b0: 1370 b6ba 73d7 2dbc e3be 693c 4ca0 25b9
000000c0: e0e8 69bc 45c3 cfbb 649a 4139 1e31 b0ba
000000d0: 7379 3d3c 935d 863c 4eb6 80bb 83ba 3ebb
000000e0: a3f5 be39 1ba4 8fbc 1b49 3e3c 956c a9bb
000000f0: 0e73 2dbc a997 47bc 0c05 1fbc 1822 41b9
00000100: 3398 2e3b 7b91 d4ba 770d 95ba b146 b739
00000110: b55a 30bc 6d6c 9c3b f7e0 25ba 25b8 8abb
00000120: 3c24 853b 903b d3ba 9113 05bc a24d a4bc
00000130: 0765 203b d7e9 883c 2785 283c 04fa 0ebc
00000140: 5908 a03b ce57 8bbb 3392 37bb 83e7 503a
00000150: 9b70 9a3b 6a65 06bb 861e 193c ba78 15bc
00000160: 27f5 dc39 95be 62bc 1754 21bb 9e72 253c
00000170: 2cf4 2c3a 6c37 803c d130 2c3c 4ed4 2d3c
00000180: ac37 c5bb 5f49 9d3b 799d 0abc 67f3 90ba
00000190: 64c2 86bc 21b7 80bb 1f32 8bba a552 dc3b
000001a0: a301 5cbb 4f39 d73b 55bb eb3b 8204 2cbc
000001b0: f825 a8ba 3088 473c aec5 40bc 9cee 89ba
000001c0: cf23 763a 62d3 693a 8d87 bbbc d868 4e3c
000001d0: 7dab 0c3c 3e0d 2aba f822 de3b 42bb c2bb
000001e0: 80c2 1d39 f36d 67bc e63e cbbb 19b0 8a3a
000001f0: 2b5a f83a 37c2 cb3a f712 63bc b7b3 e33a
00000200: abb4 95ba 4579 5cbb 20ac 16bb 8780 93bb
00000210: a030 efbb 28c7 41ba 63fe f43b bb1f 803b
00000220: 2a17 57bb 9fba fd3b 02b0 31bc 8fc8 a7bb
00000230: 3ffb 673c 882e debb dace 8bba eba3 5cbc
00000240: 9d01 e73b abcd 973b 12e7 0e3c ff4a 04bb
00000250: 5803 633c dc6c 293b 9533 1bbb 3f91 cabb
00000260: dd70 663c 8fa3 01bb af07 963c 95e0 9eba
00000270: c0f2 783c 7361 7abb 91b6 babc d7e2 d4bb
00000280: ca12 babb 193f 12bc c7c9 05bb 0e82 3abb
00000290: 652a d439 4b44 6cb9 2b31 f93a 684b 1dbc
000002a0: e7a3 89bb 0ddd 463b c5e6 873a 9e26 913b
000002b0: e6c5 8e3b afa8 fbba 4f1b 24bc 46e5 92bb
000002c0: 9315 9e3b d097 8fbb b75a 763b 3792 09bc
000002d0: 7785 5c3b 67a3 823b 9d25 633b 1067 3e3c
000002e0: 837c 743b f5f0 8e3b 8a3e 6a3a fd8d 8fbb
000002f0: ea6e 503b 54ef 90bb 1f1b 0bbc 7b4f 183b
00000300: d395 c4ba a81d 5f3c 6abe da3b b93f c2b9
00000310: cacd 0e3c 500a 883b dfb4 f73b eb66 a43b
00000320: a7cb f539 d027 71b9 d741 88bc 6a55 d73a
00000330: 7c3c 00ba 900c 533c ed41 243c aa5c 9b3c
00000340: 4f17 023c 7ab3 5a3c cf8f 8ebb fbb3 183a
00000350: 42c1 dcbb 6ddd 2cba be78 93b7 5642 1d3a
00000360: 2a6c 16bc c16b 3c38 4469 093c d35a e83a
00000370: 0309 233c 8822 6fbc 725d 96bc 0f00 493c
00000380: 2411 40bb d3f8 0d3c 872a eabb 8ae2 2dbc
00000390: b770 953c f0ee 7cbb 4361 813b a320 38bc
000003a0: 75ab 083c 7162 223c 0ba0 ff3b 1084 f43b
000003b0: 7234 693c 5bc7 89bb 371d a63b ab21 3d3c
000003c0: 2bdf 413b 9867 13bc 689e 003c 08f6 11bc
000003d0: 4b0b 0ebc 5d53 8fbc 03e5 06bb c3fc 813a
000003e0: 781f 33bc e409 2bbc a7c2 da3a 72d8 17bc
000003f0: c580 dc3b fcd4 19bb d41a 163c d000 bbbb
0.00691446 -0.00019619729 -0.0039682407 0.007325392 -0.0129731065 0.0073492564 -0.0086487075 -0.014866001
-0.025106782 -0.008688136 -0.0039244615 -0.0029324729 0.008889376 0.0010354106 -0.0029841845 0.0027464726
-0.017487084 0.002867307 -0.0027571004 -0.008031447 0.004681503 -0.020412307 -0.012235964 -0.0005724311
-0.0011713369 -0.012626964 -0.007846176 0.0009960079 -0.0022776423 -0.005290609 0.0015164312 0.007591523
-0.011661009 0.0041782004 -0.0110134985 0.011171387 0.0030895039 0.0047894428 -0.00093484804 -0.010598434
0.006240974 0.0074300044 0.007055445 0.0060434653 -0.0013918899 -0.010610449 0.014266702 -0.00015795341
-0.014276713 -0.0063404166 0.0001846343 -0.0013442372 0.0115646 0.016402042 -0.0039279824 -0.002910287
0.00036422638 -0.017534306 0.011614109 -0.0051704147 -0.010586513 -0.012182155 -0.009705793 -0.00018418615
0.002664101 -0.0016217673 -0.0011371811 0.0003495715 -0.010763814 0.0047736675 -0.0006327773 -0.0042333775
0.0040631574 -0.0016115773 -0.008122341 -0.02005655 0.002447428 0.016713066 0.010285652 -0.008726601
0.0048838076 -0.0042524105 -0.0028010726 0.0007969068 0.0047131306 -0.0020507225 0.009345656 -0.009123022
0.00042144323 -0.013839384 -0.0024616772 0.010098128 0.0006597664 0.015651427 0.010509686 0.010609699
-0.0060185995 0.0048000063 -0.008460396 -0.0011058868 -0.016450115 -0.0039280807 -0.0010619796 0.006723719
-0.0033570311 0.006568111 0.0071939626 -0.010499122 -0.0012828698 0.012178466 -0.0117658805 -0.0010523382
0.0009389491 0.0008919743 -0.022891784 0.012598239 0.008585808 -0.00064869586 0.006779071 -0.005942733
0.00015045144 -0.014125335 -0.0062025664 0.0010581046 0.0018947771 0.0015545551 -0.013859502 0.0017372285
-0.0011421641 -0.0033641618 -0.0022990778 -0.0045014056 -0.0072994977 -0.00073920423 0.0074766143 0.0039100326
-0.0032820203 0.0077431942 -0.010845186 -0.005120344 0.014159023 -0.0067804493 -0.0010666505 -0.013466815
0.007049753 0.004632672 0.008722084 -0.0020186303 0.013855778 0.0025852239 -0.0023681868 -0.0061818655
0.014064995 -0.0019781326 0.01831421 -0.0012121374 0.015194595 -0.0038205057 -0.022792133 -0.006496768
-0.0056785094 -0.0089261765 -0.0020414458 -0.0028458866 0.00040467377 -0.00022532155 0.0019011846 -0.009600498
-0.004200447 0.003034416 0.0010368457 0.0044296524 0.0043570874 -0.0019200052 -0.0100162765 -0.004482898
0.004824349 -0.004382111 0.0037590691 -0.008396677 0.0033648887 0.0039867642 0.003465987 0.011621252
0.003730566 0.0043622204 0.00089357106 -0.00438094 0.0031804391 -0.0044230614 -0.008490353 0.0023240733
-0.0014998264 0.01361791 0.006675531 -0.0003705004 0.008716056 0.00415162 0.0075594033 0.0050171516
0.00046881774 -0.00022998382 -0.016632957 0.0016428654 -0.00048918254 0.012881413 0.010025484 0.018965084
0.0079401275 0.013348455 -0.0043506394 0.0005825159 -0.0067369053 -0.00065942743 -1.757999e-05 0.00059989595
-0.009181062 4.4923047e-05 0.008386914 0.0017727263 0.009950879 -0.014595635 -0.018355105 0.01226808
-0.0029307092 0.008665281 -0.007146183 -0.010613093 0.018242223 -0.0038594566 0.003948362 -0.01123825
0.00834166 0.009911166 0.007801061 0.007462032 0.014233695 -0.004204673 0.0050694006 0.011543672
0.0029582481 -0.008996867 0.007850267 -0.008908756 -0.008669685 -0.017495805 -0.002058328 0.0009917248
-0.010932796 -0.01043937 0.0016690091 -0.009267913 0.0067292177 -0.0023472896 0.00916167 -0.005706884

action_model._discrete_distribution.branches.0.bias f4 [4]
00000000: 0000 0000 0000 0000 0000 0000 0000 0000
0.0 0.0 0.0 0.0
