Assets/results/Maze02/Mouse/Mouse-119121.pt (torch, 453592 bytes, 33 tensors)

network_body._body_endoder.seq_layers.0.weight f4 [128, 9]
00000000: 4297 1c3f 07c6 1b3e cb78 b43c e504 98bd
00000010: 230c 853e e1db adbe 2591 d9be fad1 d33e
00000020: a25c 553e 79ce d8bd c938 2e3f 0a15 b5be
00000030: c5ba 5bba f416 81b9 aaad 8a3c 90a6 5dbe
00000040: e5dc bd3e 7438 a1be 363b 9bbe 8eca fdbe
00000050: 114f a7be 8e2d e2be 9ce0 903d fae6 3cbe
00000060: 688e b4be dfbf 3ebe e3db 4cbe 9d09 a5be
00000070: d4bf e73e ac55 923d ce19 683e dcf5 9f3d
00000080: 4c0c 843e c930 863d 334c b5be f8ae 29bf
00000090: 1a52 143e 2db6 afbd 6057 51be 35a5 dbbe
000000a0: 1845 d2be 87cb 963d 50e1 883e eb60 77be
000000b0: d305 afbe 7892 02be 26b8 81bd 539b 62bf
000000c0: 6976 913e 2b91 0bbe dee0 d3be 6346 c2be
000000d0: 958e abbe af42 ba3d 5e79 103f e6d0 0a3e
000000e0: 1d85 babe 4a8c 2f3e cbcb 27be 3de9 ac3e
000000f0: 591c e33e 8185 52bc 9254 69bd 2c39 e0be
00000100: d842 c43e 338a e1bd 4109 b23e 9982 023f
00000110: 07b9 383e 10ca 143e 5f0a 41bf c13c 99be
00000120: 732e 163d 12f0 93bd 5bff 9cbf 9269 dbbd
00000130: cdd3 24be 419d de3e dab5 3abe 5425 acbc
00000140: dc88 25be c233 573d 1672 babe 8839 d6be
00000150: 051a 02bf 688e f8bd d183 9dbe 183c 773e
00000160: 3b32 aebe 8cef 26bf b78d bf3e caa8 923e
00000170: 8939 ac3e 7e71 873e 1ad0 a63e 52dd 843e
00000180: bb4b 763e b9c3 0e3d 62c9 a8be 658d cfbe
00000190: 0998 b5bd 5896 573f 15bf cd3e d24a a53e
000001a0: 18c3 213e 41af 1b3f 29f3 3abf cc15 743c
000001b0: 44e8 4d3e 2ac5 95be 8a10 023e 5809 a43e
000001c0: 002d 37bd b942 8ebf ea02 4f3f 63b7 023f
000001d0: a7a0 043e 8932 b63d 0262 bebe 1f42 ecbd
000001e0: 2709 06bf 0bc0 03be 99df 3b3d 3747 19be
000001f0: 7b3f 7a3e 6310 91bb 60d1 253f 5f80 a6be
00000200: a044 9cbe 34c9 c6be 65f7 673c d1b4 463e
00000210: 3fd0 febe 6aef cb3e e72b 5abf c860 38be
00000220: f6ca 0c3f cdfc fb3e d842 193f 6a34 92bc
00000230: 087d 8b3e 6a8f 143f 3542 773e 5b44 b13e
00000240: ab3a b4bd 48c6 513d 3a8f 383e 7d4d cbbe
00000250: 30da 963d 03d8 2dbe 9710 5cbe 9e75 2bbe
00000260: 7629 16be 8049 a7be 7bb8 043e 3f33 0cbf
00000270: 8870 253f f157 b2be e6a9 fa3e b3b9 cbbe
00000280: a2e6 2abe 3f37 26be 00a0 17be f373 163f
00000290: 76c2 c6be 3088 f93d c016 103f 7f2d d33e
000002a0: 88b6 023d 9161 373e 488e 713e 270a 29be
000002b0: 6b9f 213e 02da 55bf 3687 dfbe 6e63 05bf
000002c0: a458 993e d939 6dbe 9b1e ce3e a9d7 b1be
000002d0: 27a2 85bd afee 67be 09ff 49bf 02ba 563c
000002e0: 565e cabe bb73 013e ee06 57be 1679 49be
000002f0: f6e5 093e 4e74 7f3c d1dc e7bd 1cf4 20bf
00000300: 4c8e adbc 8236 83bd 435b 183f ce0a e6be
00000310: 8d41 c53e 99f0 683d bbcc 06be d6cd b6bd
00000320: 6b3a 9e3e bba8 2fbd a49f b53e b448 2bbe
00000330: 1d80 54bd 3ff8 c6be f986 203e ac09 08be
00000340: 717b b9be c14b 783c 4b20 76be a0c0 2f3f
00000350: c6c5 cdbd 322f 9abe 7300 79be f282 433e
00000360: 2514 f8be e4ce 80be 5fb9 4dbe 8a2f ba3e
00000370: 52b6 323f 8267 393f aad4 5d3d 6c61 d4be
00000380: 1f27 b43e d001 4fbe 0f27 113f 989f f1bd
00000390: 2dc8 833e 78ad 2dbe 0306 673e 8626 a53e
000003a0: 1dc5 bcbe 7b2a 1abe 0550 883e 1698 9f3d
000003b0: 1b46 18bb 45f7 b03e 60cc f7bd f001 813d
000003c0: 58a6 28bf acbf 55be 70be 8ebe 4d7e 353f
000003d0: d2b6 99bd e78e 793d a8d7 023e e2a0 d33e
000003e0: 0717 463e ae6e 953e 2a7d bdbe 14c2 ce3e
000003f0: 5554 86bd 7002 09be aad6 c4bd a61b fe3d
0.611683 0.1521226 0.022030255 -0.074228086 0.25985822 -0.33956817 -0.4249355 0.41371137
0.20836118 -0.105862565 0.680554 -0.35367614 -0.0008382018 -0.000246219 0.016928513 -0.2164557
0.37082592 -0.31488383 -0.30318612 -0.495686 -0.3267751 -0.4417538 0.07074091 -0.18447486
-0.35264897 -0.1862788 -0.20005755 -0.32233897 0.4526354 0.07145247 0.22666094 0.07810566
0.25790632 0.06552274 -0.35409698 -0.66282606 0.14484444 -0.08579669 -0.20443487 -0.4289948
-0.4106834 0.073630385 0.267344 -0.24158065 -0.3418413 -0.12751186 -0.06333952 -0.88518256
0.28410652 -0.13629596 -0.41382498 -0.37944326 -0.3350722 0.0909475 0.5643519 0.13556251
-0.36429682 0.1714336 -0.16386335 0.33771697 0.44357565 -0.012849213 -0.05696542 -0.4379362
0.38332248 -0.110126875 0.34772685 0.50980526 0.18039332 0.14530206 -0.7540645 -0.29929164
0.03666539 -0.07223524 -1.2265428 -0.10713495 -0.1609642 0.4347935 -0.18233433 -0.021013893
-0.16165489 0.052539594 -0.36415166 -0.41840768 -0.5082095 -0.12136537 -0.3076463 0.24144018
-0.34022698 -0.6520927 0.37412807 0.286444 0.33637646 0.26453775 0.32580644 0.25950104
0.24052326 0.034854624 -0.32966143 -0.40537563 -0.08866889 0.8421378 0.40184847 0.32283646
0.15797079 0.6081429 -0.7302728 0.014897775 0.20108134 -0.29251987 0.12701622 0.3203838
-0.04472065 -1.1114112 0.8086382 0.51061076 0.12951909 0.088963576 -0.3718415 -0.11536049
-0.52357715 -0.12866227 0.045867536 -0.14968573 0.24438278 -0.0044270023 0.64772606 -0.32519814
-0.30521107 -0.3882538 0.014158105 0.19404913 -0.49768254 0.39831096 -0.8522324 -0.18005669
0.54997194 0.4921631 0.5986762 -0.017847259 0.2724383 0.5803133 0.2414635 0.34622464
-0.088002525 0.051214486 0.18023387 -0.39707556 0.07365835 -0.16976933 -0.21490704 -0.16744086
-0.14664254 -0.32673264 0.12960999 -0.54765695 0.64624834 -0.3483272 0.48957747 -0.39790115
-0.16689542 -0.16232012 -0.14807129 0.58770674 -0.38820237 0.12184179 0.56284714 0.41245648
0.031912357 0.17908312 0.23589432 -0.16507779 0.1578347 -0.8353578 -0.43657845 -0.5210484
0.2995044 -0.23166598 0.40257725 -0.34734848 -0.06525069 -0.22649644 -0.7890478 0.013105871
-0.39525098 0.12641804 -0.20998737 -0.19675097 0.1346663 0.015591694 -0.11321414 -0.6287248
-0.021186016 -0.06406881 0.59514254 -0.44930118 0.38526574 0.056870077 -0.13164036 -0.08925979
0.30903944 -0.042885523 0.3547336 -0.16726953 -0.05187999 -0.38861272 0.15676488 -0.1328494
-0.3622699 0.01515478 -0.24035756 0.686533 -0.10047488 -0.30114132 -0.24316578 0.1909292
-0.4845287 -0.25157845 -0.20090245 0.36364394 0.6980945 0.72423565 0.05415789 -0.41480577
0.35186097 -0.20215535 0.56700224 -0.11798018 0.2573866 -0.16960704 0.22560887 0.32255954
-0.36869135 -0.15055268 0.2662355 0.0779268 -0.0023235145 0.34563652 -0.12099528 0.06299198
-0.6587882 -0.20873898 -0.27879667 0.70895845 -0.07505573 0.060927298 0.12777579 0.4133368
0.19344722 0.29186004 -0.37009555 0.40382445 -0.06559054 -0.13379836 -0.096112564 0.12407617

network_body._body_endoder.seq_layers.0.bias f4 [128]
00000000: 34d9 40b9 0832 fc3c 8931 5bbd 2659 033b
00000010: dcd2 353c 6858 ad3b edbf c23c 3413 803d
00000020: f6bb 9d3c 0aa4 af3b a7b9 bc3c beac 593d
00000030: efd6 553d f187 803c 8f94 573d 593f 973c
00000040: 3ea2 163d 755f 6e3d 0df6 e83c 5def 4dbc
00000050: 25e7 833d ab18 513d 1c45 3d3d 5ea3 483d
00000060: b131 433c 1f79 523a 84f5 593d 11a8 d43c
00000070: a071 003d 4bfd 913c b37b f1bc 4d1d 6d3d
00000080: 167b e63c 23ef dc3c 5cc2 003d 65cb d23c
00000090: df8b 003d 7c95 233c 2108 64bc 73fe f0ba
000000a0: e0b1 893c 0ca5 ae3d d139 aa3c b73c d43c
000000b0: 6204 80bc 851b 5d3d 3f83 493b e787 f23c
000000c0: 6ab9 ba3c f212 373d ea1d ff3a 49b7 0b3d
000000d0: d126 b13c 5092 0e3b deac fa3c 6f2a 893d
000000e0: efa7 093d c0f8 2c3d 5e02 4c3c aebd 073d
000000f0: 431b 283b fe4a 513d a9d9 07bb 1cbb d33c
00000100: 6d97 693d f6dd 3c3c 1005 02bd 75bd 793c
00000110: bf3a 073d f0f1 e03c 3879 d7bb d67c 863d
00000120: bc5b d53c fd39 193d 7f49 a83c 48ae 7b3d
00000130: 91ed e23c 9d5f ee3c 3f45 44bd f3b3 ed3c
00000140: 957b 463d 069f 673c 3e68 4d3d 04eb 7f3d
00000150: d34d 5a3c 39df 223c 2fc3 823d 6c6a f03c
00000160: 7186 043d 3a2e 243d 4627 c23c 7905 e13c
00000170: 523b ab3c fff4 6b3d a7f8 973d 344b 223d
00000180: e365 bf3c d4c2 253d 17a8 013d 6396 e43b
00000190: aa6d 883c 4e8c d73b b643 9b3d ed06 733d
000001a0: 8066 0e3d fe06 2f3d 1abf e53c 545b 3c3d
000001b0: 8497 c4bc cbfb 6c3d 8830 56bd 2fee a03c
000001c0: 8f26 963d 91bd 163d 0412 9b3c 4744 6e3d
000001d0: d1eb 693d 71d9 0fbc 4737 823c 1bdc 983c
000001e0: 6a58 ad3c 649e 0d3d 6b23 1f3d cc5f 373d
000001f0: 6a3c 903d a0be a83c b0ba 413d c9cf 00ba
-0.00018391461 0.030785576 -0.053514037 0.002004215 0.011097636 0.00529008 0.023773158 0.06253663
0.019254666 0.005360131 0.023037745 0.053143255 0.05220693 0.015689822 0.05263191 0.018462824
0.03677582 0.058196504 0.028437639 -0.012569276 0.06440572 0.051048916 0.046208486 0.048983924
0.011913703 0.00080289127 0.053212658 0.025959047 0.03135836 0.017820975 -0.02947793 0.05788927
0.028134864 0.026969498 0.031435356 0.025731752 0.03138339 0.00998437 -0.013917954 -0.0018386379
0.01680845 0.08527574 0.020779522 0.025907857 -0.01562709 0.053981323 0.0030748395 0.029605819
0.02279349 0.044695802 0.0019463871 0.03411034 0.021624954 0.002175469 0.030600008 0.06697547
0.03360742 0.042229414 0.012451736 0.033139877 0.0025651015 0.05109691 -0.00207291 0.025846057
0.057029177 0.011527529 -0.03174311 0.015242924 0.03301501 0.027459115 -0.0065757297 0.06566779
0.026044719 0.037408818 0.020542858 0.061445504 0.027701171 0.029098326 -0.0479176 0.02901647
0.0484577 0.014137035 0.05014824 0.062479988 0.013324219 0.009940916 0.063848846 0.02934762
0.032354776 0.040083148 0.023700368 0.02746843 0.02090231 0.057606693 0.074204735 0.0396225
0.023364013 0.040469006 0.031654444 0.0069759353 0.016653854 0.006578005 0.07581274 0.059332777
0.03476572 0.042731278 0.028045226 0.045985535 -0.02399803 0.057857316 -0.052292377 0.019644825
0.07331573 0.03680188 0.018929489 0.058170583 0.057109658 -0.008779869 0.015895499 0.018659642
0.021160323 0.03457488 0.038852137 0.044769093 0.07042773 0.02059871 0.04729718 -0.0004913775

network_body._body_endoder.seq_layers.2.weight f4 [128, 128]
00000000: a8e2 1c3d 065a f2bd d992 0e3d dfe9 21bd
00000010: 71f8 1ebe d610 81bd 1021 3fbe 3486 283e
00000020: 1ffc 2ebe bb8c c0bd 403e 8ebc 3cf1 cc3d
00000030: 6474 43be 726f 30be f430 8dbd 9c25 9e3d
00000040: 6c50 63b9 7e5f 5fbd 402b 3c3d 3943 b6bd
00000050: dcc3 06be c391 bc3d 4669 943e 3ad0 883e
00000060: 0a41 2b3e a2e6 ee3d a773 03be 1d52 c6bc
00000070: 4e73 c4bd 8485 a4bd c096 93bd 1ba2 09be
00000080: d844 eb3d 6ff3 40bd 77b2 843d f3e8 2cbd
00000090: 6172 13be 332e 46be 2a7b f13d e971 14be
000000a0: bf53 8b3c e056 bb3b c9f2 32be 5b95 d83c
000000b0: 66a9 a6bb 48ea b63d 44e8 2fbe 5c15 963d
000000c0: 758b d4bc 532e 8a3d 982a 57bc 8235 b0bd
000000d0: d181 7c3d 0ad6 5fbd 8268 0cbe 90e4 d03d
000000e0: ee1f 2ebd 8aff 0cbe 3201 1e3c 332a a6bd
000000f0: c162 2c3e 30a7 5b3c 8e44 753d 764c ef3d
00000100: 6963 2f3e 022a b0bc 9247 003e 25a8 3b3d
00000110: 3547 ea3d 05df a83d cb28 36be a77e 063e
00000120: d82c 5e3c 5cc8 74bd 4273 f63d 0efc 8cbb
00000130: 9c38 ad3d 1ea5 023d cc52 15be 511b bd39
00000140: faa2 f6bd 0531 033e d9d9 5bbd 7e65 ea3d
00000150: 7132 773c ace1 27bd 1d2a c83d 21ae a4bd
00000160: 8645 94bd fbbf 17bd 7f28 043e 96f5 133c
00000170: f4aa e3bd acb5 923c 3cd3 903d 365d f53d
00000180: 98c0 88bd 2f14 c8bd a8e1 803c 16af 54bd
00000190: 1640 eebd cb54 033d 865f 323e 65f8 263d
000001a0: 21b1 863e 8ff4 05be 01a6 8d3d 50bf 033e
000001b0: 071f 8dbd f764 803d 9315 b9bc 66a9 c03d
000001c0: c91f 2abe e53a 7fbe 75bf 66bb bb1b 713e
000001d0: 91f4 f8bd 2a36 18be 6831 99bd f8ee b6bd
000001e0: f964 cc3d 368e f3bd 9759 103d 5dbe c73c
000001f0: cc1a bb3d 37cf 8fbc 5dc9 c13d 19fc 82bd
00000200: 1ad5 f0bc 18be c0bd a4b1 84bd 9c39 553d
00000210: 2614 89be 975c fdbc 0855 783c 12a5 6a3d
00000220: b850 47be e900 323d 3e15 f83d 5ebd 503e
00000230: a635 553e 4bcb b3bc f3bc 42be 61cf 9cbe
00000240: e758 f0bd 733c a1bd 01a2 bfbb 96a5 0abd
00000250: 4d6f 4dbe 066e 91be 7a15 2d3d 3974 8cbb
00000260: f0ae 2e3d 3154 923c 9d45 7abe 6bfe 8bbd
00000270: fdba 9dbd fd10 98bd 106f 55be f5e3 86bb
00000280: aba3 7e3e 3204 213c 8251 0ebe 75b5 333c
00000290: 7a84 1ebc a1ee 75bd a604 3cbd e3a3 273d
000002a0: 604a e93d 3307 a83d b323 b5bc 9a87 d93d
000002b0: eb90 09be 7389 63bd f02e 9438 9c0b 9cbe
000002c0: 2d7b 253e bf5b 583e 2b09 4d3c 8705 0ebc
000002d0: 20d1 973d 0d95 233e 8a22 2fbc ec07 113e
000002e0: 73f2 963d e6a7 cfbd c946 cc3d def4 1d3d
000002f0: d053 263d 38ca 1f3e 59dc 853b f95c 8fbc
00000300: a933 98bd 7a96 033e edce 343d d88c 3fbd
00000310: a042 9e3d de78 91bb ec6a a33d b740 19bd
00000320: ce7b 3cbc 67d9 db3d 335c e43d 9b49 b23d
00000330: d34b 52be 7d19 0dbd afdf 8ebd 8182 4d3d
00000340: 05fd ad3d f7a8 293e 0551 5f3e 15da c93d
00000350: 6a84 443e 99b3 2dbe 646c 7cbd b837 dbbd
00000360: 3a06 483d 1fb1 58bd 013d e43c bf38 bd3d
00000370: cfee 44be e7d0 8a3e f42e 9e3e 7ede 20bd
00000380: 2ffe 08be de06 6f3c 1142 40be 0235 4f3c
00000390: 9b12 e93d 74fb 8d3d 03a9 8cbd cd0c 243c
000003a0: 8e5b 5dbd 21a5 5bbe e19e 7e3d 2fc4 02be
000003b0: ca14 febb e3f2 783d 1491 49bd 724b e33d
000003c0: bdbe 013e c4c0 2f3e 66ce 193d 2bef 363e
000003d0: 3174 9d3d 60a3 1ebe 546e 323e 0bf7 01bd
000003e0: 5631 fa3c 09c7 443e 4b03 a0bd 5491 173e
000003f0: e115 8e3e d584 6fbd e5c8 e7bd 74ef 04be
0.038302094 -0.11833577 0.034808014 -0.039529677 -0.1552446 -0.06302039 -0.18664956 0.16457444
-0.17088364 -0.09401842 -0.017363667 0.10006949 -0.19087368 -0.17230013 -0.06894103 0.07722017
-0.00021678366 -0.054534428 0.045939684 -0.088995405 -0.13160652 0.09207489 0.28986567 0.26721364
0.16724029 0.116650835 -0.12837087 -0.024209077 -0.09592305 -0.080332786 -0.07206488 -0.13440745
0.1148774 -0.047107156 0.06479352 -0.042214345 -0.14399101 -0.19353561 0.1179107 -0.14496578
0.017007707 0.0057171434 -0.17475428 0.026438406 -0.005086112 0.08931404 -0.17178446 0.07328293
-0.025945405 0.06747117 -0.013132714 -0.08603956 0.06164724 -0.054647483 -0.13711742 0.10199845
-0.04251092 -0.13769355 0.00964384 -0.081135176 0.16834547 0.01340656 0.059879832 0.11684506
0.17127766 -0.021504406 0.12527302 0.045814652 0.11439363 0.082456626 -0.17788999 0.13134252
0.013560496 -0.05976139 0.120337024 -0.004302508 0.08458063 0.03189575 -0.14582366 0.00036069241
-0.12042804 0.12811668 -0.053674553 0.11445139 0.01508771 -0.0409867 0.097736575 -0.08041025
-0.07239823 -0.03704832 0.12906073 0.00903072 -0.11116591 0.017908894 0.0707154 0.11980669
-0.06677359 -0.09769475 0.015732601 -0.051924787 -0.11633317 0.032063287 0.17419252 0.04076423
0.26307014 -0.13081573 0.06916428 0.12865949 -0.068906836 0.062692575 -0.022593295 0.0940731
-0.16613688 -0.2492481 -0.0035209332 0.23545735 -0.12156022 -0.14864412 -0.074801266 -0.089322984
0.099801965 -0.11892359 0.03524169 0.024382764 0.091359705 -0.017554862 0.09462235 -0.0639574
-0.02939849 -0.094112575 -0.06479195 0.052056894 -0.26773185 -0.03092794 0.015156992 0.05728633
-0.19464386 0.0434579 0.121134266 0.20384738 0.20821247 -0.021947524 -0.19017391 -0.30626968
-0.11735707 -0.07872858 -0.00584817 -0.03384932 -0.20061989 -0.28404254 0.04225681 -0.0042863158
0.042647302 0.017862411 -0.24440618 -0.06835636 -0.07701681 -0.07425115 -0.20843148 -0.00411653
0.24867122 0.00982766 -0.1389828 0.010968556 -0.00967514 -0.060042027 -0.04590287 0.04092778
0.11391139 0.08204498 -0.02211175 0.10621567 -0.13434188 -0.055551004 7.065933e-05 -0.30477607
0.16160269 0.21128748 0.012514393 -0.00866831 0.07412934 0.15974827 -0.010689387 0.14163178
0.07370462 -0.10139446 0.09974439 0.0385636 0.040607274 0.15604484 0.0040851054 -0.017500388
-0.074317284 0.12850371 0.044142652 -0.04676518 0.077275515 -0.0044394573 0.07979378 -0.037415233
-0.011504127 0.107348256 0.11150398 0.087054454 -0.20536737 -0.034448136 -0.06976258 0.050173286
0.08495525 0.16568361 0.2180825 0.09856049 0.19191137 -0.16963042 -0.061626807 -0.10703987
0.048834063 -0.05290329 0.02786112 0.09239339 -0.19231723 0.27112505 0.30895197 -0.039274685
-0.13378213 0.01458904 -0.18775202 0.012646915 0.11380502 0.069327265 -0.06868174 0.010012818
-0.05404239 -0.2144971 0.062163237 -0.1277015 -0.007753943 0.06077851 -0.049210623 0.110983744
0.12670417 0.17163378 0.037550353 0.17864673 0.076881774 -0.1549201 0.174249 -0.03172974
0.030541103 0.19216551 -0.07813128 0.14801532 0.27751067 -0.058476288 -0.113176145 -0.12981969

network_body._body_endoder.seq_layers.2.bias f4 [128]
00000000: 1aa3 063d 546b 9c3d 7467 f83b 1993 df3c
00000010: 62ae 263d 49f2 613d add0 013d 87de 013d
00000020: 7709 8b3c 4370 3b3d f2af 0b3d 127d ff3c
00000030: f67a a53c 385a ee3c 21c1 193d 43ee 2f3d
00000040: cbb9 3c3d c063 043d 2dcd 1c3d e8f3 843c
00000050: 1467 5f3c f3e3 013d c725 563d 9a43 233c
00000060: 6ed1 983c 517f 543c 5826 fc3c 0de4 0c3d
00000070: 542c 2d3d 5cc2 173d 3d7c d03c a675 1c3d
00000080: 8efb 193d 2589 ae3a f457 063b 985d 383d
00000090: 0f6f d63c 5fff ff3c 6c28 943c ed41 4e3d
000000a0: 901a e03c 7bf1 a43c 62b3 e23c fd18 983c
000000b0: b8d4 853c 9491 073d 65f5 993c b719 cc3c
000000c0: 1fc9 0d3d db0f dc3c 9184 f53c c85a 3c3d
000000d0: bab0 5d3c 57a6 9d3c af5e 9b3c bc71 bc3c
000000e0: 3d2e 033d 35f3 873b 368e 8e3c 166f 243d
000000f0: a07e 373b 3d61 133d 6bad 863c 3604 803c
00000100: e497 c93c cd3d 263d c331 fd3c b806 173d
00000110: 56ab c33c dc2f 053d e857 a83c e01f b73c
00000120: 890a f3bc 7cb5 1d3d 50fd f43c c6e8 a13c
00000130: 57f0 1abb e0fb bf3b ef21 4f3d 45c3 4f3c
00000140: 0a88 aa3c fe30 423d 4b96 563c b55c 263c
00000150: d2f9 903c 3f32 b73c 3789 013d 0b8a 843c
00000160: 9258 bc3c 45cb 6a3c 1da7 fa3b 439d 303d
00000170: adcc 883c 6b45 0c3d 3540 043d 4ddb 1c3d
00000180: c9c8 2e3d 0cd3 373c 441c ed3c 607c bf3c
00000190: 6b8b 2a3d 4cc3 393c 770d 9e3c bad6 363d
000001a0: b9fb 473d fe0c e83c 7355 9d3c c1af 323d
000001b0: f90c ab3c 6623 d33c 4db5 aa3c 7d69 193d
000001c0: d131 8b3c 0791 553c 7691 263d 719f dc3c
000001d0: cfba a23c d8d3 1f3d 9526 ab3c 22de c03c
000001e0: 127b c23c 3ccb 093d 28a0 483d ee48 433c
000001f0: e1f0 163d d369 b33c 24aa 223c 2e4d 3b3d
0.03287039 0.07637659 0.007580692 0.027291821 0.04069365 0.0551627 0.03169315 0.03170636
0.016972287 0.045761358 0.03410334 0.031187568 0.020200234 0.029095754 0.037537698 0.042951833
0.046075623 0.03232169 0.03828161 0.016229585 0.013635416 0.03171153 0.05228212 0.009964848
0.018654551 0.012969808 0.030780002 0.034397174 0.042278603 0.03705059 0.025449866 0.038198136
0.037593417 0.0013316019 0.0020499201 0.045011133 0.026176004 0.0312497 0.01808568 0.05035584
0.027356416 0.020134678 0.027673427 0.018566603 0.016336784 0.03309782 0.018793771 0.024914606
0.034615632 0.02686303 0.02997044 0.045985013 0.013530904 0.019244356 0.018966047 0.023003452
0.032026518 0.0041488656 0.017401796 0.040145002 0.0027999058 0.035981406 0.016440114 0.015627008
0.02460856 0.04058628 0.030907517 0.036871642 0.02388541 0.032516345 0.02054973 0.022354066
-0.02966811 0.038503155 0.029905945 0.019764315 -0.002364179 0.0058588833 0.05056947 0.012680833
0.020816822 0.047410004 0.013097356 0.010153939 0.017697249 0.022362826 0.031625 0.016179105
0.022991452 0.01433069 0.007649316 0.043118726 0.01669916 0.03424589 0.032287795 0.03829508
0.042671952 0.011219751 0.028944142 0.023374736 0.041636866 0.011338066 0.01929353 0.044638373
0.048824046 0.028326508 0.019205784 0.043624643 0.02088021 0.025773715 0.020838404 0.037454117
0.016991528 0.0130350655 0.040666066 0.026931496 0.019864468 0.03902039 0.02089242 0.023543421
0.023740325 0.033641085 0.048980862 0.011919243 0.036850814 0.021901047 0.00992826 0.0457279

action_model._discrete_distribution.branches.0.weight f4 [4, 128]
00000000: 7e54 76bd 0e8f 93bd 6ae8 11bd 02c3 41bd
00000010: bef4 9abd 74d7 3abd 488d f2bd 6e76 cfbd
00000020: 89ce 05bb 456e 913d c395 56bc 01e9 c93d
00000030: 9b12 cf3c 8d65 b2bd ced2 62bd d924 963d
00000040: d504 84bd ed4a a13d 04e0 35bd 23d5 b13d
00000050: 9395 48bc 9854 d73d cf29 a83d a0c4 70bd
00000060: 7cf1 ba3d 60ed e13a 8f0c 9b3c 2b32 d23c
00000070: 3096 92bd 94ed 813d 45e8 cebd 8960 913c
00000080: eba0 2b3d 2dff 6f3c 9fda 46bd ab3c 8bbd
00000090: 8d25 5c3d cf5e afbc b06f f63c 14b1 813d
000000a0: 475a 573d 989f afbc 0d40 ad3c 4184 413d
000000b0: 89dc e9bc 8919 983c e8ca a0ba 30bc 9dbd
000000c0: 8f1b 94bd c93c 33bd ff4e adbb d451 97bc
000000d0: 55ca 913b df32 3fbd f620 2abd dd18 93bc
000000e0: 16dc 89bd 32b6 ab3b e66b 9a3c 0f1d 293c
000000f0: 4d8d f2bb 3a35 e33c 8e6c 34bc e3c8 c0bc
00000100: 834c 9fbc b29a aebd 037c 98bb 3d7e 403c
00000110: b8ac 093d 843f d33a 8f20 8dbd bb20 8abd
00000120: a37f 3ebc 711b 87bd 98b4 893d daaf a4bd
00000130: fc5b 9fbc 9bcb 34bd 4398 e0bc 2dca bb3c
00000140: 14e6 9ebd 9198 febd f65c 453c fb25 e7bb
00000150: e609 5b3d 88c3 f0ba 16e6 033d acb4 8abb
00000160: 88d4 bb3b 337f 183d 35ac b13c f7b7 f3bd
00000170: 6a2b 4c3c 19a6 5cbc cb58 8bbd 3ba9 5abd
00000180: 3bb4 b33d a211 6e3c d671 20bd a5f4 8b3b
00000190: ac30 81bc b7e0 893c 1612 cc3c 201f d4bd
000001a0: 7828 44bd 0ffc 4abc ea33 8ebc 3f85 d63d
000001b0: 6e9b 64ba 036c 0dbb fcb2 6f3d d378 08bd
000001c0: e749 593c c492 e2bc 58c8 64bc a200 a03c
000001d0: 6aca a63d a0fd 663d 5e4a b53d 715e 0dbd
000001e0: df14 913c 80d0 cd3d 145a 87bd 29ce 93bc
000001f0: 1fd4 87bd a6dc b7bb 6de4 fbbb 95a1 c33c
00000200: ad5f 44bd 29b4 9c3d 6afa 22bd ba8f 9fbd
00000210: 5af6 5bbd 963a f93b 324c 0bbc 1db9 b6bc
00000220: c8f3 263b ecfe d8bd 6559 923d a7aa 5dbd
00000230: 2dfa b0bc 2ad3 023d ce8a e43d 930f dfbd
00000240: 340b 60bd 247d 17be 20a8 9d3d 738e 80bd
00000250: 5777 643d 87b6 1fbe 4d47 fdbd 9188 1c3c
00000260: 49c7 94bd 847e d03c 67c5 893d 7456 e6bd
00000270: c6a7 f13d b67c 11be ec36 103d 15c4 c4bd
00000280: 179e 22be 3bf4 fcbc 3dc3 f9bc 292a 953d
00000290: a1ef 4abd 080a bcbc 6460 10bd 383a d5bd
000002a0: a00e c13c 2080 973d 3a11 683d 8919 b03c
000002b0: c91a 80bd 60f2 903d 27f2 f4bd ba3a 1d3c
000002c0: ab68 c5bc b003 4f3d f420 a83d 517f 6b3d
000002d0: 2156 a03c 3a13 ad3d 4058 e23b 447c b43d
000002e0: f4c3 f5bc 2c62 8abd eb05 643d dd9b 58bd
000002f0: 9907 84bd 538a 3ebb 07da 9f3d 2c0e 6e3d
00000300: d017 5bbd 68b9 33bd 9b19 8b3d 2fdf 453d
00000310: fe01 293d 2fe9 8d3d a6ff 853d f7bc 833d
00000320: bdd3 c8bc b35d c03d ab99 e4bd 0912 2b3c
00000330: f003 c0bc ed0a 4ebd d0c4 833d a66a 83bd
00000340: 560e 793d 3f94 293c 84c6 fe3c 655c 4e3d
00000350: 9af6 0bbe 4051 663d 92f6 16be 2e95 533d
00000360: 5f8f 96bd 3367 e43c 42d0 163c 3596 373d
00000370: f6c5 393d fa9f 983d e889 f73d f7c3 7fbd
00000380: 1b3a 63bd c1b8 5c3c 2275 be3d 0896 c3bd
00000390: 865d ce3c 4437 82bd 1073 0e3d 5a57 5dbc
000003a0: 1bca fd3d 7bb9 cebd 5cde d0bd f6a1 50be
000003b0: bd9b b5bd 5127 0f3d fffa 5a3c 9eff 993d
000003c0: 9af0 503d 971f b3bd 9806 1f3d 18e5 0ebe
000003d0: 9a88 26be 7670 c8bd d299 43bd 2104 773d
000003e0: 1fca 163d 87bf 1ebe 7bd5 d73d e737 893d
000003f0: 32ab 96bd a913 9b3d 2f13 51bd 5b2d 433c
-0.06013917 -0.0720502 -0.035622038 -0.047305115 -0.07566212 -0.04561563 -0.118433535 -0.101300105
-0.0020417294 0.0710111 -0.013097229 0.09858895 0.025277426 -0.087107755 -0.05537682 0.07331247
-0.06446234 0.07875619 -0.04440309 0.08683231 -0.0122426925 0.10514182 0.08211099 -0.058781266
0.09128091 0.0017236881 0.018926887 0.025658688 -0.07157552 0.063441426 -0.10102896 0.017746227
0.04190151 0.014648241 -0.048548337 -0.06798681 0.05374675 -0.021407513 0.030082554 0.06332603
0.05257633 -0.021438405 0.021148706 0.047245268 -0.028547542 0.018566864 -0.0012267502 -0.077019095
-0.07231819 -0.04375914 -0.005288958 -0.018471636 0.0044491687 -0.046679374 -0.04153534 -0.017956192
-0.06731431 0.0052402252 0.018850278 0.0103218695 -0.0074020983 0.027735341 -0.01101221 -0.02353329
-0.019445663 -0.085255995 -0.004653455 0.011748848 0.033611983 0.0016116952 -0.06890976 -0.06744524
-0.011627111 -0.06597031 0.06723899 -0.080413535 -0.019453041 -0.044139486 -0.027416354 0.022923553
-0.07758728 -0.124314435 0.012046089 -0.007054088 0.053476237 -0.001836882 0.03220185 -0.0042329635
0.005732123 0.03723068 0.02168856 -0.11900323 0.012461523 -0.013467335 -0.06804045 -0.053384047
0.087746106 0.014530571 -0.039171062 0.0042711073 -0.015770279 0.016830785 0.024910968 -0.10357499
-0.047890157 -0.012389197 -0.017358739 0.104746334 -0.00087206706 -0.0021579273 0.058520302 -0.033318352
0.013262249 -0.027657874 -0.013963781 0.019531552 0.08144076 0.05639422 0.08852075 -0.034513894
0.017710147 0.10049534 -0.06608978 -0.01804264 -0.06632256 -0.00561102 -0.0076871426 0.02388076
-0.047942806 0.0765155 -0.039789595 -0.077910855 -0.053701736 0.007605861 -0.008502053 -0.022305066
0.0025474895 -0.105954975 0.07145957 -0.054117825 -0.021603668 0.031939663 0.111592874 -0.108916424
-0.054698184 -0.14793831 0.07698083 -0.0627717 0.055777874 -0.15596972 -0.12367115 0.009554044
-0.07264573 0.025450952 0.06727105 -0.112469584 0.11799578 -0.1420773 0.035208628 -0.09607712
-0.15880619 -0.030878177 -0.030488605 0.07283432 -0.049544934 -0.022954002 -0.035248175 -0.10411495
0.023566544 0.07397485 0.056657054 0.021496551 -0.06255109 0.07077479 -0.119602494 0.009596521
-0.024097761 0.050540626 0.0820941 0.057494465 0.01957232 0.08450933 0.006907493 0.08812764
-0.030000664 -0.06757006 0.055669706 -0.052883018 -0.06446762 -0.0029074147 0.07805257 0.058118984
-0.053489506 -0.04387799 0.06791993 0.048308548 0.041261666 0.06929242 0.06542902 0.064325266
-0.024515027 0.09392872 -0.11162122 0.010441312 -0.023439378 -0.05030339 0.064340234 -0.06416826
0.060804687 0.010350286 0.031100519 0.050381083 -0.1366829 0.05622983 -0.14742497 0.05165594
-0.073515646 0.02788124 0.009204926 0.044820983 0.045354806 0.07452388 0.120868504 -0.062442746
-0.055475336 0.013471783 0.09299685 -0.095501006 0.02519108 -0.06358197 0.0347777 -0.013509596
0.12392064 -0.10093971 -0.10198662 -0.20374283 -0.08867595 0.034949604 0.013365506 0.07519458
0.051010706 -0.0874626 0.038824648 -0.1395458 -0.16263047 -0.09787075 -0.047754116 0.060306672
0.03681385 -0.1550275 0.10538765 0.06700116 -0.07356872 0.07572109 -0.051043686 0.011912669

action_model._discrete_distribution.branches.0.bias f4 [4]
00000000: 6374 a5bb f381 a13b 4ec2 02ba 90e8 31bb
-0.005049275 0.004928821 -0.000498806 -0.0027146675

exp_avg f4 [128, 9]
00000000: 0805 063a 3c00 0080 3e35 f538 a2c7 ac39
00000010: 69dd 6938 6db7 043a a11d 8037 71fe 1a3a
00000020: 34c6 063a 9a2d 0d3a 4f00 0080 e8e1 1639
00000030: d9e9 b539 2185 9e39 6c4a eb39 75f0 4a37
00000040: ab3b f539 2dde 093a 99e9 1138 0400 0080
00000050: 39a9 3637 018f bb37 03f7 2338 ca86 c937
00000060: 945d f7b3 d489 8a37 3453 0938 999b e0b8
00000070: 4c00 0000 ff5b d1b7 bf7b 90b8 0530 95b7
00000080: 9712 e1b8 793c 06b5 95f8 f9b8 0cf3 e0b8
00000090: 8628 33b6 0400 0000 df77 6036 747f dcb5
000000a0: b846 6638 6205 4ab7 3aef 6735 3bfd 50b8
000000b0: 9681 bcb6 8035 12b7 0400 0000 7920 ff34
000000c0: f849 b8b6 f8dc 0838 773f 8cb7 3dc3 0336
000000d0: c885 1eb8 7fe7 30b7 adb7 b537 4c00 0000
000000e0: 7869 f237 ec29 6137 e048 a539 7610 23b8
000000f0: 0513 25b7 4291 63b9 d1eb 6436 ab55 b4b9
00000100: 4c00 0000 e1f8 cdb8 4e1f 68b9 227b a5b9
00000110: 6ec9 a3b9 0fb5 3eb6 1adf 22b9 227e adb9
00000120: a5fd 2e39 1300 0000 c6a8 7338 28c6 e138
00000130: b0dc a039 105a 0c39 3b45 c736 f3a5 88b8
00000140: d23d 2039 6798 58b5 0400 0080 353f 05b5
00000150: 0670 01b5 0e3b 58b6 badf dc34 97b0 0035
00000160: 89b8 0235 238d 14b5 1971 98b9 3a00 0000
00000170: f2f3 a5b8 67a8 44b9 c362 3fb9 2ff3 75b9
00000180: 5392 25b7 5431 79b9 2d5f 94b9 9489 6aba
00000190: 5e00 0000 3297 83b9 202c 17ba a77b 43ba
000001a0: a5f4 4fba b686 c5b7 cef2 fcb9 83ad 62ba
000001b0: 9595 fc38 1d00 0000 2624 e237 3e56 9d38
000001c0: c976 b9b7 0bcf 1239 c074 35b8 f667 5239
000001d0: 4688 fb38 16b2 a539 2000 0080 3a34 ac38
000001e0: 357c 5539 f364 1e39 52f3 8f39 c5f4 e036
000001f0: 0212 9839 f8b7 a239 aba6 9539 1500 0080
00000200: 01c9 a138 6ad7 4039 1612 3939 aa65 7b39
00000210: 9955 e036 0ea4 7039 d3ca 9139 f882 9839
00000220: 0400 0000 49c8 9438 83f5 4239 428a a638
00000230: 4bcb 9939 adc3 a3b7 7467 a339 931a 9739
00000240: c980 0ab8 0900 0080 8a8f 3cb7 cfe4 b1b7
00000250: 1525 4fb8 45b5 afb7 23e6 0e35 b67f beb6
00000260: 98e5 feb7 9c6b 27b6 4f00 0000 9f12 c237
00000270: de27 aab5 bea3 b439 8ab5 33b8 a890 b836
00000280: b10c a4b9 3487 a9b7 de5e eab8 1500 0080
00000290: 2dc5 4eb8 a8f2 95b8 bb5e 92b9 a360 02b7
000002a0: fc53 0c37 f020 c237 91b0 c5b8 556b d938
000002b0: 1a00 0080 685c cd37 af21 8c38 4b9f cb37
000002c0: 5520 d938 ebdc 3d36 50fe de38 6a67 d938
000002d0: 7a28 0c37 1700 0000 ad6e 8037 05b0 bc36
000002e0: 6686 4239 1a87 d6b7 26b9 8036 8cb5 17b9
000002f0: cb3d d0b5 8339 2d3a 1700 0080 a3d1 4339
00000300: 729c df39 e4d7 163a 2bac 173a 6d1f ec37
00000310: 4418 ac39 3b3e 273a b5f2 5eba 1a00 0000
00000320: b3d4 83b9 857f 0fba 83de 53ba d485 2dba
00000330: bc19 fdb6 e373 f4b9 87d8 54ba da84 4fba
00000340: 0c00 0000 3e3d 77b9 fc7d 05ba 6e84 43ba
00000350: 87df 19ba aa3b e8b5 48f8 f8b9 7fbd 45ba
00000360: 8015 4fba 4f00 0000 08d8 56b9 8531 05ba
00000370: 6475 c6b9 0479 39ba fc89 acb5 bf4b 3cba
00000380: b24b 4bba 98ca 56b9 4c00 0000 c1af 3bb8
00000390: d561 0ab9 2f03 ff35 19da 5fb9 7a37 9fb6
000003a0: e40e 84b9 e79a 59b9 9d83 0038 1300 0000
000003b0: 7896 9837 e661 a837 d1ad 3339 ed14 6537
000003c0: 84c2 e236 fa4a ffb8 5432 bd37 b267 b3ba
000003d0: 4c00 0000 4cc0 c5b9 3522 67ba ae98 77ba
000003e0: f2e0 94ba 9638 e0b7 64e3 85ba 630c aeba
000003f0: c902 053a 3d00 0080 53d5 0639 a63c ab39
0.0005112444 -8.4e-44 0.000116924275 0.00032955135 5.5757733e-05 0.0005062733 1.5272586e-05 0.00059125485
0.0005141229 0.00053855183 -1.11e-43 0.00014389271 0.0003469724 0.00030235297 0.00044878141 1.2096124e-05
0.00046774498 0.0005259242 3.478825e-05 -6e-45 1.0887446e-05 2.2358729e-05 3.9092276e-05 2.4023833e-05
-1.15188556e-07 1.6515063e-05 3.2740834e-05 -0.00010710135 1.06e-43 -2.495758e-05 -6.8895046e-05 -1.7784545e-05
-0.00010732299 -5.000689e-07 -0.00011919547 -0.00010726423 -2.6696666e-06 6e-45 3.3448375e-06 -1.6428371e-06
5.4902135e-05 -1.20413915e-05 8.6402326e-07 -4.9826904e-05 -5.6179224e-06 -8.714735e-06 6e-45 4.7521078e-07
-5.4922384e-06 3.263072e-05 -1.6718854e-05 1.9634165e-06 -3.779473e-05 -1.0544317e-05 2.1662412e-05 1.06e-43
2.889776e-05 1.3420806e-05 0.0003152555 -3.887756e-05 -9.839195e-06 -0.0002170252 3.411191e-06 -0.00034396103
1.06e-43 -9.821519e-05 -0.00022136906 -0.00031562994 -0.0003123986 -2.8417596e-06 -0.00015532636 -0.00033091108
0.00016688423 2.7e-44 5.8092897e-05 0.000107657455 0.00030682003 0.00013384991 5.9387216e-06 -6.515896e-05
0.00015281819 -8.0688045e-07 -6e-45 -4.963834e-07 -4.821926e-07 -3.2220883e-06 4.1140976e-07 4.794069e-07
4.869731e-07 -5.533968e-07 -0.00029075964 8.1e-44 -7.9132515e-05 -0.00018754751 -0.00018251971 -0.00023455614
-9.868835e-06 -0.00023764867 -0.0002829967 -0.00089468923 1.32e-43 -0.00025098916 -0.0005766768 -0.00074570853
-0.0007932878 -2.354696e-05 -0.0004824609 -0.0008647071 0.00012044158 4e-44 2.6958132e-05 7.502407e-05
-2.2109032e-05 0.00014000775 -4.3262495e-05 0.00020065889 0.000119939956 0.00031603937 -4.5e-44 8.211327e-05
0.00020359534 0.0001510566 0.00027456373 6.704215e-06 0.00029005116 0.00031036115 0.00028543672 -3e-44
7.714518e-05 0.00018390795 0.00017649712 0.00023975098 6.685685e-06 0.00022949299 0.0002780767 0.00029089279
6e-45 7.094496e-05 0.00018592742 7.941249e-05 0.000293339 -1.9522233e-05 0.0003116686 0.00028820764
-3.3021704e-05 -1.3e-44 -1.12390935e-05 -2.1206592e-05 -4.938718e-05 -2.0946036e-05 5.3234015e-07 -5.6773088e-06
-3.0386072e-05 -2.4947576e-06 1.11e-43 2.3135273e-05 -1.267759e-06 0.00034454273 -4.2845997e-05 5.5004675e-06
-0.00031289973 -2.0209329e-05 -0.0001117566 -3e-44 -4.929786e-05 -7.150072e-05 -0.0002791787 -7.771104e-06
8.364204e-06 2.314194e-05 -9.42658e-05 0.000103673585 -3.6e-44 2.4480934e-05 6.681994e-05 2.4273662e-05
0.00010353389 2.8291786e-06 0.00010633154 0.00010366629 8.354074e-06 3.2e-44 1.5310326e-05 5.623328e-06
0.00018551349 -2.55737e-05 3.8362514e-06 -0.00014468114 -1.5515192e-06 0.0006607996 -3.2e-44 0.00018674745
0.00042650435 0.0005754216 0.0005785848 2.8148026e-05 0.00032824476 0.00063798175 -0.0008504794 3.6e-44
-0.0002514474 -0.0005474019 -0.0008082168 -0.0006619368 -7.5429834e-06 -0.0004662565 -0.00081194233 -0.000791622
1.7e-44 -0.0002357857 -0.00050923205 -0.0007458393 -0.0005869795 -1.7302712e-06 -0.0004748723 -0.0007543191
-0.0007899627 1.11e-43 -0.00020489108 -0.00050809263 -0.00037852966 -0.00070752227 -1.2855157e-06 -0.0007182918
-0.0007755115 -0.00020484102 1.06e-43 -4.4747958e-05 -0.00013197151 1.8999907e-06 -0.00021348185 -4.7450276e-06
-0.00025188096 -0.00020752438 3.0640153e-05 2.7e-44 1.818988e-05 2.0072748e-05 0.00017135522 1.3654336e-05
6.7579695e-06 -0.00012173313 2.2553992e-05 -0.001368752 1.06e-43 -0.0003771804 -0.0008817048 -0.00094450533
-0.0011358543 -2.672923e-05 -0.0010214862 -0.0013278838 0.00050739624 -8.5e-44 0.00012858705 0.00032660848

exp_avg_sq f4 [128, 9]
00000000: 2850 8837 17ec 3a35 d9c7 8435 de53 0137
00000010: 9396 4d36 b020 a937 1776 a235 6475 ca37
00000020: 54eb 8c37 6803 b136 356c f235 a07b 4135
00000030: eda8 9536 1fd8 c836 8d4f 1837 bcbb 6b36
00000040: 61fc 3737 3dc2 ba36 0c57 dc32 5060 bc32
00000050: 1935 f231 32d7 1c33 c87c 1634 7d36 0934
00000060: f4b7 e130 9c93 b132 5cee f932 152b 4035
00000070: b1f9 9735 7fae 2a34 0b06 c535 bd7c b334
00000080: af9d cd36 009e 9b34 fcec c836 dde3 6635
00000090: 8d42 8134 af33 8133 cca9 cf32 172b 3734
000000a0: ee44 9434 fe15 1835 0630 1133 46d9 a834
000000b0: acc9 8a34 2c70 1334 db41 6a32 233c 1f32
000000c0: 8d7c ab33 ebd6 9d33 b70a 5534 e2e5 fc32
000000d0: 2abd 5634 1d39 1d34 12c8 7937 06b1 9835
000000e0: 2f5a 7c35 08cd 0237 74f6 b336 aaf2 bb37
000000f0: 6ae7 ba35 7ba0 b137 238b 8337 415a 2d36
00000100: a422 f435 a8aa 0a35 6500 6036 42a7 0537
00000110: 3ac0 2d37 cea1 8b35 5514 8736 4c01 4836
00000120: 1957 9e36 8d9f 0d35 f601 af34 ec0d 3636
00000130: dbd1 8936 6544 1237 687a 3034 0e35 ad36
00000140: 4e8e a936 5ca6 8730 bdc7 8d31 ae62 2b30
00000150: c93f c931 84ad 3532 f9c0 2a32 67a2 3e32
00000160: 3878 3b32 3187 ff30 9921 8336 a13a 0e35
00000170: a1b7 a134 efe4 1936 2628 ae35 b274 c536
00000180: 6e29 5435 78df e436 b939 8936 f22e 7137
00000190: a794 8c36 f824 0936 80b4 4337 59c2 dd37
000001a0: 7fa5 e837 d4e5 c436 faf6 5637 49ca 8237
000001b0: 13db 9937 b351 1736 465c 1036 12c3 3637
000001c0: 8945 8137 3e29 2237 8fe5 3d37 42ec 0338
000001d0: 5cb6 9637 519e 3a36 6dad 2534 a3f6 3634
000001e0: 59c2 b535 179e 3135 9b6d 7b36 db9a 3334
000001f0: 6c25 8636 c4cf 4136 f55a b735 5654 8e33
00000200: e82b e633 04ea 3235 f668 7e35 a34f c635
00000210: 3755 1534 e9ff d635 0ab9 b535 b66c a736
00000220: e67b 8935 6684 2735 523a 6036 8f80 3336
00000230: c398 b836 06df 6f36 6822 1c37 d806 b136
00000240: f75b e933 40e9 f232 3025 7f32 2537 a633
00000250: c1c7 2e34 f2bb 4134 28dd fc32 b4ad 3c34
00000260: 434f eb33 1bd0 a637 99a8 5236 28b6 ac35
00000270: ca88 4b37 c264 1937 f158 3038 e17e dd34
00000280: d0cc 0a38 603b b437 eaad 8436 9bfb 9635
00000290: ef10 3c35 f5d3 4d36 32d4 e636 e33b 9336
000002a0: 946d 1c36 a6dd bb36 d842 8736 6b4a c534
000002b0: 07d0 8233 cd14 c132 b4ac 7834 1537 ba33
000002c0: b16c 3235 5aa1 ed33 379b 3835 7b1e d434
000002d0: 20a3 8a36 482d 8234 9afd 7034 53cf 0b36
000002e0: 9d77 c235 0b61 dd36 9c09 4e33 dc3f b336
000002f0: 2bec 9336 039c 4337 438b e535 65dc a035
00000300: aa12 0037 89aa 8a37 c111 8a37 bb34 5736
00000310: cea9 4f37 e14e 4837 368b 4b37 a60c d535
00000320: 7493 bc35 30a2 f936 3f93 b637 f42c 9137
00000330: 3355 7735 7b5a c236 7bdb 4f37 f926 4037
00000340: ac53 8435 6c07 aa35 80f0 d436 136e 9a37
00000350: cd61 5137 35da 4035 a831 ef36 156d 3d37
00000360: 29ed b037 fdbd e835 9b24 bd35 fe65 3637
00000370: 2c1d de36 d9e9 0438 9d4c 6a35 1f97 ff37
00000380: 38a2 b937 8750 7e36 f40f 8f35 9ed4 a634
00000390: 838f 3636 1da2 8534 74fd 1737 6835 3f35
000003a0: b556 1f37 138d 8a36 1466 9d36 1107 ac34
000003b0: 4b15 b334 4b69 2036 6aea 2e36 8626 db36
000003c0: 30cb 6734 cd4c d136 09da a136 195e 1938
000003d0: 63d4 0d36 ff2b 4136 4a14 9c37 a637 da37
000003e0: dd74 3638 7888 4536 534b 1d38 3efc 1d38
000003f0: 6369 2137 ad05 2235 1141 1e35 3b5f 9e36
1.6249789e-05 6.9633955e-07 9.89293e-07 7.708526e-06 3.0635026e-06 2.0161591e-05 1.2104309e-06 2.413494e-05
1.6798884e-05 5.2754076e-06 1.8061897e-06 7.2078e-07 4.4602116e-06 5.9856243e-06 9.078428e-06 3.5127005e-06
1.09664115e-05 5.5658443e-06 2.5650955e-08 2.1929878e-08 7.0491635e-09 3.65173e-08 1.4015234e-07 1.2778942e-07
1.6423187e-09 2.0672637e-08 2.9095808e-08 7.1588266e-07 1.1323046e-06 1.5895965e-07 1.4679403e-06 3.3432107e-07
6.127833e-06 2.898596e-07 5.988053e-06 8.601326e-07 2.4076544e-07 6.016432e-08 2.4175186e-08 1.7058879e-07
2.76173e-07 5.6656415e-07 3.380412e-08 3.1450526e-07 2.585124e-07 1.373125e-07 1.36355665e-08 9.268692e-09
7.985464e-08 7.3499756e-08 1.9841069e-07 2.94412e-08 1.999912e-07 1.4642542e-07 1.4888139e-05 1.1376403e-06
9.400855e-07 7.796341e-06 5.3633066e-06 2.2405136e-05 1.392543e-06 2.1174774e-05 1.5681208e-05 2.5831544e-06
1.8189498e-06 5.1657344e-07 3.337883e-06 7.9663605e-06 1.035636e-05 1.0403398e-06 4.0256805e-06 2.9803077e-06
4.7189064e-06 5.275877e-07 3.2597717e-07 2.7128217e-06 4.1073486e-06 8.7182025e-06 1.6435808e-07 5.161978e-06
5.053159e-06 9.869825e-10 4.1263477e-09 6.234967e-10 5.8571215e-09 1.05750395e-08 9.939179e-09 1.1096382e-08
1.0912167e-08 1.8592116e-09 3.9080155e-06 5.298444e-07 3.0122195e-07 2.2932034e-06 1.2975695e-06 5.8846426e-06
7.903644e-07 6.8209447e-06 4.089638e-06 1.437565e-05 4.1896305e-06 2.043611e-06 1.1664932e-05 2.6435753e-05
2.773362e-05 5.8680107e-06 1.2812898e-05 1.5591404e-05 1.8341036e-05 2.2548309e-06 2.1511382e-06 1.0893464e-05
1.5410378e-05 9.665555e-06 1.1318726e-05 3.1452866e-05 1.7966311e-05 2.7808312e-06 1.5429914e-07 1.7039797e-07
1.3542113e-06 6.616769e-07 3.7465713e-06 1.672701e-07 3.9978677e-06 2.8880177e-06 1.3661034e-06 6.627731e-08
1.0718196e-07 6.6650705e-07 9.477511e-07 1.4775327e-06 1.3907707e-07 1.6018722e-06 1.3539404e-06 4.9896435e-06
1.0243355e-06 6.2405013e-07 3.3412548e-06 2.674791e-06 5.501411e-06 3.5743592e-06 9.306335e-06 5.275808e-06
1.0866636e-07 2.8278578e-08 1.4851409e-08 7.740008e-08 1.6277683e-07 1.80429e-07 2.9437231e-08 1.7572057e-07
1.0957458e-07 1.9885649e-05 3.1390575e-06 1.2868013e-06 1.2131592e-05 9.14297e-06 4.2044503e-05 4.1256774e-07
3.309251e-05 2.148532e-05 3.954153e-06 1.1249098e-06 7.00601e-07 3.0670756e-06 6.879237e-06 4.387913e-06
2.3309594e-06 5.5988376e-06 4.031095e-06 3.6748256e-07 6.091437e-08 2.2477616e-08 2.3159629e-07 8.671319e-08
6.6468334e-07 1.1065522e-07 6.877121e-07 3.9510255e-07 4.1317107e-06 2.4247333e-07 2.2444002e-07 2.0833293e-06
1.4488938e-06 6.5976105e-06 4.7971852e-08 5.34205e-06 4.408435e-06 1.165923e-05 1.710236e-06 1.1985072e-06
7.63374e-06 1.6530294e-05 1.645915e-05 3.206819e-06 1.2377697e-05 1.1939294e-05 1.21321555e-05 1.5873418e-06
1.4050006e-06 7.4396594e-06 2.1764658e-05 1.730628e-05 9.213865e-07 5.792184e-06 1.2389263e-05 1.1453166e-05
9.859118e-07 1.2668147e-06 6.3460902e-06 1.8409488e-05 1.2480142e-05 7.1843107e-07 7.128536e-06 1.12906755e-05
2.1091271e-05 1.7340641e-06 1.4092251e-06 1.0871792e-05 6.6195116e-06 3.168904e-05 8.728328e-07 3.046874e-05
2.2129258e-05 3.7895823e-06 1.0658973e-06 3.107461e-07 2.7203648e-06 2.4891133e-07 9.059313e-06 7.123076e-07
9.497327e-06 4.1291437e-06 4.690848e-06 3.2042638e-07 3.335684e-07 2.3903146e-06 2.6064467e-06 6.5311933e-06
2.158747e-07 6.237626e-06 4.8235565e-06 3.6565678e-05 2.1134263e-06 2.878485e-06 1.8606097e-05 2.6013538e-05
4.350102e-05 2.9434723e-06 3.7501868e-05 3.7666636e-05 9.620885e-06 6.035796e-07 5.895427e-07 4.719853e-06

exp_avg f4 [128]
00000000: 502a 193a ae58 213a d1c1 2638 e858 00b9
00000010: cdc0 4cb6 b118 27b7 13ad cf37 c418 ceb9
00000020: 4cfd 4739 9889 77b5 1f38 aeb9 7a05 86ba
00000030: 7855 1039 cf5d bd39 9e07 ab39 874c ae39
00000040: 0f4a 1eb8 0a53 3fb6 10ed 05b9 ac7a f838
00000050: 732e 2037 95f8 453a 3dcc 7eba 1a2a 6dba
00000060: dbaa 6cba d879 75b9 6ddf 1238 c908 cdba
00000070: 2b03 183a c93b 8039 7733 8837 d5a0 edb9
00000080: c66f 12ba 5e54 5c37 8728 ec39 852d 3439
00000090: b396 2f3a 00f4 7739 e5e1 8db7 1f82 8739
000000a0: 4033 2f38 c6b6 95b8 0fb2 cd39 3b27 a438
000000b0: 8532 e937 02f7 b6b9 5701 0139 1599 4739
000000c0: 7c1a 043a b64c 54ba 01d9 8ab8 02e7 a538
000000d0: ea20 50b9 d10e e637 e37c ae39 e6c8 96ba
000000e0: c895 0ab9 b22e 9e3a c8e2 fb39 7b43 f837
000000f0: 9258 75b8 ce04 e8b9 ebd0 a639 3a6c 0db9
00000100: 5090 92b9 6f0a 3739 3609 a4b8 53f0 6839
00000110: 724e 27ba b025 b937 d8ce 2438 4d57 06ba
00000120: 9d7d 4ab9 4609 a439 9a5b 1cba 69c0 9039
00000130: a3dc a9b8 cf0f 3c3a 0e80 c037 ba15 3c3a
00000140: d224 e5b7 b3ae 55b9 ffd7 8cb9 5b32 2dba
00000150: 6401 50ba ffd3 c638 9c5e 27b3 fdc3 ce38
00000160: 2de7 3539 7b63 1eb8 de89 c2b9 a1cb 81b8
00000170: ccec 933a 768a 28ba 1284 b8ba f057 1739
00000180: 7cff bb39 9354 d239 73c6 19ba 04ff 5439
00000190: 977f 4039 2ad3 a539 8f82 1b3a b207 0bb9
000001a0: 4a5a f0b9 7163 c839 7800 1638 6046 9bb9
000001b0: ce51 bfb7 c5fd 20ba d21b 7337 bde1 04ba
000001c0: f7bd 88b9 a9aa 823a 6d2b e439 9a13 85ba
000001d0: 8b04 e1b8 e315 9c37 24f4 05b9 a65b 92b7
000001e0: 4007 80ba f5c5 6d3a bc54 14ba eaf8 e4b8
000001f0: 917f 1aba b291 40ba 336f 37b8 751d 1f3a
0.0005842792 0.0006154877 3.975799e-05 -0.00012240151 -3.0510594e-06 -9.959725e-06 2.4756917e-05 -0.00039309834
0.0001907248 -9.2214896e-07 -0.0003322968 -0.0010225021 0.0001376475 0.00036118782 0.00032621337 0.00033244884
-3.7739108e-05 -2.8509553e-06 -0.00012772181 0.00011848411 9.547558e-06 0.0007551995 -0.0009719765 -0.0009047106
-0.0009028145 -0.00023410411 3.5017194e-05 -0.0015642877 0.0005798812 0.00024458606 1.6236429e-05 -0.00045323992
-0.00055861135 1.3132665e-05 0.00045043623 0.00017183095 0.0006698176 0.00023646653 -1.69137e-05 0.00025846154
4.177098e-05 -7.138918e-05 0.0003923331 7.827437e-05 2.779929e-05 -0.0003489778 0.00012302898 0.00019035146
0.0005039347 -0.0008098589 -6.620773e-05 7.910842e-05 -0.00019848687 2.7425036e-05 0.00033280914 -0.0011503964
-0.00013216503 0.001206836 0.00048043416 2.9595327e-05 -5.849504e-05 -0.00044254068 0.00031817643 -0.00013487125
-0.0002795481 0.00017456127 -7.821845e-05 0.00022214772 -0.00063822337 2.2071268e-05 3.9293285e-05 -0.0005124703
-0.00019311016 0.00031287427 -0.00059645774 0.00027609177 -8.099645e-05 0.00071739865 2.2947814e-05 0.00071748684
-2.7316073e-05 -0.00020378343 -0.0002686381 -0.000660693 -0.00079347775 9.480863e-05 -3.8968764e-08 9.859351e-05
0.00017347625 -3.7762784e-05 -0.00037105283 -6.189128e-05 0.0011285781 -0.00064293237 -0.0014077446 0.00014433241
0.0003585777 0.00040117334 -0.0005866058 0.00020312896 0.00018358078 0.00031628582 0.00059322355 -0.0001325894
-0.00045843638 0.00038221062 3.5763223e-05 -0.00029616337 -2.2807068e-05 -0.000614133 1.4490406e-05 -0.0005069038
-0.00026081476 0.0009969074 0.00043519904 -0.0010152936 -0.00010729682 1.8606841e-05 -0.00012774818 -1.7447233e-05
-0.0009767786 0.00090703304 -0.00056583784 -0.00010918251 -0.00058936427 -0.0007345929 -4.3734162e-05 0.0006069758

exp_avg_sq f4 [128]
00000000: 4b55 ce37 9d5c 7937 4617 1e34 978a d936
00000010: 9281 2135 48b7 8434 9030 d237 7dcb 4937
00000020: 12cc 1537 c560 be32 7242 ff36 2e56 1d38
00000030: 46fc 0838 2488 9336 a73e 0f36 fb9e 2937
00000040: 1c29 9334 8a8e 3038 e2fd 1c37 3257 5535
00000050: 3537 df36 7711 c937 1ded c437 caf4 a537
00000060: cc9e 1438 0b7e 2637 fc5d 0137 698a 6f38
00000070: 74a7 8137 7459 9636 a444 c035 4ac8 0a37
00000080: 4383 2138 f690 3036 fd37 ae37 43f1 d336
00000090: 7d92 fd37 df31 db36 9224 d032 ecdc e936
000000a0: bc61 c834 94e7 4b36 2c3e a537 f396 ac37
000000b0: ffb8 cd34 446b d936 b718 cb35 b6d5 0436
000000c0: 1175 3937 01f2 ea37 e94f 3e36 c97f 7f35
000000d0: b8c0 a036 4519 0b36 a476 5a37 d71c 2f38
000000e0: 43b4 ae36 4ea7 d137 27d5 3b37 7aab 5b36
000000f0: 3ccd d636 8e63 8137 0681 9036 e324 4237
00000100: dcfd 9836 b08d 3836 d4d7 ea34 7445 0638
00000110: e032 3b37 a21b 0e34 c02a c636 58be 3a37
00000120: b872 0037 c4d1 da36 dd58 5b37 3130 e036
00000130: b3e2 8237 e704 9837 fdb7 0934 daf0 5f38
00000140: d68f 8f36 4d44 9e37 ac9e e436 0f95 d837
00000150: 5489 1038 9b19 a135 6701 6337 1315 a037
00000160: 9d9d 4036 761d 3536 a944 8938 6810 df36
00000170: 83bd ff37 1e64 9537 2853 5238 fda7 d237
00000180: df79 4a37 e9b7 2c36 65bb 2637 1e7e 1136
00000190: d24e 2437 a001 2d36 683a 5b38 10ae 6135
000001a0: 9f80 b236 24f8 a637 1ef6 6335 4259 1036
000001b0: 9bbb d533 8916 6437 5432 4832 626b 1137
000001c0: 123f 4737 4944 e037 3583 f337 2f32 0138
000001d0: 34d0 5836 b4cc 1c34 c4fd 5e37 a5e7 9d35
000001e0: 11a4 6f38 fb52 0f38 f3a3 1937 9bb9 8535
000001f0: b943 2137 8bc5 4237 abb8 ce37 0745 9537
2.4596831e-05 1.486312e-05 1.4723364e-07 6.483238e-06 6.0165723e-07 2.472027e-07 2.5056564e-05 1.2027912e-05
8.928606e-06 2.2162917e-08 7.6073275e-06 3.7511978e-05 3.2659875e-05 4.3967902e-06 2.134513e-06 1.01102005e-05
2.7410795e-07 4.209442e-05 9.357436e-06 7.947557e-07 6.652345e-06 2.39692e-05 2.3475435e-05 1.9783522e-05
3.543384e-05 9.923718e-06 7.710882e-06 5.7110945e-05 1.5455975e-05 4.480762e-06 1.4325092e-06 8.272074e-06
3.850764e-05 2.6310422e-06 2.0768488e-05 6.3163766e-06 3.0228164e-05 6.5325144e-06 2.4231017e-08 6.96966e-06
3.7324014e-07 3.0384153e-06 1.9698484e-05 2.0574289e-05 3.8318828e-07 6.4795913e-06 1.5131872e-06 1.979393e-06
1.1054116e-05 2.8007666e-05 2.835872e-06 9.5180854e-07 4.790807e-06 2.0727323e-06 1.3021436e-05 4.175011e-05
5.2065893e-06 2.4992649e-05 1.1195697e-05 3.2733356e-06 6.4015894e-06 1.5424357e-05 4.3065547e-06 1.1571889e-05
4.559506e-06 2.750061e-06 4.3742932e-07 3.2012773e-05 1.1157914e-05 1.3234833e-07 5.9058366e-06 1.1130782e-05
7.656105e-06 6.521326e-06 1.3074107e-05 6.6813304e-06 1.5602773e-05 1.8122095e-05 1.2826054e-07 5.3391654e-05
4.278477e-06 1.8866873e-05 6.8134013e-06 2.5818617e-05 3.4460172e-05 1.2002887e-06 1.3530581e-05 1.90833e-05
2.8701972e-06 2.698825e-06 6.545458e-05 6.647828e-06 3.0486617e-05 1.7808805e-05 5.0145347e-05 2.5112176e-05
1.2068514e-05 2.5737047e-06 9.938002e-06 2.1680094e-06 9.7935135e-06 2.5779955e-06 5.2268064e-05 8.4072326e-07
5.319787e-06 1.9904292e-05 8.492224e-07 2.1509627e-06 9.952711e-08 1.3595106e-05 1.16529755e-08 8.6676755e-06
1.1876009e-05 2.6734679e-05 2.9028955e-05 3.0802734e-05 3.2307698e-06 1.4603103e-07 1.3291316e-05 1.1764829e-06
5.713484e-05 3.417114e-05 9.157683e-06 9.96329e-07 9.612116e-06 1.1609295e-05 2.4643106e-05 1.7794328e-05
