Assets/results/Maze02/Mouse/Mouse-45748.pt (torch, 455069 bytes, 33 tensors)

network_body._body_endoder.seq_layers.0.weight f4 [128, 9]
0	0xbd385b48	-0.045008928
1	0xbe144b34	-0.14481813
2	0x3eb0bc0e	0.34518474
3	0xba833f28	-0.0010013329
4	0xbed5f559	-0.41788748
5	0xbe25a3f3	-0.16175823
6	0x3e268dad	0.16264983
7	0x3ebaf405	0.36514297
8	0xbe853bee	-0.26022285
9	0xbeb48e24	-0.35264695
10	0xbea1d7bb	-0.31609902
11	0x3e78135f	0.2422614
12	0x3e922c85	0.2854959
13	0xbea1e9b4	-0.31623614
14	0xbf17281c	-0.5904558
15	0x3e07769f	0.13228844
16	0x3f02b125	0.5105155
17	0xbe52479a	-0.20535126
18	0x3e4caaae	0.19986984
19	0xbe6dffc4	-0.23242098
20	0x3edc81bf	0.43067738
21	0x3f047632	0.5174285
22	0xbe8a2e68	-0.2698853
23	0x3e84c23d	0.25929442
24	0x3f08e957	0.5348105
25	0xbd4e7a60	-0.050409675
26	0xbf0b89d2	-0.5450717
27	0xbd8f76c6	-0.07005076
28	0x3f17740b	0.5916144
29	0x3f0adc1f	0.5424213
30	0x3ebdb50a	0.37052184
31	0xbd334f5e	-0.043776862
32	0xbe5e1cf4	-0.21690732
33	0x3e7388c7	0.23782645
34	0x3efadf97	0.4899871
35	0x3f0f57ba	0.55993235
36	0x3ea2ee99	0.3182266
37	0x3dbf850e	0.0935155
38	0xbe87c106	-0.26514453
39	0x3e634458	0.2219404
40	0x3f6a6435	0.91559154
41	0x3ebb13b1	0.3653846
42	0xbe16d78c	-0.14730662
43	0xbd9b9a46	-0.07597785
44	0x3f051adc	0.5199411
45	0xbd82150b	-0.0635167
46	0xbcd99e3c	-0.02656471
47	0xbdbcbfd7	-0.09216278
48	0xbeb9eeac	-0.36314905
49	0x3b3d59df	0.0028892679
50	0x3ef4141f	0.476716
51	0x3e00855a	0.1255087
52	0xbdd97d10	-0.10619557
53	0xbe5038fc	-0.20334238
54	0x3e91b08f	0.28455016
55	0xbf2129bf	-0.62954324
56	0x3f0eb8a2	0.5575048
57	0xbe117471	-0.14204575
58	0x3f3c2091	0.7348719
59	0x3da8a1a8	0.082339585
60	0xbee36941	-0.4441624
61	0xbf370f4e	-0.7150773
62	0x3dab356b	0.08359798
63	0x3d23a63c	0.039953455
64	0x3d15b63f	0.036550757
65	0xbd15812b	-0.036500137
66	0xbecd2417	-0.40066597
67	0xbf2b6e11	-0.66964823
68	0xbe7d2c5d	-0.24723954
69	0x3ed10877	0.4082677
70	0x3ecbc5ec	0.3979944
71	0xbe44d13b	-0.1922044
72	0x3e460e8a	0.19341484
73	0xbecf5e54	-0.40501654
74	0x3e095298	0.13410413
75	0x3e59a0a1	0.21252681
76	0xbe2961f5	-0.16541274
77	0x3d99a766	0.07502632
78	0xbefdcf91	-0.49572423
79	0x3edd1ee6	0.43187636
80	0x3f1b7837	0.6073031
81	0x3c49d518	0.012318872
82	0x3c913add	0.017728264
83	0x3eb0cc36	0.345308
84	0x3d550fa3	0.052016865
85	0xbf721b0c	-0.9457252
86	0x3dfff389	0.124976225
87	0x3e54b757	0.20773064
88	0xbe9c363d	-0.3051013
89	0x3de111a7	0.10989695
90	0x3e7ae6a5	0.24502046
91	0xbebfaebc	-0.37438
92	0xbe5b6103	-0.21423726
93	0xbe4259f7	-0.18979631
94	0x3e2887b7	0.16458021
95	0x3dbca0e9	0.09210379
96	0x3e95fd6b	0.29294905
97	0xbdd33504	-0.10312846
98	0x3bb953dd	0.0056557492
99	0x3da0eb7a	0.078574136
100	0x3dd8ffbd	0.10595653
101	0x3dcf26f5	0.10114852
102	0xbe719e82	-0.23595622
103	0x3caf46e6	0.021396112
104	0x3e550e34	0.208062
105	0xbe877e33	-0.2646347
106	0x3ecdecdc	0.40219772
107	0xbdb71a70	-0.089405894
108	0xbe75cd59	-0.24004115
109	0xbc3558b6	-0.011068514
110	0xbd0f3b7d	-0.03496884
111	0x3e2f7de4	0.17137867
112	0x3d0c7323	0.03428949
113	0x3da403e5	0.08008555
114	0xbf0cc74e	-0.54991615
115	0x3d8eef80	0.06979275
116	0x3e65a232	0.22425154
117	0x3d6b437c	0.057437405
118	0xbec86579	-0.39139917
119	0xbe970e5a	-0.29503137
120	0x3beb4afe	0.0071805706
121	0xbe49397f	-0.1965084
122	0xbd21894b	-0.039437573
123	0xbe60d15c	-0.21954864
124	0xbef06a9d	-0.4695634
125	0x3ee4ca5d	0.4468564
126	0x3ec2990a	0.38007385
127	0xbd163722	-0.036673672
128	0x3d90d939	0.07072682
129	0x3d006ad1	0.031351868
130	0xbd26e394	-0.04074438
131	0x3eb94329	0.36184052
132	0x3e5c66d4	0.21523601
133	0x3eafed0e	0.34360546
134	0x3e7672d2	0.24067238
135	0xbf296d7f	-0.661827
136	0x3e2a0aba	0.16605654
137	0x3e48de70	0.19616103
138	0x3e65796f	0.22409604
139	0xb7ee97b6	-2.8442457e-05
140	0xbecedf08	-0.40404534
141	0xbd701b5e	-0.05861985
142	0xbdb91cb1	-0.090386756
143	0xbe0dcc7b	-0.13847534
144	0x3ed9f64b	0.4257072
145	0xbd8676eb	-0.065656506
146	0xbeb9dde6	-0.36302108
147	0xbe1ebb5f	-0.15501164
148	0xbc9ceb70	-0.019155234
149	0xbd4784bf	-0.04871058
150	0x3e90ae6a	0.28258067
151	0xbdd09963	-0.10185506
152	0x3dadfdc6	0.08495669
153	0x3eb8f9e9	0.36128166
154	0x3f05bb5c	0.5223901
155	0x3de17ab8	0.11009735
156	0xbea19c15	-0.31564394
157	0x3f155f27	0.58348316
158	0xbe3f51f3	-0.18683605
159	0x3e887cae	0.26657623
160	0xbec66e5d	-0.38756076
161	0x3bd2a6cd	0.0064285756
162	0xbdc42ff2	-0.09579457
163	0xbda0b88b	-0.07847699
164	0xbec34541	-0.38138774
165	0x3d2bd900	0.041954994
166	0x3e2d66c3	0.16933732
167	0x3ed9f9a5	0.42573276
168	0xbe6cef84	-0.23138243
169	0x3e2a6da6	0.1664339
170	0xbda7148a	-0.081582144
171	0x3e3c801d	0.18408246
172	0xbe0286dd	-0.12746759
173	0xbf6f669a	-0.9351593
174	0x3bc1d143	0.0059148385
175	0x3eb189e3	0.34675512
176	0x3ec31fb8	0.38110137
177	0xbe237e7c	-0.15966219
178	0xbf562561	-0.83650786
179	0x3e6d2655	0.23159154
180	0x3e6c4729	0.2307402
181	0x3d3a0ce0	0.045422435
182	0xbe114011	-0.14184596
183	0x3ecb554b	0.3971351
184	0x3cc4a5cd	0.024004841
185	0xbe2665d1	-0.16249777
186	0xbe32deca	-0.174678
187	0xbf206f91	-0.62670237
188	0x3e78b705	0.24288566
189	0xbe8e5a64	-0.27803338
190	0x3d8fc826	0.07020597
191	0xbc0f3b55	-0.008742173
192	0xbe27c9e1	-0.16385604
193	0x3c609533	0.013707447
194	0x3e23b955	0.15988667
195	0xbdda1f52	-0.10650505
196	0x3ec20edb	0.3790196
197	0x3d97fe35	0.07421533
198	0xbeaa4fb2	-0.33263928
199	0xbe5c6281	-0.21521951
200	0x3ee8e566	0.45487517
201	0x3f264a60	0.6495724
202	0x3d74d0b5	0.05976935
203	0x3d9d322f	0.076755874
204	0x3e3e3c01	0.18577577
205	0xbe9f8662	-0.31157213
206	0xbea0d3ec	-0.31411684
207	0x3f4053d7	0.7512793
208	0x3e1bd1d0	0.15216756
209	0xbec73fe9	-0.38915947
210	0x3e915368	0.28383946
211	0x3f09ac48	0.53778505
212	0xbece4844	-0.4028951
213	0x3e16b2b1	0.14716603
214	0xbf0bd32d	-0.54619104
215	0x3e740a34	0.23832017
216	0xbe3fe390	-0.18739152
217	0x3f07e080	0.53076935
218	0xbf2d22ae	-0.6763104
219	0xbe91409b	-0.28369603
220	0xbf23e730	-0.6402464
221	0x3d74d160	0.059769988
222	0xbc74f9bc	-0.014952119
223	0xbd91446b	-0.07093128
224	0xbf236c67	-0.63837284
225	0x3e02b961	0.12766029
226	0xbed326d8	-0.41240573
227	0x3e79bf87	0.24389468
228	0xbe37c12f	-0.17944787
229	0xbe09b82d	-0.13449164
230	0xbe35d7cd	-0.17758103
231	0x3f246c4e	0.6422776
232	0x3e359701	0.17733385
233	0x3de92698	0.11384314
234	0xbd88cb38	-0.06679386
235	0x3e9b3bb8	0.30319
236	0x3ea4bf40	0.32177162
237	0x3d5658ca	0.05233077
238	0x3d2c3014	0.04203804
239	0x3e1b12c3	0.15143876
240	0x3df0bfc4	0.117553264
241	0x3dd54e65	0.10415343
242	0x3f1e8eb6	0.6193651
243	0xbe827cb8	-0.25485778
244	0xbd4fef25	-0.050765175
245	0x3e5086c7	0.20363913
246	0xbe91bd50	-0.28464746
247	0x3cc68e0f	0.02423766
248	0x3d928312	0.07153906
249	0x3d1548da	0.03644643
250	0x3f1dd81d	0.6165789
251	0x3e8b8497	0.27249596
252	0xbf1092fd	-0.56474286
253	0x3ec960aa	0.3933156
254	0xbe2789c0	-0.16361141
255	0xbd703260	-0.05864179

network_body._body_endoder.seq_layers.0.bias f4 [128]
0	0x3cd5ee6a	0.026114661
1	0x3d2a4906	0.041573547
2	0x3c8a4363	0.016877836
3	0x3c490e68	0.012271501
4	0x3c1fed44	0.009761158
5	0x3ce2577f	0.027629612
6	0x3d37faa6	0.04491677
7	0x3d270a75	0.040781457
8	0x3c3a5e94	0.011375088
9	0x3c41ecc8	0.011836238
10	0x3ccba04f	0.024856715
11	0x3cfcadf1	0.03084466
12	0x3d6d2205	0.05789377
13	0x3cc9f45b	0.02465265
14	0x3c00c921	0.007860453
15	0xbbb77c9e	-0.0055995723
16	0x3ca2c68b	0.019870063
17	0x3c94a0e9	0.018143134
18	0x3d148302	0.03625775
19	0x3d446360	0.047946334
20	0x39ea8d7a	0.00044737366
21	0x3cd80e1c	0.026373915
22	0x3b2b340c	0.0026123552
23	0x3c632db8	0.013865881
24	0xbca172d4	-0.019708075
25	0x3d113cf1	0.03545851
26	0xbc87d90e	-0.016582992
27	0x3c1c347a	0.009533996
28	0x3bd4ea0a	0.006497626
29	0x3c167015	0.009181996
30	0x3d03bc98	0.03216228
31	0xbc156e60	-0.009120554
32	0x3c98db21	0.018659176
33	0x3ccb96e2	0.02485222
34	0xbd40677f	-0.0469737
35	0xbcddfe05	-0.027098665
36	0x3c0ac907	0.00847078
37	0x3c52ccc3	0.012866202
38	0xbd1c8372	-0.038211294
39	0x3bb58cb4	0.0055404548
40	0x3c213334	0.009838868
41	0x3c5a7ef6	0.013335934
42	0x3b39f7ae	0.0028376388
43	0x3ce62539	0.028093921
44	0x3cb344ff	0.021883486
45	0x3c75495c	0.0149711035
46	0x3d2d1815	0.042259295
47	0x3cc86e55	0.024466673
48	0xb8e03af4	-0.00010692133
49	0x3c56bd0a	0.013106594
50	0x3c9dd9b7	0.019268854
51	0x3c125341	0.008930982
52	0x3cedc463	0.029024309
53	0x3ba799f3	0.0051147877
54	0x3c61a3ad	0.0137719335
55	0x3a4198ca	0.0007385133
56	0xbc11ea6e	-0.00890599
57	0x3c93fff2	0.01806638
58	0x3c0f3fb7	0.008743218
59	0x3d0746c8	0.033026487
60	0x3cb52c73	0.022115922
61	0x3ac490d0	0.0014996771
62	0x3d2d37fb	0.042289715
63	0x3c2de658	0.010614
64	0x3c187b68	0.009306766
65	0xbbea5ff4	-0.007152552
66	0x3cc0dc56	0.023542564
67	0x3d43fa43	0.04784609
68	0x3d1863b9	0.037204478
69	0x3c0bd5ab	0.008534829
70	0x3c8d884b	0.017276904
71	0x3c836a14	0.016041793
72	0x3bf85229	0.0075781536
73	0x3d0511b0	0.03248757
74	0x3ba9c605	0.0051810765
75	0x3c8cf65b	0.017207315
76	0x3d318c09	0.04334644
77	0xbb2e6931	-0.0026612992
78	0x3ac96231	0.0015364346
79	0xbd23f1da	-0.04002557
80	0x3cf46966	0.029835414
81	0xbd262e4b	-0.040571492
82	0xbbe79ade	-0.007068022
83	0x3d2cc162	0.04217661
84	0x3cd1e364	0.025621124
85	0x3c7c32fc	0.015393015
86	0x3c8d28bd	0.01723134
87	0x3d0f093e	0.034920923
88	0x3d0c3f3e	0.03424
89	0x3d02b0a6	0.031906746
90	0x3cd4458f	0.025912074
91	0xbc8c03d3	-0.017091667
92	0xbcb48a19	-0.022038506
93	0xbcff332a	-0.031152327
94	0x3c0e406e	0.008682353
95	0x3d3fb52b	0.046803635
96	0x3c96afad	0.018394316
97	0x3c8de432	0.017320726
98	0x3d05189c	0.032494172
99	0x3c07f682	0.008298518
100	0x3c0432e5	0.008068775
101	0x3c779067	0.015110112
102	0x3b51276f	0.0031914373
103	0x3d1c67e8	0.03818503
104	0x3c3c1277	0.011479012
105	0x3d2b826c	0.041872427
106	0x3cc935d5	0.024561802
107	0x3cf72a8f	0.03017166
108	0xbb78836a	-0.0037920126
109	0xbcbefdce	-0.023314383
110	0x3d73c6fc	0.05951594
111	0x3ced31da	0.028954435
112	0x3cbd0e79	0.02307819
113	0x3c7077e8	0.014677025
114	0x3cb49777	0.02204488
115	0x3d1358da	0.035973407
116	0x3c364e36	0.011127045
117	0x3d11bc0f	0.035579737
118	0xbc0f3ad0	-0.008742049
119	0x3c7b21fe	0.015327929
120	0x3d107560	0.035268188
121	0x3ceac0fa	0.028656472
122	0x3ce30224	0.027710982
123	0xbcb7e996	-0.02245025
124	0x3d3fb5c7	0.046804216
125	0x3c9a86a2	0.018863026
126	0x3a1bf9bf	0.0005949996
127	0xbcaa58e7	-0.020794345

network_body._body_endoder.seq_layers.2.weight f4 [128, 128]
0	0x3c5a0446	0.013306683
1	0x3e69f748	0.22848237
2	0xbe186c43	-0.14885049
3	0x3dfe3c8d	0.12413893
4	0xbdefb302	-0.11704065
5	0xbe121837	-0.1426705
6	0x3d527791	0.05138356
7	0x3dbf7c9a	0.09349938
8	0xbdc34f25	-0.0953658
9	0x3d848aab	0.06471761
10	0x3cd252a5	0.025674174
11	0x3c3fb0c0	0.011699855
12	0xbc3e8d2a	-0.011630336
13	0x3dd30204	0.10303119
14	0x3c9b9f82	0.018996958
15	0x3d1d0671	0.03833622
16	0x3e086a22	0.13321736
17	0xbd89ea84	-0.067341834
18	0xbdbfce3a	-0.093655065
19	0xbd8a2e39	-0.067470975
20	0x3e1b6441	0.15174963
21	0xbe4986e4	-0.19680363
22	0x3d39ea5a	0.04538951
23	0xbd4b40c1	-0.0496223
24	0x3da7c745	0.081923045
25	0x3d11e02d	0.03561418
26	0x3d0cd88b	0.0343862
27	0x3d8af62c	0.06785235
28	0x3c85ce8f	0.016333846
29	0x3d46da5e	0.048548095
30	0xbd30c5eb	-0.0431575
31	0xbe13658e	-0.14394209
32	0x3cf8fc70	0.03039381
33	0x3d75e278	0.06003043
34	0x3d9e4a55	0.077290215
35	0x3d0fa103	0.035065662
36	0x3a500e29	0.00079366803
37	0x3d4c7bcf	0.04992276
38	0x3d4eaa0b	0.050455134
39	0x3cc9afec	0.024620019
40	0x3c2905ad	0.010316295
41	0xbd22cb67	-0.03974476
42	0x3dcfe80a	0.1015168
43	0x3da29f4f	0.07940542
44	0xbd1b1dcd	-0.037870217
45	0x3df29ea4	0.118466645
46	0x3e34f269	0.17670597
47	0x3c828fb7	0.01593767
48	0xbb9eea62	-0.004849718
49	0x3e1624cb	0.14662473
50	0x3d83dcfb	0.06438633
51	0x3dbab465	0.09116439
52	0xbd6a5acc	-0.057215497
53	0xbca28313	-0.019837892
54	0xbca2c7d1	-0.01987067
55	0xbe2e7c67	-0.17039643
56	0x3e2506de	0.16115901
57	0x3e2fd2b7	0.17170225
58	0x3dca6ec8	0.09884411
59	0xbcbe2bc1	-0.023214223
60	0x3e3ba921	0.18326236
61	0xbe1d6c1c	-0.15373272
62	0xbd707380	-0.0587039
63	0xbdf6d8f2	-0.12053098
64	0x3dd25729	0.10270531
65	0x3d8cb303	0.06870081
66	0x3d6c51f3	0.05769534
67	0x3d9b45bd	0.07581661
68	0x3d918664	0.07105711
69	0x3be7b335	0.0070709237
70	0xbd5f2d6e	-0.054486685
71	0xbc5dc188	-0.013534911
72	0xbd5d44a0	-0.054020524
73	0x3c6edd03	0.0145790605
74	0x3b0b67a5	0.0021271494
75	0x3cad378d	0.021144653
76	0xbdf0e76b	-0.117628895
77	0xba105260	-0.0005505439
78	0xbd7436b4	-0.05962248
79	0x3d754430	0.05987948
80	0xbbf768af	-0.007550321
81	0x3e14af57	0.14520012
82	0xbdc67419	-0.096901126
83	0xbd25477a	-0.04035137
84	0x3e30a543	0.17250542
85	0x3d52f9ed	0.05150788
86	0xbcd6f65c	-0.02624052
87	0x3d918837	0.07106059
88	0x3c646b14	0.013941545
89	0xbd47a09d	-0.048737157
90	0xbd999696	-0.07499425
91	0x3dbf492c	0.09340128
92	0xbd1af416	-0.037830435
93	0x3d26ac32	0.040691562
94	0x3d80832c	0.06275019
95	0xbd45d3c1	-0.048297647
96	0xbe48a0df	-0.19592617
97	0xbc22b71d	-0.009931353
98	0xbdef4840	-0.116837025
99	0xbcf6d92c	-0.030132852
100	0xbd86fffe	-0.065917954
101	0xbdd55c14	-0.10417953
102	0x3e38a17b	0.1803035
103	0x3cfbe619	0.030749368
104	0xbc0cf6a0	-0.008603722
105	0x3dd95d97	0.10613554
106	0x3e4370d6	0.19086012
107	0x3e6e0720	0.23244905
108	0xbe3f5301	-0.18684007
109	0x3e221614	0.15828735
110	0xbda28ee8	-0.079374135
111	0x3dc3964a	0.0955015
112	0x3d9b8e75	0.07595531
113	0x3dc56e30	0.09640157
114	0x3d64fc81	0.05590487
115	0xbd9c1576	-0.07621281
116	0x3e0585db	0.13039343
117	0xbd05620a	-0.0325642
118	0xbdcb47bb	-0.09925791
119	0xbc7a1ae3	-0.015265199
120	0xbdc0133e	-0.0937867
121	0x3d67b3a5	0.056567807
122	0xbe0a0095	-0.13476785
123	0x3e073722	0.13204625
124	0x3e57f929	0.21091141
125	0xbbbfa71d	-0.005848779
126	0xbe249a6f	-0.16074537
127	0xbe270ecb	-0.16314237
128	0xbdbc6e4e	-0.092007264
129	0x3cd23324	0.025659151
130	0xbdb01bde	-0.08599065
131	0x3d9eb7b1	0.0774988
132	0x3d81d787	0.06339937
133	0xbd757833	-0.059929084
134	0xbe3cda98	-0.18442762
135	0x3c96e511	0.018419774
136	0xbc956285	-0.018235454
137	0xbe37e159	-0.17957057
138	0xbd70e16b	-0.058808725
139	0x3dad7f80	0.08471584
140	0xbcc999d5	-0.024609486
141	0xbc523037	-0.012828878
142	0x3e145101	0.14484026
143	0x3d84ecb2	0.064904585
144	0x3c2138aa	0.00984017
145	0x3d0e78ec	0.03478329
146	0xbdf61bb6	-0.12017004
147	0xbd29338a	-0.041308917
148	0x3d3e3028	0.046432644
149	0x3e16bc0c	0.14720172
150	0xbe2b04f2	-0.16701105
151	0xbdb52f0a	-0.088468626
152	0xbdc2d8be	-0.095139965
153	0x3da178fb	0.07884403
154	0xbd9963bd	-0.07489727
155	0xbc180af7	-0.009279958
156	0xbc6fbf55	-0.014633019
157	0xbdcd081c	-0.10011312
158	0x3e683ef1	0.2268026
159	0x3d5c56ec	0.053793833
160	0x3e022194	0.12708122
161	0x3b7c8142	0.0038529192
162	0x3cc557ed	0.024089778
163	0xbe1be410	-0.15223718
164	0xbe19e832	-0.15029982
165	0x3d217bad	0.039424587
166	0x3da93756	0.082625076
167	0x3da4f1d4	0.080539376
168	0xbd8544c1	-0.065072544
169	0xbd73b1b4	-0.059495643
170	0x3d8a8b9f	0.06764912
171	0xbd98a7fd	-0.07453916
172	0x3d71d8fd	0.059044827
173	0x3cc60fe6	0.024177503
174	0x3dd3bce4	0.103387624
175	0xbe240b98	-0.16020048
176	0x3e66ca23	0.22538047
177	0x3dd4b2c4	0.10385659
178	0x3d5bf82d	0.053703476
179	0xbd5efa75	-0.054438073
180	0x3d6ad5a2	0.057332642
181	0x3e43da1a	0.19126168
182	0x3e1b5bc7	0.15171729
183	0x3d40f051	0.047104184
184	0xbd9cd43d	-0.07657669
185	0x3e239baf	0.15977357
186	0x3d2c600c	0.042083785
187	0x3c3a5d75	0.011374821
188	0xbd17c5d8	-0.037053913
189	0x3d896165	0.0670803
190	0xbc179df5	-0.0092539685
191	0x3e333168	0.17499316
192	0xbcafdfb8	-0.021468982
193	0x3e236446	0.1595622
194	0xbdd41195	-0.10354916
195	0xbd13c470	-0.03607601
196	0x3af6ea50	0.0018838141
197	0xbdaea95f	-0.08528399
198	0x3cbc98fe	0.023022171
199	0xba9886c2	-0.0011636841
200	0x3db425d5	0.087962784
201	0xbdb93d31	-0.090448745
202	0xbdf4f411	-0.119606145
203	0xbe039d16	-0.12852892
204	0xbe03bf5d	-0.12865968
205	0x3e2ee3b7	0.17079054
206	0xbd3c54a2	-0.04597915
207	0x3a075029	0.0005161786
208	0x3dd6e52a	0.10492928
209	0xbe038358	-0.12843072
210	0x3e04445e	0.12916705
211	0xbe062494	-0.13099891
212	0xbd13eab9	-0.03611252
213	0x3daaffd4	0.083495766
214	0x3d1b2dd8	0.037885517
215	0x3dfa1600	0.122112274
216	0xbdaebf09	-0.08532531
217	0x3d99b9ce	0.075061426
218	0xbdf4a5fd	-0.11945722
219	0x3e313c9c	0.17308277
220	0xbc9e8863	-0.019352144
221	0xbc01e55a	-0.007928217
222	0xbe03ac63	-0.12858729
223	0x3dfe3ec8	0.12414318
224	0xbdb1770e	-0.08665286
225	0xbc655b62	-0.013998838
226	0x3daac717	0.083387546
227	0x3da7e87e	0.08198641
228	0xbdeea29b	-0.11652108
229	0xbdb5603d	-0.088562466
230	0x3c553e25	0.013015305
231	0xbd74adc0	-0.059736013
232	0x3ca19a7d	0.019726986
233	0xbd7d8a0c	-0.06189923
234	0xbdd2396d	-0.10264859
235	0xbcec323c	-0.028832547
236	0xbe4fbdd9	-0.20287265
237	0x3d4da396	0.050204836
238	0xbe208700	-0.15676498
239	0x3e359f63	0.17736582
240	0x3dc24778	0.09486288
241	0x3c6b57db	0.014364208
242	0xbd2f7159	-0.042832706
243	0xbdd145e7	-0.10218411
244	0x3bc974e7	0.006147969
245	0x3d7efc9e	0.062252633
246	0x3ccf2fd8	0.025291368
247	0xbcb6212d	-0.022232616
248	0x3d0a7523	0.033803117
249	0x3cd84746	0.026401173
250	0xbe05fb1e	-0.13084075
251	0xbda27ede	-0.07934354
252	0xbd589baf	-0.052882846
253	0xbe5825b5	-0.21108134
254	0xbcf6daa7	-0.030133558
255	0xbe383498	-0.17988813

network_body._body_endoder.seq_layers.2.bias f4 [128]
0	0xbcd1fa0a	-0.025631923
1	0x3c61446f	0.013749226
2	0x3cad9ca6	0.02119286
3	0x3cf7ff87	0.030273212
4	0x3c532143	0.012886348
5	0xbc68b3df	-0.014203041
6	0x3c8677ba	0.016414512
7	0x3c52d5fb	0.0128684
8	0x3bde9074	0.0067921225
9	0x3cea98a3	0.028637236
10	0x3ce2388d	0.027614856
11	0x3cdd320e	0.027001407
12	0x3c81e20a	0.015854854
13	0x3caf1163	0.021370595
14	0x3cefe0cf	0.029282002
15	0x3d3da5f3	0.04630084
16	0x3c9ea52b	0.019365868
17	0x3ca0ea4b	0.01964297
18	0x3c81590f	0.015789537
19	0x3c2d699a	0.010584259
20	0x3d123c8a	0.035702266
21	0x3d0735b7	0.03301021
22	0x3bd42766	0.006474423
23	0x3ccb2135	0.024796108
24	0x3c783e30	0.015151545
25	0x3cc93d76	0.02456544
26	0x3ca2254d	0.019793177
27	0x3cf9a65e	0.030474838
28	0x3bad12d9	0.005281788
29	0x3c20bd42	0.009810748
30	0x3c53be5b	0.012923802
31	0x3cac4594	0.021029271
32	0x3c3eadc7	0.011638111
33	0x3c7ef693	0.015561718
34	0x3c7617e5	0.015020345
35	0x3ba9ddf2	0.0051839286
36	0xbbb03377	-0.005377229
37	0x3c4871f4	0.0122342
38	0x3c35a265	0.011086081
39	0x3cba08fc	0.022709362
40	0x3d05969b	0.03261433
41	0x3c8b67db	0.017017296
42	0x3c6ca0da	0.014442647
43	0x3cc50783	0.024051433
44	0x3ccc32fd	0.024926657
45	0x3cb45285	0.022012005
46	0x3c6f93ff	0.014622687
47	0x3c36889b	0.011140968
48	0x3c84d267	0.016213609
49	0x3cb1a606	0.021685611
50	0xbcb8fa4b	-0.022580286
51	0x3c0b435c	0.008499946
52	0x3c504738	0.012712292
53	0x3c673c32	0.014113473
54	0x3c1e3e60	0.009658426
55	0x3c1d5dff	0.00960493
56	0x3c623c17	0.013808272
57	0x3d03acf3	0.03214736
58	0x3c2a03d5	0.01037689
59	0x3ba755a1	0.0051066433
60	0x3cc97d23	0.024595803
61	0x3c2e83a2	0.010651501
62	0x3c839346	0.016061436
63	0x3b009d1f	0.0019624901
64	0x3d191c2d	0.037380386
65	0x3bd8b597	0.006613444
66	0x3c84dca7	0.016218496
67	0x3bff278d	0.0077866972
68	0x3bed00eb	0.0072327754
69	0xbb81148c	-0.003939217
70	0x3cb14a86	0.02164198
71	0x3bba862e	0.005692265
72	0xbb2452af	-0.0025073697
73	0x3c88619b	0.016648104
74	0x3b667ae7	0.003516847
75	0xbce5e25e	-0.028062042
76	0x3cbda1e4	0.023148485
77	0x3bf293e4	0.007402884
78	0xbcdfed57	-0.027334852
79	0x3cbbec9f	0.022939978
80	0xbae2d9f0	-0.0017307382
81	0x3b15f419	0.002288109
82	0x3cb7f2a2	0.022454564
83	0x3c92fdff	0.01794338
84	0x3c205509	0.009785899
85	0x3d060acb	0.032725137
86	0xbc6a59ed	-0.014303667
87	0x3cbd1b38	0.023084268
88	0x3c9aa162	0.018875781
89	0x3cb6afae	0.022300567
90	0x3c458c97	0.012057445
91	0x3cc9a42f	0.024614422
92	0x3d1dee1b	0.038557153
93	0x3c8087f8	0.015689835
94	0x3cd08ce8	0.025457814
95	0xba82ed31	-0.0009988901
96	0x3d1750c8	0.036942273
97	0x3d04afc7	0.032394197
98	0x3bb23d02	0.0054394016
99	0x3cfeba36	0.031094652
100	0x3b9c2e8b	0.0047662905
101	0xb82b77b9	-4.0881077e-05
102	0x3ca5dd78	0.020247206
103	0x3c947a26	0.018124651
104	0x3d05c988	0.0326629
105	0x3c7c37df	0.01539418
106	0x3a0898f0	0.0005210778
107	0x3c8988cb	0.01678886
108	0x3ca6f4c0	0.020380378
109	0x3ccca0f9	0.024979101
110	0x3d1997ae	0.03749817
111	0x3cc53ce4	0.024076886
112	0x3c8f4267	0.017487718
113	0xbbe9759f	-0.007124617
114	0x3c289a8e	0.010290755
115	0x3c1ba0d3	0.009498793
116	0x3cb695fd	0.022288317
117	0x3ce0917d	0.027413124
118	0x3c823cd8	0.015898153
119	0x3cc2811e	0.023743208
120	0x3c7045ef	0.014665111
121	0x3c405469	0.011738875
122	0x3ccfa2ad	0.025346125
123	0x3c880a61	0.016606512
124	0x3ccc4360	0.02493447
125	0x3cfafc36	0.030637842
126	0x3a4c0ad2	0.0007783595
127	0x3cab97eb	0.020946464

action_model._discrete_distribution.branches.0.weight f4 [5, 128]
0	0xbc10aeb7	-0.008830718
1	0x3d6358a5	0.05550446
2	0x3d173ce1	0.036923293
3	0x3c3da170	0.011574134
4	0xbd797beb	-0.060909193
5	0x3aa7e09a	0.0012808025
6	0x3ca9383f	0.020656703
7	0x3d9a6fff	0.07540893
8	0xbcad2808	-0.021137252
9	0x3c6f190e	0.014593376
10	0xbcb53bdc	-0.02212327
11	0x3d4c7285	0.0499139
12	0xbd6f1806	-0.05837252
13	0x3cd84a90	0.026402742
14	0xbd6a7a3c	-0.057245478
15	0xbd126a84	-0.035746112
16	0xbb56d0a2	-0.0032778163
17	0x3d213cb9	0.03936455
18	0xbdaaca3c	-0.083393544
19	0xbd67eae1	-0.056620482
20	0xbcb34b0d	-0.021886373
21	0x3ca7b15d	0.020470316
22	0xbc32ca3b	-0.010912473
23	0xbdb48da5	-0.08816079
24	0xbcecfb4f	-0.028928427
25	0xbb9aa0f2	-0.004718893
26	0xbd8ee3cb	-0.06977042
27	0xbb032c04	-0.002001525
28	0xbd848c3d	-0.06472061
29	0x3d574039	0.052551482
30	0xbd012bd7	-0.03153595
31	0xbd07e314	-0.033175543
32	0xbd7fd32b	-0.062457245
33	0x3b27fa51	0.0025631378
34	0xbd31c08f	-0.04339653
35	0x3ca552c0	0.02018106
36	0x3c18d41b	0.009327914
37	0x3c2d436f	0.010575159
38	0x3d5d37d7	0.05400833
39	0x3b6602c3	0.003509686
40	0x3d2e43c0	0.04254508
41	0xbc879385	-0.016549835
42	0xbccd1bff	-0.025037764
43	0x3d2f6551	0.042821232
44	0xbcdaa878	-0.02669166
45	0xbdafd9ca	-0.08586462
46	0xbd0b3838	-0.03398916
47	0xbc8c05a5	-0.017092535
48	0x3d81e206	0.06341939
49	0xbd881391	-0.06644357
50	0x3c1187f4	0.008882511
51	0xbc96645a	-0.018358398
52	0xbc7d14ff	-0.0154469
53	0xbaa2c9d5	-0.001241977
54	0xbd5b49b9	-0.053537104
55	0xbd41e4dc	-0.047337398
56	0x3b1d4e17	0.0024002844
57	0x3b9ef62e	0.0048511242
58	0x3c80b9f4	0.01571367
59	0x3cd81f6f	0.026382176
60	0xbda0212c	-0.07818827
61	0xbd303202	-0.04301644
62	0xbd5907a0	-0.052985787
63	0xbc03af25	-0.008037363
64	0x3d2b3cde	0.041806094
65	0x3d4cced3	0.05000193
66	0x3d25e172	0.040498205
67	0xbcb00820	-0.02148825
68	0x3c88cdaf	0.01669964
69	0xbcf584fa	-0.029970635
70	0x3d526aad	0.051371265
71	0xbcb6d321	-0.022317471
72	0x3d71b340	0.059008837
73	0xbd53d974	-0.05172105
74	0x3d0165f7	0.031591382
75	0x3a2281a8	0.000619913
76	0xbd5af989	-0.05346063
77	0xbbf6e9d1	-0.0075351973
78	0x3c08c140	0.008346856
79	0xbcf46369	-0.029832559
80	0x3c063baa	0.008192936
81	0x3bbc87da	0.0057534995
82	0xbd56f78b	-0.05248217
83	0xbd92c564	-0.071665555
84	0x3af50c8f	0.0018695759
85	0x3c593498	0.013257168
86	0x3cf45881	0.029827358
87	0x3d3fc5f2	0.046819635
88	0x3caf9447	0.021433009
89	0x3ccca61d	0.024981553
90	0xbd754125	-0.05987658
91	0xbd2a87ab	-0.04163329
92	0x3bc612b0	0.006044708
93	0x3ad4e65d	0.001624297
94	0x3c4dfb0c	0.012572061
95	0xbcbc3d61	-0.022978486
96	0x3d724c15	0.05915459
97	0x3d7164ed	0.05893414
98	0x3be5ee06	0.0070169
99	0xbc713e9c	-0.0147244
100	0x3c8bb656	0.017054718
101	0xbcc826dd	-0.024432594
102	0xbcbf9ff1	-0.023391696
103	0x3c6d1a49	0.014471599
104	0xbcc53bfb	-0.024076452
105	0xbcd78a61	-0.026311101
106	0xbca819ed	-0.020520175
107	0xbbba862f	-0.0056922655
108	0x3c73b43b	0.014874513
109	0xbd863466	-0.06552963
110	0xbcd8f8ac	-0.026485763
111	0x3d225daf	0.039640125
112	0x3cf07dee	0.029356923
113	0x3d89b89d	0.06724665
114	0xbd8be0a1	-0.06829954
115	0x3caae146	0.020859372
116	0xbd28ed43	-0.041241895
117	0x3cb72fca	0.022361655
118	0xbc56a679	-0.013101214
119	0x3bba69ce	0.0056888824
120	0x3c35c6d2	0.011094766
121	0xbb57f2ed	-0.0032951192
122	0xbc486b32	-0.012232589
123	0x3d7ca7f9	0.06168363
124	0x3bf951d6	0.0076086326
125	0xbd789086	-0.060684703
126	0x3ce39f36	0.027785879
127	0xbc840684	-0.016116388
128	0x3cadd100	0.021217823
129	0xbcd21173	-0.025643086
130	0xbc830b09	-0.015996473
131	0x3cf3da93	0.02976731
132	0xbc95b678	-0.018275484
133	0x3cb52594	0.022112645
134	0xbd1ff1c4	-0.039048925
135	0xbdb5d885	-0.088791884
136	0xbc8223db	-0.015886238
137	0x3ca366ee	0.019946542
138	0x3ca8b30d	0.02059319
139	0xbd292114	-0.04129131
140	0x3b2eb14d	0.0026655972
141	0xbd884731	-0.06654204
142	0x3d95c4ac	0.07312903
143	0x3ca1a456	0.019731682
144	0x3c08d25c	0.008350935
145	0xbc93d8e8	-0.018047765
146	0x3b10434c	0.0022012768
147	0x3d285c49	0.041103635
148	0xbd880064	-0.066406995
149	0x3d33689b	0.04380093
150	0x3d4e3e08	0.050352126
151	0x3c611ba5	0.013739501
152	0x3d190310	0.037356436
153	0xbc1b9bd9	-0.009497606
154	0x3d232b9d	0.039836515
155	0x3d1b96f3	0.037985753
156	0x3ca0c14f	0.019623427
157	0x398e5fd5	0.0002715575
158	0x3d8012bd	0.06253574
159	0x3cdac39b	0.0267046
160	0x3c21b73b	0.009870346
161	0xbd84773d	-0.064680554
162	0xbc5360da	-0.012901509
163	0xbd2dd074	-0.042435125
164	0x3cb1ae2d	0.021689499
165	0x3d3f843f	0.04675698
166	0xbbefbc0e	-0.007316119
167	0xbd1977ef	-0.037467893
168	0xbd9d008d	-0.07666121
169	0x3d467c11	0.048458163
170	0xbb97d4fd	-0.0046335445
171	0xbd59d088	-0.053177387
172	0xbd52f82d	-0.05150621
173	0x3d972020	0.07379174
174	0x3c058938	0.008150391
175	0xbd00119c	-0.031266794
176	0xbcb797c7	-0.02241124
177	0xbc0de91e	-0.0086615365
178	0x3cfdd73f	0.030986426
179	0xbd4834d5	-0.04887851
180	0xbd01034a	-0.031497277
181	0x3d3a30e8	0.045456797
182	0x3d93f7f2	0.07225026
183	0xbc8bc64e	-0.017062332
184	0xbd44d08e	-0.048050456
185	0x3d0f2776	0.034949742
186	0x3ccf36ec	0.025294743
187	0x3d281fd4	0.04104598
188	0x3d7514dd	0.05983435
189	0x3d54c224	0.05194296
190	0x3bdcee55	0.0067422786
191	0x3c132580	0.008981109
192	0xbc31ae4b	-0.010844777
193	0xbd151c27	-0.0364038
194	0xbce6d242	-0.02817643
195	0x3d6a75cc	0.057241246
196	0x3c3d3789	0.011548885
197	0x3d0edeeb	0.03488056
198	0xbccf0c97	-0.025274558
199	0x3c90892f	0.01764354
200	0xbc799517	-0.0152333
201	0xbccf38a8	-0.02529557
202	0x3c798193	0.015228647
203	0x3c905ca7	0.017622305
204	0x3c50e479	0.012749785
205	0xbbcfb50d	-0.0063387216
206	0x3c347dd6	0.01101633
207	0xbd1edc9e	-0.038784616
208	0xbd1d0612	-0.038335867
209	0x3d358162	0.044312842
210	0xbbe548ba	-0.006997195
211	0x3d0360d3	0.03207476
212	0x3d09e200	0.033662796
213	0x3d147204	0.036241546
214	0xbc38cb12	-0.0112788845
215	0xbcc612b9	-0.02417885
216	0x3c8535d2	0.016261015
217	0x3c0f366c	0.0087410025
218	0x3d1105de	0.035405986
219	0xbce91498	-0.028452203
220	0x3d050864	0.032478705
221	0xbc699643	-0.014257017
222	0xbc235dda	-0.009971106
223	0xbcd12640	-0.025530934
224	0xbca6d042	-0.020362977
225	0x3cb69dd9	0.022292065
226	0x3d360be8	0.04444495
227	0xbd879ce9	-0.06621725
228	0xbd710139	-0.058839057
229	0xbc97f825	-0.018550942
230	0xbccfcc1e	-0.025365885
231	0x3c514e37	0.0127749955
232	0xbd1d1d04	-0.03835775
233	0x3d2faba7	0.04288831
234	0x3cb3a22f	0.021927921
235	0xbd8f66a9	-0.07002003
236	0x3ce483f8	0.027894959
237	0x3b9cda73	0.0047867834
238	0xbd9e5a7d	-0.07732103
239	0xbda01436	-0.07816355
240	0x3c1a5f83	0.009422186
241	0xbd0dc3f2	-0.034610696
242	0x3d775274	0.060381368
243	0xbbae6abe	-0.0053227833
244	0xbcd93b81	-0.026517631
245	0xbd0cc76d	-0.034369875
246	0x3c9d3b4c	0.019193314
247	0x3b8c96d8	0.004290443
248	0xbd98f166	-0.07467918
249	0xbb322df9	-0.0027188046
250	0x3bce6286	0.006298366
251	0xbd7c2684	-0.06156017
252	0xb866280d	-5.4873573e-05
253	0x3c85b120	0.016319811
254	0xbd17c138	-0.037049502
255	0xbc3a9acb	-0.011389445

action_model._discrete_distribution.branches.0.bias f4 [5]
0	0xbb79d533	-0.0038121461
1	0xbc3ae9ac	-0.011408251
2	0xbc633e6c	-0.013869863
3	0xbbd5a721	-0.0065201675
4	0x3d10769b	0.03526936

exp_avg f4 [128, 9]
0	0xba5a9a00	-0.0008338988
1	0xba6a374a	-0.00089346303
2	0xba4bca63	-0.00077739934
3	0xba3fa307	-0.0007310365
4	0xba7d14f4	-0.00096543063
5	0x391367b7	0.00014057649
6	0xb9b7fe2e	-0.0003509386
7	0xb930a88e	-0.0001684746
8	0xb9701327	-0.00022895318
9	0xba17f7d5	-0.0005797123
10	0xba22d2af	-0.0006211204
11	0xba0d5dc7	-0.0005392697
12	0xba08b113	-0.00052143744
13	0xba2d448f	-0.00066096423
14	0x37b1c76b	2.1192905e-05
15	0xb9577b9f	-0.0002055005
16	0xb906c606	-0.00012853005
17	0xb9173a29	-0.00014422149
18	0xba9af570	-0.0011822414
19	0xbaa606f6	-0.001266687
20	0xba85bddb	-0.0010203676
21	0xba9f5dcc	-0.0012158691
22	0xbaaaca3c	-0.0013030241
23	0xba051a94	-0.0005077508
24	0xba410a02	-0.0007363857
25	0xb7e948a7	-2.7809596e-05
26	0xb94f6a1f	-0.00019780592
27	0xbb3f4198	-0.0029183384
28	0xbb4ceada	-0.0031267912
29	0xbb26480e	-0.0025372538
30	0xbb357381	-0.0027687254
31	0xbb3a2842	-0.0028405343
32	0x39ae0060	0.00033188146
33	0xba398e94	-0.0007078436
34	0xba65fb88	-0.0008773138
35	0xba486536	-0.0007644476
36	0x3abec1d4	0.0014553615
37	0x3acc61f4	0.0015593157
38	0x3aa279d1	0.0012395923
39	0x3ac4b46c	0.0015007383
40	0x3aefb6b0	0.0018288698
41	0x385aa175	5.212562e-05
42	0x3a11da4d	0.00055638404
43	0x37e43f15	2.7209093e-05
44	0x399ee792	0.00030308642
45	0x3a244519	0.00062664
46	0x3a3000e5	0.00067140005
47	0x3a0760cc	0.0005164265
48	0x3a242eec	0.00062630954
49	0x3a2f6f58	0.0006692312
50	0xb955f267	-0.00020403565
51	0x38eea4b5	0.000113794034
52	0x3938b607	0.00017615418
53	0x39401433	0.00018318072
54	0x3b0db551	0.0021622966
55	0x3b17d48d	0.0023167462
56	0x3af83b71	0.0018938613
57	0x3b067a27	0.0020519586
58	0x3b2087c0	0.0024494976
59	0xba131de9	-0.0005612062
60	0x3a3c6764	0.0007187037
61	0x39958a3f	0.00028522496
62	0x3a0de7db	0.00054132723
63	0xb979cfa1	-0.00023823838
64	0xb985d3cb	-0.00025525535
65	0xb96491f1	-0.00021798142
66	0xb998fa61	-0.00029178246
67	0xb9e0f155	-0.00042904416
68	0xb5c917be	-1.4982577e-06
69	0xb8d3ff42	-0.000101088095
70	0x38ce9a0d	9.85154e-05
71	0x3766da31	1.375987e-05
72	0xb8a826a9	-8.018065e-05
73	0xb8b42977	-8.590792e-05
74	0xb909631f	-0.00013102264
75	0x393b1d7b	0.00017844692
76	0x38d8c5a8	0.00010336499
77	0x3a0f209f	0.0005459878
78	0xb825e3cc	-3.9551218e-05
79	0xb9d0a89f	-0.00039798484
80	0xb96089b8	-0.00021413609
81	0x3834cf6b	4.3108517e-05
82	0x3841b99e	4.6187655e-05
83	0x383f12c4	4.5555425e-05
84	0xb83065fb	-4.2056647e-05
85	0xb90d429f	-0.00013471626
86	0xb8e250b2	-0.000107915504
87	0xb87284af	-5.7820867e-05
88	0x3971cc77	0.0002305972
89	0x38c62b09	9.449392e-05
90	0xb983874b	-0.00025087068
91	0xb98cec62	-0.00026879
92	0xb947fe5f	-0.0001907288
93	0xb9b462b7	-0.00034405824
94	0xb9c072b2	-0.00036706548
95	0xb987a48c	-0.00025871804
96	0xb9145664	-0.00014146563
97	0x390a7710	0.0001320506
98	0x377a648f	1.4924574e-05
99	0x3899362b	7.305698e-05
100	0x38a427c2	7.827535e-05
101	0xb82b189c	-4.0792496e-05
102	0x39fd4ddd	0.00048313933
103	0x3a00ca0f	0.00049129216
104	0x3a4e912e	0.000787991
105	0xb84ff980	-4.958501e-05
106	0xba1f7bf9	-0.0006083842
107	0xb98f5733	-0.00027340054
108	0x3a8d3d40	0.00107757
109	0x3a9753ea	0.0011545394
110	0x3a5edd0f	0.0008501568
111	0x3aa04ae1	0.0012229347
112	0x3aadc42e	0.0013257319
113	0x3a0b6ef2	0.00053189613
114	0x39809aca	0.0002452939
115	0xb8de17f7	-0.00010590249
116	0x39314aca	0.00016907896
117	0x39021af2	0.00012407804
118	0x390b6602	0.00013294074
119	0x38cea1ea	9.853004e-05
120	0x39096dc9	0.00013106236
121	0x39113f51	0.00013851865
122	0x3801b05b	3.092024e-05
123	0x36e9af81	6.9643725e-06
124	0x37870d92	1.6099573e-05
125	0x37f3b894	2.9053808e-05
126	0xbaa50feb	-0.0012593245
127	0xbab0da32	-0.0013492762
128	0xba92f10d	-0.0011210755
129	0xba8a0d4b	-0.0010532526
130	0xba965ad3	-0.001147116
131	0x397546ef	0.00023391446
132	0xba0f5d45	-0.00054689153
133	0xb9f34abc	-0.00046404253
134	0xb9e0683b	-0.00042802267
135	0x3926a8c7	0.00015893868
136	0x39329045	0.00017029147
137	0x391c9c4b	0.00014935543
138	0x3910b5b3	0.00013800598
139	0x38879473	6.4649525e-05
140	0xb6fd7a42	-7.5542202e-06
141	0x39302f8a	0.00016802378
142	0x389c63d3	7.4572534e-05
143	0x38105e37	3.442002e-05
144	0xba5dbf97	-0.000845903
145	0xba6d966b	-0.00090632465
146	0xba36b1de	-0.00069692533
147	0xba824928	-0.0009940015
148	0xba8ee4e5	-0.0010901956
149	0xb9bea219	-0.00036360396
150	0xb9d2f04f	-0.00040233365
151	0x391aab64	0.00014750432
152	0xb8854ca4	-6.3562096e-05
153	0xba85c051	-0.001020441
154	0xba8f4e0e	-0.0010933296
155	0xba576bbb	-0.0008217652
156	0xba9b0f1e	-0.0011830067
157	0xba8f805b	-0.0010948287
158	0xb9a307bb	-0.00031095542
159	0xb8e10504	-0.0001072977
160	0xb8b3817f	-8.559506e-05
161	0xb90e5c90	-0.00013576658
162	0x3a3c9420	0.0007193703
163	0x3a4a0c6e	0.00077075406
164	0x3a1623cf	0.0005727382
165	0x3a6037e8	0.00085532526
166	0x3a7c17e7	0.0009616599
167	0x39fee4ed	0.00048617218
168	0x39742a61	0.0002328544
169	0xb8c3f365	-9.34366e-05
170	0x38adc7c2	8.2864906e-05
171	0x3a8a1dff	0.0010537504
172	0x3a93fb91	0.0011290183
173	0x3a5a6c77	0.00083322026
174	0x3a91d1b5	0.001112512
175	0x3a9fce28	0.0012192177
176	0x38b8dc54	8.814843e-05
177	0x39cc92c7	0.0003901927
178	0x37ac535b	2.0542813e-05
179	0x3985be2c	0.00025509426
180	0x3ac03d98	0.0014666794
181	0x3acdf8d9	0.0015714421
182	0x3aa6389a	0.0012681664
183	0x3abaa183	0.0014238808
184	0x3adc0d91	0.0016788711
185	0xb992d84b	-0.0002800844
186	0x39f330b0	0.00046384847
187	0x391f9b68	0.00015221315
188	0x39b9f763	0.00035470267
189	0xb880d22d	-6.142664e-05
190	0xb88a05c4	-6.581427e-05
191	0xb8d783b1	-0.00010276528
192	0x3900a870	0.00012269779
193	0x38d68a10	0.00010230031
194	0x39b157ed	0.0003382558
195	0xb8223b66	-3.867913e-05
196	0xb99a3cf6	-0.00029418588
197	0xb916dd39	-0.00014387527
198	0x39f973b2	0.0004757918
199	0x3a05a28d	0.00050977693
200	0x3a031981	0.0005001054
201	0x398236a4	0.00024836243
202	0x39c78c03	0.00038060555
203	0xba902a6f	-0.0010998974
204	0x39238c6d	0.00015597204
205	0x399fb9b8	0.00030465215
206	0x39728080	0.00023126788
207	0x37178f52	9.033671e-06
208	0x372263c0	9.679177e-06
209	0x39006060	0.00012242934
210	0xb99302be	-0.00028040068
211	0xb6f46a38	-7.284132e-06
212	0xba26d5f9	-0.0006364282
213	0x39e4e6e0	0.00043659564
214	0x391c3d02	0.00014900047
215	0x391c988b	0.00014934146
216	0x389990a4	7.32255e-05
217	0x38a488b1	7.84559e-05
218	0x3872e9f0	5.7915167e-05
219	0x388967d3	6.552008e-05
220	0x365cfc68	3.2929474e-06
221	0x37e2cc7e	2.7036524e-05
222	0x38105041	3.4407018e-05
223	0x38b29988	8.516299e-05
224	0x37d0dee4	2.4899324e-05
225	0xba98a3e0	-0.0011645518
226	0xbaa38b03	-0.0012477342
227	0xba818218	-0.000988069
228	0xbab42f27	-0.0013746963
229	0xbacfddd5	-0.0015858958
230	0xb98e1c59	-0.0002710547
231	0xba22373d	-0.0006188041
232	0x395e5c38	0.00021205924
233	0xb878f238	-5.935339e-05
234	0xb9963a5f	-0.0002865372
235	0xb9a0f565	-0.0003070041
236	0xb989c5ec	-0.0002627814
237	0xb9451841	-0.0001879642
238	0xb94b7b69	-0.00019405562
239	0x39a92268	0.00032259827
240	0x38367f4d	4.351074e-05
241	0xb96dfc96	-0.00022696177
242	0xb919fb05	-0.00014684729
243	0xba4ce546	-0.0007816147
244	0xba5b87ee	-0.0008374442
245	0xba3a2ba8	-0.0007101842
246	0xba2c168f	-0.0006564641
247	0xba4c1526	-0.0007785134
248	0x390230ff	0.00012416019
249	0xb9c416ac	-0.00037400925
250	0xb9919b53	-0.0002777228
251	0xb984435d	-0.00025227192
252	0x392a5854	0.00016245368
253	0x39368338	0.00017405755
254	0x391d0126	0.00014973115
255	0x3917b2f1	0.00014467143

exp_avg_sq f4 [128, 9]
0	0x35accd75	1.2874794e-06
1	0x3590e9bd	1.0796863e-06
2	0x3585c397	9.966196e-07
3	0x35521671	7.826375e-07
4	0x351a1645	5.7401877e-07
5	0x34bbf7f1	3.5011865e-07
6	0x35a4566c	1.2244104e-06
7	0x35cd2b00	1.5286205e-06
8	0x351ebf5e	5.913806e-07
9	0x34ea9274	4.3692455e-07
10	0x34b97ff6	3.455204e-07
11	0x34bae9d8	3.4815343e-07
12	0x3486fbe9	2.5142734e-07
13	0x342a4701	1.5858315e-07
14	0x3324cfc6	3.8373194e-08
15	0x34ec58d5	4.402306e-07
16	0x3511ec07	5.4360174e-07
17	0x3445581f	1.8379113e-07
18	0x364d44e2	3.0587476e-06
19	0x363a651b	2.777501e-06
20	0x36227186	2.420596e-06
21	0x360086b0	1.9151885e-06
22	0x35cf578e	1.5448184e-06
23	0x354e1bb9	7.678132e-07
24	0x364553bf	2.9404034e-06
25	0x36159b8c	2.229327e-06
26	0x35600fde	8.346959e-07
27	0x36f19080	7.1991817e-06
28	0x36e3b4e4	6.7861856e-06
29	0x36985bec	4.540654e-06
30	0x36b7bfc2	5.4761485e-06
31	0x36d0508f	6.2082613e-06
32	0x367bc7e8	3.7518275e-06
33	0x369dca8f	4.7025455e-06
34	0x368efc2c	4.2612864e-06
35	0x36518ac2	3.1224195e-06
36	0x366dfd55	3.546321e-06
37	0x365cd9cc	3.290933e-06
38	0x36044d28	1.9714444e-06
39	0x364584d6	2.9432608e-06
40	0x368ca9bc	4.192085e-06
41	0x362b32ce	2.5510558e-06
42	0x35e552d3	1.7085935e-06
43	0x35d40e6d	1.5799429e-06
44	0x3603de81	1.9650035e-06
45	0x35bf4e9e	1.425349e-06
46	0x35ab84ce	1.2779144e-06
47	0x356945e1	8.690095e-07
48	0x35834192	9.779344e-07
49	0x35b74188	1.3653635e-06
50	0x35c56e97	1.470983e-06
51	0x3537955d	6.8390165e-07
52	0x352b51f4	6.382172e-07
53	0x352c8f30	6.428336e-07
54	0x36573205	3.2066612e-06
55	0x3644526a	2.9254247e-06
56	0x36095013	2.04612e-06
57	0x36401847	2.862436e-06
58	0x368a3617	4.1190174e-06
59	0x35de3e6b	1.6558455e-06
60	0x35390c4a	6.8935753e-07
61	0x3524e8d5	6.1433576e-07
62	0x358d1e9f	1.051423e-06
63	0x358f8e70	1.0695785e-06
64	0x358701f5	1.0058853e-06
65	0x356a2313	8.722283e-07
66	0x35064ea0	5.0033304e-07
67	0x33cc5c53	9.516284e-08
68	0x343cc870	1.7581783e-07
69	0x35bf699d	1.4261346e-06
70	0x35b838c1	1.3725586e-06
71	0x34ec6a84	4.4035926e-07
72	0x3674ff69	3.6507502e-06
73	0x363ea783	2.840971e-06
74	0x36395a7b	2.7619815e-06
75	0x35f17f86	1.7993013e-06
76	0x35dc4c55	1.6413493e-06
77	0x355dfca1	8.269654e-07
78	0x36578d52	3.2119756e-06
79	0x36861c3c	3.996798e-06
80	0x35d9fe29	1.624173e-06
81	0x356f4f64	8.9149967e-07
82	0x35722b79	9.0215286e-07
83	0x3548094a	7.4519323e-07
84	0x34dbf7d9	4.0972262e-07
85	0x33b3d411	8.373912e-08
86	0x34067939	1.2523823e-07
87	0x35921cc7	1.0886223e-06
88	0x358fb010	1.0705571e-06
89	0x34a3b52d	3.049294e-07
90	0x3550be15	7.7762644e-07
91	0x35411b7d	7.1938103e-07
92	0x35290bb8	6.297446e-07
93	0x34c0f546	3.5941247e-07
94	0x349c61cf	2.912843e-07
95	0x34152b64	1.3892492e-07
96	0x3556f6a0	8.00801e-07
97	0x355475f7	7.9147816e-07
98	0x349058a6	2.688659e-07
99	0x36bb820f	5.588175e-06
100	0x36ab2321	5.1002867e-06
101	0x3696f844	4.4992503e-06
102	0x3640af02	2.8712097e-06
103	0x36338ee3	2.675625e-06
104	0x35cffaf1	1.5495735e-06
105	0x36ad1c66	5.159108e-06
106	0x36c15cf2	5.7626685e-06
107	0x3602506c	1.9418321e-06
108	0x35e65603	1.7161368e-06
109	0x35d17fba	1.5608887e-06
110	0x35934f75	1.0975479e-06
111	0x35b6845e	1.3598581e-06
112	0x35e7bf9b	1.7266606e-06
113	0x35591c2e	8.0879806e-07
114	0x353a10a1	6.93146e-07
115	0x3547bc59	7.440736e-07
116	0x3530ec96	6.5909387e-07
117	0x336cd8ea	5.5145314e-08
118	0x32cd4459	2.3896222e-08
119	0x32c03e7f	2.2380162e-08
120	0x334293c2	4.530353e-08
121	0x33786718	5.7835763e-08
122	0x335cac61	5.137952e-08
123	0x32f56b0e	2.8570437e-08
124	0x32040d12	7.686383e-09
125	0x3354adab	4.9518047e-08
126	0x3611d766	2.1732062e-06
127	0x35f71faf	1.8412155e-06
128	0x35c47b1b	1.4638966e-06
129	0x35cc3e8f	1.5217391e-06
130	0x35d83bf8	1.6110707e-06
131	0x35755287	9.1389705e-07
132	0x35db4abb	1.6338521e-06
133	0x35e9d4ad	1.742175e-06
134	0x3583a001	9.806828e-07
135	0x34a32de8	3.0394517e-07
136	0x34b28af6	3.325619e-07
137	0x3479717b	2.3231216e-07
138	0x345f2eb9	2.0785491e-07
139	0x34809a9f	2.395436e-07
140	0x3365a97a	5.3472355e-08
141	0x34637b17	2.1185802e-07
142	0x34924dc1	2.7251193e-07
143	0x33e510d9	1.0666708e-07
144	0x36474987	2.969611e-06
145	0x36420d0b	2.8915845e-06
146	0x361a4b57	2.2991642e-06
147	0x35d13779	1.5587858e-06
148	0x359362e7	1.0981138e-06
149	0x3501ae06	4.830948e-07
150	0x365b9ae9	3.2723713e-06
151	0x363b0933	2.7870526e-06
152	0x358f16d4	1.0660974e-06
153	0x364539de	2.938897e-06
154	0x363660d5	2.7176477e-06
155	0x36079522	2.0203374e-06
156	0x360e9c33	2.1250569e-06
157	0x363c4eed	2.8060124e-06
158	0x35ea38d3	1.7450897e-06
159	0x360266b3	1.9431288e-06
160	0x35bf696d	1.4261292e-06
161	0x35a269a3	1.2100685e-06
162	0x35cefa23	1.5420995e-06
163	0x35aa5244	1.268993e-06
164	0x355ffe32	8.3443877e-07
165	0x35a295f8	1.2113587e-06
166	0x35d96cca	1.6199422e-06
167	0x35aeadab	1.3014554e-06
168	0x3549de62	7.5201945e-07
169	0x352da9cf	6.4694626e-07
170	0x355d8be6	8.2532495e-07
171	0x3621184d	2.4005014e-06
172	0x3603ed9c	1.9658828e-06
173	0x356d5c9b	8.842414e-07
174	0x3614f166	2.219423e-06
175	0x364a5a5d	3.0152944e-06
176	0x362008f5	2.3847072e-06
177	0x3566c785	8.5972016e-07
178	0x33cb54cf	9.468351e-08
179	0x35e4a4bb	1.7035267e-06
180	0x35b7b11c	1.3686108e-06
181	0x35b88b7b	1.3749662e-06
182	0x35483457	7.458197e-07
183	0x35ae3f1f	1.2982381e-06
184	0x35cd1a60	1.5281366e-06
185	0x35237242	6.08885e-07
186	0x34f991ab	4.6485852e-07
187	0x34e2e263	4.2260498e-07
188	0x3510a9c3	5.3891216e-07
189	0x35ab170d	1.2747201e-06
190	0x359b0370	1.15494e-06
191	0x35862640	9.99491e-07
192	0x352d7763	6.462125e-07
193	0x3519ff58	5.7368516e-07
194	0x349985a0	2.8595696e-07
195	0x35a63de6	1.2385979e-06
196	0x35bf7b60	1.4266516e-06
197	0x35095779	5.1163767e-07
198	0x367f312b	3.802658e-06
199	0x36639bda	3.3916353e-06
200	0x363f7e95	2.8534898e-06
201	0x36429f1a	2.9000862e-06
202	0x36489c8f	2.9893451e-06
203	0x35d1e123	1.5637237e-06
204	0x36522561	3.1314196e-06
205	0x3630317e	2.6254852e-06
206	0x35b1aacd	1.3237237e-06
207	0x36953fa1	4.4479534e-06
208	0x36875310	4.0329833e-06
209	0x3637200d	2.728778e-06
210	0x3672244d	3.608194e-06
211	0x36997215	4.573036e-06
212	0x362b4c85	2.5525526e-06
213	0x36289446	2.5120257e-06
214	0x36203318	2.3871598e-06
215	0x361017d7	2.1471549e-06
216	0x33021911	3.029078e-08
217	0x337cbadb	5.8843266e-08
218	0x32931756	1.7123664e-08
219	0x331280bc	3.4110357e-08
220	0x326333ae	1.322489e-08
221	0x332394b9	3.8086657e-08
222	0x334dbb93	4.790088e-08
223	0x335432c2	4.940626e-08
224	0x32974a02	1.7612368e-08
225	0x37176247	9.023183e-06
226	0x36f3e1f8	7.2682706e-06
227	0x36fb1a92	7.483476e-06
228	0x368e223c	4.235915e-06
229	0x3638879d	2.7497074e-06
230	0x35d94f0b	1.6190764e-06
231	0x3732896a	1.0641621e-05
232	0x3712b1ce	8.7436765e-06
233	0x3659d073	3.2456853e-06
234	0x3546c5c3	7.404853e-07
235	0x3543d391	7.295103e-07
236	0x350cee2e	5.250066e-07
237	0x34f08c5e	4.4805614e-07
238	0x34ca131b	3.7639333e-07
239	0x3481f061	2.420302e-07
240	0x3542efc6	7.261955e-07
241	0x35490b0d	7.4894416e-07
242	0x34b69ee7	3.4015758e-07
243	0x354847a8	7.461008e-07
244	0x35314198	6.603309e-07
245	0x3512bb76	5.466203e-07
246	0x35017b1f	4.823541e-07
247	0x351a8ee5	5.757741e-07
248	0x34b42a54	3.355841e-07
249	0x35214722	6.0080686e-07
250	0x353d0d7c	7.042761e-07
251	0x34c6f028	3.705511e-07
252	0x339f80e2	7.427458e-08
253	0x33d020c6	9.691716e-08
254	0x336c919f	5.5080474e-08
255	0x3374c582	5.699031e-08

exp_avg f4 [128]
0	0xba79d492	-0.00095302716
1	0xba2dad87	-0.0006625284
2	0xbab11880	-0.001351133
3	0xbb5a941c	-0.003335244
4	0x3ada0218	0.0016632704
5	0x3a3bbcb0	0.00071616005
6	0x3b21f3cb	0.0024711962
7	0xb98ebfc9	-0.00027227242
8	0xb8c02c2d	-9.163502e-05
9	0x384ea3e1	4.926685e-05
10	0xb996517a	-0.00028670934
11	0x38af1956	8.3493695e-05
12	0x3aa16a94	0.0012315088
13	0x3914b114	0.00014180347
14	0xbabca47b	-0.0014392281
15	0x393e77bb	0.00018164415
16	0xba7d6d40	-0.00096674636
17	0xba98dbcd	-0.0011662185
18	0x3a5784b8	0.0008221376
19	0x3a9dd924	0.0012042862
20	0x3adbb41c	0.0016762051
21	0xb8933956	-7.020186e-05
22	0x3a0e8b43	0.0005437622
23	0x372d3746	1.0324473e-05
24	0x38af80bc	8.368629e-05
25	0xbaae7226	-0.0013309165
26	0xb9abb06e	-0.00032747112
27	0xba6a2a97	-0.0008932738
28	0x3942ae19	0.00018566138
29	0xb9211dda	-0.00015365277
30	0xbaade976	-0.0013268429
31	0x3885c035	6.3777356e-05
32	0xba99d42b	-0.0011736205
33	0xba6f5f0a	-0.00091312884
34	0xb8220207	-3.8625698e-05
35	0x3a2588b5	0.00063146214
36	0xb92e037e	-0.00016595234
37	0xbab28122	-0.0013618807
38	0xb9294a1d	-0.00016144705
39	0xb9c369a1	-0.00037271998
40	0xb901735c	-0.00012345373
41	0xba406ffc	-0.0007340906
42	0x38d2a940	0.000100451056
43	0x3a9dffa6	0.0012054339
44	0xbaaead14	-0.0013326728
45	0xbab6e04e	-0.0013952346
46	0xba1a00de	-0.0005874763
47	0xbae02dee	-0.0017103532
48	0xb9451b8c	-0.00018797646
49	0xba2bdbbf	-0.0006555877
50	0x3a554ef0	0.0008137068
51	0x3aa9173b	0.00129006
52	0xba8cc358	-0.0010739369
53	0xb95bdd4a	-0.00020967904
54	0xbb26e21d	-0.0025464364
55	0x3a7f11cf	0.0009730132
56	0x3a92817a	0.0011177503
57	0xba54b0bc	-0.00081134937
58	0x394ce1ae	0.00019539028
59	0x39cb462f	0.00038771468
60	0xba9697cf	-0.0011489334
61	0xb89e3948	-7.5446966e-05
62	0xbb3286a3	-0.0027240894
63	0xbb30ec56	-0.0026996336
64	0xb8d10105	-9.9660865e-05
65	0xb91dd638	-0.0001505249
66	0xba0a590d	-0.0005277552
67	0x3908822b	0.00013018462
68	0x3ab1a3c1	0.0013552831
69	0xbb0d2fcb	-0.002154338
70	0x3ab82dcd	0.0014051736
71	0x3abec570	0.001455469
72	0x3a8a15f7	0.001053511
73	0xb96ae5f0	-0.00022401637
74	0xb9477ae7	-0.00019023904
75	0xb80620c7	-3.1978616e-05
76	0xba5a218d	-0.00083210395
77	0x3a8cfc89	0.0010756414
78	0xba59a4ec	-0.00083024683
79	0x3a968144	0.0011482616
80	0xba30c8b5	-0.0006743775
81	0x38c4079a	9.347424e-05
82	0xbaca87f6	-0.0015451896
83	0x3b4c3ac3	0.0031162954
84	0xbac433b0	-0.0014969017
85	0xb9f27c87	-0.00046250617
86	0xb9f91f49	-0.0004751629
87	0x3b1c3158	0.0023833122
88	0xba0e2664	-0.0005422591
89	0xb9df9818	-0.00042647193
90	0x3afbe5b3	0.0019218236
91	0x36a444ba	4.8955817e-06
92	0x39157d63	0.00014256458
93	0xba61b889	-0.0008610567
94	0xba3eb01d	-0.0007274168
95	0xbaa5cd31	-0.0012649653
96	0xb987d63f	-0.00025908832
97	0xba259c0c	-0.0006317503
98	0xba12cc0f	-0.0005599865
99	0x3ab676db	0.001392092
100	0x3af009a4	0.001831342
101	0xb98d3b9c	-0.00026938028
102	0x3a8a6919	0.0010559886
103	0x3a54ad4d	0.0008112982
104	0xb8258ea2	-3.9471903e-05
105	0xbb20c58c	-0.002453181
106	0x3b2c1843	0.0026259578
107	0xb9e13e17	-0.00042961605
108	0x3a2bd696	0.0006555108
109	0x385e812d	5.304923e-05
110	0xbaa8bc79	-0.0012873552
111	0xbaca40bf	-0.0015430673
112	0x3aabaf91	0.0013098588
113	0x3a0bcd08	0.0005332981
114	0xb92c93ce	-0.0001645826
115	0x3a34bf62	0.00068949733
116	0xbafee978	-0.0019448241
117	0x383197ac	4.2341344e-05
118	0x38bfdf52	9.1491864e-05
119	0xba01e911	-0.0004955689
120	0xbb439f48	-0.0029849578
121	0x39b496a1	0.00034444503
122	0x38c19d37	9.232241e-05
123	0xb7c2c2fe	-2.3217402e-05
124	0xb99a5a3b	-0.00029440396
125	0xb9b5635b	-0.00034597036
126	0xbaf1787d	-0.0018422749
127	0x3906133c	0.00012786401

exp_avg_sq f4 [128]
0	0x35fe5abb	1.8950881e-06
1	0x3525196d	6.150429e-07
2	0x36871764	4.0260365e-06
3	0x3728cf0e	1.0061789e-05
4	0x36b21644	5.3074054e-06
5	0x3607b5b0	2.0222324e-06
6	0x369330fa	4.386643e-06
7	0x35ce92c9	1.5390916e-06
8	0x36a3e4eb	4.884428e-06
9	0x359e2c8d	1.1784883e-06
10	0x3589eb2d	1.0275741e-06
11	0x36fb51ce	7.4899062e-06
12	0x3619aa37	2.2897855e-06
13	0x33a12d26	7.505359e-08
14	0x36507279	3.1061047e-06
15	0x34e7ec34	4.3198963e-07
16	0x36830b85	3.9054453e-06
17	0x3687fab5	4.0524997e-06
18	0x360fe219	2.1440267e-06
19	0x366604c8	3.4275454e-06
20	0x3600455e	1.9113863e-06
21	0x35e8f440	1.7356433e-06
22	0x36b4e8c7	5.391517e-06
23	0x36d5524a	6.3574744e-06
24	0x33987f0f	7.1011634e-08
25	0x37479022	1.1894883e-05
26	0x358c1047	1.043555e-06
27	0x359995aa	1.1442946e-06
28	0x33f62d56	1.1463514e-07
29	0x35a62d2e	1.2381113e-06
30	0x37504284	1.2413253e-05
31	0x33561320	4.9843152e-08
32	0x36f570f0	7.3147166e-06
33	0x35ecb04a	1.7634677e-06
34	0x348b0bfb	2.5899485e-07
35	0x350d0454	5.253289e-07
36	0x3672f8c6	3.6205615e-06
37	0x36b137b0	5.281494e-06
38	0x34622ba8	2.1063772e-07
39	0x349c8280	2.9152216e-07
40	0x368c63a3	4.1839244e-06
41	0x3631a01d	2.6468254e-06
42	0x32f7e2d5	2.8857736e-08
43	0x35ceadba	1.5398757e-06
44	0x3650b9fe	3.1102677e-06
45	0x36ecd1f1	7.0577885e-06
46	0x3650ac7f	3.1094821e-06
47	0x3712cbc4	8.749721e-06
48	0x3628dde1	2.5163101e-06
49	0x35aeace4	1.3014328e-06
50	0x35942ed1	1.1040485e-06
51	0x36168452	2.2428762e-06
52	0x364519e0	2.9370349e-06
53	0x36f1ceb8	7.206425e-06
54	0x3699053e	4.5603656e-06
55	0x371b4b7a	9.256293e-06
56	0x366aa013	3.4961893e-06
57	0x3669a67c	3.4816612e-06
58	0x36adf2a5	5.1840493e-06
59	0x36695890	3.4771256e-06
60	0x3633ae65	2.677459e-06
61	0x34bff082	3.5751515e-07
62	0x36dfa947	6.6656244e-06
63	0x3715a966	8.920533e-06
64	0x33e40dbf	1.0619578e-07
65	0x360d5398	2.1059295e-06
66	0x360294c7	1.945811e-06
67	0x3408de25	1.2746803e-07
68	0x361a9789	2.3035993e-06
69	0x36b213ff	5.3071412e-06
70	0x3578253e	9.2441394e-07
71	0x36784b20	3.6998608e-06
72	0x36242a68	2.4462588e-06
73	0x361459fa	2.2106092e-06
74	0x36475f97	2.9708951e-06
75	0x366c03df	3.5168994e-06
76	0x368d4e22	4.2112233e-06
77	0x3600ef79	1.9212878e-06
78	0x36310e72	2.6383464e-06
79	0x351d0ca7	5.850547e-07
80	0x36b90933	5.5145006e-06
81	0x3416d369	1.4046749e-07
82	0x35ec6a01	1.7614221e-06
83	0x371ddb19	9.408942e-06
84	0x36d29b5b	6.2765735e-06
85	0x36db9677	6.544225e-06
86	0x357dc617	9.4538103e-07
87	0x368092b0	3.831774e-06
88	0x35fc11b0	1.8780611e-06
89	0x36112f61	2.1634262e-06
90	0x3681ec4b	3.8720077e-06
91	0x34263c1a	1.548182e-07
92	0x32c8ad4d	2.3361872e-08
93	0x364acea5	3.0220629e-06
94	0x36e21c9e	6.7386563e-06
95	0x364b34a1	3.0279991e-06
96	0x37002991	7.6390725e-06
97	0x358cabff	1.048087e-06
98	0x372bf58d	1.0249566e-05
99	0x3689c8a5	4.1062763e-06
100	0x3622df0e	2.4269716e-06
101	0x36131e95	2.1922508e-06
102	0x3627dbfe	2.5012992e-06
103	0x35ae064a	1.2965841e-06
104	0x36263549	2.4766944e-06
105	0x3729443e	1.0089074e-05
106	0x36496b71	3.0013873e-06
107	0x37000213	7.6298775e-06
108	0x36140466	2.2056279e-06
109	0x32e9c05d	2.7212247e-08
110	0x36af2923	5.2201954e-06
111	0x37150782	8.88284e-06
112	0x36181b1e	2.266555e-06
113	0x366a4448	3.4908462e-06
114	0x3567775d	8.62279e-07
115	0x367de3c0	3.7832506e-06
116	0x367067fb	3.5823311e-06
117	0x34159a4d	1.393284e-07
118	0x35917856	1.0838364e-06
119	0x355589e6	7.954935e-07
120	0x36d76842	6.4196365e-06
121	0x357f17bb	9.5029435e-07
122	0x36cbf9ae	6.078938e-06
123	0x35248aaa	6.1296544e-07
124	0x36bec196	5.6849776e-06
125	0x37411304	1.1508124e-05
126	0x369261fb	4.3625455e-06
127	0x33a80306	7.8236596e-08
