Assets/results/Maze06/Mouse/Mouse-117069.onnx (onnx, 97117 bytes, 6 tensors)

network_body._body_endoder.seq_layers.0.weight f4 [128, 45]
0	0x3d5e7a9b	0.054316144
1	0x3e7ae603	0.24501805
2	0xbe7a050f	-0.24415992
3	0xbe2a5703	-0.16634755
4	0xbd4435c5	-0.04790284
5	0x3dbec953	0.09315743
6	0xbdabbd5a	-0.08385725
7	0x3dc643e9	0.096809216
8	0x3d90a0b2	0.070619
9	0xb93ba209	-0.00017894073
10	0xbdbb577a	-0.09147544
11	0x3e1c2ce2	0.15251496
12	0x3a04a958	0.00050606346
13	0xbe3a1310	-0.18171334
14	0x3dc8485d	0.09779427
15	0x3c031231	0.007999943
16	0x3e251873	0.16122608
17	0x3e889ab3	0.26680526
18	0x3e97ec17	0.2967231
19	0xbda99ce1	-0.082818754
20	0xbd0bddff	-0.03414726
21	0x3e41a5ae	0.18910858
22	0x3dae1d9b	0.085017405
23	0xbec584c4	-0.38577855
24	0xbe3cd407	-0.18440257
25	0x3cb4baee	0.022061791
26	0x3d29bd0f	0.041440066
27	0x3e6f79d9	0.23386325
28	0xbe6572f4	-0.22407132
29	0x3e655c3e	0.22398469
30	0xbd420e8e	-0.04737716
31	0x3dc89f34	0.097959906
32	0xbd48a55b	-0.04898582
33	0x3cb9ee86	0.022696745
34	0x3cedc9dd	0.02902692
35	0x3e2ccee2	0.16875795
36	0xbd4393e8	-0.047748476
37	0x3e2e171a	0.17001
38	0x3dd4d7c6	0.10392718
39	0xbe7e720a	-0.2484819
40	0xbd60f90c	-0.05492501
41	0xbde70eeb	-0.11282142
42	0xbe3563de	-0.17713878
43	0x3e965f4f	0.2936959
44	0xbe1d2e1e	-0.15349624
45	0xbd7dfd5c	-0.0620092
46	0x3de2118e	0.110385045
47	0x3cd2075e	0.025638279
48	0xbc6c5c75	-0.01442634
49	0xbc693857	-0.014234624
50	0x3cc65b66	0.024213504
51	0xbe062419	-0.13099708
52	0x3e40869d	0.18801351
53	0x3c26c746	0.010179346
54	0xbe510f48	-0.20415986
55	0xbe1ba764	-0.15200573
56	0x3d40ca62	0.047068007
57	0x3ac6fb93	0.0015181176
58	0x3d360263	0.04443587
59	0xbdd3c211	-0.103397496
60	0x3d9d9331	0.0769409
61	0xbe7097a1	-0.23495342
62	0xbddb3a64	-0.107044965
63	0x3e2b80ae	0.16748306
64	0x3d012314	0.031527594
65	0x3dc2e29e	0.0951588
66	0x3e0ec001	0.13940431
67	0x3ea4c546	0.32181758
68	0xbd4953e1	-0.04915226
69	0xbdb3b785	-0.08775238
70	0x3d20731d	0.03917228
71	0xbda83d53	-0.08214822
72	0x3eb3579a	0.35027772
73	0x3d69aac1	0.05704761
74	0x3dd8b184	0.105807334
75	0xbc790ef9	-0.015201324
76	0x3ca92409	0.020647066
77	0x3e4d0150	0.20020032
78	0x3e3ce45f	0.18446492
79	0xbd93fddd	-0.07226155
80	0xbddf4d75	-0.10903446
81	0x3d8c5bf8	0.06853479
82	0x3e56c53d	0.20973678
83	0xbc3d09a0	-0.011537939
84	0x3da00735	0.07813875
85	0x3e0ebe7c	0.13939852
86	0x3ca7face	0.020505335
87	0xbf1ec5ca	-0.6202055
88	0x3beb9d3b	0.007190374
89	0xbdb60162	-0.088869825
90	0x3e0e0d8e	0.13872358
91	0x3e9882d6	0.2978732
92	0xbe7447d0	-0.2385552
93	0x3e22454c	0.15846747
94	0x3d1ffd2e	0.03905981
95	0xbe2a1f4e	-0.16613504
96	0xbe845042	-0.25842482
97	0x3b1526a4	0.0022758627
98	0x3dd1c241	0.10242129
99	0xbce81db4	-0.028334476
100	0xbdf43ef2	-0.11926068
101	0x3e129e03	0.14318089
102	0xbe35f3c7	-0.17768775
103	0xbd8bcd7a	-0.06826301
104	0x3e983f0e	0.29735607
105	0xbdf8ea1f	-0.1215403
106	0xbdbb4cc8	-0.09145504
107	0x3e3afaeb	0.1825978
108	0x3e3be48e	0.18348905
109	0xbe725ee4	-0.2366901
110	0xbd9ef36a	-0.07761271
111	0xbd60ff63	-0.054931056
112	0xbcc2fb43	-0.023801452
113	0xbe087529	-0.13325943
114	0x3cf4cc62	0.029882614
115	0xbdfc9748	-0.12333542
116	0xbe147c75	-0.14500602
117	0x3cd6a064	0.026199527
118	0xbdd60be7	-0.10451489
119	0xbe457b57	-0.19285332
120	0xbe565d58	-0.20934045
121	0x3e04147d	0.1289844
122	0xbe169d75	-0.14708503
123	0xbe00c994	-0.12576896
124	0x3d0bf246	0.034166597
125	0x3e0f044d	0.13966484
126	0xbe40eaf6	-0.1883963
127	0x3d8b6c8e	0.068078145
128	0x3e0be994	0.13663322
129	0x3ca40b6e	0.020024981
130	0xbe2b23e5	-0.16712911
131	0xbd07cec6	-0.03315618
132	0x3a45ea7b	0.0007549894
133	0x3c765d5f	0.01503691
134	0xbdadc66a	-0.0848511
135	0x3e073d74	0.13207036
136	0xbe59dee9	-0.2127644
137	0xbddbe544	-0.10737088
138	0xbdfc147f	-0.12308597
139	0x3d901e02	0.070369735
140	0x3e40323c	0.18769163
141	0xbdd5960a	-0.10429008
142	0xbde9a884	-0.11409095
143	0x3e092ebf	0.13396738
144	0x3e44a880	0.19204903
145	0xbda17ca6	-0.07885103
146	0xbd8b42cf	-0.06799852
147	0x3d958aca	0.073018625
148	0x3e7355c3	0.23763184
149	0xbe78ab57	-0.24284111
150	0x3d622cad	0.055218387
151	0x3e2a6049	0.16638292
152	0x3d132603	0.035924923
153	0xbd90bd8a	-0.07067402
154	0xbe72be47	-0.23705398
155	0x3e6a6dc8	0.2289344
156	0x3e159555	0.14607747
157	0xbdf02744	-0.11726239
158	0x3d94f02d	0.072723724
159	0x3dea625b	0.11444541
160	0xbd410ea7	-0.047133114
161	0x3d8d6db6	0.06905691
162	0x3e4d329d	0.20038839
163	0xbe094c90	-0.13408113
164	0x3e32a326	0.17445049
165	0x3f00a433	0.5025055
166	0x3e684360	0.22681952
167	0xbccc8f53	-0.024970686
168	0x3d2ad0c1	0.04170299
169	0xbe41348f	-0.18867706
170	0x3e2fe683	0.17177777
171	0xbd8c4a40	-0.068500996
172	0x3e42c747	0.19021331
173	0x3d9f8416	0.07788865
174	0xbd8944a7	-0.067025475
175	0xbda181a3	-0.07886054
176	0xbcd71017	-0.02625279
177	0x3bc07127	0.005872864
178	0x3da8c89d	0.08241389
179	0x3cd8fbe4	0.026487298
180	0xbd6c4a42	-0.057688005
181	0xbe42d0c6	-0.19024953
182	0xbe28735b	-0.16450255
183	0xbc3373d3	-0.010952908
184	0x3c41fc57	0.011839948
185	0x3e473d0c	0.19456881
186	0x3d9b84bd	0.07593677
187	0x3ea804a7	0.3281605
188	0x3e39591f	0.18100403
189	0x3e7ff9f4	0.24997693
190	0xbdef5505	-0.11686138
191	0x3de38b7b	0.11110588
192	0x3ebad351	0.36489347
193	0x3e037ef0	0.12841392
194	0xbe35e778	-0.1776408
195	0xbde621df	-0.11236929
196	0x3dee41fc	0.11633679
197	0x3ca739d8	0.020413324
198	0x3d83d8d7	0.06437843
199	0xbd930f5f	-0.07180666
200	0xbceec806	-0.029148113
201	0x3d8b915d	0.06814835
202	0x3cb22e2b	0.02175053
203	0x3e3af92c	0.18259114
204	0xbe0706d0	-0.13186193
205	0xbcf97f7d	-0.030456299
206	0xbd846504	-0.0646458
207	0xbc51c093	-0.012802261
208	0x3ed63d05	0.4184343
209	0xbe465a1c	-0.19370311
210	0x3e8b6472	0.2722507
211	0xbd9c9a74	-0.07646647
212	0xbcd6510b	-0.026161691
213	0xbd24a186	-0.040193103
214	0xbe200d01	-0.1562996
215	0xbe51a242	-0.20472053
216	0x3ba825d9	0.005131465
217	0xbd1f91dd	-0.038957465
218	0x3e086f80	0.13323784
219	0x3e465ad5	0.19370587
220	0xbd27d03a	-0.040970065
221	0x3d55351e	0.05205261
222	0x3e348422	0.1762853
223	0xbe71e6f1	-0.23623253
224	0x3e9fa273	0.31178626
225	0x3e1c6e49	0.15276445
226	0x3e0476f4	0.12936002
227	0x3e01a8d1	0.12662055
228	0x3cf50f47	0.029914511
229	0xbdb410d3	-0.087922715
230	0x3c92acdf	0.017904697
231	0xbd8334d5	-0.06406561
232	0x3ccef554	0.025263466
233	0x3be0422d	0.0068438263
234	0x3def14c8	0.116738856
235	0x3d6657e5	0.056236167
236	0x3db40f03	0.08791926
237	0x3d8937a2	0.06700064
238	0x3e523542	0.20528129
239	0xbe92052c	-0.2851957
240	0x3cb38159	0.021912264
241	0x3e00c769	0.12576069
242	0xbba140a2	-0.004921035
243	0x3e11e272	0.14246538
244	0x3ddf29c6	0.108966395
245	0x3e4d194d	0.20029183
246	0xbea7e118	-0.3278892
247	0xbe0bc7a8	-0.13650382
248	0x3d53228e	0.051546626
249	0xbda32037	-0.07965129
250	0x3ed24085	0.4106485
251	0xbe024474	-0.12721425
252	0xbf00c1e2	-0.5029584
253	0x3ed96f73	0.42467842
254	0x3d4be459	0.049778316
255	0xbe0c78dc	-0.13717979

network_body._body_endoder.seq_layers.0.bias f4 [128]
0	0x3d0d5276	0.03450247
1	0x3d69df73	0.057097863
2	0xbcff3062	-0.031151
3	0x3cd10268	0.025513843
4	0x3c821fcb	0.0158843
5	0x3d023382	0.031787403
6	0xbac60503	-0.0015107695
7	0xbcb02ac9	-0.021504777
8	0x3d9f9f08	0.07794005
9	0x3c3441f3	0.011002052
10	0x3d87d090	0.06631577
11	0x3d090d01	0.033459667
12	0x3c932de1	0.017966213
13	0x3d099b51	0.033595387
14	0x3cc7e8ac	0.024402939
15	0x3c2df322	0.010617049
16	0x3d1c524b	0.03816442
17	0x3d1428e6	0.036171816
18	0xbc18474f	-0.009294345
19	0x3d119ee7	0.03555193
20	0x3cb4da12	0.02207664
21	0xbc47c577	-0.012193075
22	0x3ca6a495	0.02034215
23	0x3ce30368	0.027711585
24	0x3d264c48	0.04060009
25	0xbcdc4da4	-0.02689249
26	0x3d2627e2	0.04056538
27	0x3ca9d585	0.020731697
28	0xbd0c7b82	-0.034297474
29	0x3d018347	0.031619336
30	0xbb6192da	-0.0034419806
31	0x3d068a4c	0.032846734
32	0x3ccd716d	0.0250785
33	0x3c66fd95	0.014098545
34	0xbc322b01	-0.010874511
35	0x3c9dd17d	0.01926493
36	0x3ce73e26	0.028227877
37	0x3d06bf52	0.0328973
38	0x3c2adacd	0.010428143
39	0x3c40ca6d	0.011767012
40	0x3ccf242f	0.025285808
41	0x3d38c258	0.045107216
42	0x3d12082a	0.035652317
43	0x3d3375be	0.04381346
44	0xbcbf8060	-0.023376644
45	0xba92050b	-0.0011140419
46	0x3c3694cf	0.011143877
47	0x3d3a5834	0.045494273
48	0x3cec897c	0.028874151
49	0xbcdbdc54	-0.02683846
50	0x3d12864a	0.0357726
51	0xbc2847b0	-0.010270998
52	0x3cdc5c5f	0.026899515
53	0xb9fb87fe	-0.00047975773
54	0x3d0dd656	0.034628235
55	0x3d4eda44	0.050501123
56	0x3c662abd	0.014048276
57	0x3d81b299	0.06332893
58	0x3c6d27d2	0.014474826
59	0x3cb62c3a	0.022237886
60	0x3d1f61da	0.038911678
61	0x3cb43b0f	0.022000818
62	0x3ce326df	0.027728496
63	0x3caaaecf	0.020835308
64	0x3c1213ce	0.008915855
65	0xbc60574f	-0.013692691
66	0xbc9b8358	-0.018983528
67	0x3d6205d9	0.055181358
68	0x3cb55311	0.022134336
69	0x3cc7dc27	0.024396969
70	0x3cff42e8	0.031159833
71	0x3bc0e723	0.0058869286
72	0x3bf7cd27	0.007562298
73	0x3c4548bc	0.012041267
74	0x3b4016ce	0.0029310468
75	0x3cb3ba4d	0.021939421
76	0x3c031d13	0.008002537
77	0x3d0fb813	0.035087656
78	0x3d26ea8b	0.04075102
79	0x3ce3eca1	0.027822794
80	0xbc8fa97a	-0.017536867
81	0x3cc6121c	0.024178557
82	0xbc8256a9	-0.015910463
83	0x3d68c491	0.056828085
84	0xbc85a746	-0.016315114
85	0x3d4e423e	0.050356142
86	0x3c24f179	0.010067337
87	0x3ce8515c	0.028359108
88	0xba31bc15	-0.00067800406
89	0x3c8cf377	0.017205937
90	0x3c31f0c1	0.010860623
91	0xbb4d617f	-0.003133863
92	0x3c58bb65	0.013228272
93	0x3d0df983	0.03466178
94	0xbd205299	-0.03914127
95	0xbd391976	-0.045190297
96	0xbc3035e7	-0.010755039
97	0xbb86186d	-0.0040922672
98	0x3c6a8764	0.014314506
99	0x3d51c031	0.05120868
100	0x3ce37c76	0.027769309
101	0x3ce2f3e4	0.027704187
102	0xbbdc6a73	-0.006726557
103	0x3cc737bd	0.02431857
104	0xbba42103	-0.005008818
105	0x3cf2c357	0.02963416
106	0x3d15e883	0.036598694
107	0xbc48c7e6	-0.012254691
108	0x3caa72f0	0.02080676
109	0x3ca7b523	0.020472115
110	0x3b5582ff	0.00325793
111	0x3cb4a343	0.022050506
112	0x3d215420	0.03938687
113	0x3ca9d3cb	0.020730874
114	0x3c3b5954	0.011434872
115	0x3c94f766	0.018184375
116	0xbc459375	-0.012059082
117	0xbbb59272	-0.0055411393
118	0x3c9c181f	0.01905447
119	0x3cfa740d	0.030572915
120	0x3d014430	0.03155917
121	0x3c80a006	0.015701305
122	0x3d0a5cba	0.033779837
123	0x3beb8464	0.007187413
124	0x3c4db426	0.012555158
125	0x3caf2f22	0.02138478
126	0x3cee6f33	0.029105758
127	0x3d15e5d8	0.03659615

network_body._body_endoder.seq_layers.2.weight f4 [128, 128]
0	0x3d909efd	0.070615746
1	0x3d4b73e0	0.049671054
2	0xbe6aa4ca	-0.22914425
3	0x3dab4ce6	0.083642766
4	0x3e2d98fe	0.16952893
5	0x3da5fc78	0.08104795
6	0x3c0cab95	0.00858583
7	0xbd160a46	-0.03663089
8	0xbbe4249f	-0.0069623734
9	0xbdd5bae2	-0.10436036
10	0xbde5dc98	-0.112237155
11	0xbd33e9b4	-0.04392405
12	0xbe09c4c3	-0.13453965
13	0xbdbda992	-0.092608586
14	0xbd8eb2f1	-0.06967724
15	0x3e1e1e81	0.15441324
16	0xbd966c94	-0.073449284
17	0x3da44735	0.08021394
18	0x3d0caddd	0.034345496
19	0xbc415bde	-0.011801688
20	0xbe061127	-0.1309248
21	0xba5c06be	-0.00083933386
22	0x3d521319	0.051287744
23	0x3e17e77f	0.14834403
24	0x3d519cb6	0.05117484
25	0xbcfd4465	-0.030916402
26	0xbd4d87a3	-0.05017818
27	0x3d9aeba4	0.07564476
28	0xbd8cb8cc	-0.06871185
29	0x3da4980f	0.080368154
30	0x3b18a63b	0.002329244
31	0xbe0640e7	-0.13110696
32	0xbd1c1667	-0.038107302
33	0xbc8271f3	-0.015923476
34	0x3510cbe1	5.3940863e-07
35	0x3de18006	0.11010747
36	0xbce9af56	-0.02852599
37	0x3dfe950b	0.124307714
38	0x3c8aafd7	0.01692955
39	0xbbef1c26	-0.0072970567
40	0xbd44ef34	-0.048079684
41	0xbd1b0990	-0.037850916
42	0x3d998f5c	0.07498047
43	0xbd2d3ef6	-0.042296372
44	0xbe0dab91	-0.13834979
45	0x3e1944fc	0.14967722
46	0x3daa9b77	0.08330434
47	0xbc4d67d7	-0.012536964
48	0xbe0e3c8e	-0.13890287
49	0x3e346780	0.17617607
50	0xbd1115a0	-0.035421014
51	0x3d4a19bf	0.04934096
52	0x3ce159dc	0.027508669
53	0xbdb6dbf9	-0.08928675
54	0xbe2ee0b0	-0.17077899
55	0x3e7a6130	0.24451137
56	0x3cef920e	0.029244449
57	0x3df99403	0.12186434
58	0x3d8f1570	0.06986511
59	0xbc2fe4e7	-0.010735727
60	0xbcf52b28	-0.029927805
61	0x3e1337a8	0.143767
62	0xbe3e5a5c	-0.18589157
63	0x3c83cc35	0.016088584
64	0x3db19f78	0.086729944
65	0xbdcf6d73	-0.10128298
66	0xbc602b9e	-0.013682274
67	0xbd7c9761	-0.061667804
68	0x3d612b6f	0.054973062
69	0x3d2e361e	0.04253208
70	0x3d77da83	0.060511123
71	0x3b7b9c57	0.0038392746
72	0x3e431dbc	0.19054312
73	0xbdc79e1b	-0.09746953
74	0x3e42c50f	0.19020484
75	0x3b9ae6dd	0.004727228
76	0xbc464b4f	-0.012102916
77	0xbdfd72af	-0.1237539
78	0x3e3e90a9	0.18609871
79	0x3e00609b	0.12536852
80	0xbd8bc3a2	-0.068244234
81	0x3deeeaff	0.11665916
82	0xbdb55afc	-0.088552445
83	0x3de266db	0.110547744
84	0xbdc77170	-0.09738433
85	0x3cd61f82	0.026138071
86	0x3c9c0fb3	0.019050455
87	0xbca269b9	-0.019825803
88	0x3e118e08	0.14214337
89	0x3cbf91cb	0.02338495
90	0x3d768634	0.06018658
91	0xbcb20edb	-0.0217356
92	0x3d089bb9	0.033351634
93	0xbd848ad3	-0.06471791
94	0xbd8e656f	-0.06952941
95	0xbe186f49	-0.14886202
96	0x3b1c3a87	0.0023838596
97	0xbd6da8e8	-0.05802241
98	0xbb03b971	-0.0020099545
99	0x3c1710ed	0.009220344
100	0xbd6124ee	-0.05496686
101	0x3df83ddc	0.12121174
102	0xbdc5f37c	-0.096655816
103	0x3db95a41	0.09050418
104	0x3e09fd36	0.13475499
105	0x3c0e9d83	0.008704546
106	0x3de8d3e2	0.113685384
107	0x3dd46e28	0.10372573
108	0x3cc36fba	0.023856986
109	0xbd9f9121	-0.07791353
110	0x3d4969f9	0.04917333
111	0x3df3fcd1	0.11913455
112	0x3d481d1d	0.04885589
113	0x3d92dcd9	0.071710296
114	0x3dd25167	0.102694325
115	0xbd135a10	-0.035974562
116	0xbd569447	-0.052387502
117	0xbe96c3ac	-0.2944616
118	0x3df030c4	0.11728051
119	0x3e22e524	0.15907723
120	0x3e43d6dd	0.19124933
121	0x3cc28860	0.02374667
122	0x3d1bd79e	0.038047425
123	0xbcbbb4bb	-0.022913327
124	0xbda19176	-0.078890726
125	0xbd5808ea	-0.052742876
126	0x3c67e295	0.014153142
127	0xbcaab5fa	-0.020838726
128	0xbd1c2bc2	-0.03812767
129	0xbcb8ef54	-0.022575058
130	0x3de227ea	0.11042769
131	0xbc2af471	-0.010434256
132	0xbd6ecc21	-0.05830014
133	0xbe229274	-0.1587618
134	0x3e361166	0.17780074
135	0x3c05d4b1	0.008168385
136	0xbe3cd473	-0.18440418
137	0xbe082b7d	-0.1329784
138	0x3bfb0af5	0.0076612183
139	0xbd4d25ca	-0.050084867
140	0xbcbc8897	-0.02301435
141	0x3e442e1c	0.19158214
142	0x3e004c51	0.12529112
143	0x3e39fe2d	0.18163367
144	0x3d4cc56a	0.049992956
145	0xbdf98eab	-0.12185415
146	0x3d17ac37	0.03702947
147	0xbc86d137	-0.016457183
148	0x3e18d9df	0.14926861
149	0xbd931999	-0.07182617
150	0x3be350c2	0.0069371173
151	0xbc8c7e83	-0.01715017
152	0x3ccd4c12	0.025060687
153	0xbcb74c73	-0.022375321
154	0x3ce0a32b	0.027421555
155	0xbd1237b3	-0.03569765
156	0xbc4a7c9a	-0.012358809
157	0x3c7e2cf4	0.015513647
158	0x3de905c5	0.113780536
159	0x3d144923	0.03620256
160	0xbd7b4bb0	-0.061351478
161	0xbd20e83c	-0.039283976
162	0xbd6f6acd	-0.058451463
163	0x3d0ec242	0.034853227
164	0xbd98427d	-0.07434557
165	0x3cd2395a	0.025662113
166	0xbc682f09	-0.01417137
167	0xbded8681	-0.1159792
168	0xbd672d42	-0.056439646
169	0x3e114f3d	0.14190383
170	0xbdbfb5be	-0.093608364
171	0x3e183de2	0.14867356
172	0xbd2b5d94	-0.04183729
173	0xbdb1f1c1	-0.08688689
174	0xbc958752	-0.018253002
175	0xbd815a9d	-0.06316111
176	0xbdb77177	-0.089571886
177	0x3c9c92e4	0.019113012
178	0x3e9e78c4	0.30951512
179	0xbcd9195a	-0.026501346
180	0x3dada563	0.08478811
181	0xbdd7d491	-0.10538591
182	0x3ce99ff8	0.028518662
183	0x3d19d6d2	0.037558384
184	0x3d0f49ed	0.03498261
185	0x3dbbda55	0.09172503
186	0xbd8af3a9	-0.06784756
187	0x3cb875c7	0.022517098
188	0x3d4cb526	0.049977444
189	0xbd013d90	-0.03155285
190	0x3c48bce1	0.0122520635
191	0x3e1a5096	0.15069804
192	0xbd3bedd6	-0.045881115
193	0xbc7849ae	-0.015154285
194	0xbdb78e72	-0.08962716
195	0x3b0937f2	0.0020937887
196	0xbc249d33	-0.010047245
197	0xbcbc7f06	-0.023009788
198	0xbdbadb5b	-0.0912387
199	0x3e0365a0	0.12831736
200	0x3d24becb	0.040221017
201	0x3dd2690c	0.10273942
202	0x3d7666b0	0.060156524
203	0xbd692b13	-0.056925844
204	0xbdfeea3f	-0.12447023
205	0x3d20c2e4	0.039248362
206	0x3ca06658	0.019580051
207	0xbd318af9	-0.043345425
208	0x3cf57ef6	0.029967766
209	0x3e023eff	0.12719344
210	0xbe141146	-0.14459714
211	0x3d0a90e2	0.033829577
212	0xbcd24563	-0.025667852
213	0xbd952fdf	-0.07284521
214	0xbbec9143	-0.007219465
215	0xbdabf5c2	-0.08396484
216	0xbd0bbed3	-0.03411753
217	0xbdf8b2ff	-0.12143516
218	0xbd321cc9	-0.043484483
219	0xbbccd7f3	-0.006251329
220	0x3d3a8104	0.045533195
221	0x3dde5ffa	0.1085815
222	0xbd498441	-0.049198393
223	0xbda8fba5	-0.082511224
224	0xbdb989af	-0.09059464
225	0x3dc11ac3	0.094289325
226	0xbd77e721	-0.060523156
227	0xbc194fa8	-0.00935737
228	0xbdb192b5	-0.0867056
229	0x3dd4fbc5	0.10399584
230	0x3b88941e	0.0041680476
231	0xbcfba8a2	-0.030720059
232	0x3d9573d1	0.07297481
233	0xbe1b8203	-0.15186314
234	0xbc4517dd	-0.012029615
235	0x3ca5c51b	0.020235589
236	0xbc34f5b8	-0.011044912
237	0xbdf68bba	-0.120383695
238	0x3e06c63d	0.1316156
239	0x3e693941	0.22775747
240	0x3d943f4d	0.07238636
241	0x3de62594	0.11237636
242	0xbd9465c0	-0.0724597
243	0x3dfa12c0	0.122106075
244	0xbe6137a8	-0.21993887
245	0xbceee6f9	-0.02916287
246	0x3db37166	0.087618634
247	0x3d3ac9f9	0.045602772
248	0x3d7cd526	0.06172671
249	0x3e3831e5	0.17987783
250	0x3d11e234	0.035616115
251	0xbadcd9e6	-0.0016849607
252	0xbda5605d	-0.080750205
253	0xbde37e41	-0.111080654
254	0x3d094c55	0.03352006
255	0xbd4ddd7e	-0.05026006

network_body._body_endoder.seq_layers.2.bias f4 [128]
0	0x3c7dd991	0.015493766
1	0x3cb84ae9	0.022496657
2	0x3d1a7d57	0.03771719
3	0x3d344a52	0.04401619
4	0x3ced7e2b	0.028990826
5	0xbcfa95ef	-0.030589072
6	0x3bbdd0ee	0.0057927286
7	0x3c3be42d	0.011467976
8	0x3ca9b460	0.020715892
9	0xbc16584a	-0.009176323
10	0x39ff5f9d	0.00048708628
11	0x3d005003	0.031326305
12	0x3d5244b2	0.051335044
13	0x3d00ae61	0.0314163
14	0x3cdaa441	0.02668965
15	0x3c0c4ee6	0.008563733
16	0x3b1d4790	0.0023998953
17	0x3b5e4e01	0.0033921006
18	0x3c6f528c	0.014607083
19	0x3c20d753	0.009816962
20	0x3c6a2046	0.014289921
21	0xbd16f26d	-0.03685229
22	0x3ccc79d1	0.02496043
23	0xb9b6edf0	-0.00034891022
24	0x3d33a642	0.043859728
25	0x3c992c98	0.018698022
26	0xb9ee3119	-0.00045431478
27	0xbc06c6b8	-0.008226089
28	0xbaa03be7	-0.0012224884
29	0x3d3b757b	0.045766335
30	0x3a632fa1	0.000866646
31	0x3b8196a5	0.003954726
32	0x3c1085c8	0.008820958
33	0x3ccb9852	0.024852905
34	0x3c4175f6	0.011807909
35	0x3d4ee778	0.050513715
36	0x3cdf7106	0.027275573
37	0x3cff5891	0.031170161
38	0xbc8bca7e	-0.01706433
39	0x3ccfa41b	0.025346806
40	0x3c135a28	0.008993663
41	0x3d1510d3	0.036392998
42	0x3c2ef2f6	0.010678044
43	0x3d0b09be	0.033944838
44	0x39efeb4d	0.00045760945
45	0x3cffa942	0.031208638
46	0x3cab4a1a	0.020909358
47	0x3ce0d524	0.027445383
48	0x3c904e26	0.01761539
49	0x3cb21ef6	0.021743279
50	0x3d2ea589	0.042638335
51	0x3cb6b9b9	0.022305356
52	0x3caa1a99	0.020764636
53	0x3ca989f3	0.020695662
54	0x3cba59d9	0.02274792
55	0x3bc5d799	0.006037664
56	0x3c84b782	0.016200785
57	0xbcd821ea	-0.026383359
58	0x3cef0f98	0.02918224
59	0x3ca33c07	0.019926084
60	0xbce7cdd9	-0.028296398
61	0xbc364704	-0.01112533
62	0x3c074c55	0.008257945
63	0x3d401e95	0.046904165
64	0x3cc5aedd	0.024131233
65	0xbb81e330	-0.0039638504
66	0x3d0e5d9c	0.03475724
67	0x3ceb8438	0.02874957
68	0x3c8dc319	0.017304944
69	0x3c6f7b94	0.014616866
70	0xbc9ab18b	-0.018883487
71	0x3d0ece57	0.03486475
72	0x3cd7ee69	0.0263588
73	0x3cf53f9b	0.029937556
74	0x3cfbb242	0.030724648
75	0x3ccfe1c8	0.025376216
76	0x3d0d7889	0.03453878
77	0x3c88aeae	0.016684856
78	0x3ca2dc74	0.01988051
79	0x3d1e9558	0.038716644
80	0x3d0034eb	0.031300467
81	0x3cb9dc8b	0.02268817
82	0x3be1fec8	0.0068968274
83	0x3c92c8c4	0.017917998
84	0x3d00ac88	0.03141454
85	0x3c9e2330	0.019303888
86	0x3d031990	0.0320068
87	0x3cfad382	0.030618433
88	0x3d04554f	0.03230792
89	0x3b17ccf4	0.0023162933
90	0x3ceee69d	0.0291627
91	0x3ca5135f	0.020150838
92	0xbc5be927	-0.013422287
93	0x3cd278ff	0.025692461
94	0x3ccbc216	0.02487282
95	0x3bd82256	0.00659589
96	0x3a961d92	0.0011452904
97	0x3ce4d8e1	0.027935447
98	0x3c19563f	0.009358942
99	0x3d44f351	0.048083607
100	0x3c2fa0b7	0.01071947
101	0x3c53409a	0.01289382
102	0x3cee7da6	0.029112648
103	0xbc2b38a0	-0.010450512
104	0x3c04b77f	0.0081003895
105	0x3d218d06	0.03944113
106	0x3d129a7a	0.03579185
107	0x3cf2ccc0	0.029638648
108	0x3b4d9094	0.0031366693
109	0x3cd973fc	0.026544563
110	0x3ca734dd	0.02041095
111	0x3ccc8ba9	0.024968939
112	0x3cc00e87	0.023444427
113	0x3cfd1b72	0.030896876
114	0x3cf2c2b5	0.02963386
115	0xbc554e0f	-0.013019099
116	0x3cbce9f1	0.02306077
117	0xbcb70c55	-0.022344748
118	0xb9efc868	-0.00045734947
119	0x3d14fbbe	0.036372893
120	0x3c4166da	0.011804307
121	0x3c8a53e6	0.016885709
122	0x3d39f5ba	0.04540036
123	0x3bd6d990	0.006556697
124	0x3c77a09b	0.015113975
125	0x3cb6a1fd	0.022294039
126	0x3cfedcad	0.031111086
127	0x3d1e0927	0.038582947

action_model._discrete_distribution.branches.0.weight f4 [5, 128]
0	0xbd044a95	-0.03229769
1	0xbd1553e4	-0.036456957
2	0xbcb6636e	-0.022264209
3	0xbc94c912	-0.018162284
4	0xbdb7bcc6	-0.089715526
5	0x3c556864	0.013025377
6	0x3b1ae95f	0.0023637635
7	0xbd7f55e0	-0.062337756
8	0xbd9f752c	-0.07786021
9	0x3c31c397	0.010849855
10	0xbca20f60	-0.019782722
11	0x3d46f3af	0.04857224
12	0x3be9e007	0.007137302
13	0xbd15da92	-0.036585398
14	0x3c2f0d32	0.010684298
15	0xbcf31170	-0.0296714
16	0x3d1469a1	0.036233548
17	0x3da9c647	0.082897715
18	0xbda1bea1	-0.07897688
19	0xbd1c6534	-0.038182452
20	0x3d564926	0.052315854
21	0x3ce037b8	0.027370319
22	0xbcf0edba	-0.029410232
23	0x3dfd5610	0.12369931
24	0xbd8baf60	-0.068205595
25	0x3da13ea3	0.07873275
26	0x3d3dac27	0.046306755
27	0x3d5270f7	0.051377263
28	0xbcc8f38a	-0.024530191
29	0xbdd9cf3c	-0.1063523
30	0x3b9592ac	0.004564604
31	0xbbfc4845	-0.007699045
32	0x3c365d79	0.011130684
33	0xbd23cc93	-0.03999002
34	0xbd7d3788	-0.061820537
35	0x3ad9fb49	0.0016630675
36	0x3d63ca06	0.055612586
37	0xbd41c563	-0.047307383
38	0x3b39b9e7	0.0028339566
39	0x3c6cddb5	0.014457156
40	0x3abf975f	0.0014617256
41	0x3c254917	0.010088227
42	0x3cbbcfd2	0.022926245
43	0x3ca22bcf	0.01979628
44	0xbd4b96b4	-0.04970427
45	0x3c784d44	0.01515514
46	0xbcb34c17	-0.021886868
47	0xbd018eec	-0.03163044
48	0x3d7eb53b	0.062184554
49	0x3d8ee397	0.06977003
50	0x3d55d7f3	0.0522079
51	0xbb1c02a9	-0.0023805297
52	0x3c94e387	0.0181749
53	0xbc61c2b5	-0.013779332
54	0x3cd2c63a	0.025729287
55	0x3cb47eed	0.02203318
56	0xbc9aad9e	-0.018881615
57	0x3cb2ad59	0.021811174
58	0xbcc30a10	-0.02380851
59	0x3dc5c2c1	0.09656287
60	0x3cd82e60	0.0263893
61	0x3dad9c7b	0.08477112
62	0x3e1c906f	0.15289472
63	0x3c1191c9	0.008884856
64	0x3bf1c14a	0.007377778
65	0xbad20df8	-0.0016025892
66	0x3d1e22ea	0.038607515
67	0x3d22bf5b	0.039733272
68	0x3dbcf333	0.09226074
69	0x3d998255	0.07495562
70	0x3d791223	0.060808312
71	0x3c37312e	0.011181159
72	0x3c80394a	0.015652318
73	0x3b52327f	0.0032073555
74	0xbd335de4	-0.043790713
75	0x3c0d16dc	0.008611407
76	0xbdc79c4d	-0.09746609
77	0xbdb33720	-0.08750749
78	0x3d8d7d76	0.069086954
79	0x3cbb0d1a	0.022833396
80	0x3c336a4f	0.010950639
81	0x3d0aeaef	0.033915456
82	0x3d42ee18	0.047590345
83	0x3d0706b9	0.032965396
84	0x3d569c5c	0.05239521
85	0xbce47add	-0.027890617
86	0x3b7498a2	0.0037322422
87	0x3de6c722	0.1126845
88	0x3d2d684a	0.042335786
89	0x3dc17d15	0.09447686
90	0x3d2b6b07	0.041850116
91	0xbc50ebf1	-0.012751565
92	0x3e1b3698	0.15157545
93	0x3d866ef0	0.065641284
94	0xbd583af2	-0.05279059
95	0xbc48ef9a	-0.012264157
96	0xbd0a8491	-0.03381783
97	0xbd983b46	-0.074331805
98	0xbd36479e	-0.044501893
99	0xbc09cb88	-0.008410342
100	0x3d8007eb	0.0625151
101	0x3cb55136	0.022133451
102	0xbd661ac2	-0.056177862
103	0x3d022e84	0.031782642
104	0x3e407ff7	0.18798815
105	0x3d53727d	0.051622856
106	0x3cbe0796	0.023196977
107	0x3c64ff6c	0.013976913
108	0x3dd87348	0.10568863
109	0x3bf2e0a3	0.0074120327
110	0x3c1af246	0.009457177
111	0x3d6b357f	0.057424065
112	0xbccad506	-0.02475978
113	0xbd0a3852	-0.033745117
114	0xbd18500e	-0.03718572
115	0x3d447044	0.047958627
116	0x3d88d5e4	0.066814214
117	0xbb7ffd15	-0.003906076
118	0x3d814587	0.063120894
119	0xbd26b45c	-0.040699348
120	0xb8259928	-3.9481703e-05
121	0x3d00fb57	0.031489696
122	0x3c87eaed	0.016591514
123	0xbcedfd6e	-0.029051509
124	0xbd518694	-0.051153734
125	0xbd68b1e8	-0.05681029
126	0x3d44e2ac	0.048067734
127	0xbcd37dbe	-0.025816794
128	0x3c8df2aa	0.017327625
129	0xbc473480	-0.012158513
130	0x3d963280	0.07333851
131	0x3d6e1bb9	0.058131907
132	0xbcf718b9	-0.030163156
133	0x3bb40a0a	0.005494361
134	0x3da2b751	0.07945121
135	0x3cac4b18	0.021031901
136	0x3c00561e	0.007833032
137	0x3cfcace7	0.030844165
138	0xbce7d699	-0.02830057
139	0xbd8d7798	-0.06907576
140	0x3d37070a	0.044684447
141	0xbd6d9f2f	-0.058013137
142	0x3c0e6328	0.008690633
143	0xbcc9cf05	-0.024634847
144	0xbd46d3fb	-0.048542004
145	0xbd8e0d90	-0.069361806
146	0x3a64d2b6	0.0008728908
147	0xbc6963b9	-0.014244967
148	0x3d310858	0.043220848
149	0x3c0edb6d	0.008719307
150	0x3d4d2795	0.050086576
151	0xbcd5cf80	-0.02609992
152	0x3d82019c	0.06347963
153	0xbe0a1451	-0.13484313
154	0x3cbf2a2d	0.02333554
155	0x3c9db31f	0.01925045
156	0xba112c72	-0.0005537934
157	0x3d891b0d	0.06694613
158	0x3d149a32	0.036279865
159	0x3c4863b0	0.012230799
160	0xbb009b0a	-0.001962366
161	0x3d870764	0.065932065
162	0x3d99905b	0.07498237
163	0x3d298544	0.041386858
164	0xbdf048b3	-0.11732616
165	0x3d22ba40	0.039728403
166	0x3c199d0e	0.009375824
167	0x3da64212	0.08118071
168	0x3c444daf	0.011981412
169	0xbd00de1d	-0.031461824
170	0x3bc95d9f	0.0061451937
171	0x3cd3fc71	0.02587721
172	0x3d0b4d53	0.03400929
173	0xbe040d5a	-0.12895718
174	0xbcd4d7f5	-0.025981883
175	0xbcfd7c22	-0.03094298
176	0xbe5991dd	-0.21247049
177	0xbcf90ebe	-0.030402537
178	0xbd14b2c8	-0.03630331
179	0x3c988d18	0.018621966
180	0x3b3432b3	0.002749604
181	0x3cded61f	0.02720171
182	0x3d486a75	0.04892965
183	0x3d6ca98f	0.05777889
184	0x3da83827	0.08213835
185	0x3cccda66	0.025006484
186	0xbd6b79ff	-0.05748939
187	0x3d06b0b6	0.03288337
188	0x3c204d77	0.009784094
189	0x3d79576c	0.060874388
190	0xbda71f65	-0.08160285
191	0x3d4de1f2	0.050264306
192	0x3bf9720b	0.007612472
193	0xbb2e5afe	-0.0026604529
194	0xbcaa0abe	-0.020757075
195	0x39a019bf	0.0003053676
196	0xbe045522	-0.129231
197	0x3cefef63	0.029288953
198	0xbca17001	-0.019706728
199	0xbdd82fa5	-0.105559625
200	0xbcce395c	-0.025173835
201	0x3d0ec1fa	0.03485296
202	0x3d3b1975	0.045678575
203	0xbdc7af1f	-0.097501986
204	0xbcfcb08c	-0.030845903
205	0x3cd9ce35	0.026587585
206	0x3cbaa51d	0.02278381
207	0xbd0079d5	-0.031366188
208	0xbdacd2a3	-0.08438613
209	0x3c7eda88	0.015555032
210	0x3b2d76ae	0.0026468444
211	0x3aa09197	0.001225042
212	0xbe07756f	-0.13228391
213	0xbb515711	-0.0031942765
214	0xbc17832e	-0.009247584
215	0x3cc5816b	0.024109563
216	0xbe0e51dc	-0.13898414
217	0x3cb32982	0.021870378
218	0xbbceedb4	-0.0063149575
219	0x3ce9351e	0.028467711
220	0xbd9aacd0	-0.075524926
221	0xbe5d56e9	-0.21615185
222	0xbc72b3a4	-0.0148133375
223	0x3b8ce6ed	0.0042999894
224	0xbd4d7598	-0.050160974
225	0xbd801f66	-0.06255989
226	0xbc708b95	-0.014681716
227	0x3d0f5919	0.03499708
228	0xbdcf7fb0	-0.10131776
229	0x3c1b1660	0.009465784
230	0x3d01c980	0.031686306
231	0xba95451c	-0.0011388394
232	0xbd2adca8	-0.04171434
233	0xbd0e65ad	-0.034764934
234	0xbdd10b7a	-0.10207267
235	0xbd06c985	-0.032907028
236	0xbe1ddb0e	-0.15415594
237	0x3d0a4b3d	0.03376316
238	0xbc7c1d55	-0.015387853
239	0xbe39d0ed	-0.18146105
240	0x3d5057a6	0.050864838
241	0x3d91d52e	0.07120739
242	0x3db8a255	0.090153374
243	0x3d098b38	0.033580035
244	0xbdc1403c	-0.0943608
245	0x3b767431	0.0037605877
246	0xbdc10dab	-0.09426435
247	0x3d0bebea	0.034160532
248	0xbc21f5b9	-0.009885245
249	0xbd8385b0	-0.06421983
250	0x3c9ff422	0.019525591
251	0xbb7d29c4	-0.003862963
252	0x3c14b91c	0.009077337
253	0x3da395b8	0.07987541
254	0x3c730ece	0.014835073
255	0x3d595f1e	0.053069226

action_model._discrete_distribution.branches.0.bias f4 [5]
0	0xbc0502cf	-0.008118345
1	0xbc45e238	-0.0120778605
2	0xbd12451b	-0.035710435
3	0xbc15b511	-0.009137408
4	0x3d42fdc9	0.04760531
