Assets/results/Maze12/Mouse/Mouse-211678.pt (torch, 721424 bytes, 33 tensors)

network_body._body_endoder.seq_layers.0.weight f4 [64, 45]
00000000: 3650 95bd bd95 2f3d 5566 223e 715f aabe
00000010: c051 8ebd 7967 54bd 21d3 82be a56e eabd
00000020: 45f3 5cbd 7aed 92bc 5f9d d03d bd00 0e3e
00000030: 11d6 583e 3010 a83d ecc7 e93d 8a7b 4fbe
00000040: 3ede 0c3e 1a96 05be 7900 6cbe 4720 213d
00000050: 2aef 133e 9e69 6d3e 4dd8 c5bd e587 3fbc
00000060: c7cd 9bba 0e7d 2dbe e0f4 ebbc 529d 7cbd
00000070: 0fd0 cbbd ae52 bebd 2fb2 e63d 60be 8dbe
00000080: d2ce c3bd 1d48 3e3e 5d62 84ba 3d37 5bbd
00000090: 2b6a fabd cebd a13d 111e 2bbe 1755 7abc
000000a0: fd30 6a3e 7f3d 673d 9f0c 8c3d 821b 8d39
000000b0: 8a6b 7d3d 96e0 b2bc 2799 123c 751f 1e3e
000000c0: f365 76be a26b 16be c1a2 183e e39d 1e3e
000000d0: 84a0 b93e 4f27 8cbe 1a09 3b3d e143 b4bd
000000e0: affc 17bd d650 c7bc c45f 75bd 0ce1 d23d
000000f0: 6ad3 55bd e268 483e 7b53 853d 62c8 9abc
00000100: d6b5 54be c621 b73b 87f9 563e ce71 863e
00000110: a259 11be 7b2e ad3c ec30 babc 5ef4 71bd
00000120: ee60 8e3d c200 babc 183d a73e d30d e03d
00000130: 3d73 16be 2a37 c9bc 4fa5 013e 003d 3f3c
00000140: 4c57 97bd dc79 cf3c 3cfc 8e3e 5763 dabd
00000150: 2fa2 453e 8138 3ebe bf73 ea3d 1edf c93d
00000160: 8728 e23d 5e65 0cbe 67fa 053b ba21 033e
00000170: bd0b cf3d 5058 42be b91b 573e 8abc a1bd
00000180: d241 083d 12f9 863e f208 ae3d e7c8 02be
00000190: 1b8e f33c 295b 52be 297b d0bc 5cb2 793e
000001a0: 4580 f3bd 0f5c cdbd 6803 d3bd 7e4c 53bd
000001b0: 3e0a 283c ac30 22be 1eb9 40be 3a57 23be
000001c0: e289 18be 73e9 ee3d aea4 20bd 5576 cc3b
000001d0: e82f 843e a4dd 72bd c89e 42be 9d6f bebc
000001e0: 690f 17be 7917 893d e244 933d 0e1e d8bd
000001f0: 0c68 9fbd d092 c73d 3c13 8e3d 1ef0 e33d
00000200: bfee dcbe 7e41 d03b c05f 61be 4665 103d
00000210: 60d8 f43d 7790 26be 9209 86be 9613 883b
00000220: 137c 9b3d 06ef ffbc a854 103e 8d4e c3bd
00000230: 3710 c23b 9d8d 2abd 3360 3abe 4118 313e
00000240: e672 00be aba3 453d be04 01bd 2234 99bd
00000250: 57be dbbd 398a 113d ffe2 f33d 2f9c 393e
00000260: 85bb 91be e45f 93bd 6545 b0bc 0604 42be
00000270: 5dea 1f3e eb64 b43c 5bfd 48bd 411a fe3c
00000280: 26f0 d2bd 60c8 38bd f4fc b5bd 81ec 2c3e
00000290: b126 96bd 9f34 0ebe 8db9 503e 81c4 ebbb
000002a0: 8460 3abc 7d72 153d 354f 723d 125a df3c
000002b0: 0f98 5abe 8be2 613d c52d 49bd afbb f33b
000002c0: 94ff 8ebe 08e1 caba 1ea0 09be 86f2 f8bd
000002d0: bc11 24be fd33 a03d 7b19 08bd f25a d4bc
000002e0: 6aa1 e53d c810 8cbd 5972 673d fb6a b8bd
000002f0: 6efd ac3c edf2 b7bd aef2 993e c278 0bbe
00000300: 73b8 b73d 1bb4 a9be 8ff3 21be 1bb3 093e
00000310: 5390 a6bd 2f47 7abc 556a 4bbe c20b 3ebe
00000320: 4605 5ebe 75b1 c6bd 2b50 9a3d 12ad 4dbe
00000330: de2b 81be 1e4c 3abe cf14 583d 3a54 493c
00000340: aaac 1c3e 3f9e 17be d30d 1abe b854 46be
00000350: acc0 8cbd 357f 44be fe3a 7ebd 6d5c 0d3e
00000360: 2f85 d53c f1de 81bc 351a 3d3e 528f 2dbd
00000370: bd8d a63e af09 babd 3591 eebd f20e 703e
00000380: d4cf f7bd 02df 283d acd5 0d3d 449e 0bbe
00000390: daea 38bc 380c f3bd af90 b43b 5e49 4cbe
000003a0: 30f1 f53c 6eeb 9abd 95db 52bd 167a 44be
000003b0: 38db b2be ea9d 4ebe fda0 303d 4877 c53c
000003c0: c288 9d3e c93d acbe 6f9e b2bd 1d81 b3bd
000003d0: 0639 f7bb a421 4abe fed4 133d 5d1a 3f3e
000003e0: 2eda ca3d 16cb 4f3e 0cb3 90bd 44e9 bdbc
000003f0: c7c6 563d 0731 223c d340 983d 6a30 abbd
-0.0729069 0.04286741 0.15859349 -0.3327594 -0.06949186 -0.05185649 -0.25551704 -0.11446885
-0.053942937 -0.017935503 0.10186266 0.13867469 0.2117541 0.082062125 0.11415085 -0.2026197
0.13756654 -0.1304554 -0.23047055 0.039337423 0.14446703 0.23184821 -0.09660397 -0.011690115
-0.0011886888 -0.16942236 -0.028803289 -0.06167347 -0.099517934 -0.09293114 0.112644546 -0.27684307
-0.09560932 0.18582197 -0.0010100115 -0.053519476 -0.12227281 0.078975305 -0.16710688 -0.015279076
0.2287025 0.05645513 0.06838345 0.0002691411 0.061870135 -0.021835607 0.008947647 0.15441687
-0.24062328 -0.14689496 0.14905836 0.15489917 0.36255276 -0.2737374 0.045662977 -0.088020094
-0.037106212 -0.024330538 -0.059905782 0.102968305 -0.052203573 0.1957126 0.06510063 -0.018894378
-0.2077249 0.005588743 0.20993625 0.262587 -0.14194348 0.021140328 -0.022728406 -0.059070937
0.069520816 -0.02270544 0.32663798 0.10940137 -0.14692397 -0.024562437 0.12660716 0.011672258
-0.073896974 0.025326662 0.27926815 -0.10663479 0.1930015 -0.18576242 0.11447858 0.09857009
0.11042886 -0.13710544 0.002044344 0.12805834 0.10109661 -0.18979001 0.21006669 -0.07897289
0.033265896 0.263619 0.084978 -0.1277195 0.029730847 -0.20542587 -0.025449352 0.24384445
-0.118897 -0.100273244 -0.10303384 -0.05158662 0.010256348 -0.1583888 -0.18820617 -0.15951243
-0.14896348 0.11665621 -0.03921955 0.006239692 0.258178 -0.059293404 -0.19005883 -0.02324658
-0.14751972 0.0669393 0.07190873 -0.105526075 -0.07783517 0.09744799 0.069372624 0.11129783
-0.431509 0.0063554635 -0.22009182 0.035252832 0.11955333 -0.16266046 -0.26179177 0.0041527255
0.07592025 -0.031241905 0.14094794 -0.09536467 0.005922343 -0.04163896 -0.1820076 0.17294408
-0.1254383 0.04825179 -0.031498663 -0.07480647 -0.10729664 0.03553221 0.119085304 0.18125986
-0.2846338 -0.07196024 -0.021517465 -0.18946847 0.15616746 0.022020778 -0.049069744 0.031018378
-0.10299711 -0.045112967 -0.088861376 0.16887094 -0.073315986 -0.13887261 0.20383282 -0.007195056
-0.01137555 0.036486138 0.05915757 0.027264629 -0.21347068 0.05514769 -0.049115915 0.007438145
-0.27929366 -0.0015478441 -0.13439986 -0.12155633 -0.1602239 0.07822416 -0.033227425 -0.025922272
0.11212428 -0.06839138 0.056505535 -0.0900478 0.021116938 -0.08981881 0.30067962 -0.13620284
0.08970728 -0.33145222 -0.15815566 0.1344723 -0.081329964 -0.015275761 -0.19864781 -0.18559173
-0.21681699 -0.09701816 0.07534822 -0.20085552 -0.2522878 -0.18193099 0.05275422 0.012288148
0.15300241 -0.1480646 -0.15044336 -0.19368255 -0.06872687 -0.1918915 -0.062067978 0.13804789
0.026064483 -0.015853377 0.18467028 -0.04237301 0.32530013 -0.09083878 -0.1164879 0.23443201
-0.12100187 0.0412283 0.0346276 -0.13634592 -0.011286462 -0.11867565 0.0055104117 -0.19949862
0.030022234 -0.07564436 -0.05147894 -0.19187197 -0.34932876 -0.20177427 0.04312228 0.02410473
0.307684 -0.33640888 -0.08721625 -0.08764861 -0.0075446395 -0.19739395 0.036091797 0.186624
0.09904896 0.20292315 -0.070654005 -0.023182519 0.052435663 0.009899384 0.07434239 -0.083588436

network_body._body_endoder.seq_layers.0.bias f4 [64]
00000000: 1039 ebbb eae1 903c 11a5 13bc 142d 39bc
00000010: 8b61 88bc fb69 f2bb 4d4c c53c 7e59 073a
00000020: 5cea e2ba e997 6ebc 13b9 663c 63c5 24bc
00000030: df19 963b 0889 773c 0d36 08bc 8bf3 b6bc
00000040: a3e3 453c d27b 70bc ecc4 003b 5290 783c
00000050: d7ab fabb 235e 8bbc c481 f1bb dbea 8cbc
00000060: b08b 3d3c e8b0 8e3b 9495 cd3c 36ab 84bc
00000070: e86d cf3c 8628 01b8 56af 993c 828b fbba
00000080: ed15 af3c 7733 773b 9d0a b13c 8c09 6b3c
00000090: b916 7dbc 61de 1c3b 049e 6a3c 1b53 0b3c
000000a0: 2615 a6bc 7795 a13c e8db 303c 804d 013c
000000b0: 390a 8e3c d69d cd3c 4cc4 89bb 4650 7b39
000000c0: 36e9 3a3c af7c 9f3c 72b2 b8bb fdc9 af3c
000000d0: ef0a 4a3c ed03 983b ccc1 e63b 44d2 5b3c
000000e0: 9cc4 8a3c b3bd e63b 61bd 413a f351 193b
000000f0: 90b4 5c3b 264e 323c d7fe 0f3a 7dbe 93bc
-0.0071784332 0.01768585 -0.009011523 -0.011302251 -0.016648075 -0.0073978878 0.024084235 0.00051631767
-0.0017312276 -0.014562585 0.014082211 -0.010056826 0.004580721 0.015108354 -0.008313668 -0.022332927
0.012078199 -0.014677959 0.0019648625 0.015171127 -0.0076498794 -0.017012661 -0.0073702056 -0.017201832
0.011568949 0.004354585 0.025095738 -0.016194921 0.025320962 -3.0793737e-05 0.018760365 -0.0019191357
0.02137276 0.0037719884 0.021611506 0.014345538 -0.015447312 0.002393626 0.0143199 0.008503701
-0.020273756 0.01972459 0.010794617 0.007892013 0.017338859 0.025099676 -0.0042043086 0.0002396713
0.011408141 0.019468633 -0.0056365067 0.02145862 0.012331708 0.00463914 0.0070421454 0.01341683
0.016939454 0.007041657 0.00073905854 0.0023394793 0.003367696 0.01088289 0.0005492991 -0.018035168

action_model._discrete_distribution.branches.0.weight f4 [5, 64]
00000000: 5653 cdbc c877 f13c 35cf 1ebc d314 043c
00000010: b78f d2bc 38be 39bb 408a 5c3c 35c5 31bb
00000020: ce50 613c 2866 e7bc 4405 c3bc 7161 a0bc
00000030: 2402 42bc f8a1 8b3b 5a9c 1bbc 5780 9dbc
00000040: 1d08 d03c fd45 80bb 5533 7a3a 2168 bd3c
00000050: 6d7a 54bc bb40 7abc 91a7 e9bc 54e5 04bd
00000060: 7a1f eebc 6775 bdbc be58 c93c dddb 3cbc
00000070: 8756 a43c 5962 1abd 7d92 c5bb c6e6 363a
00000080: 9aeb 423b eeb5 07bd 014e 113c e24e 703d
00000090: 5152 93bc 3fd2 a03a 85bb 5e3c 34b7 2dbc
000000a0: 0fb7 0dbd 3578 63bc c09a 463b 78d7 a7bb
000000b0: 058c 433c b93b 363d 59b8 71bc 8c73 9fbc
000000c0: c686 2f3c 0e90 093d bcc0 733c 29e2 a03c
000000d0: 2398 673c a2c9 1bbd efc0 0f3d 8e32 003d
000000e0: d9f1 fd3b 3d1e 39bc d091 b1bc 3d87 053b
000000f0: effb fc37 8b18 803c 52aa 4e3c 830b 09bb
00000100: f437 f13b 9fc5 053a 3742 0e3b e00c 2d3c
00000110: d194 8f3c e058 98bc f954 cdbc 2788 6dbc
00000120: b2bc 983c 4241 00bc 16c3 71bc 2e7f 69bc
00000130: cb40 753b b8ee 0ebb 2439 bbbc 74b8 753c
00000140: 2491 43bc de32 c23c da6f 9d3c 3ba9 043d
00000150: 0a8d b6ba 57a0 7f3c 9bdc 373c 3387 24bc
00000160: 2c5b 88bb 079a b7bc 369d 363c 5334 903c
00000170: 87a4 7abc 279a 863c e3b1 0b3c 8de1 233d
00000180: 377c 0cbc c0b4 e6bc 3440 a4bc cbc9 403c
00000190: b5af a4bc 216b 543c b262 9d3c d0e8 dcbb
000001a0: c18e 6d3c b286 33bb 83e7 5bbc afcf a9bc
000001b0: 8181 5a3c 19d4 423b 792d ddbb fd21 f5bc
000001c0: edc9 603c 9aec f93c 10c8 1f3c 9d0f c5bc
000001d0: 5fa2 5b3b 2a58 90bc 7088 383b d1e8 a73a
000001e0: d849 ab3c 8da6 e8bc 4582 33bc 97bc c33c
000001f0: 4deb c83b d006 36bd 5387 7c3a 6029 133d
00000200: 8306 c03c daca 65bc 504b 48bc 758f 5abb
00000210: 0c01 3b3c d7db aa3a edcb 233c 6232 a33c
00000220: 0b10 a9bc 3e8f 97bc 7530 fa3c 4344 bf3c
00000230: 61e6 2dbc fe82 093a 3792 ab3c e1b2 47bc
00000240: bc2b 013c ace7 4b3c 8575 71bb e1b5 84bb
00000250: 32ce 133c c693 713b 98bd 62bc c3a2 12bc
00000260: d662 fbbb f58c be3b 3e07 93bc 9208 243c
00000270: 1da3 3f3a ce86 823b 7016 633c fcef 9cbc
00000280: 5388 45b9 1211 f63c eb37 bcbb e578 27bc
00000290: a1ae 1dbc 6bea 74bc 0ca4 24bc 6d9e ce3c
000002a0: b02e 32bc 3dec 0a3d 8ac1 cf3b 79a2 683b
000002b0: cd3f a73c 946e 933b d4a4 fbbc a46b 0dbc
000002c0: d7c1 933c 10f8 6cbc e79d 00bd 3473 813b
000002d0: 3834 f33a f44f c5bc 1679 7ebb 2505 cfbc
000002e0: 597b 303c e196 913c 262e 843c eca9 e4bb
000002f0: fb85 de3c 7c4f 043d 0931 a8bc fa22 78bc
00000300: 933b 73bc d6ce a5bc 7b24 a83b 2ac2 f0bc
00000310: 83f2 38bc 0f9c a1b9 1dc0 7d3b c1e4 58bc
00000320: c3b0 2b3c 908e 8b39 2ced 123c 47cb 943b
00000330: b81d 433c 8bc1 b63c 1069 5a3c 5abd 23bc
00000340: 5e8f 93bb 638c 2c3b 279d 27bc 77d6 8abb
00000350: 8fcb 73bb 3ef5 15bc 5408 68bc 8b20 dfbc
00000360: 83c0 2d3d cb81 043d 2499 273a 0b90 92bc
00000370: fd73 0a3c 637c 943c 267d c53b 531b 8b3c
00000380: b985 7cbc 7013 9d3c 7193 b2bb 2682 b4bc
00000390: 5dec 2b3b 3a52 b2bc 9eff 523c 4011 94bb
000003a0: 1cb3 61bc 08b7 e63c 24cc 8e3c c4f7 83b8
000003b0: 9fb6 123c 514f 593b a3f2 a93c 153c 8d3c
000003c0: cc84 2dbc 6285 823c 5f74 2fbc 7265 99bb
000003d0: 96ae bd3c 9d84 3c3c 4bca d3bc 2842 9e3c
000003e0: f7e2 c33c 9a50 fd3c 7e90 dc3a 7f0e 013c
000003f0: 68d0 a5bb 30ed d33c 5d9a 76bb 1684 453a
-0.025064152 0.029476061 -0.009692957 0.0080616055 -0.025703294 -0.002834214 0.013460696 -0.0027125601
0.0137521755 -0.028246954 -0.023806222 -0.019577714 -0.011841331 0.0042612515 -0.009497726 -0.019226236
0.025394494 -0.0039145933 0.0009544392 0.023120942 -0.012968642 -0.015274222 -0.028522285 -0.032445267
-0.029067744 -0.02312727 0.024578448 -0.011527029 0.02006079 -0.037691448 -0.0060294257 0.0006977137
0.002974248 -0.033132486 0.008868695 0.05866898 -0.017983587 0.001226969 0.013594513 -0.010602761
-0.034598406 -0.01388364 0.003030464 -0.0051221214 0.011935239 0.04449055 -0.014753425 -0.019464277
0.010713285 0.033584647 0.014877494 0.019639092 0.014135393 -0.03803409 0.035096105 0.031298213
0.0077497778 -0.011298713 -0.021675974 0.0020374798 3.0158057e-05 0.015636703 0.01261385 -0.0020911403
0.0073614065 0.0005102995 0.0021706948 0.010562152 0.017527016 -0.018597066 -0.025064932 -0.014497793
0.018644664 -0.007828059 -0.014755985 -0.014251513 0.0037422653 -0.0021809768 -0.022854395 0.01499759
-0.01193646 0.023705896 0.019218374 0.032387953 -0.0013927531 0.015602193 0.01122203 -0.010042
-0.004161259 -0.022412313 0.01114588 0.017603075 -0.015298015 0.016430927 0.008526298 0.040010024
-0.008574537 -0.02816236 -0.020050146 0.011766861 -0.020103315 0.012964995 0.0192121 -0.0067416206
0.014499367 -0.0027393517 -0.013421896 -0.020728914 0.01333654 0.002972847 -0.0067498055 -0.029923433
0.013720018 0.030508328 0.009752288 -0.024055297 0.0033513529 -0.017620165 0.0028157495 0.0012810474
0.020909235 -0.02839973 -0.010956352 0.023893638 0.0061315657 -0.04444009 0.0009633202 0.03592813
0.023440605 -0.014025414 -0.012224987 -0.0033349667 0.011413824 0.0013035488 0.00999735 0.019921485
-0.020637533 -0.01850092 0.030540684 0.02334798 -0.010614009 0.00052456546 0.020943744 -0.012188644
0.007883962 0.012445372 -0.0036843729 -0.004050002 0.009021329 0.0036861761 -0.013839148 -0.008949938
-0.0076716943 0.005815143 -0.01794779 0.010011809 0.00073103776 0.003983355 0.01386033 -0.019157402
-0.00018838169 0.030037437 -0.0057439706 -0.010221695 -0.009624154 -0.014948468 -0.010048877 0.025222028
-0.010875389 0.0339167 0.0063402103 0.0035497232 0.020416165 0.004499266 -0.030718245 -0.008631621
0.018036766 -0.01446344 -0.031400587 0.003950501 0.0018554991 -0.024085976 -0.0038829497 -0.025271008
0.010771596 0.01777214 0.016135287 -0.006978264 0.027163496 0.032302365 -0.020531194 -0.015145058
-0.014845747 -0.020240229 0.005131302 -0.02938946 -0.011288288 -0.00030824586 0.0038719245 -0.013238133
0.010479155 0.00026618363 0.008967679 0.004540834 0.011908941 0.022309085 0.013330713 -0.009993875
-0.0045031747 0.0026328794 -0.010230339 -0.004236992 -0.0037200188 -0.009152709 -0.014162142 -0.027237197
0.04241992 0.032350343 0.0006393364 -0.01789095 0.008450505 0.018125718 0.0060268817 0.016980803
-0.015412741 0.019174308 -0.0054497053 -0.022034716 0.0026233413 -0.021767724 0.012878327 -0.004518658
-0.013775613 0.028163448 0.017431326 -6.292717e-05 0.008954673 0.0033158849 0.020745581 0.017240563
-0.010590743 0.015932743 -0.010708897 -0.0046812827 0.023154538 0.011506227 -0.025853297 0.019318655
0.023911936 0.030922223 0.001682773 0.007876991 -0.0050602444 0.025869936 -0.0037628629 0.0007534636

action_model._discrete_distribution.branches.0.bias f4 [5]
00000000: 5475 5a3c e692 d2ba 030e 853b a2c2 d03b
00000010: b33b ccbc
0.013333637 -0.0016065508 0.004060508 0.0063708583 -0.02493081

exp_avg f4 [64, 45]
00000000: 4213 55b9 a6b9 a5b9 616d 26b9 c29a 7db9
00000010: 0057 02b9 02e0 e3b9 bfcb 8bb9 bb6d 9636
00000020: 685f dab8 4213 55b9 a6b9 a5b9 7523 26b9
00000030: c3cf 79b9 2c46 45b9 b8a2 cfb9 2dbe 49b9
00000040: 6153 d0b8 07ce e9b8 4213 55b9 a6b9 a5b9
00000050: 0b1b 29b9 5c16 8bb9 3e9e 36b9 9f0f 9ab9
00000060: aa84 95b9 e285 2138 fc74 c2b8 4213 55b9
00000070: a6b9 a5b9 c836 2db9 699d 85b9 fcd1 a5b8
00000080: c9af 90b9 5a06 aeb9 f41b bab6 bcc6 ceb8
00000090: 4213 55b9 a6b9 a5b9 9903 35b9 25e7 81b9
000000a0: b02e 05b9 6103 67b9 d176 c2b9 5fff 7038
000000b0: 36a4 cfb8 c482 2c39 d02c 8639 8ea8 d438
000000c0: a1b2 cab7 9f77 e737 f045 473a d82a 2b39
000000d0: beee 6839 9c2b 7439 c482 2c39 d02c 8639
000000e0: e62c d138 35bf 44b7 d7f2 8b39 69e1 1f3a
000000f0: 992f 3a38 371a 8939 5356 7839 c482 2c39
00000100: d02c 8639 fe26 d438 3008 5f38 43e2 4039
00000110: 1a4e 153a fe37 df38 f5ff 37b9 294d 4339
00000120: c482 2c39 d02c 8639 a463 dd38 24be 9437
00000130: b3c4 0e3a a857 1a3a 1148 9db9 b92a fab8
00000140: 4c15 6839 c482 2c39 d02c 8639 269d d438
00000150: e07d a637 ee4a 8b39 cdb5 bb39 d032 af38
00000160: c0c8 11b9 cc66 6b39 e1ea 7bb7 93ef c3b7
00000170: 01a9 edb5 4cf3 94b7 397d 57b8 600c 9eb8
00000180: 78ad 0437 36ac 1eb5 df61 47b7 e1ea 7bb7
00000190: 93ef c3b7 5cab b4b5 d37f aab7 2978 a9b8
000001a0: 775b c6b8 4aac 1337 a994 4438 4c09 39b7
000001b0: e1ea 7bb7 93ef c3b7 e24f 0b35 ea9b 63b7
000001c0: 19b9 64b8 d4f8 d0b8 1cfb 6137 fdcb 5737
000001d0: 6030 91b7 e1ea 7bb7 93ef c3b7 9173 2c35
000001e0: a6da 2eb7 b41b f0b8 a057 dfb8 6e8e 8c38
000001f0: a572 8d38 c8f7 9ab7 e1ea 7bb7 93ef c3b7
00000200: e199 c036 d318 10b7 5493 34b8 c955 e9b8
00000210: 293d 3936 debf 2238 b99f c3b7 8d00 8338
00000220: f7c7 cb38 09c3 5638 7a46 19b8 2af5 08b8
00000230: 0a52 95b8 74d7 7b38 d7b1 9939 0763 d738
00000240: 8d00 8338 f7c7 cb38 f754 5538 432f 00b8
00000250: 0752 59b8 4a81 c2b8 45a4 d338 68eb a339
00000260: cd63 d238 8d00 8338 f7c7 cb38 9a4c 4538
00000270: a94d 95b7 9f3e e5b8 f20e 0537 0378 bd38
00000280: f9f7 6239 6383 bd38 8d00 8338 f7c7 cb38
00000290: cdc8 4f38 acc7 97b7 a806 0739 36c3 3237
000002a0: 94a6 15b9 5c77 5c39 2fac cb38 8d00 8338
000002b0: f7c7 cb38 e480 5038 c4e2 25b7 65b2 1935
000002c0: 86bf 1d38 0f5c 4337 e4bf 1e39 e3ec c038
000002d0: 34f1 6637 249f b337 3c74 2337 82d5 e0b6
000002e0: 77b9 0838 e71b 0ab9 4b6c 96b8 f50d b838
000002f0: e623 b037 34f1 6637 249f b337 7bef 5a37
00000300: 12a7 c3b6 6f71 4e38 ef53 98b8 a7ae d7b8
00000310: a168 4e38 3d59 9937 34f1 6637 249f b337
00000320: 1524 5f37 1aed 7db7 1505 39b5 3c42 4fb8
00000330: 2745 10b8 d93e e238 5b31 ca37 34f1 6637
00000340: 249f b337 ca0e 8f37 b889 c2b6 9fd0 2a38
00000350: cee4 a3b8 bc08 47b8 0e89 9838 6672 8d37
00000360: 34f1 6637 249f b337 6f5b 8337 0e2b 68b4
00000370: 4d11 ebb6 b074 3c36 2b43 8bb8 e117 ff38
00000380: a94e 7637 aabb 50b6 1759 a2b6 fcb9 3b37
00000390: e17b 2536 1d7c 4238 8aeb 31b7 c2f7 1836
000003a0: fa4e 54b8 a5f5 39b7 aabb 50b6 1759 a2b6
000003b0: cb92 2437 5968 3e35 f2dd c636 d7d3 c7b7
000003c0: 24e2 ce37 763c b0b7 aad3 37b7 aabb 50b6
000003d0: 1759 a2b6 84db 3f36 20c1 b2b5 8756 9eb3
000003e0: 946f a8b7 ed4a 0737 d0ca 0734 7de3 b4b6
000003f0: aabb 50b6 1759 a2b6 8dbf 5336 01eb 66b5
-0.00020320437 -0.0003160957 -0.0001587174 -0.00024185612 -0.00012430176 -0.00043463713 -0.0002666395 4.4831227e-06
-0.00010412821 -0.00020320437 -0.0003160957 -0.00015844202 -0.00023823888 -0.00018813525 -0.00039603352 -0.000192397
-9.9337434e-05 -0.000111486814 -0.00020320437 -0.0003160957 -0.0001612717 -0.00026528805 -0.00017415822 -0.00029384808
-0.00028518337 3.851008e-05 -9.272431e-05 -0.00020320437 -0.0003160957 -0.00016518973 -0.00025485017 -7.906926e-05
-0.0002759679 -0.00033192598 -5.546486e-06 -9.8598626e-05 -0.00020320437 -0.0003160957 -0.00017262845 -0.00024777013
-0.00012701261 -0.00022031135 -0.0003709109 5.7458292e-05 -9.901116e-05 0.00016451912 0.0002559186 0.000101403435
-2.4163457e-05 2.7593049e-05 0.0007601669 0.00016323791 0.00022214183 0.00023285899 0.00016451912 0.0002559186
9.9742596e-05 -1.1727029e-05 0.00026693076 0.00060989574 4.4390184e-05 0.00026150208 0.00023683281 0.00016451912
0.0002559186 0.000101162106 5.317497e-05 0.00018394836 0.0005695537 0.00010643898 -0.00017547591 0.00018625394
0.00016451912 0.0002559186 0.00010556661 1.7731516e-05 0.00054461806 0.00058876956 -0.00029999067 -0.00011928887
0.00022133178 0.00016451912 0.0002559186 0.00010138219 1.9847357e-05 0.00026567973 0.00035802872 8.354115e-05
-0.00013903063 0.00022449641 -1.5015453e-05 -2.3357372e-05 -1.7707063e-06 -1.7756269e-05 -5.1376617e-05 -7.536332e-05
7.908202e-06 -5.9110187e-07 -1.1884112e-05 -1.5015453e-05 -2.3357372e-05 -1.3460917e-06 -2.0325102e-05 -8.0809295e-05
-9.4584124e-05 8.801997e-06 4.6868492e-05 -1.1029024e-05 -1.5015453e-05 -2.3357372e-05 5.189778e-07 -1.3566556e-05
-5.453182e-05 -9.964561e-05 1.3469511e-05 1.2862493e-05 -1.7307873e-05 -1.5015453e-05 -2.3357372e-05 6.4243164e-07
-1.0422116e-05 -0.00011449252 -0.0001064979 6.70225e-05 6.744758e-05 -1.8473613e-05 -1.5015453e-05 -2.3357372e-05
5.7399598e-06 -8.588849e-06 -4.3052554e-05 -0.000111262845 2.7602748e-06 3.88025e-05 -2.3320188e-05 6.246669e-05
9.717041e-05 5.1203217e-05 -3.654368e-05 -3.2653254e-05 -7.1201546e-05 6.004372e-05 0.00029314935 0.00010270444
6.246669e-05 9.717041e-05 5.0862287e-05 -3.0561594e-05 -5.1813226e-05 -9.274723e-05 0.000100918616 0.00031265174
0.0001003217 6.246669e-05 9.717041e-05 4.70398e-05 -1.7798347e-05 -0.00010931235 7.9308975e-06 9.034576e-05
0.00021645417 9.036695e-05 6.246669e-05 9.717041e-05 4.9539656e-05 -1.8093582e-05 0.00012877083 1.0655078e-05
-0.00014271803 0.000210253 9.711866e-05 6.246669e-05 9.717041e-05 4.9711103e-05 -9.887564e-06 5.725654e-07
3.7610087e-05 1.164434e-05 0.00015139539 9.199397e-05 1.3765228e-05 2.1412568e-05 9.74262e-06 -6.700576e-06
3.2597654e-05 -0.000131711 -7.1727285e-05 8.7764034e-05 2.0997551e-05 1.3765228e-05 2.1412568e-05 1.3049571e-05
-5.8309024e-06 4.921987e-05 -7.263559e-05 -0.000102845304 4.921167e-05 1.8280576e-05 1.3765228e-05 2.1412568e-05
1.3300237e-05 -1.513518e-05 -6.8925266e-07 -4.941433e-05 -3.439668e-05 0.00010788226 2.410326e-05 1.3765228e-05
2.1412568e-05 1.7053815e-05 -5.797683e-06 4.0725452e-05 -7.815064e-05 -4.745343e-05 7.273453e-05 1.686178e-05
1.3765228e-05 2.1412568e-05 1.5658994e-05 -2.1622347e-07 -7.00556e-06 2.8082104e-06 -6.6405475e-05 0.00012163795
1.4681057e-05 -3.110365e-06 -4.8383476e-06 1.1189371e-05 2.4659023e-06 4.6368794e-05 -1.0604863e-05 2.279398e-06
-5.061829e-05 -1.1084053e-05 -3.110365e-06 -4.8383476e-06 9.80934e-06 7.093236e-07 5.9266977e-06 -2.3821294e-05
2.4662419e-05 -2.100899e-05 -1.0956932e-05 -3.110365e-06 -4.8383476e-06 2.8588993e-06 -1.331824e-06 -7.3731876e-08
-2.0079118e-05 8.064072e-06 1.2646638e-07 -5.390901e-06 -3.110365e-06 -4.8383476e-06 3.1552947e-06 -8.602365e-07

exp_avg_sq f4 [64, 45]
00000000: e807 f134 40f6 c934 386f 9934 4068 fe34
00000010: c939 3035 d7a0 2e35 1869 cc34 2459 9834
00000020: 8fd5 1135 001b f134 e0fd ca34 103c 9934
00000030: d2ea fe34 51ea 2d35 0da3 3635 de54 cc34
00000040: 4c78 ac34 f050 1235 e506 f134 30a3 ca34
00000050: c0ec 9934 5f35 0035 d735 2135 701d 3135
00000060: 14db f534 404d 9d34 d22b 1335 aa2b f134
00000070: 97ab ca34 b843 9b34 99ce fe34 672f 0b35
00000080: 279c 1e35 dd12 1335 c6b5 c934 47bb 1235
00000090: 8471 f134 2444 cc34 60d9 9b34 77d7 ff34
000000a0: adb0 2b35 79d2 2335 a23b 0435 208b bf34
000000b0: fde0 1235 681b 7336 a228 1136 f95f 2036
000000c0: 46ed 6736 4850 8236 df26 8036 bb05 a836
000000d0: ba3a 8c36 6513 9436 1107 7336 9d62 1136
000000e0: 2eaa 2036 5e45 6936 edde 8436 4f49 8636
000000f0: 02b9 a536 6a17 8a36 1579 9436 cc1d 7336
00000100: f67a 1136 cca9 2136 f0c7 6936 9fd6 8a36
00000110: fb4f 8236 db2a a036 af12 8236 d507 9536
00000120: 8129 7336 7a83 1136 0447 2136 dca7 6936
00000130: 648e 8536 a378 8236 a8db a136 ecc8 8736
00000140: 6ef9 9436 8298 7336 a667 1236 a906 2036
00000150: a259 6a36 93fa 8236 2391 8736 b5a0 9f36
00000160: 0351 8536 f632 9536 fac2 d933 10cb e033
00000170: 092e d332 cc2c a733 c143 1134 a15f 0b34
00000180: 06da ce33 db64 e533 167f 3534 4ee9 d933
00000190: 2cd4 e033 c90d d032 d6a5 a833 21fe 1a34
000001a0: d6c1 1b34 938a c533 8d6e c733 8b88 3634
000001b0: 24ac d933 f46f e033 089c ca32 da46 a933
000001c0: 1c71 0534 6dc8 2634 0246 ce33 dd32 c233
000001d0: e76c 3634 d3ab d933 a671 e033 4efe cb32
000001e0: 1417 aa33 5bd8 0834 8c0f 2934 849c cb33
000001f0: bcbc bd33 1f3d 3634 85fd d933 af1b e133
00000200: 90c3 ca32 26c0 aa33 e312 ef33 bd21 2834
00000210: 9865 e833 30ef bf33 3088 3634 3952 8834
00000220: 6b34 9f34 6582 fa33 1db2 8634 4c8e a034
00000230: 1ed4 a634 35f2 bb34 2c73 7b34 ed98 af34
00000240: 5f55 8834 3c45 9f34 1eff fa33 672b 8534
00000250: f065 8f34 7459 9834 ce8d cc34 90f7 a034
00000260: 22aa af34 c4a2 8934 255b a134 181b 0034
00000270: ba1b 8534 18a1 a934 0c1f 9434 3f31 bb34
00000280: 6849 9134 71e2 b134 56d1 8934 ea66 a134
00000290: 504b 0234 b0fc 8434 3071 bf34 6e4f 9334
000002a0: 35d8 ae34 572b 8a34 10f3 b134 6c2e 8b34
000002b0: a106 a534 2c59 0534 90ac 8534 801b b634
000002c0: cecc 8834 75b9 bf34 14a0 8334 44b0 b434
000002d0: 90e3 c333 8784 5234 674f d532 973c 7c33
000002e0: 2e01 cb33 06de b333 a997 3334 ad41 1734
000002f0: 75ca 2034 65c5 c433 1c4b 5334 f7e5 d332
00000300: deec 7a33 c164 9c33 cc00 aa33 dbec 3334
00000310: 4e44 3534 7896 2334 8972 c633 eea6 5534
00000320: 89b9 d832 5e89 7533 dbf6 e533 5bec c133
00000330: 266b 0434 1793 2a34 9324 2934 0bd6 c633
00000340: 69b5 5534 05b9 dd32 aed8 7333 9ac0 ee33
00000350: c013 ba33 a1a0 0434 b045 3434 16d3 2934
00000360: 73d2 ca33 6beb 5934 51f8 e832 3c94 7533
00000370: 6331 0334 22a0 a633 b2e3 ef33 8253 3e34
00000380: b4e9 2c34 5fd3 2133 2c8a 5933 816d 5832
00000390: 59e1 1f33 ab68 7733 3617 8333 8487 1433
000003a0: 5d78 be32 0880 4a33 08d4 2133 978c 5933
000003b0: 2664 5a32 9cb6 2133 0221 8933 bd7a 8933
000003c0: 7bfa 3a33 9b65 3332 f935 4833 a4dc 2133
000003d0: d98e 5933 0be4 5c32 f35e 2133 46a5 9333
000003e0: 6271 8c33 30eb 1d33 d58d 3c32 faf5 4633
000003f0: c286 2233 dd91 5933 f2fb 6132 7699 2133
4.48955e-07 3.7618338e-07 2.8579393e-07 4.738704e-07 6.56492e-07 6.5054104e-07 3.8074427e-07 2.8377065e-07
5.432748e-07 4.4909393e-07 3.781015e-07 2.8542172e-07 4.748204e-07 6.47885e-07 6.8037554e-07 3.805971e-07
3.2125024e-07 5.450702e-07 4.4894765e-07 3.7744167e-07 2.867073e-07 4.776138e-07 6.005552e-07 6.5980475e-07
4.5794206e-07 2.9299736e-07 5.4825534e-07 4.4921518e-07 3.775028e-07 2.8920272e-07 4.7461506e-07 5.1850515e-07
5.908682e-07 5.4789217e-07 3.7571425e-07 5.466176e-07 4.4972342e-07 3.804754e-07 2.902916e-07 4.7654223e-07
6.395956e-07 6.102851e-07 4.926061e-07 3.567775e-07 5.471664e-07 3.6225774e-06 2.1630335e-06 2.3897721e-06
3.4559794e-06 3.883648e-06 3.8192225e-06 5.0074573e-06 4.179162e-06 4.4130015e-06 3.6213935e-06 2.1664084e-06
2.3940916e-06 3.4760083e-06 3.9598585e-06 4.0020454e-06 4.938921e-06 4.1154462e-06 4.4248395e-06 3.6227166e-06
2.1678256e-06 2.4089704e-06 3.4836085e-06 4.1377057e-06 3.883613e-06 4.7733606e-06 3.876477e-06 4.441458e-06
3.623398e-06 2.1683213e-06 2.4032206e-06 3.4817413e-06 3.9802853e-06 3.888346e-06 4.8237453e-06 4.046704e-06
4.439781e-06 3.6298593e-06 2.1816027e-06 2.3845735e-06 3.492089e-06 3.9034726e-06 4.0402097e-06 4.757278e-06
3.97314e-06 4.4464787e-06 1.0140316e-07 1.046775e-07 2.4584567e-08 7.784692e-08 1.3528826e-07 1.2980173e-07
9.632281e-08 1.0681989e-07 1.6903172e-07 1.0147288e-07 1.0469407e-07 2.4220656e-08 7.853275e-08 1.4434819e-07
1.4506017e-07 9.198734e-08 9.286769e-08 1.6999745e-07 1.0136162e-07 1.0451177e-07 2.358685e-08 7.8825636e-08
1.2427739e-07 1.5532869e-07 9.605357e-08 9.043081e-08 1.698969e-07 1.01361046e-07 1.04514854e-07 2.3747955e-08
7.92044e-08 1.2744697e-07 1.5745007e-07 9.481394e-08 8.835329e-08 1.6972307e-07 1.0150965e-07 1.04824146e-07
2.3604827e-08 7.9511935e-08 1.113274e-07 1.5658493e-07 1.0821822e-07 8.9376385e-08 1.6999616e-07 2.53918e-07
2.9654197e-07 1.1665251e-07 2.508904e-07 2.9905857e-07 3.1074245e-07 3.5007693e-07 2.3418096e-07 3.2707558e-07
2.539409e-07 2.9666433e-07 1.1687938e-07 2.480476e-07 2.6709995e-07 2.8377292e-07 3.8101138e-07 2.9982448e-07
3.2720078e-07 2.5636666e-07 3.0054903e-07 1.1930786e-07 2.4793354e-07 3.1595914e-07 2.7589738e-07 3.4867296e-07
2.7061765e-07 3.3133577e-07 2.567055e-07 3.0063467e-07 1.2134592e-07 2.477077e-07 3.5658877e-07 2.7438676e-07
3.2567337e-07 2.5736037e-07 3.314567e-07 2.5924544e-07 3.0738468e-07 1.2419031e-07 2.4898736e-07 3.392015e-07
2.548099e-07 3.571146e-07 2.4517124e-07 3.3655863e-07 9.1217885e-08 1.9605987e-07 2.4832572e-08 5.872843e-08
9.453139e-08 8.375723e-08 1.6725848e-07 1.4086864e-07 1.4974815e-07 9.162867e-08 1.9678231e-07 2.4668209e-08
5.842309e-08 7.282643e-08 7.916387e-08 1.6756842e-07 1.6881788e-07 1.5235298e-07 9.240927e-08 1.98979e-07
2.5230081e-08 5.7168442e-08 1.0708546e-07 9.030256e-08 1.2332438e-07 1.5885995e-07 1.5752657e-07 9.259028e-08
1.9903167e-07 2.5811923e-08 5.6774915e-08 1.1117773e-07 8.6648924e-08 1.2351894e-07 1.6789159e-07 1.5816144e-07
9.4446385e-08 2.0295344e-07 2.7121276e-08 5.7178326e-08 1.2218293e-07 7.7591054e-08 1.1170722e-07 1.7725509e-07
1.6103769e-07 3.7677975e-08 5.0649916e-08 1.2597753e-08 3.7225025e-08 5.7604364e-08 6.104385e-08 3.4582186e-08
2.2173646e-08 4.7148234e-08 3.7678575e-08 5.0652115e-08 1.2712041e-08 3.7651816e-08 6.385564e-08 6.4018856e-08
4.353431e-08 1.0442274e-08 4.6615217e-08 3.7686405e-08 5.065417e-08 1.2857536e-08 3.757209e-08 6.875284e-08
6.539882e-08 3.6768313e-08 1.0975289e-08 4.6324182e-08 3.7841126e-08 5.065691e-08 1.3154009e-08 3.7625306e-08

exp_avg f4 [64]
00000000: 0b90 b1b9 4cc2 8f39 5fee d1b7 4456 da38
00000010: ac73 c037 a2f1 adb6 6216 b539 ac1c 9c38
00000020: e396 b438 be96 7eb8 9d76 3fb9 95ca d2b8
00000030: 7f7c cfb8 3c52 9eb8 5a83 c039 ed26 65b7
00000040: cd1d dc39 f6d8 47ba 1091 7fba 54d1 40ba
00000050: f8d9 23b7 54c8 0eb8 bf34 b8b8 616a 0bb7
00000060: 7ad8 3fba 4baa cc38 7f59 80b9 5432 5fb9
00000070: 3a6b 9a39 d4cc 05ba 87b3 40ba ae11 c4b9
00000080: ff54 f1b8 439e 4ab9 a644 3d39 0a98 1e3a
00000090: 5141 1539 f3bd 32b8 bdf7 4cba cf71 b7b8
000000a0: 8177 4739 6104 e7b9 4727 6339 5f56 0e39
000000b0: 47df 32ba 8ce5 de39 82fe f0b7 c5d3 7939
000000c0: 04ba 42ba 9e78 52ba 55e2 9f38 84b8 323a
000000d0: e092 56b7 5087 42b7 9d88 f439 e20c 8239
000000e0: 6201 37ba 167c 4238 0c27 a3b9 4eae 8fb8
000000f0: 67ee 33ba 8678 893a 4483 8238 64d2 1ab8
-0.0003386739 0.00027419848 -2.5025742e-05 0.00010411118 2.2942048e-05 -5.1839315e-06 0.00034539687 7.444e-05
8.611174e-05 -6.069871e-05 -0.00018259366 -0.00010051314 -9.8937184e-05 -7.5493444e-05 0.00036718958 -1.3658527e-05
0.00041983873 -0.0007623577 -0.0009749094 -0.0007355411 -9.766307e-06 -3.404201e-05 -8.7836284e-05 -8.309814e-06
-0.00073183293 9.7591976e-05 -0.00024480742 -0.00021285686 0.0002945306 -0.0005104069 -0.00073509704 -0.00037397206
-0.00011507607 -0.00019323178 0.00018050018 0.0006049877 0.0001423408 -4.261541e-05 -0.00078188983 -8.7473185e-05
0.00019022638 -0.00044063016 0.00021663039 0.00013574351 -0.0006823432 0.00042514165 -2.8728744e-05 0.00023825381
-0.0007428231 -0.00080288376 7.6238684e-05 0.0006817656 -1.2789591e-05 -1.1594806e-05 0.00046641091 0.0002480513
-0.0006981102 4.636877e-05 -0.00031118875 -6.851238e-05 -0.0006863833 0.0010488189 6.223333e-05 -3.6912403e-05

exp_avg_sq f4 [64]
00000000: a264 7135 c549 e336 7340 6334 e6d6 1635
00000010: b425 8634 ac3a b733 d51b 6337 0b97 b535
00000020: 5936 2335 560f 3835 f723 8636 505a 3736
00000030: a77f f134 283a 9436 0d49 c235 111e 2635
00000040: 4e78 9f35 7e78 8535 6e3c 3a36 f328 ac36
00000050: 091d 1535 f5ef 3f34 324f 5434 24dc a733
00000060: 2700 9b37 7e1f 9136 9145 8e36 e6e3 9235
00000070: 6c03 3837 279b d035 a633 6436 41f3 c635
00000080: ac6d b635 2291 0937 d9a7 ff35 863b c137
00000090: b7af 6935 746a 9234 fd0a b536 87a7 9934
000000a0: bdd0 1434 6d8b 0537 9dd1 1636 0709 aa35
000000b0: 6baf a536 59b3 c136 05e7 6e33 b070 be36
000000c0: 501b f436 5bd9 6537 c9fe f635 775f 4a37
000000d0: 5e40 8236 65d1 7935 cbcd 8a36 61b6 ce36
000000e0: 73e6 5036 aae2 d036 6147 3036 3529 4035
000000f0: daf9 cb36 6a24 6c37 db17 fd35 b486 0235
8.9925936e-07 6.773715e-06 2.1164469e-07 5.6192073e-07 2.4986878e-07 8.532274e-08 1.35367345e-05 1.352951e-06
6.080132e-07 6.856766e-07 3.997698e-06 2.7321694e-06 4.4982627e-07 4.417514e-06 1.4475387e-06 6.188357e-07
1.1881436e-06 9.94434e-07 2.7751335e-06 5.1307666e-06 5.554908e-07 1.7875557e-07 1.977285e-07 7.816587e-08
1.847751e-05 4.325003e-06 4.2400284e-06 1.0944175e-06 1.0968051e-05 1.5542363e-06 3.400471e-06 1.4822946e-06
1.3591975e-06 8.199628e-06 1.9047831e-06 2.303511e-05 8.705496e-07 2.7272074e-07 5.3954996e-06 2.8620363e-07
1.3859513e-07 7.95988e-06 2.2473753e-06 1.2668614e-06 4.9378045e-06 5.772727e-06 5.5623804e-08 5.67556e-06
7.2749463e-06 1.3700071e-05 1.840258e-06 1.2062365e-05 3.8817952e-06 9.306444e-07 4.136678e-06 6.16051e-06
3.1128554e-06 6.22527e-06 2.6267592e-06 7.158554e-07 6.078958e-06 1.40751745e-05 1.8856912e-06 4.862479e-07

exp_avg f4 [5, 64]
00000000: f53f 3fbb 06b6 473c 0c03 62bb 58e9 62bb
00000010: 63e5 e0bb 42e3 eebb 2daa c13c 2b03 1a3c
00000020: 3152 a6bb d09d 66bb 0ef2 4f3b a722 173b
00000030: 8cd1 00bb 471a 8b3c 1b30 4938 b0d2 14bb
00000040: f1d9 45bb 0bd1 e73b cd22 2d3b 4fc6 b8ba
00000050: 0e17 acbb 1108 c9bb 75fb a5bb 92f3 ddbb
00000060: 4c6f a63b 6e7d bf3a a306 8c3c d869 acbb
00000070: 4eaa b63c d7c7 00bb ba09 443c 81cc 9cbb
00000080: 856f 693c 9e10 ca3b 92d2 b73a be7c 503c
00000090: cd1c 1d3b 3dd2 4cbb 362c ed3c f1bb 65bb
000000a0: 8c0f d4bb 6868 903c 844e 843c ae72 373b
000000b0: 031e 953c 1330 1a3c eaa4 d9bb 386c 1d3c
000000c0: d25d d13c 2c10 673c 48b1 75ba 235a f03c
000000d0: 69de b63c 54c1 a3ba ef9e 1c3b 549e 5ebb
000000e0: 3fa8 d83c d19e ad3a ed90 b33b b015 ebba
000000f0: d379 9b3c c88b 173c b65a 2b3b 40c0 74bb
00000100: d4d4 5e3b 3412 bebc 9a71 0c3c b0b2 b73b
00000110: c572 153c 2336 1e3c 9e69 0abd 3146 2bbc
00000120: 242c ec3b 6cbe 083c eff9 20bb 2209 35ba
00000130: 04d7 e63b 03bd 92bc f511 d3ba 01da b13b
00000140: cfd9 423b a82e 83bc 83d9 afbc a37e 5abb
00000150: 032f f53b 4e6f 1f3c da49 193c 815f 213c
00000160: b806 e33b 9018 9c3a 0655 0bbd 1c27 e53b
00000170: a740 2ebd 0f5f a53b 0904 5abc 5c60 4b3b
00000180: 30de abbc 1d9f 93ba 0758 393a 142d c6bc
00000190: 3685 d6ba cd47 9c3b a6fa 13bd 47aa 2b3c
000001a0: a5e5 1f3c d327 83bc 5044 92bc fb36 93bb
000001b0: bd7e f5bc ef99 debc 0561 273c 0bbd 8dbb
000001c0: b6b3 c1bc 129d eebc 69a1 0fbb da9c 47bd
000001d0: 7563 fcbc 25c2 353b b964 49bc 83bd 8d3b
000001e0: dccc 03bd 6044 ed3b f900 353b 419e 0b3c
000001f0: 3aec 00bd f312 d5bb 85e4 0abc 44c6 d43b
00000200: bbd9 4ab9 6c9c 4cbb a765 bd3a 710b 6fb9
00000210: 70d5 e33a fb05 da3a a1e4 96bb 9195 34bb
00000220: a9b9 943a 0b0d 783a c96f 76bb b324 00bb
00000230: 788b 82b9 4588 cbbb a9f8 b53a 3b0d c939
00000240: 3335 d93a cf27 e1ba 48d5 853b 8bb8 cc3a
00000250: 5da9 ca3a 04e9 bc3a 129d a63a 8445 de3a
00000260: 31ad 4cbb c185 1abb 6220 85ba 8e6d 3f39
00000270: e933 35ba 3977 1b3a 6d18 babb 4351 2c3b
00000280: 43b1 98bb e01f b8bb 693c 9eba aba6 18b9
00000290: 0870 07ba 6a66 8a3a 4bcd 08bc 17e6 39ba
000002a0: f5a9 e83a 5ead 07bc 65d0 a9bb afcd 003a
000002b0: 2700 7cbb 01cb 91bb 70ac d73a 06f9 0cbb
000002c0: 22f1 fabb 755f 5d3a 6fe7 633a 6712 88bb
000002d0: 4f98 34bb 94c7 93b9 265a da39 81c4 f63a
000002e0: 18f4 02bc ed63 6939 8e2a d9ba 3fdd e3b9
000002f0: 130b debb 0f51 c9bb 1b03 873a 7493 0d3a
00000300: f74d 183b 15c0 3c3b 6c36 13bb 6083 383a
00000310: a698 adb9 e339 953a 184f f1ba df23 993a
00000320: eabf 87ba c94f 09bb 6394 bc3b c806 fd3a
00000330: a52f beba 2dda 2f3a e439 e839 9e8f a2ba
00000340: 5abf 7aba a0e9 ad3b 8e77 fe3a 6fce c4ba
00000350: 4949 5c3a 42c4 d9b9 8dd1 23bb e256 6738
00000360: ccba 00bc e77b 173b 3af8 733a 497d 2d3b
00000370: 8060 e9b9 7a4a a7b9 7cec 8d3b 6fac b43a
00000380: 72a1 0c3b ddc3 6f3b a086 9abb 079f 78bb
00000390: 527e 973a 500b 103a 1ef1 eab8 3368 ecba
000003a0: 0716 43ba 8543 d83b 803d 39ba 7b3b 95bb
000003b0: 449f 8d3b 02b3 0a3c db4a dab9 3ff4 c2b9
000003c0: f09e 85bb 82c1 4cbb 08da a339 a4e0 baba
000003d0: 437a 92bb 6a68 fb3a 145a d837 379f a9ba
000003e0: 367d c43b 0620 8ebb 2d8e 7cbb 4bed 55bb
000003f0: 4449 053c 2fa0 ac3b a282 4a3a f249 7fba
-0.0029182408 0.012189394 -0.003448668 -0.0034623947 -0.0068632825 -0.007290275 0.023640716 0.009400169
-0.005075716 -0.0035189278 0.003172997 0.0023061426 -0.001965615 0.016980303 4.7966936e-05 -0.0022708587
-0.0030189718 0.0070744804 0.0026418448 -0.0014097187 -0.005251772 -0.006134995 -0.0050653764 -0.0067734206
0.0050791856 0.0014609525 0.017093008 -0.005261641 0.022298004 -0.0019650364 0.01196521 -0.004785121
0.01424778 0.0061665317 0.0014024547 0.012725053 0.0023973465 -0.0031253241 0.028951745 -0.0035054649
-0.00647158 0.01762791 0.01615072 0.0027991938 0.018202787 0.009410876 -0.0066419737 0.009608321
0.025557432 0.014102977 -0.0009372425 0.029339856 0.02232285 -0.0012493529 0.0023898443 -0.0033968883
0.026447413 0.0013246184 0.005479923 -0.001793554 0.018978989 0.009249635 0.0026146597 -0.0037346035
0.0034001367 -0.02320204 0.008572007 0.005606018 0.0091216015 0.009656462 -0.03379213 -0.010453747
0.0072074104 0.008346181 -0.0024563035 -0.0006905963 0.007044675 -0.017912393 -0.0016103374 0.0054275994
0.0029731875 -0.016013458 -0.021466022 -0.0033339642 0.007482411 0.009731127 0.0093559865 0.00984943
0.006928291 0.0011909176 -0.03401663 0.0069931876 -0.042542126 0.0050467323 -0.013306626 0.0031032776
-0.02097997 -0.0011262629 0.0007070307 -0.024191417 -0.0016366604 0.0047693015 -0.03612771 0.010477609
0.009759341 -0.0160102 -0.01785484 -0.004492638 -0.02996766 -0.02717301 0.010216002 -0.004325514
-0.023645263 -0.029127631 -0.0021916276 -0.04873357 -0.030809144 0.0027734127 -0.012292081 0.00432557
-0.03217779 0.007240817 0.0027618988 0.008521617 -0.031475283 -0.006502503 -0.008477335 0.0064933617
-0.00019345332 -0.0031221164 0.001444985 -0.00022797078 0.0017382335 0.0016633862 -0.0046048914 -0.002755497
0.0011346835 0.0009462393 -0.003760325 -0.0019553124 -0.00024899445 -0.006211313 0.0013883311 0.00038347565
0.0016571641 -0.0017178002 0.004084263 0.0015618963 0.0015461851 0.0014412706 0.0012711606 0.0016957973
-0.003123116 -0.0023578259 -0.0010156746 0.00018255992 -0.0006912337 0.00059305463 -0.0056791813 0.0026293553
-0.004659803 -0.005619034 -0.0012072447 -0.00014557938 -0.0005166535 0.0010559086 -0.008349727 -0.0007091476
0.0017750846 -0.00828108 -0.0051823133 0.0004913462 -0.003845224 -0.004449249 0.0016454589 -0.0021510734
-0.00765814 0.0008444705 0.0008693849 -0.0041525844 -0.0027556603 -0.00028186722 0.00041647366 0.0018826873
-0.007992767 0.00022257837 -0.0016568468 -0.00043461655 -0.0067762225 -0.006143696 0.0010300608 0.00054006954
0.002323983 0.0028801013 -0.0022462858 0.00070386194 -0.00033110863 0.001138505 -0.0018410413 0.0011683664
-0.0010356877 -0.0020952097 0.0057549938 0.0019304389 -0.0014510049 0.0006708231 0.0004429362 -0.001240242
-0.0009565257 0.0053073913 0.0019414292 -0.0015015135 0.00084032543 -0.0004153569 -0.0024996728 5.5155608e-05
-0.007857036 0.0023114623 0.0009306703 0.002647238 -0.0004451312 -0.00031908212 0.0043311696 0.0013784299
0.0021458534 0.003658525 -0.0047157556 -0.0037936585 0.0011558032 0.000549485 -0.00011202901 -0.0018036425
-0.0007441942 0.006599846 -0.0007066354 -0.0045542098 0.0043219645 0.00846553 -0.00041635972 -0.0003718454
-0.0040777847 -0.003124327 0.0003125223 -0.0014257622 -0.004470141 0.0019180898 2.5791152e-05 -0.0012941126
0.0059963716 -0.0043373136 -0.0038536892 -0.0032642658 0.008135144 0.005268119 0.0007725154 -0.0009738497

exp_avg_sq f4 [5, 64]
00000000: 976b 6c39 02eb a83a e329 9439 807d 9639
00000010: bb45 c739 fcc0 ca39 d425 203c f03f 8e39
00000020: 7d66 9e39 9d15 9c39 2cc2 7e39 fc8a 2439
00000030: c2e4 3439 7b60 1c3c 7d16 9139 2e11 ad39
00000040: c00a ae38 085a 8c39 3562 d93a 6d43 323a
00000050: 9fb3 4739 8d0a bc39 6434 b839 e013 d639
00000060: 884b 623b 4c01 9e39 c0c1 c93a e2ef 3239
00000070: 6b59 2a3c cd0f 5239 fe58 c13a 5e91 5239
00000080: e9aa 423a a13e cd39 542c ef39 675b 3d3b
00000090: 7451 c139 82cc b939 db5c 293b 164c a239
000000a0: 9f79 b039 db03 cf3a c2ec 493a 7933 6a3a
000000b0: d154 fc3b 97ed b73a 3269 e639 2560 183b
000000c0: 4fe4 d63b 36f3 8f3b 7f44 dd38 0c77 4a3c
000000d0: 179a 423c 4c47 7b39 2ebc f539 52f5 5d3a
000000e0: 2966 923b 488c 573a a6a0 2b3a 285e 3439
000000f0: 2f43 d03b bffd 003b 745b d539 3ba0 a639
00000100: ee02 2939 d98c 853a 9fa5 5f39 21cd 5739
00000110: dda2 9539 c1da 9a39 8b34 df3b 1cfe 7339
00000120: 95cb 7239 fd32 6039 9b80 4439 33c4 de38
00000130: 91ad 1139 931e d43b 895f 4939 e5e8 7339
00000140: 5293 7438 24ed 9239 d4ce aa3a 9b7f ef39
00000150: 9b5a 2b39 14e9 9039 b540 8c39 1b80 a839
00000160: c205 163b 69c7 6339 6daa ba3a 6958 0f39
00000170: 7708 fa3b 0cd6 1939 d331 8b3a 4930 2539
00000180: 2d49 3c3a b14c 9539 ee55 a239 96f0 153b
00000190: 41e8 8639 3165 8839 9a1a 1b3b 8957 8339
000001a0: 76e3 8e39 a01c a63a 817f 303a fecd 2e3a
000001b0: 173b b23b 4f71 a83a 29b2 b239 267e d93a
000001c0: 15a0 953b ab87 573b db2f a338 3b4a 143c
000001d0: 2407 033c 69ef 3339 782d c439 f748 1a3a
000001e0: 0ba6 533b 95ab 153a 3825 eb39 5498 0b39
000001f0: e7d9 943b 3070 c23a 3b91 9439 fd1d 7439
00000200: 5531 5839 8da5 893a 5045 9339 4839 9639
00000210: 0012 c239 04cb c139 bb17 233c 58dd 6239
00000220: 92cc 9f39 039a 9239 f1fb 7739 a0c2 1d39
00000230: 1bbd 2739 d28f 233c 5185 9239 e14d a839
00000240: c1d4 9638 d2d0 7539 6149 d53a 8d09 113a
00000250: 99b7 2d39 7057 b039 05cd b039 5636 cc39
00000260: 2ca8 713b fb05 8d39 d8f0 803a fe2a 1b39
00000270: 5900 273c 00d9 3c39 50bb c63a 3bf2 3f39
00000280: 8620 153a b9ca cc39 70a6 ec39 2e2d 193b
00000290: a0fa af39 433b b539 e18b 063b b048 9739
000002a0: df56 a439 310f e93a 22f3 473a eaf3 723a
000002b0: 63e9 023c 0d6e 9f3a c58b da39 70de 1e3b
000002c0: ad2c c83b a5fb 743b b781 de38 7ef6 3e3c
000002d0: 4943 443c f371 5b39 63e9 b539 ab97 5b3a
000002e0: 98a2 913b 47f6 593a d557 253a 6d96 2539
000002f0: 1d05 c73b 15e0 053b e02e ad39 df82 a539
00000300: 443c 6939 8ec5 863a 269b 9a39 1c65 a239
00000310: 600e d339 efc9 d239 6076 243c f4c5 8739
00000320: 5b53 b139 7936 8c39 f8d7 9039 5af9 2d39
00000330: 34bb 2839 83de 2d3c 00e3 8839 6b83 b239
00000340: f8c9 b538 c368 8739 4901 ca3a f43a 193a
00000350: 1d49 3639 7d98 bb39 ca18 bf39 8cd8 db39
00000360: 620d 923b 85ac ad39 57a2 b23a 2396 3239
00000370: 311c 283c 6a95 4439 633f bb3a 1c1a 5d39
00000380: 088c 323a 8c42 f439 ab94 f139 a985 263b
00000390: 9e40 de39 2ac4 c239 3f29 1d3b 8e3b a639
000003a0: ddb9 b339 4b30 f13a 3c1b 4c3a c715 623a
000003b0: 5bf1 073c 8afa 963a d705 ed39 6f24 2c3b
000003c0: fb81 d53b 306b 7a3b c7d5 f738 de13 3e3c
000003d0: 3084 4b3c 61df 7139 10ed d739 1654 6b3a
000003e0: cde1 8c3b 07a5 983a efdd 4c3a e7d0 2a39
000003f0: a855 c33b b5eb 173b c472 b039 6b22 ae39
0.00022546794 0.0012887421 0.00028259968 0.00028703734 0.0003800819 0.00038672227 0.009774644 0.00027131988
0.00030212468 0.00029770742 0.00024295662 0.00015692035 0.00017251357 0.009544487 0.0002767331 0.0003300993
8.298969e-05 0.0002676996 0.0016585054 0.00068002084 0.00019045033 0.00035866015 0.0003513425 0.0004083207
0.0034529883 0.00030137075 0.0015392825 0.00017064766 0.0103972955 0.00020033047 0.0014751253 0.00020081314
0.00074259803 0.0003914731 0.0004561866 0.0028893591 0.00036872516 0.0003543832 0.00258427 0.00030955736
0.0003365995 0.0015793996 0.0007702821 0.00089340616 0.0077005406 0.0014032599 0.00043947395 0.0023250666
0.006557978 0.0043930067 0.000105508596 0.012357485 0.011877558 0.00023963785 0.00046870246 0.00084670365
0.004467745 0.00082225027 0.0006547071 0.00017201214 0.006355665 0.0019682494 0.00040694664 0.00031781368
0.00016118187 0.0010189071 0.00021328636 0.00020580414 0.00028540837 0.00029536153 0.0068116835 0.00023268949
0.00023154759 0.000213813 0.00018739926 0.0001062233 0.00013892936 0.0064733713 0.00019204443 0.00023261046
5.8311336e-05 0.00028023974 0.001303161 0.00045680706 0.00016341584 0.00027639477 0.0002675109 0.00032138903
0.0022891616 0.00021722693 0.0014241465 0.00013670478 0.0076304036 0.00014670956 0.0010619707 0.00015753614
0.0007182535 0.00028476634 0.0003096307 0.0022878996 0.00025731514 0.00026015335 0.0023666979 0.00025051486
0.00027253822 0.0012673326 0.0006732867 0.00066682685 0.005439173 0.0012851151 0.00034083545 0.0016593381
0.0045662024 0.003288726 7.7813595e-05 0.009050901 0.007997308 0.00017159957 0.0003741791 0.00058855064
0.0032295014 0.00057094666 0.00044850423 0.0001331282 0.0045425775 0.001483446 0.00028336965 0.00023280825
0.00020617743 0.0010501608 0.00028089667 0.00028652907 0.00037015975 0.00036963087 0.009954388 0.00021635497
0.0003047926 0.00027962038 0.00023649611 0.0001504519 0.00015996808 0.00998302 0.00027946619 0.0003210148
7.192186e-05 0.00023442812 0.0016272479 0.0005532734 0.00016566961 0.00033634482 0.00033722087 0.00038950396
0.003687392 0.00026898072 0.0009837402 0.00014797968 0.010192954 0.00018009916 0.0015162025 0.00018305417
0.00056887453 0.00039060952 0.00045137433 0.0023372876 0.0003356533 0.00034567164 0.0020530152 0.0002885512
0.00031345242 0.0017781017 0.0007627477 0.00092679134 0.007990214 0.0012163535 0.00041684337 0.002424147
0.0061088414 0.0037381437 0.00010609946 0.011655448 0.011978933 0.00020927917 0.00034696897 0.00083767873
0.0044444315 0.0008314591 0.00063073385 0.00015791664 0.0060736076 0.0020427753 0.00033032056 0.0003156876
0.00022243062 0.0010282265 0.00029488764 0.0003097438 0.00040255766 0.00040204774 0.010037988 0.00025896693
0.00033822175 0.00026743466 0.0002762673 0.00016591456 0.00016091467 0.010612133 0.0002610907 0.0003404872
8.668372e-05 0.0002582726 0.001541176 0.00058452715 0.0001738411 0.00035781032 0.00036448828 0.00041932275
0.0044571618 0.00033125668 0.0013628703 0.00017031333 0.010260628 0.00018747678 0.0014285858 0.00021085929
0.00068110274 0.00046588888 0.00046077868 0.0025409258 0.00042391283 0.00037148717 0.0023980883 0.0003170636
0.0003428002 0.0018401233 0.00077860407 0.0008624461 0.00829729 0.0011518758 0.00045208514 0.0026266833
0.006515739 0.0038210861 0.00011817697 0.011601416 0.012421653 0.00023066766 0.0004118462 0.00089770684
0.0042993785 0.0011645862 0.0007815053 0.00016290286 0.0059611388 0.0023181264 0.00033654843 0.0003321351

exp_avg f4 [5]
00000000: f9a2 c83c 5006 16bd 3b3d c0bb f464 ef39
00000010: 64bb 8f3c
0.024491774 -0.036627114 -0.0058666742 0.00045660848 0.01754541

exp_avg_sq f4 [5]
00000000: 2508 c33b 0965 963b 496a b93b 7966 c93b
00000010: 3c10 473b
0.0059518986 0.004589681 0.005658422 0.006146249 0.0030374667
