Assets/results/Maze12/Mouse/Mouse-211678.onnx (onnx, 17067 bytes, 4 tensors)

network_body._body_endoder.seq_layers.0.weight f4 [64, 45]
000000 36 50 95 bd bd 95 2f 3d 55 66 22 3e 71 5f aa be
       -0.0729069 0.04286741 0.15859349 -0.3327594
000010 c0 51 8e bd 79 67 54 bd 21 d3 82 be a5 6e ea bd
       -0.06949186 -0.05185649 -0.25551704 -0.11446885
000020 45 f3 5c bd 7a ed 92 bc 5f 9d d0 3d bd 00 0e 3e
       -0.053942937 -0.017935503 0.10186266 0.13867469
000030 11 d6 58 3e 30 10 a8 3d ec c7 e9 3d 8a 7b 4f be
       0.2117541 0.082062125 0.11415085 -0.2026197
000040 3e de 0c 3e 1a 96 05 be 79 00 6c be 47 20 21 3d
       0.13756654 -0.1304554 -0.23047055 0.039337423
000050 2a ef 13 3e 9e 69 6d 3e 4d d8 c5 bd e5 87 3f bc
       0.14446703 0.23184821 -0.09660397 -0.011690115
000060 c7 cd 9b ba 0e 7d 2d be e0 f4 eb bc 52 9d 7c bd
       -0.0011886888 -0.16942236 -0.028803289 -0.06167347
000070 0f d0 cb bd ae 52 be bd 2f b2 e6 3d 60 be 8d be
       -0.099517934 -0.09293114 0.112644546 -0.27684307
000080 d2 ce c3 bd 1d 48 3e 3e 5d 62 84 ba 3d 37 5b bd
       -0.09560932 0.18582197 -0.0010100115 -0.053519476
000090 2b 6a fa bd ce bd a1 3d 11 1e 2b be 17 55 7a bc
       -0.12227281 0.078975305 -0.16710688 -0.015279076
0000a0 fd 30 6a 3e 7f 3d 67 3d 9f 0c 8c 3d 82 1b 8d 39
       0.2287025 0.05645513 0.06838345 0.0002691411
0000b0 8a 6b 7d 3d 96 e0 b2 bc 27 99 12 3c 75 1f 1e 3e
       0.061870135 -0.021835607 0.008947647 0.15441687
0000c0 f3 65 76 be a2 6b 16 be c1 a2 18 3e e3 9d 1e 3e
       -0.24062328 -0.14689496 0.14905836 0.15489917
0000d0 84 a0 b9 3e 4f 27 8c be 1a 09 3b 3d e1 43 b4 bd
       0.36255276 -0.2737374 0.045662977 -0.088020094
0000e0 af fc 17 bd d6 50 c7 bc c4 5f 75 bd 0c e1 d2 3d
       -0.037106212 -0.024330538 -0.059905782 0.102968305
0000f0 6a d3 55 bd e2 68 48 3e 7b 53 85 3d 62 c8 9a bc
       -0.052203573 0.1957126 0.06510063 -0.018894378
000100 d6 b5 54 be c6 21 b7 3b 87 f9 56 3e ce 71 86 3e
       -0.2077249 0.005588743 0.20993625 0.262587
000110 a2 59 11 be 7b 2e ad 3c ec 30 ba bc 5e f4 71 bd
       -0.14194348 0.021140328 -0.022728406 -0.059070937
000120 ee 60 8e 3d c2 00 ba bc 18 3d a7 3e d3 0d e0 3d
       0.069520816 -0.02270544 0.32663798 0.10940137
000130 3d 73 16 be 2a 37 c9 bc 4f a5 01 3e 00 3d 3f 3c
       -0.14692397 -0.024562437 0.12660716 0.011672258
000140 4c 57 97 bd dc 79 cf 3c 3c fc 8e 3e 57 63 da bd
       -0.073896974 0.025326662 0.27926815 -0.10663479
000150 2f a2 45 3e 81 38 3e be bf 73 ea 3d 1e df c9 3d
       0.1930015 -0.18576242 0.11447858 0.09857009
000160 87 28 e2 3d 5e 65 0c be 67 fa 05 3b ba 21 03 3e
       0.11042886 -0.13710544 0.002044344 0.12805834
000170 bd 0b cf 3d 50 58 42 be b9 1b 57 3e 8a bc a1 bd
       0.10109661 -0.18979001 0.21006669 -0.07897289
000180 d2 41 08 3d 12 f9 86 3e f2 08 ae 3d e7 c8 02 be
       0.033265896 0.263619 0.084978 -0.1277195
000190 1b 8e f3 3c 29 5b 52 be 29 7b d0 bc 5c b2 79 3e
       0.029730847 -0.20542587 -0.025449352 0.24384445
0001a0 45 80 f3 bd 0f 5c cd bd 68 03 d3 bd 7e 4c 53 bd
       -0.118897 -0.100273244 -0.10303384 -0.05158662
0001b0 3e 0a 28 3c ac 30 22 be 1e b9 40 be 3a 57 23 be
       0.010256348 -0.1583888 -0.18820617 -0.15951243
0001c0 e2 89 18 be 73 e9 ee 3d ae a4 20 bd 55 76 cc 3b
       -0.14896348 0.11665621 -0.03921955 0.006239692
0001d0 e8 2f 84 3e a4 dd 72 bd c8 9e 42 be 9d 6f be bc
       0.258178 -0.059293404 -0.19005883 -0.02324658
0001e0 69 0f 17 be 79 17 89 3d e2 44 93 3d 0e 1e d8 bd
       -0.14751972 0.0669393 0.07190873 -0.105526075
0001f0 0c 68 9f bd d0 92 c7 3d 3c 13 8e 3d 1e f0 e3 3d
       -0.07783517 0.09744799 0.069372624 0.11129783
000200 bf ee dc be 7e 41 d0 3b c0 5f 61 be 46 65 10 3d
       -0.431509 0.0063554635 -0.22009182 0.035252832
000210 60 d8 f4 3d 77 90 26 be 92 09 86 be 96 13 88 3b
       0.11955333 -0.16266046 -0.26179177 0.0041527255
000220 13 7c 9b 3d 06 ef ff bc a8 54 10 3e 8d 4e c3 bd
       0.07592025 -0.031241905 0.14094794 -0.09536467
000230 37 10 c2 3b 9d 8d 2a bd 33 60 3a be 41 18 31 3e
       0.005922343 -0.04163896 -0.1820076 0.17294408
000240 e6 72 00 be ab a3 45 3d be 04 01 bd 22 34 99 bd
       -0.1254383 0.04825179 -0.031498663 -0.07480647
000250 57 be db bd 39 8a 11 3d ff e2 f3 3d 2f 9c 39 3e
       -0.10729664 0.03553221 0.119085304 0.18125986
000260 85 bb 91 be e4 5f 93 bd 65 45 b0 bc 06 04 42 be
       -0.2846338 -0.07196024 -0.021517465 -0.18946847
000270 5d ea 1f 3e eb 64 b4 3c 5b fd 48 bd 41 1a fe 3c
       0.15616746 0.022020778 -0.049069744 0.031018378
000280 26 f0 d2 bd 60 c8 38 bd f4 fc b5 bd 81 ec 2c 3e
       -0.10299711 -0.045112967 -0.088861376 0.16887094
000290 b1 26 96 bd 9f 34 0e be 8d b9 50 3e 81 c4 eb bb
       -0.073315986 -0.13887261 0.20383282 -0.007195056
0002a0 84 60 3a bc 7d 72 15 3d 35 4f 72 3d 12 5a df 3c
       -0.01137555 0.036486138 0.05915757 0.027264629
0002b0 0f 98 5a be 8b e2 61 3d c5 2d 49 bd af bb f3 3b
       -0.21347068 0.05514769 -0.049115915 0.007438145
0002c0 94 ff 8e be 08 e1 ca ba 1e a0 09 be 86 f2 f8 bd
       -0.27929366 -0.0015478441 -0.13439986 -0.12155633
0002d0 bc 11 24 be fd 33 a0 3d 7b 19 08 bd f2 5a d4 bc
       -0.1602239 0.07822416 -0.033227425 -0.025922272
0002e0 6a a1 e5 3d c8 10 8c bd 59 72 67 3d fb 6a b8 bd
       0.11212428 -0.06839138 0.056505535 -0.0900478
0002f0 6e fd ac 3c ed f2 b7 bd ae f2 99 3e c2 78 0b be
       0.021116938 -0.08981881 0.30067962 -0.13620284
000300 73 b8 b7 3d 1b b4 a9 be 8f f3 21 be 1b b3 09 3e
       0.08970728 -0.33145222 -0.15815566 0.1344723
000310 53 90 a6 bd 2f 47 7a bc 55 6a 4b be c2 0b 3e be
       -0.081329964 -0.015275761 -0.19864781 -0.18559173
000320 46 05 5e be 75 b1 c6 bd 2b 50 9a 3d 12 ad 4d be
       -0.21681699 -0.09701816 0.07534822 -0.20085552
000330 de 2b 81 be 1e 4c 3a be cf 14 58 3d 3a 54 49 3c
       -0.2522878 -0.18193099 0.05275422 0.012288148
000340 aa ac 1c 3e 3f 9e 17 be d3 0d 1a be b8 54 46 be
       0.15300241 -0.1480646 -0.15044336 -0.19368255
000350 ac c0 8c bd 35 7f 44 be fe 3a 7e bd 6d 5c 0d 3e
       -0.06872687 -0.1918915 -0.062067978 0.13804789
000360 2f 85 d5 3c f1 de 81 bc 35 1a 3d 3e 52 8f 2d bd
       0.026064483 -0.015853377 0.18467028 -0.04237301
000370 bd 8d a6 3e af 09 ba bd 35 91 ee bd f2 0e 70 3e
       0.32530013 -0.09083878 -0.1164879 0.23443201
000380 d4 cf f7 bd 02 df 28 3d ac d5 0d 3d 44 9e 0b be
       -0.12100187 0.0412283 0.0346276 -0.13634592
000390 da ea 38 bc 38 0c f3 bd af 90 b4 3b 5e 49 4c be
       -0.011286462 -0.11867565 0.0055104117 -0.19949862
0003a0 30 f1 f5 3c 6e eb 9a bd 95 db 52 bd 16 7a 44 be
       0.030022234 -0.07564436 -0.05147894 -0.19187197
0003b0 38 db b2 be ea 9d 4e be fd a0 30 3d 48 77 c5 3c
       -0.34932876 -0.20177427 0.04312228 0.02410473
0003c0 c2 88 9d 3e c9 3d ac be 6f 9e b2 bd 1d 81 b3 bd
       0.307684 -0.33640888 -0.08721625 -0.08764861
0003d0 06 39 f7 bb a4 21 4a be fe d4 13 3d 5d 1a 3f 3e
       -0.0075446395 -0.19739395 0.036091797 0.186624
0003e0 2e da ca 3d 16 cb 4f 3e 0c b3 90 bd 44 e9 bd bc
       0.09904896 0.20292315 -0.070654005 -0.023182519
0003f0 c7 c6 56 3d 07 31 22 3c d3 40 98 3d 6a 30 ab bd
       0.052435663 0.009899384 0.07434239 -0.083588436

network_body._body_endoder.seq_layers.0.bias f4 [64]
000000 10 39 eb bb ea e1 90 3c 11 a5 13 bc 14 2d 39 bc
       -0.0071784332 0.01768585 -0.009011523 -0.011302251
000010 8b 61 88 bc fb 69 f2 bb 4d 4c c5 3c 7e 59 07 3a
       -0.016648075 -0.0073978878 0.024084235 0.00051631767
000020 5c ea e2 ba e9 97 6e bc 13 b9 66 3c 63 c5 24 bc
       -0.0017312276 -0.014562585 0.014082211 -0.010056826
000030 df 19 96 3b 08 89 77 3c 0d 36 08 bc 8b f3 b6 bc
       0.004580721 0.015108354 -0.008313668 -0.022332927
000040 a3 e3 45 3c d2 7b 70 bc ec c4 00 3b 52 90 78 3c
       0.012078199 -0.014677959 0.0019648625 0.015171127
000050 d7 ab fa bb 23 5e 8b bc c4 81 f1 bb db ea 8c bc
       -0.0076498794 -0.017012661 -0.0073702056 -0.017201832
000060 b0 8b 3d 3c e8 b0 8e 3b 94 95 cd 3c 36 ab 84 bc
       0.011568949 0.004354585 0.025095738 -0.016194921
000070 e8 6d cf 3c 86 28 01 b8 56 af 99 3c 82 8b fb ba
       0.025320962 -3.0793737e-05 0.018760365 -0.0019191357
000080 ed 15 af 3c 77 33 77 3b 9d 0a b1 3c 8c 09 6b 3c
       0.02137276 0.0037719884 0.021611506 0.014345538
000090 b9 16 7d bc 61 de 1c 3b 04 9e 6a 3c 1b 53 0b 3c
       -0.015447312 0.002393626 0.0143199 0.008503701
0000a0 26 15 a6 bc 77 95 a1 3c e8 db 30 3c 80 4d 01 3c
       -0.020273756 0.01972459 0.010794617 0.007892013
0000b0 39 0a 8e 3c d6 9d cd 3c 4c c4 89 bb 46 50 7b 39
       0.017338859 0.025099676 -0.0042043086 0.0002396713
0000c0 36 e9 3a 3c af 7c 9f 3c 72 b2 b8 bb fd c9 af 3c
       0.011408141 0.019468633 -0.0056365067 0.02145862
0000d0 ef 0a 4a 3c ed 03 98 3b cc c1 e6 3b 44 d2 5b 3c
       0.012331708 0.00463914 0.0070421454 0.01341683
0000e0 9c c4 8a 3c b3 bd e6 3b 61 bd 41 3a f3 51 19 3b
       0.016939454 0.007041657 0.00073905854 0.0023394793
0000f0 90 b4 5c 3b 26 4e 32 3c d7 fe 0f 3a 7d be 93 bc
       0.003367696 0.01088289 0.0005492991 -0.018035168

action_model._discrete_distribution.branches.0.weight f4 [5, 64]
000000 56 53 cd bc c8 77 f1 3c 35 cf 1e bc d3 14 04 3c
       -0.025064152 0.029476061 -0.009692957 0.0080616055
000010 b7 8f d2 bc 38 be 39 bb 40 8a 5c 3c 35 c5 31 bb
       -0.025703294 -0.002834214 0.013460696 -0.0027125601
000020 ce 50 61 3c 28 66 e7 bc 44 05 c3 bc 71 61 a0 bc
       0.0137521755 -0.028246954 -0.023806222 -0.019577714
000030 24 02 42 bc f8 a1 8b 3b 5a 9c 1b bc 57 80 9d bc
       -0.011841331 0.0042612515 -0.009497726 -0.019226236
000040 1d 08 d0 3c fd 45 80 bb 55 33 7a 3a 21 68 bd 3c
       0.025394494 -0.0039145933 0.0009544392 0.023120942
000050 6d 7a 54 bc bb 40 7a bc 91 a7 e9 bc 54 e5 04 bd
       -0.012968642 -0.015274222 -0.028522285 -0.032445267
000060 7a 1f ee bc 67 75 bd bc be 58 c9 3c dd db 3c bc
       -0.029067744 -0.02312727 0.024578448 -0.011527029
000070 87 56 a4 3c 59 62 1a bd 7d 92 c5 bb c6 e6 36 3a
       0.02006079 -0.037691448 -0.0060294257 0.0006977137
000080 9a eb 42 3b ee b5 07 bd 01 4e 11 3c e2 4e 70 3d
       0.002974248 -0.033132486 0.008868695 0.05866898
000090 51 52 93 bc 3f d2 a0 3a 85 bb 5e 3c 34 b7 2d bc
       -0.017983587 0.001226969 0.013594513 -0.010602761
0000a0 0f b7 0d bd 35 78 63 bc c0 9a 46 3b 78 d7 a7 bb
       -0.034598406 -0.01388364 0.003030464 -0.0051221214
0000b0 05 8c 43 3c b9 3b 36 3d 59 b8 71 bc 8c 73 9f bc
       0.011935239 0.04449055 -0.014753425 -0.019464277
0000c0 c6 86 2f 3c 0e 90 09 3d bc c0 73 3c 29 e2 a0 3c
       0.010713285 0.033584647 0.014877494 0.019639092
0000d0 23 98 67 3c a2 c9 1b bd ef c0 0f 3d 8e 32 00 3d
       0.014135393 -0.03803409 0.035096105 0.031298213
0000e0 d9 f1 fd 3b 3d 1e 39 bc d0 91 b1 bc 3d 87 05 3b
       0.0077497778 -0.011298713 -0.021675974 0.0020374798
0000f0 ef fb fc 37 8b 18 80 3c 52 aa 4e 3c 83 0b 09 bb
       3.0158057e-05 0.015636703 0.01261385 -0.0020911403
000100 f4 37 f1 3b 9f c5 05 3a 37 42 0e 3b e0 0c 2d 3c
       0.0073614065 0.0005102995 0.0021706948 0.010562152
000110 d1 94 8f 3c e0 58 98 bc f9 54 cd bc 27 88 6d bc
       0.017527016 -0.018597066 -0.025064932 -0.014497793
000120 b2 bc 98 3c 42 41 00 bc 16 c3 71 bc 2e 7f 69 bc
       0.018644664 -0.007828059 -0.014755985 -0.014251513
000130 cb 40 75 3b b8 ee 0e bb 24 39 bb bc 74 b8 75 3c
       0.0037422653 -0.0021809768 -0.022854395 0.01499759
000140 24 91 43 bc de 32 c2 3c da 6f 9d 3c 3b a9 04 3d
       -0.01193646 0.023705896 0.019218374 0.032387953
000150 0a 8d b6 ba 57 a0 7f 3c 9b dc 37 3c 33 87 24 bc
       -0.0013927531 0.015602193 0.01122203 -0.010042
000160 2c 5b 88 bb 07 9a b7 bc 36 9d 36 3c 53 34 90 3c
       -0.004161259 -0.022412313 0.01114588 0.017603075
000170 87 a4 7a bc 27 9a 86 3c e3 b1 0b 3c 8d e1 23 3d
       -0.015298015 0.016430927 0.008526298 0.040010024
000180 37 7c 0c bc c0 b4 e6 bc 34 40 a4 bc cb c9 40 3c
       -0.008574537 -0.02816236 -0.020050146 0.011766861
000190 b5 af a4 bc 21 6b 54 3c b2 62 9d 3c d0 e8 dc bb
       -0.020103315 0.012964995 0.0192121 -0.0067416206
0001a0 c1 8e 6d 3c b2 86 33 bb 83 e7 5b bc af cf a9 bc
       0.014499367 -0.0027393517 -0.013421896 -0.020728914
0001b0 81 81 5a 3c 19 d4 42 3b 79 2d dd bb fd 21 f5 bc
       0.01333654 0.002972847 -0.0067498055 -0.029923433
0001c0 ed c9 60 3c 9a ec f9 3c 10 c8 1f 3c 9d 0f c5 bc
       0.013720018 0.030508328 0.009752288 -0.024055297
0001d0 5f a2 5b 3b 2a 58 90 bc 70 88 38 3b d1 e8 a7 3a
       0.0033513529 -0.017620165 0.0028157495 0.0012810474
0001e0 d8 49 ab 3c 8d a6 e8 bc 45 82 33 bc 97 bc c3 3c
       0.020909235 -0.02839973 -0.010956352 0.023893638
0001f0 4d eb c8 3b d0 06 36 bd 53 87 7c 3a 60 29 13 3d
       0.0061315657 -0.04444009 0.0009633202 0.03592813
000200 83 06 c0 3c da ca 65 bc 50 4b 48 bc 75 8f 5a bb
       0.023440605 -0.014025414 -0.012224987 -0.0033349667
000210 0c 01 3b 3c d7 db aa 3a ed cb 23 3c 62 32 a3 3c
       0.011413824 0.0013035488 0.00999735 0.019921485
000220 0b 10 a9 bc 3e 8f 97 bc 75 30 fa 3c 43 44 bf 3c
       -0.020637533 -0.01850092 0.030540684 0.02334798
000230 61 e6 2d bc fe 82 09 3a 37 92 ab 3c e1 b2 47 bc
       -0.010614009 0.00052456546 0.020943744 -0.012188644
000240 bc 2b 01 3c ac e7 4b 3c 85 75 71 bb e1 b5 84 bb
       0.007883962 0.012445372 -0.0036843729 -0.004050002
000250 32 ce 13 3c c6 93 71 3b 98 bd 62 bc c3 a2 12 bc
       0.009021329 0.0036861761 -0.013839148 -0.008949938
000260 d6 62 fb bb f5 8c be 3b 3e 07 93 bc 92 08 24 3c
       -0.0076716943 0.005815143 -0.01794779 0.010011809
000270 1d a3 3f 3a ce 86 82 3b 70 16 63 3c fc ef 9c bc
       0.00073103776 0.003983355 0.01386033 -0.019157402
000280 53 88 45 b9 12 11 f6 3c eb 37 bc bb e5 78 27 bc
       -0.00018838169 0.030037437 -0.0057439706 -0.010221695
000290 a1 ae 1d bc 6b ea 74 bc 0c a4 24 bc 6d 9e ce 3c
       -0.009624154 -0.014948468 -0.010048877 0.025222028
0002a0 b0 2e 32 bc 3d ec 0a 3d 8a c1 cf 3b 79 a2 68 3b
       -0.010875389 0.0339167 0.0063402103 0.0035497232
0002b0 cd 3f a7 3c 94 6e 93 3b d4 a4 fb bc a4 6b 0d bc
       0.020416165 0.004499266 -0.030718245 -0.008631621
0002c0 d7 c1 93 3c 10 f8 6c bc e7 9d 00 bd 34 73 81 3b
       0.018036766 -0.01446344 -0.031400587 0.003950501
0002d0 38 34 f3 3a f4 4f c5 bc 16 79 7e bb 25 05 cf bc
       0.0018554991 -0.024085976 -0.0038829497 -0.025271008
0002e0 59 7b 30 3c e1 96 91 3c 26 2e 84 3c ec a9 e4 bb
       0.010771596 0.01777214 0.016135287 -0.006978264
0002f0 fb 85 de 3c 7c 4f 04 3d 09 31 a8 bc fa 22 78 bc
       0.027163496 0.032302365 -0.020531194 -0.015145058
000300 93 3b 73 bc d6 ce a5 bc 7b 24 a8 3b 2a c2 f0 bc
       -0.014845747 -0.020240229 0.005131302 -0.02938946
000310 83 f2 38 bc 0f 9c a1 b9 1d c0 7d 3b c1 e4 58 bc
       -0.011288288 -0.00030824586 0.0038719245 -0.013238133
000320 c3 b0 2b 3c 90 8e 8b 39 2c ed 12 3c 47 cb 94 3b
       0.010479155 0.00026618363 0.008967679 0.004540834
000330 b8 1d 43 3c 8b c1 b6 3c 10 69 5a 3c 5a bd 23 bc
       0.011908941 0.022309085 0.013330713 -0.009993875
000340 5e 8f 93 bb 63 8c 2c 3b 27 9d 27 bc 77 d6 8a bb
       -0.0045031747 0.0026328794 -0.010230339 -0.004236992
000350 8f cb 73 bb 3e f5 15 bc 54 08 68 bc 8b 20 df bc
       -0.0037200188 -0.009152709 -0.014162142 -0.027237197
000360 83 c0 2d 3d cb 81 04 3d 24 99 27 3a 0b 90 92 bc
       0.04241992 0.032350343 0.0006393364 -0.01789095
000370 fd 73 0a 3c 63 7c 94 3c 26 7d c5 3b 53 1b 8b 3c
       0.008450505 0.018125718 0.0060268817 0.016980803
000380 b9 85 7c bc 70 13 9d 3c 71 93 b2 bb 26 82 b4 bc
       -0.015412741 0.019174308 -0.0054497053 -0.022034716
000390 5d ec 2b 3b 3a 52 b2 bc 9e ff 52 3c 40 11 94 bb
       0.0026233413 -0.021767724 0.012878327 -0.004518658
0003a0 1c b3 61 bc 08 b7 e6 3c 24 cc 8e 3c c4 f7 83 b8
       -0.013775613 0.028163448 0.017431326 -6.292717e-05
0003b0 9f b6 12 3c 51 4f 59 3b a3 f2 a9 3c 15 3c 8d 3c
       0.008954673 0.0033158849 0.020745581 0.017240563
0003c0 cc 84 2d bc 62 85 82 3c 5f 74 2f bc 72 65 99 bb
       -0.010590743 0.015932743 -0.010708897 -0.0046812827
0003d0 96 ae bd 3c 9d 84 3c 3c 4b ca d3 bc 28 42 9e 3c
       0.023154538 0.011506227 -0.025853297 0.019318655
0003e0 f7 e2 c3 3c 9a 50 fd 3c 7e 90 dc 3a 7f 0e 01 3c
       0.023911936 0.030922223 0.001682773 0.007876991
0003f0 68 d0 a5 bb 30 ed d3 3c 5d 9a 76 bb 16 84 45 3a
       -0.0050602444 0.025869936 -0.0037628629 0.0007534636

action_model._discrete_distribution.branches.0.bias f4 [5]
000000 54 75 5a 3c e6 92 d2 ba 03 0e 85 3b a2 c2 d0 3b
       0.013333637 -0.0016065508 0.004060508 0.0063708583
000010 b3 3b cc bc
       -0.02493081
