Assets/results/Maze12/Mouse/Mouse-250014.pt (torch, 721424 bytes, 33 tensors)

network_body._body_endoder.seq_layers.0.weight f4 [64, 45]
-0.07341014 0.041026406 0.1568139 -0.33460277 -0.071270816 -0.053584907 -0.25597838 -0.11476964
-0.055526055 -0.018438771 0.10001886 0.13688911 0.20990641 0.080212824 0.11241619 -0.20301035
0.13728777 -0.13203925 -0.2309747 0.037486125 0.14266968 0.2299986 -0.09848782 -0.0134191625
-0.0015888767 -0.16973993 -0.030396584 -0.062177576 -0.10136722 -0.094727956 0.110792644 -0.27876884
-0.09739234 0.18547307 -0.0012630619 -0.055112135 -0.1227779 0.077131696 -0.16888843 -0.017128777
0.22687954 0.054660164 0.068035714 -4.9672806e-05 0.060292963 -0.021873733 0.008691794 0.15431109
-0.24086867 -0.14730223 0.14860184 0.15499885 0.36268532 -0.27381903 0.045625303 -0.088270575
-0.037209127 -0.024576237 -0.060283475 0.10249699 -0.052111506 0.19586423 0.06502046 -0.018932069
-0.20796916 0.005493128 0.20968805 0.26216468 -0.1424605 0.021271735 -0.022532318 -0.05914357
0.06948338 -0.022947926 0.3265416 0.10915349 -0.14736353 -0.025112199 0.12676018 0.011913897
-0.07397032 0.025290687 0.2790353 -0.10671864 0.19275421 -0.18623477 0.11381848 0.09880329
0.11078403 -0.13716632 0.0021459465 0.12883888 0.10200136 -0.18892439 0.21087322 -0.078225486
0.03339289 0.26365507 0.08548146 -0.12761855 0.030511038 -0.20450659 -0.024585886 0.24465618
-0.11817515 -0.10014027 -0.10302267 -0.051079277 0.010357929 -0.15760869 -0.18728021 -0.1586522
-0.14809082 0.11738745 -0.039193783 0.00625876 0.25868484 -0.05919176 -0.18927835 -0.022320885
-0.1466595 0.067773044 0.07266086 -0.105477914 -0.077863745 0.09795596 0.06947328 0.112073876
-0.4305865 0.0072118463 -0.2192376 0.036011167 0.119611375 -0.1626706 -0.26128864 0.0038412726
0.074515134 -0.0325672 0.13948978 -0.09682093 0.004422265 -0.041904457 -0.18217637 0.17188649
-0.1257491 0.046847425 -0.03281785 -0.07626899 -0.108788826 0.034003723 0.118818045 0.18109137
-0.28568426 -0.07227094 -0.022919292 -0.19078562 0.1547032 0.020538734 -0.050656684 0.030787373
-0.103100024 -0.046160713 -0.089171454 0.1674723 -0.07462721 -0.14033729 0.20235874 -0.008839031
-0.011481658 0.03645127 0.058116496 0.026956651 -0.21485937 0.053863868 -0.050584663 0.0059868945
-0.28103143 -0.001630109 -0.13429081 -0.12257324 -0.16048293 0.07718532 -0.03439871 -0.027193008
0.11094066 -0.06961304 0.05628684 -0.09019101 0.020249229 -0.090077616 0.29963893 -0.13738039
0.08842808 -0.3327763 -0.15940106 0.13422467 -0.08149075 -0.016138125 -0.19890818 -0.18664655
-0.21802266 -0.09830712 0.07413737 -0.20202796 -0.25247553 -0.18217584 0.051879205 0.012030469
0.15197884 -0.14918816 -0.15173167 -0.19491008 -0.06988732 -0.19204424 -0.062249824 0.1372292
0.02580636 -0.016837317 0.18366948 -0.043659896 0.3241975 -0.09206137 -0.11667238 0.2342189
-0.12173096 0.041197933 0.034541115 -0.13647565 -0.011378253 -0.118739255 0.005484756 -0.19963075
0.029965732 -0.075752296 -0.051508956 -0.19195752 -0.34945014 -0.20186763 0.043022934 0.024041481
0.30765367 -0.33645037 -0.087317675 -0.08767899 -0.0076321834 -0.19752921 0.03599653 0.18655336
0.09895642 0.20287818 -0.07066236 -0.023292754 0.052402634 0.009784153 0.07415918 -0.08368741
00000000: 0e58 96bd 4e0b 283d d393 203e 0e51 abbe
00000010: 6ff6 91bd d97b 5bbd 990f 83be 580c ebbd
00000020: 4a6f 63bd e80c 97bc b0d6 cc3d a92c 0c3e
00000030: b5f1 563e 9f46 a43d 763a e63d f2e1 4fbe
00000040: 2a95 0c3e 4c35 07be a284 6cbe 0d8b 193d
00000050: 0018 123e c184 6b3e fbb3 c9bd 0cdc 5bbc
00000060: db41 d0ba 4ed0 2dbe 4202 f9bc eaad 7ebd
00000070: 9e99 cfbd bb00 c2bd 41e7 e23d caba 8ebe
00000080: a375 c7bd a7ec 3d3e 538d a5ba 43bd 61bd
00000090: fb72 fbbd 39f7 9d3d 17f1 2cbe a651 8cbc
000000a0: 1c53 683e 56e3 5f3d 4f56 8b3d c557 50b8
000000b0: c1f5 763d 8b30 b3bc 0768 0e3c ba03 1e3e
000000c0: 47a6 76be 65d6 16be 152b 183e 05b8 1e3e
000000d0: e4b1 b93e 0232 8cbe 99e1 3a3d 34c7 b4bd
000000e0: 9968 18bd 1b54 c9bc ceeb 76bd f1e9 d13d
000000f0: e072 55bd a290 483e 7229 853d 6d17 9bbc
00000100: def5 54be b3ff b33b 77b8 563e 733a 863e
00000110: 2ae1 11be 1042 ae3c b295 b8bc 8740 72bd
00000120: 4d4d 8e3d 4afd bbbc 7630 a73e dd8b df3d
00000130: 77e6 16be 19b8 cdbc 6ccd 013e 8132 433c
00000140: c07d 97bd 6a2e cf3c b7dd 8e3e 4d8f dabd
00000150: 5c61 453e 54b4 3ebe aa19 e93d 6159 ca3d
00000160: bde2 e23d 5475 0cbe 02a3 0c3b 57ee 033e
00000170: 17e6 d03d 6575 41be 26ef 573e af34 a0bd
00000180: fcc6 083d ccfd 863e e710 af3d 70ae 02be
00000190: 49f2 f93c 2d6a 51be 5768 c9bc 2687 7a3e
000001a0: d005 f2bd 5816 cdbd 8dfd d2bd 8138 51bd
000001b0: 4eb4 293c 2c64 21be 62c6 3fbe b975 22be
000001c0: 1fa5 17be d568 f03d a989 20bd 4916 cd3b
000001d0: 5772 843e 0f73 72bd 2fd2 41be 4ada b6bc
000001e0: e82d 16be 98cc 8a3d 38cf 943d ce04 d8bd
000001f0: 0777 9fbd 229d c83d 0248 8e3d fd86 e53d
00000200: d575 dcbe 5a51 ec3b d27f 60be 7280 133d
00000210: cff6 f43d 1f93 26be a0c7 85be dcbd 7b3b
00000220: 649b 983d 2f65 05bd 69d6 0e3e 0d4a c6bd
00000230: a6e8 903b 02a4 2bbd 718c 3abe 0303 303e
00000240: 5fc4 00be 16e3 3f3d 036c 06bd eb32 9cbd
00000250: adcc debd 7d47 0b3d e056 f33d 0470 393e
00000260: 3545 92be c902 94bd 3dc1 bbbc 4e5d 43be
00000270: 846a 1e3e d940 a83c 627d 4fbd cd35 fc3c
00000280: 1b26 d3bd 0413 3dbd 869f b6bd dc7d 2b3e
00000290: 27d6 98bd 94b4 0fbe 2137 4f3e 95d1 10bc
000002a0: 901d 3cbc ed4d 153d 900b 6e3d 32d4 dc3c
000002b0: 1804 5cbe 5ca0 5c3d dd31 4fbd b62d c43b
000002c0: 5ae3 8fbe 62a9 d5ba 8883 09be ae07 fbbd
000002d0: a355 24be 5613 9e3d a9e5 0cbd dfc3 debc
000002e0: db34 e33d 4891 8ebd 088d 663d 10b6 b8bd
000002f0: b6e1 a53c 9d7a b8bd 466a 993e 72ad 0cbe
00000300: c819 b53d a861 aabe 083a 23be 3172 093e
00000310: 9fe4 a6bd 1a34 84bc 96ae 4bbe 4620 3fbe
00000320: 5541 5fbe 3e55 c9bd 55d5 973d 6be0 4ebe
00000330: 7944 81be 4e8c 3abe 4a7f 543d 721b 453c
00000340: 57a0 1b3e c8c4 18be 8c5f 1bbe 8296 47be
00000350: 1521 8fbd 3fa7 44be acf9 7ebd d085 0c3e
00000360: dc67 d33c 6aee 89bc da13 3c3e b8d4 32bd
00000370: 37fd a53e ac8a bcbd eef1 eebd 14d7 6f3e
00000380: 154e f9bd 2abf 283d fc7a 0d3d 46c0 0bbe
00000390: da6b 3abc 912d f3bd 78b9 b33b 016c 4cbe
000003a0: b27a f53c 0524 9bbd 0efb 52bd 8390 44be
000003b0: 21eb b2be 63b6 4ebe d138 303d a4f2 c43c
000003c0: c884 9d3e 3943 acbe 9cd3 b2bd 0b91 b3bd
000003d0: 6517 fabb 1945 4abe 1971 133d d807 3f3e
000003e0: aaa9 ca3d 4cbf 4f3e 6db7 90bd 72d0 bebc
000003f0: 25a4 563d b64d 203c c5e0 973d 4e64 abbd

network_body._body_endoder.seq_layers.0.bias f4 [64]
-0.008900018 0.017495312 -0.008334839 -0.0126009695 -0.017622866 -0.007554101 0.024209281 -0.0009809522
-0.0013848465 -0.013933922 0.013589571 -0.010642559 0.0058418545 0.016558085 -0.008322428 -0.022676144
0.011437131 -0.015424128 0.0016379649 0.0151813 -0.008270509 -0.017924154 -0.0076863384 -0.01666997
0.013187424 0.0058211014 0.025681466 -0.017402284 0.025893204 0.00051343854 0.01865406 -0.0016855954
0.020560684 0.0038235344 0.021962201 0.014100755 -0.013918261 0.0017748106 0.015526729 0.0072067115
-0.020413613 0.019969545 0.012022799 0.007876831 0.016983716 0.02517757 -0.0028855968 0.0015014933
0.010276566 0.020251952 -0.0049748113 0.021387115 0.013925853 0.00645392 0.0063752895 0.014406931
0.018113526 0.00795149 0.00033887825 0.002659853 0.002182498 0.011106794 0.0014093546 -0.018213648
00000000: 62d1 11bc 5452 8f3c d98e 08bc 4c74 4ebc
00000010: d45d 90bc 6488 f7bb 8b52 c63c 4b93 80ba
00000020: bd83 b5ba 1b4b 64bc cba6 5e3c 215e 2ebc
00000030: 076d bf3b d2a4 873c cb5a 08bc 52c3 b9bc
00000040: ce62 3b3c 7bb5 7cbc fbb0 d63a fdba 783c
00000050: 0781 07bc add5 92bc aedd fbbb 768f 88bc
00000060: 1110 583c f0be be3b f061 d23c 3c8f 8ebc
00000070: fc1d d43c 4798 063a 66d0 983c 32ef dcba
00000080: e16e a83c 4394 7a3b 13ea b33c da06 673c
00000090: 6b09 64bc c3a0 e83a d263 7e3c 4726 ec3b
000000a0: 733a a7bc 2c97 a33c 46fb 443c d30d 013c
000000b0: 6f21 8b3c 3141 ce3c 481c 3dbb c1cd c43a
000000c0: 0b5f 283c 6ce7 a53c be03 a3bb 0834 af3c
000000d0: 4329 643c 687b d33b cee7 d03b 0c0b 6c3c
000000e0: d162 943c f746 023c 78ab b139 ee50 2e3b
000000f0: 3e08 0f3b 45f9 353c 18ba b83a ca34 95bc

action_model._discrete_distribution.branches.0.weight f4 [5, 64]
-0.025148245 0.029618206 -0.009696254 0.008118527 -0.025646891 -0.00282231 0.013429607 -0.0028562385
0.013915123 -0.028246565 -0.024098476 -0.01984617 -0.011840556 0.0041763037 -0.009727261 -0.019270297
0.025549104 -0.0039762734 0.0011207873 0.023233635 -0.012926812 -0.015240413 -0.028520105 -0.032397687
-0.029219646 -0.023346284 0.024725378 -0.0115102725 0.020086767 -0.037742034 -0.0061269924 0.0008289918
0.0029680722 -0.03338276 0.00892159 0.058834035 -0.018178621 0.0013956752 0.013566482 -0.010651268
-0.03451219 -0.0141182495 0.0028948248 -0.005088095 0.011920036 0.044656668 -0.014727608 -0.019629026
0.010680563 0.03370676 0.015171189 0.019621504 0.014135754 -0.038217984 0.03547302 0.03141667
0.007650481 -0.011541801 -0.021924907 0.0020874909 1.567417e-05 0.015460734 0.012790746 -0.0020014646
0.0071748113 0.0004875166 0.0023463862 0.010749828 0.01773852 -0.018453524 -0.025174625 -0.01474843
0.018851317 -0.007652439 -0.015147406 -0.014661876 0.0039209896 -0.0022396834 -0.023148732 0.015119228
-0.011574791 0.02360272 0.019227814 0.032528933 -0.0011797394 0.015802834 0.011378189 -0.009837867
-0.0043596625 -0.022873677 0.011179705 0.017879529 -0.0153225735 0.016540749 0.0084229 0.040220283
-0.008614839 -0.02847246 -0.020169536 0.011711603 -0.02054929 0.01309282 0.018991 -0.006567689
0.01469349 -0.003038374 -0.013595666 -0.020557672 0.013174336 0.0031250685 -0.0065965476 -0.030045884
0.013484865 0.03057495 0.009612868 -0.024142934 0.0032241393 -0.017707191 0.0028195942 0.0013610321
0.020713696 -0.028713312 -0.011323498 0.024128178 0.0061511653 -0.044763543 0.0010390657 0.03612247
0.022802906 -0.014419438 -0.010752188 -0.0019670231 0.012800221 0.002663267 0.008602077 0.019126054
-0.01910254 -0.017076394 0.02885367 0.02149921 -0.009246179 -0.00030530224 0.020321079 -0.010918917
0.009251444 0.011200178 -0.0047166925 -0.0038258343 0.0105709275 0.0050804624 -0.012661515 -0.007521614
-0.0092444895 0.0040030126 -0.017754447 0.011407976 -0.000350147 0.005068279 0.013206921 -0.017511437
-0.00063529005 0.028407112 -0.007138892 -0.010735035 -0.011440222 -0.013569288 -0.011464981 0.026627922
-0.009376216 0.032075245 0.0046760472 0.0028052786 0.019019684 0.004121984 -0.029293247 -0.008794347
0.01672744 -0.01478744 -0.031918127 0.002663451 0.00056869356 -0.024685174 -0.0042925123 -0.024383005
0.009484501 0.016844409 0.015345271 -0.0053389603 0.026363129 0.030491011 -0.02089834 -0.013624216
-0.013959291 -0.019847305 0.0034178079 -0.031016162 -0.012953925 -0.0018991112 0.0055074715 -0.012041881
0.008610353 -0.0014307069 0.011115856 0.006848244 0.010293477 0.02332334 0.014381682 -0.011419573
-0.0063213482 0.0041122157 -0.009217412 -0.004650835 -0.0055746804 -0.01082537 -0.015558986 -0.028949192
0.044265755 0.034624588 0.0004147172 -0.01960467 0.009661135 0.016878486 0.006949795 0.015006827
-0.014837717 0.021206 -0.0038820042 -0.02156349 0.004833463 -0.023464777 0.014579366 -0.00609735
-0.015562251 0.030449374 0.019490324 0.0005986251 0.010582867 0.0034957957 0.019079925 0.01763975
-0.009016051 0.016141819 -0.010258933 -0.0031738656 0.024653377 0.012334442 -0.02578354 0.018211313
0.025533926 0.032193292 0.0029426545 0.0059144325 -0.004163079 0.028072855 -0.0035841586 -0.0010582983
00000000: b103 cebc e1a1 f23c 09dd 1ebc 9203 053c
00000010: 6e19 d2bc 81f6 38bb db07 5c3c bb2f 3bbb
00000020: 42fc 633c 5765 e7bc 2b6a c5bc 6f94 a2bc
00000030: e4fe 41bc 60d9 883b 175f 1fbc bedc 9dbc
00000040: 5b4c d13c 664b 82bb 62e7 923a 7754 be3c
00000050: fbca 53bc edb2 79bc ffa2 e9bc 70b3 04bd
00000060: 0a5e efbc b540 bfbc e08c ca3c 9595 3cbc
00000070: 018d a43c 6497 1abd f0c4 c8bb b350 593a
00000080: fd83 423b 5cbc 08bd dc2b 123c f5fb 703d
00000090: 55eb 94bc 17ef b63a f345 5e3c a882 2ebc
000000a0: a75c 0dbd 3b50 67bc 1ab7 3d3b 09ba a6bb
000000b0: 414c 433c e9e9 363d 114c 71bc 0dcd a0bc
000000c0: 87fd 2e3c 1910 0a3d 9490 783c 47bd a03c
000000d0: a699 673c 768a 1cbd 284c 113d c4ae 003d
000000e0: e3b0 fa3b d219 3dbc dd9b b3bc 49ce 083b
000000f0: 067c 8337 054f 7d3c 4790 513c 012b 03bb
00000100: ae1a eb3b 5f99 ff39 d4c5 193b 0c20 303c
00000110: 5f50 913c d82b 97bc 043b cebc 66a3 71bc
00000120: 146e 9a3c 50c1 fabb d32c 78bc 5d38 70bc
00000130: a57b 803b a7c7 12bb 69a2 bdbc a3b6 773c
00000140: 31a4 3dbc 7e5a c13c a683 9d3c 0f3d 053d
00000150: 7ca1 9aba f274 813c 956b 3a3c 012f 21bc
00000160: 80db 8ebb 9461 bbbc 152b 373c 1778 923c
00000170: 880b 7bbc 7780 873c 3400 0a3c 06be 243d
00000180: 4125 0dbc 143f e9bc 953a a5bc 06e2 3f3c
00000190: fc56 a8bc 4483 563c 0393 9b3c c535 d7bb
000001a0: f7bc 703c 751f 47bb 5bc0 5ebc 9068 a8bc
000001b0: 2cd9 573c f3cd 4c3b da27 d8bb c922 f6bc
000001c0: a0ef 5c3c 5178 fa3c 4a7f 1d3c 67c7 c5bc
000001d0: 154c 533b ac0e 91bc f1c8 383b a964 b23a
000001e0: c5af a93c 2e38 ebbc 3186 39bc 75a8 c53c
000001f0: b78f c93b fa59 37bd 4231 883a 28f5 133d
00000200: 29cd ba3c 823f 6cbc f229 30bc 2ce9 00bb
00000210: 05b8 513c 358a 2e3b baef 0c3c 3eae 9c3c
00000220: ee7c 9cbc cbe3 8bbc 885e ec3c 1c1f b03c
00000230: 497d 17bc f910 a0b9 6478 a63c 42e5 32bc
00000240: 5e93 173c f480 373c 7c8e 9abb d9ba 7abb
00000250: af31 2d3c 027a a63b 3e72 4fbc df77 f6bb
00000260: 3376 17bc b42b 833b c671 91bc 85e8 3a3c
00000270: ef93 b7b9 ce13 a63b d761 583c 2574 8fbc
00000280: 9889 26ba 08b6 e83c 5eed e9bb 00e2 2fbc
00000290: c56f 3bbc b851 5ebc 9ed7 3bbc cd22 da3c
000002a0: b39e 19bc 5561 033d 8739 993b c4d8 373b
000002b0: 2bcf 9b3c b511 873b 64f8 efbc 2a16 10bc
000002c0: fc07 893c 0547 72bc 95bc 02bd 4b8d 2e3b
000002d0: 6114 153a 9038 cabc 34a8 8cbb debe c7bc
000002e0: e164 1b3c 49fd 893c bb6a 7b3c 72f2 aebb
000002f0: 7df7 d73c 49c8 f93c ff32 abbc 1b38 5fbc
00000300: 83b5 64bc d196 a2bc 4dfd 5f3b 9b15 febc
00000310: b33c 54bc 99eb f8ba 0578 b43b 4f4b 45bc
00000320: 7012 0d3c 8f86 bbba 471f 363c 3c67 e03b
00000330: f9a5 283c 9710 bf3c 25a1 6b3c 2919 3bbc
00000340: 5023 cfbb c4bf 863b a104 17bc 0866 98bb
00000350: cfab b6bb e55c 31bc 1eeb 7ebc db26 edbc
00000360: 0250 353d 83d2 0d3d 666e d939 f999 a0bc
00000370: bd49 1e3c c044 8a3c 1bbb e33b 32df 753c
00000380: e519 73bc 35b8 ad3c 3969 7ebb eba5 b0bc
00000390: 0762 9e3b 3439 c0bc 4bde 6e3c 47cc c7bb
000003a0: d0f8 7ebc f770 f93c 2caa 9f3c 0ded 1c3a
000003b0: c363 2d3c b819 653b 814d 9c3c 3d81 903c
000003c0: 0fb8 13bc d93b 843c 1515 28bc a100 50bb
000003d0: e1f5 c93c 6616 4a3c 0138 d3bc e42f 953c
000003e0: 862c d13c 1ddd 033d 8dd9 403b dbcd c13b
000003f0: 706a 88bb 0bf9 e53c 34e4 6abb 99b6 8aba

action_model._discrete_distribution.branches.0.bias f4 [5]
0.013294687 -0.0017810904 0.0026361868 0.00805579 -0.025188303
00000000: f5d1 593c 7a73 e9ba e0c3 2c3b 6ffc 033c
00000010: b357 cebc

exp_avg f4 [64, 45]
8.467272e-05 0.001185418 0.00080726325 0.0011903319 0.0011156114 0.0009197134 0.00039471625 0.000110140405
0.00072117377 8.467272e-05 0.001185418 0.0007869025 0.0011852607 0.0010938323 0.0010137358 0.00026038184
0.00017223156 0.00070543593 8.467272e-05 0.001185418 0.000768325 0.0011923359 0.0010065454 0.0009484545
0.0004517773 0.0001334043 0.0006831994 8.467272e-05 0.001185418 0.000767421 0.0012052001 0.0009593347
0.00095586426 0.00037583956 0.00024914287 0.00067958777 8.467272e-05 0.001185418 0.0007674189 0.0011775538
0.0010517318 0.0009879305 0.00018181055 0.00031870857 0.000687053 -5.065213e-05 -0.0007091296 -0.0005009573
-0.00074405427 -0.00026011973 -5.385816e-05 -0.0006646418 -0.0005409439 -0.00042996043 -5.065213e-05 -0.0007091296
-0.00047026796 -0.00074675307 -9.560695e-05 6.059704e-05 -0.0007451612 -0.0007393924 -0.00039751164 -5.065213e-05
-0.0007091296 -0.0004412881 -0.0007501774 -3.4370005e-05 0.00024747723 -0.0010635398 -0.00066913094 -0.00036724334
-5.065213e-05 -0.0007091296 -0.00044086183 -0.00079238386 0.00018891689 4.9020447e-05 -0.0010018307 -0.0007556702
-0.00035264136 -5.065213e-05 -0.0007091296 -0.00044200453 -0.00074629183 4.3089465e-05 0.00017169335 -0.00078253885
-0.0009518074 -0.0003698017 -7.143489e-06 -0.00010000884 -6.0643615e-05 -7.956315e-05 -4.1235548e-05 -4.445726e-05
-8.2854414e-05 -4.575743e-05 -6.157876e-05 -7.143489e-06 -0.00010000884 -6.333112e-05 -7.984669e-05 -5.8502686e-05
-7.758537e-05 -5.38061e-05 -2.4410523e-05 -6.403255e-05 -7.143489e-06 -0.00010000884 -6.489324e-05 -7.985967e-05
-6.871806e-05 -0.00010332807 -1.546812e-05 -2.6790425e-05 -6.605882e-05 -7.143489e-06 -0.00010000884 -6.746549e-05
-7.813459e-05 -7.8709345e-05 -9.943196e-05 -1.5230457e-05 -2.0932901e-05 -6.895013e-05 -7.143489e-06 -0.00010000884
-6.798743e-05 -7.9196994e-05 -8.754245e-05 -0.0001077926 1.1736934e-06 -2.0143305e-05 -6.897969e-05 2.0674355e-05
0.00028944094 0.00024203741 0.00029776263 0.0003463581 0.00033230975 -2.7342525e-05 -3.109483e-05 0.00021817691
2.0674355e-05 0.00028944094 0.00024175658 0.00028930538 0.00039876526 0.0003812729 -8.822815e-05 -7.157947e-05
0.00022219251 2.0674355e-05 0.00028944094 0.0002516412 0.0002915097 0.0004540639 0.00037098062 -0.00010809816
-9.671581e-05 0.00023009146 2.0674355e-05 0.00028944094 0.00024536136 0.0002820769 0.00046809937 0.0002588985
-8.741781e-05 -1.9349518e-05 0.00022816625 2.0674355e-05 0.00028944094 0.0002421036 0.00027781137 0.00044329808
0.00037443367 -0.00014710893 -5.039227e-05 0.00022479228 1.6850696e-05 0.0002359097 0.00016094057 0.00026775934
0.00024752415 0.00021392966 7.56218e-05 -3.1554744e-05 0.0001315941 1.6850696e-05 0.0002359097 0.00015776722
0.00026402107 0.00025423535 0.00022179821 4.0641928e-05 -1.115467e-05 0.00013080091 1.6850696e-05 0.0002359097
0.0001544314 0.00026644493 0.00028135334 0.00021193866 4.660857e-05 -3.4379736e-05 0.00012645588 1.6850696e-05
0.0002359097 0.00015101953 0.0002752266 0.00023705889 0.0001832823 9.636981e-05 -1.1190162e-05 0.00012033865
1.6850696e-05 0.0002359097 0.0001512142 0.0002624389 0.0002500358 0.0002162944 1.6205899e-05 2.2984721e-05
0.00012412672 -1.586081e-06 -2.220515e-05 -1.6718473e-05 -1.3749087e-05 -4.0914318e-05 -2.55513e-05 -1.065018e-05
2.9533332e-05 -1.7725673e-05 -1.586081e-06 -2.220515e-05 -2.1997439e-05 -1.07665455e-05 -2.235465e-05 -1.7047834e-05
-2.2019458e-06 -5.978036e-06 -2.284558e-05 -1.586081e-06 -2.220515e-05 -2.414592e-05 -9.444021e-06 -1.7250346e-05
-4.0805053e-06 -5.665629e-06 -2.058599e-05 -2.5831185e-05 -1.586081e-06 -2.220515e-05 -3.089961e-05 -1.047357e-05
00000000: 5292 b138 0760 9b3a 859e 533a e904 9c3a
00000010: b539 923a ec18 713a ebf1 ce39 2efb e638
00000020: 270d 3d3a 5292 b138 0760 9b3a 2248 4e3a
00000030: c05a 9b3a ec5e 8f3a 54df 843a dc83 8839
00000040: 0f99 3439 01ed 383a 5292 b138 0760 9b3a
00000050: 6b69 493a 2748 9c3a 0fee 833a b4a1 783a
00000060: 86dc ec39 72e2 0b39 bc18 333a 5292 b138
00000070: 0760 9b3a c02c 493a cef7 9d3a dd7b 7b3a
00000080: f792 7a3a 550c c539 649f 8239 5d26 323a
00000090: 5292 b138 0760 9b3a 9c2c 493a 2658 9a3a
000000a0: 43da 893a 727d 813a 66a4 3e39 5718 a739
000000b0: 591b 343a 4f73 54b8 e2e4 39ba ad52 03ba
000000c0: a30c 43ba ae60 88b9 c2e5 61b8 5b3b 2eba
000000d0: 21ce 0dba 506c e1b9 4f73 54b8 e2e4 39ba
000000e0: 4c8e f6b9 c0c1 43ba 9780 c8b8 9429 7e38
000000f0: ec56 43ba c9d3 41ba 1c69 d0b9 4f73 54b8
00000100: e2e4 39ba b05c e7b9 8ea7 44ba 8328 10b8
00000110: d5bf 8139 7966 8bba 9e68 2fba 918a c0b9
00000120: 4f73 54b8 e2e4 39ba 7923 e7b9 fbb7 4fba
00000130: fe17 4639 4e9b 4d38 dc4f 83ba 2b18 46ba
00000140: b9e2 b8b9 4f73 54b8 e2e4 39ba d8bc e7b9
00000150: cca2 43ba f6ba 3438 9508 3439 4b23 4dba
00000160: b782 79ba f2e1 c1b9 1ab2 efb6 d6bb d1b8
00000170: 965b 7eb8 24db a6b8 55f4 2cb8 9f77 3ab8
00000180: 20c2 adb8 abeb 3fb8 d823 81b8 1ab2 efb6
00000190: d6bb d1b8 a3d0 84b8 5e73 a7b8 c860 75b8
000001a0: 54b5 a2b8 dcad 61b8 33c5 ccb7 3749 86b8
000001b0: 1ab2 efb6 d6bb d1b8 4b17 88b8 557a a7b8
000001c0: ba1c 90b8 d6b1 d8b8 89c1 81b7 00bc e0b7
000001d0: 0f89 8ab8 1ab2 efb6 d6bb d1b8 427c 8db8
000001e0: 30dc a3b8 c210 a5b8 2186 d0b8 5186 7fb7
000001f0: 1099 afb7 5299 90b8 1ab2 efb6 d6bb d1b8
00000200: 7994 8eb8 9016 a6b8 ff96 b7b8 b60e e2b8
00000210: cc87 9d35 6bf9 a8b7 30a9 90b8 d76d ad37
00000220: 1bc0 9739 6ccb 7d39 061d 9c39 6697 b539
00000230: dc39 ae39 a05d e5b7 d26b 02b8 6bc6 6439
00000240: d76d ad37 1bc0 9739 0a80 7d39 e9ad 9739
00000250: 5e11 d139 95e5 c739 2107 b9b8 ef1c 96b8
00000260: 59fc 6839 d76d ad37 1bc0 9739 b6ee 8339
00000270: c5d5 9839 6d0f ee39 2d80 c239 c2b2 e2b8
00000280: e8d3 cab8 b544 7139 d76d ad37 1bc0 9739
00000290: d8a3 8039 b8e3 9339 3c6b f539 c5bc 8739
000002a0: 1454 b7b8 c650 a2b7 e93f 6f39 d76d ad37
000002b0: 1bc0 9739 31dd 7d39 36a7 9139 766a e839
000002c0: a34f c439 4141 1ab9 4a5c 53b8 38b6 6b39
000002d0: 985a 8d37 875e 7739 28c2 2839 0d62 8c39
000002e0: 21c6 8139 4e52 6039 2597 9e38 a659 04b8
000002f0: 86fc 0939 985a 8d37 875e 7739 516e 2539
00000300: 4f6c 8a39 e44a 8539 8192 6839 f076 2a38
00000310: f124 3bb7 9a27 0939 985a 8d37 875e 7739
00000320: ddee 2139 a2b1 8b39 9b82 9339 da3b 5e39
00000330: 927d 4338 f632 10b8 3e99 0439 985a 8d37
00000340: 875e 7739 ff5a 1e39 4a4c 9039 0393 7839
00000350: 782f 4039 261a ca38 61bd 3bb7 525e fc38
00000360: 985a 8d37 875e 7739 418f 1e39 f497 8939
00000370: 3d17 8339 16cd 6239 e7f1 8737 50cf c037
00000380: 0328 0239 54e1 d4b5 3245 bab7 a63e 8cb7
00000390: e1ab 66b7 6a9b 2bb8 0057 d6b7 2dae 32b7
000003a0: 59be f737 98b1 94b7 54e1 d4b5 3245 bab7
000003b0: 2487 b8b7 f6a1 34b7 3f86 bbb7 f201 8fb7
000003c0: 24c5 13b6 f096 c8b6 82a4 bfb7 54e1 d4b5
000003d0: 3245 bab7 f88c cab7 c371 1eb7 d6b4 90b7
000003e0: 46eb 88b6 621b beb6 14b0 acb7 0cb0 d8b7
000003f0: 54e1 d4b5 3245 bab7 349a 01b8 a4b7 2fb7

exp_avg_sq f4 [64, 45]
3.0580818e-08 3.5163257e-06 1.8181951e-06 3.2351543e-06 2.9648202e-06 2.9328005e-06 9.757936e-07 6.888859e-07
1.5492435e-06 3.0583813e-08 3.5161806e-06 1.8137408e-06 3.2393475e-06 2.9813557e-06 2.9199646e-06 1.0035558e-06
7.068605e-07 1.5450282e-06 3.0593327e-08 3.5188446e-06 1.8202626e-06 3.2474875e-06 2.9306375e-06 2.8514896e-06
1.108507e-06 7.0262496e-07 1.550922e-06 3.0599914e-08 3.5186595e-06 1.80893e-06 3.2474861e-06 2.8520635e-06
2.7962149e-06 1.1674936e-06 7.2328294e-07 1.5401171e-06 3.0711394e-08 3.537762e-06 1.8102231e-06 3.242837e-06
2.9186058e-06 2.9746454e-06 1.0026575e-06 7.066194e-07 1.553152e-06 1.2991704e-07 5.448094e-06 2.5987824e-06
4.5650745e-06 2.4221654e-06 2.9625965e-06 3.8321145e-06 3.4043849e-06 2.3521018e-06 1.2988626e-07 5.4487255e-06
2.597144e-06 4.587265e-06 2.4573153e-06 3.0073738e-06 3.9173447e-06 3.2293908e-06 2.3464481e-06 1.2993429e-07
5.4509487e-06 2.6083073e-06 4.6021646e-06 2.6045036e-06 3.1028626e-06 3.8817525e-06 3.1371185e-06 2.3596233e-06
1.2995328e-07 5.450796e-06 2.5902877e-06 4.625927e-06 2.61265e-06 2.9739297e-06 3.9326314e-06 3.1877405e-06
2.3362466e-06 1.3025357e-07 5.4742504e-06 2.6060466e-06 4.6278087e-06 2.7718636e-06 3.4382667e-06 3.6970519e-06
3.2808157e-06 2.3774e-06 3.242301e-09 7.646384e-08 2.473334e-08 6.4047136e-08 6.1119806e-08 6.4584974e-08
2.5385825e-08 2.4963798e-08 2.6034558e-08 3.2442773e-09 7.646416e-08 2.4285765e-08 6.438944e-08 6.034368e-08
6.867709e-08 2.5659444e-08 2.2203563e-08 2.5684123e-08 3.2409746e-09 7.6427696e-08 2.381768e-08 6.435125e-08
5.588917e-08 7.613947e-08 2.247259e-08 2.2392898e-08 2.5383672e-08 3.2409713e-09 7.6430396e-08 2.3336897e-08
6.4648404e-08 5.381454e-08 7.794078e-08 2.4586564e-08 2.0282794e-08 2.491937e-08 3.245582e-09 7.652049e-08
2.3125253e-08 6.4707365e-08 5.1674377e-08 7.780062e-08 2.7579269e-08 2.0746247e-08 2.4886644e-08 1.26437225e-08
1.0793134e-06 4.2426757e-07 9.575319e-07 7.0445054e-07 8.2451186e-07 5.6421715e-07 3.3609783e-07 3.6744305e-07
1.2644577e-08 1.0793598e-06 4.2310688e-07 9.576054e-07 6.541801e-07 8.035819e-07 6.1533916e-07 3.6786653e-07
3.6616626e-07 1.272899e-08 1.0825705e-06 4.2923642e-07 9.60779e-07 7.2370847e-07 8.225732e-07 5.927705e-07
3.4916914e-07 3.7272895e-07 1.2738046e-08 1.0824677e-06 4.3191133e-07 9.580202e-07 7.68456e-07 7.9687675e-07
5.722705e-07 3.543975e-07 3.7493058e-07 1.2811113e-08 1.082905e-06 4.3277754e-07 9.598123e-07 7.956767e-07
8.771656e-07 5.6901507e-07 3.5804527e-07 3.7595356e-07 4.558353e-09 3.934418e-07 1.7967601e-07 3.3119213e-07
2.4674523e-07 2.2068447e-07 2.3371257e-07 1.5830756e-07 1.6114369e-07 4.5715987e-09 3.9378241e-07 1.7941257e-07
3.3072277e-07 2.358162e-07 2.1888684e-07 2.384116e-07 1.6991497e-07 1.613662e-07 4.598825e-09 3.948547e-07
1.7913561e-07 3.3017363e-07 2.6256336e-07 2.5679142e-07 1.9197087e-07 1.614566e-07 1.6229733e-07 4.605801e-09
3.952196e-07 1.769801e-07 3.2971803e-07 2.5074834e-07 2.737219e-07 1.7460187e-07 1.6541165e-07 1.6073784e-07
4.807672e-09 4.246121e-07 2.0715521e-07 3.2991986e-07 2.679024e-07 2.8276352e-07 1.6012164e-07 1.946466e-07
2.0907926e-07 1.5719506e-09 1.0071891e-07 3.0741028e-08 9.028849e-08 8.364121e-08 9.6363976e-08 3.22535e-08
1.9626466e-08 2.6960407e-08 1.5723061e-09 1.0078439e-07 3.0545035e-08 9.147685e-08 7.648545e-08 1.0411212e-07
4.6232746e-08 9.669456e-09 2.6760082e-08 1.5725606e-09 1.0079156e-07 3.08906e-08 9.127688e-08 7.970544e-08
1.028838e-07 4.0857635e-08 1.0250277e-08 2.7049838e-08 1.578161e-09 1.0103244e-07 3.1198216e-08 9.108147e-08
00000000: f757 0333 04fa 6b36 b508 f435 871b 5936
00000010: 39f7 4636 21d1 4436 03f8 8235 e1eb 3835
00000020: 9aef cf35 425b 0333 86f7 6b36 a96f f335
00000030: 9163 5936 4d13 4836 9cf4 4336 eab1 8635
00000040: 15bf 3d35 c45e cf35 b865 0333 4a25 6c36
00000050: bf4f f435 69ef 5936 f8ab 4436 385c 3f36
00000060: 03c8 9435 059c 3c35 4629 d035 f66c 0333
00000070: 1c22 6c36 5dca f235 63ef 5936 1466 3f36
00000080: 9ba6 3b36 c6b2 9c35 a027 4235 05b6 ce35
00000090: 89e7 0333 4a6a 6d36 cbf6 f235 849f 5936
000000a0: 44dd 4336 05a0 4736 0d93 8635 84ae 3d35
000000b0: e575 d035 537f 0b34 c5ce b636 be66 2e36
000000c0: b12d 9936 7c8c 2236 05d1 4636 9d95 8036
000000d0: e376 6436 cdd8 1d36 dd76 0b34 32d4 b636
000000e0: 984a 2e36 4eec 9936 5be8 2436 4ad2 4936
000000f0: bc71 8336 83b8 5836 ac77 1d36 1184 0b34
00000100: 4be7 b636 610a 2f36 4b6c 9a36 08c9 2e36
00000110: c63a 5036 0040 8236 4987 5236 055a 1e36
00000120: 4989 0b34 fbe5 b636 ced4 2d36 6938 9b36
00000130: fc54 2f36 b993 4736 0cf5 8336 f7ec 5536
00000140: 69c8 1c36 d4db 0b34 74af b736 8ae3 2e36
00000150: 9348 9b36 4104 3a36 f9bc 6636 de1a 7836
00000160: fc2b 5c36 6c8b 1f36 2acf 5e31 7134 a433
00000170: 3175 d432 498a 8933 f840 8333 f7b1 8a33
00000180: 0510 da32 f96f d632 99a2 df32 eef1 5e31
00000190: 9e34 a433 f69c d032 7846 8a33 4a96 8133
000001a0: a17b 9333 b769 dc32 27ba be32 fc9f dc32
000001b0: d4b7 5e31 9220 a433 a297 cc32 7931 8a33
000001c0: cb0a 7033 1e82 a333 bf09 c132 815a c032
000001d0: 490b da32 c5b7 5e31 0e22 a433 6176 c832
000001e0: d6d4 8a33 b621 6733 6660 a733 6d32 d332
000001f0: 563a ae32 460e d632 e208 5f31 9653 a433
00000200: f8a4 c632 40f5 8a33 94f0 5d33 5813 a733
00000210: 74e7 ec32 7b35 b232 4fc6 d532 ae37 5932
00000220: eddc 9035 e4c6 e334 8c84 8035 7919 3d35
00000230: 0654 5d35 b574 1735 ef70 b434 fd44 c534
00000240: 703b 5932 85de 9035 5e27 e334 1287 8035
00000250: ea9a 2f35 bab5 5735 c92d 2535 317f c534
00000260: 8295 c434 b1ae 5a32 d74c 9135 ce71 e634
00000270: 1df4 8035 de44 4235 cdce 5c35 e11e 1f35
00000280: 7175 bb34 7a1b c834 85d6 5a32 4f49 9135
00000290: 71e1 e734 5395 8035 e547 4e35 f4e8 5535
000002a0: 219e 1935 0644 be34 114a c934 df17 5c32
000002b0: 5558 9135 7e58 e834 e6d2 8035 7d96 5535
000002c0: 5c76 6b35 6bbe 1835 5e39 c034 aad6 c934
000002d0: b29f 9c31 3b3a d334 f7ec 4034 b3ce b134
000002e0: 6878 8434 49f5 6c34 6cf2 7a34 40fb 2934
000002f0: d706 2d34 3514 9d31 0b69 d334 8da4 4034
00000300: 318e b134 aa34 7d34 2807 6b34 15fe 7f34
00000310: df71 3634 0144 2d34 b103 9e31 6bfc d334
00000320: 6c58 4034 b842 b134 6ff6 8c34 25dd 8934
00000330: 8d20 4e34 da5c 2d34 f343 2e34 0e41 9e31
00000340: 912e d434 eb07 3e34 1a04 b134 979e 8634
00000350: 0df4 9234 327a 3b34 029c 3134 4897 2c34
00000360: bb30 a531 3ef6 e334 646e 5e34 d71f b134
00000370: 3ad4 8f34 b9ce 9734 e7ed 2b34 0d00 5134
00000380: 457f 6034 180c d830 ce4a d833 1e08 0433
00000390: 9fe4 c133 3e9e b333 a8f0 ce33 1987 0a33
000003a0: 0e97 a832 9096 e732 9a18 d830 ce6e d833
000003b0: 9f30 0333 ee71 c433 5240 a433 3e94 df33
000003c0: 7191 4633 b81e 2632 0bde e532 8f21 d830
000003d0: bf72 d833 93ac 0433 ff03 c433 872a ab33
000003e0: f8f0 dc33 727b 2f33 3219 3032 395b e832
000003f0: 9be6 d830 2cf7 d833 cdfe 0533 9198 c333

exp_avg f4 [64]
0.0012700907 -0.00075978175 -0.00010715234 0.00031011525 0.00025276042 -2.3791228e-05 -0.00015472113 0.0011127014
-0.00027218423 -0.00010512518 0.00096191233 0.000949187 -0.00034246975 -0.0010565169 0.00039147248 8.2728606e-05
0.00037992108 6.1249244e-05 -0.0008264144 -0.0011989987 0.0001443149 0.000151488 -1.865159e-05 -4.148722e-05
-0.0027927018 -0.0008991545 -0.0014649621 0.00048187087 -0.00095911574 -0.00018829304 -3.782474e-05 -0.00030542634
0.00011944617 0.00060139317 -0.0002907572 -0.0011182732 -0.0004143369 1.1529098e-05 -0.002281784 0.00052787684
-4.5119385e-05 0.00036238303 -0.00045028632 0.00023112335 -0.00021960703 -0.00069378095 -0.000112910304 -0.0006518164
0.00042601797 -0.0023799953 -0.0012222461 3.171234e-05 -0.0014778216 -0.00084637 -7.390562e-05 -0.0007930323
-0.0011605488 -0.00039782573 0.00048524118 -0.00025155378 0.0010021183 0.00049504935 -0.0008827082 -0.00034169448
00000000: 2c79 a63a 172c 47ba f9b6 e0b8 f796 a239
00000010: ee84 8439 4693 c7b7 a33c 22b9 10d8 913a
00000020: f3b3 8eb9 a776 dcb8 d828 7c3a dcd2 783a
00000030: 838d b3b9 d37a 8aba 8c3e cd39 957e ad38
00000040: 2530 c739 f072 8038 bba3 58ba b827 9dba
00000050: 3c53 1739 c0d8 1e39 fc75 9cb7 9002 2eb8
00000060: c305 37bb 3db5 6bba f903 c0ba 9da3 fc39
00000070: 2b6d 7bba 8770 45b9 01a6 1eb8 a121 a0b9
00000080: 2d7f fa38 d0a6 1d3a c570 98b9 0693 92ba
00000090: 5b3b d9b9 196d 4137 fc89 15bb 3761 0a3a
000000a0: 923e 3db8 3afe bd39 6814 ecb9 b459 7239
000000b0: 5046 66b9 dade 35ba 42ca ecb8 a8de 2aba
000000c0: 2a5b df39 b2f9 1bbb c633 a0ba de02 0538
000000d0: 77b3 c1ba eede 5dba c7fd 9ab8 7fe3 4fba
000000e0: 8e1d 98ba 4493 d0b9 f867 fe39 fae2 83b9
000000f0: 8359 833a 33c6 013a 8b65 67ba 7525 b3b9

exp_avg_sq f4 [64]
4.0742825e-06 6.4049414e-06 9.042425e-08 1.2490409e-06 4.8791446e-07 1.17595185e-07 1.3657785e-05 2.937403e-06
4.1041648e-07 2.1037329e-07 5.569376e-06 3.7488564e-06 3.5514807e-07 4.1852586e-06 1.8585652e-06 1.1206996e-06
9.238302e-07 1.3192188e-06 2.7403894e-06 3.6691395e-06 1.2396728e-07 1.9960055e-07 4.2000417e-07 3.956247e-08
2.533522e-05 1.0130244e-05 4.976375e-06 7.102008e-07 1.0006983e-05 1.7746728e-06 2.531072e-06 3.836765e-07
1.4941696e-06 8.9670875e-06 2.3630178e-06 1.6448981e-05 1.983428e-06 6.8651974e-07 9.324831e-06 5.2178007e-07
1.953534e-07 1.1031965e-05 4.146957e-06 9.536876e-07 5.2213695e-06 6.77857e-06 2.8584608e-07 2.821151e-06
7.61276e-06 9.733092e-06 4.140617e-06 1.1976928e-05 6.078238e-06 3.8617463e-06 7.394379e-06 2.0822606e-06
4.223304e-06 4.762673e-06 1.7817731e-06 1.8597024e-07 5.3741146e-06 1.70668e-05 1.8495299e-06 9.709192e-07
00000000: d2b5 8836 07ea d636 422f c233 b8a4 a735
00000010: 3af9 0235 a388 fc33 bd23 6537 3320 4536
00000020: 3657 dc34 f8e2 6134 93e0 ba36 dd94 7b36
00000030: 2eab be34 196f 8c36 d073 f935 f26a 9635
00000040: 21fd 7735 0310 b135 88e7 3736 563b 7636
00000050: de1b 0534 c851 5634 ef7c e134 65eb 2933
00000060: f886 d437 11f5 2937 bcfa a636 a1a4 3e35
00000070: aae3 2737 4b31 ee35 7cdb 2936 19fc cd34
00000080: 478b c835 5971 1637 5694 1e36 ebfb 8937
00000090: 091b 0536 4749 3835 d871 1c37 7410 0c35
000000a0: 55c2 5134 ee15 3937 1726 8b36 7500 8035
000000b0: 3933 af36 7973 e336 6376 9934 0153 3d36
000000c0: 1c71 ff36 504b 2337 a1ef 8a36 84f0 4837
000000d0: abf3 cb36 2694 8136 3b1d f836 f7bc 0b36
000000e0: e8b5 8d36 0dcf 9f36 4225 ef35 1caf 4734
000000f0: 4b53 b436 ad2a 8f37 5d3d f835 8850 8235

exp_avg f4 [5, 64]
-0.0026289744 -0.0076902076 0.0029680151 0.0011746745 0.0026905476 0.0028569745 -0.00872355 -0.00075920863
0.002803749 0.0024135192 -0.0023690972 -0.0036059644 0.004609145 0.00092030206 0.0008448112 0.0022161962
0.0017932567 -0.005160267 -0.008764807 -0.001013244 0.0024955082 0.0030737836 0.0034622778 0.0025930023
0.003683223 -0.0017395464 -0.0028074647 0.00084839 -0.008423817 0.0037959602 -0.0035282187 0.0019876387
-0.005904853 -0.00026011377 -0.002585344 -0.010757166 -0.0017115219 0.00053406286 -0.010217926 0.0042984583
0.0027213842 -0.0052326815 -0.0040341644 0.00034436883 -0.011744299 -0.010946574 0.001551497 0.0029075812
-0.004088388 -0.002563544 -0.0033749049 -0.012220437 -0.004826691 0.00046057833 -0.0081513 0.0012129887
-0.007422103 0.003924135 0.0026777545 0.0035734307 -0.0049656997 -0.006566535 -0.0024077413 0.0024857624
0.0022450236 -0.018529525 0.0065690493 0.003917815 0.0045577413 0.006856057 -0.025281752 -0.005536076
-0.0005320323 0.0061114714 0.008480612 0.003739265 0.002624762 -0.010679026 0.0073062284 0.0050873775
0.0018061707 -0.0046959003 -0.021178005 -0.011155958 0.007034702 0.006681199 0.004598316 0.0062954403
-0.0034053759 0.01188598 -0.02408319 0.0067019877 -0.030711776 0.0053291423 -0.0032282963 0.0043418487
-0.006079388 0.008785345 -0.0098507255 -0.019174783 0.006133168 0.0023575653 -0.023562668 0.0033650075
0.005932995 0.007476438 -0.013119274 -0.008069563 -0.016634285 -0.030730441 0.0061324057 0.008891447
-0.011915524 -0.02334595 -0.011468013 -0.038242027 -0.033679165 0.0069237035 -0.024508143 0.00054031383
-0.009139427 0.007993245 0.0037904268 0.0027238785 -0.016065285 0.00860312 -0.008486383 0.0004716885
0.00027196488 0.01268493 -0.014804894 -0.010861701 -0.013222086 -0.014577402 0.066653915 0.008328467
-0.012618685 -0.013562683 0.0146863945 0.014879264 -0.008821414 0.029238993 -1.4547735e-05 -0.010964163
-0.006215569 0.014456894 0.021868674 0.0054237405 -0.015334509 -0.01495472 -0.010080501 -0.015617138
0.044043113 0.015759245 0.008717845 -0.012156296 0.0518206 -0.009575431 0.01140524 -0.01496792
0.009532178 0.011664564 0.017333155 0.015839899 0.018951131 -0.012413412 0.045888226 -0.011536836
-0.015717125 0.050677475 0.03944298 0.0073972745 0.055769708 0.02509173 -0.0149587765 -0.0013514233
0.03958419 0.014975326 0.008963364 0.074595824 0.0681235 0.001646836 0.011035418 -0.008110749
0.03678266 0.0047954316 0.0036028475 -0.013125788 0.027605196 0.04876341 0.005207932 -0.01131937
-0.0019471771 0.0044515003 0.0101328585 0.008876579 0.009793444 0.009503674 -0.054800354 -0.003203363
0.011840042 0.009245378 -0.019738378 -0.018299166 0.0047761663 -0.024122866 -0.0062119225 0.0076286434
0.0046826233 -0.0073076994 -0.007977336 0.003580185 0.010490798 0.009861593 0.005482035 0.01138898
-0.053051703 -0.026968049 0.011871115 0.008179762 -0.032067977 0.003858186 -0.0046718353 0.012781646
0.0014955818 -0.020255836 -0.0130511215 0.0012533749 -0.02541858 0.011608687 -0.02767201 0.007418564
0.011518491 -0.059936848 -0.028173571 -0.005125739 -0.04661356 0.005949151 0.011670769 -0.004931968
-0.036095593 0.0021058996 -0.00022397607 -0.047661457 -0.05213916 -0.005441507 0.0058494788 0.0063739745
-0.03013994 -0.014250058 -0.009126109 0.010027465 -0.014594176 -0.05883501 0.0010751863 0.011708428
00000000: df4a 2cbb 23fe fbbb 0883 423b 89f7 993a
00000010: e653 303b 143c 3b3b 38ed 0ebc a105 47ba
00000020: 1abf 373b 222c 1e3b db42 1bbb 0b52 6cbb
00000030: 5008 973b 6d40 713a 5276 5d3a 9a3d 113b
00000040: b60b eb3a 7517 a9bb 449a 0fbc d4ce 84ba
00000050: ae8b 233b 8871 493b 62e7 623b 5cef 293b
00000060: 3a62 713b 7e01 e4ba 71fd 37bb 7d66 5e3a
00000070: 0d04 0abc a5c5 783b b039 67bb 0b43 023b
00000080: 7f7d c1bb e15f 88b9 e06e 29bb d33e 30bc
00000090: 2555 e0ba 5a00 0c3a 1769 27bc 15da 8c3b
000000a0: 4059 323b ea76 abbb 0631 84bb 678c b439
000000b0: 296b 40bc 4259 33bc 9a5b cb3a 1e8d 3e3b
000000c0: e2f7 85bb 2201 28bb 822d 5dbb 3a38 48bc
000000d0: 3829 9ebb c779 f139 088d 05bc 26fd 9e3a
000000e0: 1d35 f3bb 0896 803b 447d 2f3b 3830 6a3b
000000f0: 4fb7 a2bb 172c d7bb 32cb 1dbb 2ce8 223b
00000100: 3f21 133b 3bcb 97bc 2e41 d73b 0461 803b
00000110: 1b59 953b c6a8 e03b ad1b cfbc f967 b5bb
00000120: 1578 0bba bd42 c83b 44f2 0a3c 750e 753b
00000130: 3304 2c3b 15f7 2ebc 1669 ef3b 04b4 a63b
00000140: 08bd ec3a 11e0 99bb 7f7d adbc 7bc7 36bc
00000150: 5c83 e63b f6ed da3b 78ad 963b fb49 ce3b
00000160: ba2c 5fbb 6abd 423c 1c4a c5bc 599c db3b
00000170: 4397 fbbc 16a0 ae3b d391 53bb 1146 8e3b
00000180: 9a35 c7bb 68f0 0f3c f064 21bc 6f14 9dbc
00000190: bef8 c83b 6281 1a3b 7f06 c1bc 7587 5c3b
000001a0: 9269 c23b e8fc f43b 39f2 56bc 3336 04bc
000001b0: a044 88bc 68be fbbc 59f2 c83b 6fad 113c
000001c0: 5439 43bc 0140 bfbc 55e4 3bbc aca3 1cbd
000001d0: 2af3 09bd 3ce0 e23b 4dc5 c8bc d9a3 0d3a
000001e0: 89bd 15bc 19f6 023c cf68 783b 1983 323b
000001f0: 589b 83bc 1af4 0c3c 780a 0bbc f54c f739
00000200: 8296 8e39 74d4 4f3c 3a90 72bc 47f5 31bc
00000210: 73a1 58bc 0ed6 6ebc d981 883d 1f74 083c
00000220: 9abe 4ebc 0436 5ebc 349f 703c 28c8 733c
00000230: b187 10bc 9d86 ef3c 0c12 74b7 08a3 33bc
00000240: f9ab cbbb 9cdc 6c3c ef25 b33c a2b9 b13b
00000250: 983d 7bbc a404 75bc b028 25bc 06df 7fbc
00000260: 8d66 343d 8819 813c 4bd5 0e3c 332b 47bc
00000270: d641 543d 45e2 1cbc 0bdd 3a3c 023c 75bc
00000280: da2c 1c3c ba1c 3f3c 43fe 8d3c adc2 813c
00000290: 673f 9b3c a061 4bbc 4bf5 3b3d ff04 3dbc
000002a0: 33c1 80bc 2f93 4f3d f68e 213d d664 f23b
000002b0: c76e 643d 2c8d cd3c a815 75bc 3e22 b1ba
000002c0: 0823 223d 125b 753c 13db 123c b2c5 983d
000002d0: 5584 8b3d a6da d73a e6cd 343c f2e2 04bc
000002e0: 6aa9 163d ff22 9d3b c01d 6c3b 8c0d 57bc
000002f0: 4b24 e23c 24bc 473d 4da7 aa3b e174 39bc
00000300: 6c38 ffba e4dd 913b 4a04 263c 126f 113c
00000310: ae74 203c 4cb5 1b3c 5676 60bd 83ef 51bb
00000320: bcfc 413c ed79 173c 61b2 a1bc 22e8 95bc
00000330: 6381 9c3b 519d c5bc 628d cbbb b3f9 f93b
00000340: b170 993b 6d75 efbb 5fb3 02bc 89a1 6a3b
00000350: 99e1 2b3c 8592 213c a5a2 b33b d898 3a3c
00000360: be4c 59bd 19ec dcbc 117f 423c 6904 063c
00000370: b659 03bd 9fd9 7c3b 3216 99bb 1c6a 513c
00000380: 6607 c43a 91ef a5bc 5fd4 55bc 4848 a43a
00000390: a03a d0bc 5d32 3e3c 69b0 e2bc 6d17 f33b
000003a0: 0eb8 3c3c 5780 75bd 43cc e6bc d1f5 a7bb
000003b0: dced 3ebd 18f1 c23b c136 3f3c 599c a1bb
000003c0: f9d8 13bd 2203 0a3b 1edb 6ab9 a938 43bd
000003d0: df8f 55bd ab4e b2bb fcac bf3b c6dc d03b
000003e0: 09e8 f6bc 1379 69bc ad85 15bc 3d4a 243c
000003f0: 691c 6fbc fbfc 70bd 44ed 8c3a b5d4 3f3c

exp_avg_sq f4 [5, 64]
5.8751066e-05 0.0012549417 0.00034659888 0.00017817569 0.00030149354 0.00033560587 0.006515974 0.00022534412
0.00028174388 0.00033616868 0.0004999567 0.0004336378 0.00018282933 0.0011577989 0.00010976004 0.00020192482
8.886077e-05 0.00047939882 0.0014623896 0.00020773434 0.00034498345 0.00034218185 0.00022085095 0.00039324342
0.0028386195 0.0010117019 0.0013908872 0.00026519367 0.00416289 0.00014101366 0.0003419343 0.00032627187
0.0004916568 0.00052632927 0.0005603428 0.001271289 0.00085452694 0.00024543717 0.0039176866 0.00024763687
0.00038284587 0.004982526 0.0019065612 0.0003389135 0.005263909 0.002339496 0.00036407931 0.00018727926
0.0031873411 0.0012899106 0.00034356883 0.0089509655 0.0066305287 8.558327e-05 0.0013290443 0.00015805181
0.0031080418 0.0002814465 0.00020459933 0.00026034645 0.0014661307 0.004093702 0.00021013837 0.0002930481
4.852489e-05 0.0010185409 0.00026383746 0.00013267828 0.00023072548 0.00026691906 0.004898729 0.00019526632
0.00021744607 0.00025636167 0.0003891507 0.00033713458 0.0001437846 0.00087504636 8.3746854e-05 0.0001537518
6.9720554e-05 0.00037251145 0.001132557 0.00017187922 0.0002681195 0.00026731248 0.00016934225 0.00030846611
0.0021496224 0.00077630504 0.0012144817 0.0002041396 0.003215003 0.00011233692 0.00026973948 0.00025001762
0.0004294735 0.00042534785 0.00039078825 0.0010443244 0.0006442612 0.00019835435 0.0031563123 0.00019229089
0.00029811365 0.0037981553 0.0014753272 0.00025757053 0.0039582145 0.0018140712 0.00028318635 0.00014662938
0.0024649312 0.0009760541 0.00027982373 0.006789426 0.0050246473 7.201515e-05 0.0010595295 0.00012102155
0.0024934285 0.00022333463 0.00015871396 0.00019873968 0.0011314377 0.00311829 0.00016599322 0.00021704371
6.314053e-05 0.0010186585 0.00050242123 0.00028076576 0.00044504664 0.0004938445 0.0106879445 0.00023486796
0.0004757417 0.00046876603 0.0008048832 0.0007287897 0.0002495338 0.0017638775 0.00010738708 0.00028461844
0.00013261083 0.00057640823 0.0018360405 0.00017019328 0.00048074953 0.0004902888 0.00030253007 0.0005717934
0.005096573 0.0017325144 0.0010710984 0.0003462281 0.0061606467 0.00017336254 0.00041383677 0.0005168955
0.00041918145 0.0009166799 0.0007594873 0.0011099301 0.0013953985 0.0003894692 0.005258509 0.0003759267
0.0005727985 0.009186879 0.003235971 0.00045520734 0.0082987 0.0022737226 0.0005494738 0.00017047446
0.0046047354 0.0010978542 0.00026344278 0.012691526 0.010338063 8.572741e-05 0.001037401 0.00021447011
0.0044935546 0.00034751062 0.00024833824 0.0004259992 0.0018062633 0.007548731 0.00016135276 0.00048809542
7.2020135e-05 0.0010838095 0.00053132436 0.00030171525 0.0004797475 0.00050342013 0.01078986 0.00028072973
0.00052241096 0.00049275707 0.0010134473 0.00091973075 0.00026068403 0.0019561944 0.00013791905 0.0002887968
0.00015240544 0.00059890776 0.0016246729 0.00018530645 0.00052818214 0.0005254499 0.0003095816 0.00063176727
0.005902835 0.0021086081 0.00124616 0.00037301567 0.005721062 0.0001768646 0.00045217917 0.0005789018
0.00047761414 0.0010914628 0.0007490276 0.0011530091 0.001768718 0.00042541727 0.0057148356 0.000393081
0.0006290746 0.010163789 0.0032947357 0.00034333143 0.008644677 0.0022175757 0.0005858176 0.00020809943
0.0052781873 0.0011048814 0.00029506886 0.012708955 0.010574454 9.218211e-05 0.0011769915 0.00023620034
0.0049918294 0.00047746295 0.00033891993 0.00046054585 0.00179344 0.008664833 0.00017656578 0.0005134016
00000000: 7a6b 7638 db7c a43a b7b7 b539 acd4 3a39
00000010: c711 9e39 42f4 af39 f483 d53b 5a4a 6c39
00000020: 06b7 9339 cc3f b039 870f 033a e159 e339
00000030: e0b5 3f39 49c1 973a f92e e638 c8bb 5339
00000040: c35a ba38 d257 fb39 a7ad bf3a 43d3 5939
00000050: e5de b439 df66 b339 3a94 6739 3d2c ce39
00000060: 2208 3a3b 159b 843a 6e4e b63a b109 8b39
00000070: da68 883b 11dd 1339 a545 b339 780f ab39
00000080: 88e2 003a 5cf9 093a f8e3 123a 61a1 a63a
00000090: 5502 603a 05ae 8039 f05f 803b 42d5 8139
000000a0: b4b8 c839 7544 a33b 94e5 f93a 33b0 b139
000000b0: df7c ac3b 3b52 193b e6e1 be39 6560 4439
000000c0: b6e2 503b 3812 a93a 0721 b439 12a7 123c
000000d0: e844 d93b 2b7b b338 5433 ae3a b6ba 2539
000000e0: 4ab0 4b3b 1c8f 9339 b789 5639 1c7f 8839
000000f0: 2f2b c03a 7624 863b 9758 5c39 40a4 9939
00000100: 3487 4b38 9080 853a aa53 8a39 8e1f 0b39
00000110: e6ee 7139 45f1 8b39 8485 a03b 67c0 4c39
00000120: 3c02 6439 4868 8639 ec06 cc39 70c1 b039
00000130: e2c4 1639 5e63 653a 40a1 af38 6f38 2139
00000140: f036 9238 a44d c339 4f72 943a 7a3a 3439
00000150: 6492 8c39 1326 8c39 7791 3139 9fb9 a139
00000160: aee0 0c3b f380 4b3a 3e2f 9f3a 4e0e 5639
00000170: cdb2 523b 6d96 eb38 d26b 8d39 cc14 8339
00000180: f52a e139 3901 df39 b6e2 cc39 b6e1 883a
00000190: a3e3 283a 57fd 4f39 22da 4e3b b1a1 4939
000001a0: 234c 9c39 79ea 783b c45f c13a 880a 8739
000001b0: e9b3 813b 21c6 ed3a a178 9439 86c0 1939
000001c0: af8a 213b e2dd 7f3a 4eb5 9239 d579 de3b
000001d0: cca5 a43b d706 9738 e9df 8a3a f3cc fd38
000001e0: ca68 233b ef2e 6a39 746c 2639 c764 5039
000001f0: c04c 943a 3a5c 4c3b 770e 2e39 3a96 6339
00000200: 506a 8438 8284 853a ebb4 033a be33 9339
00000210: 2655 e939 5875 013a 7d1c 2f3c e346 7639
00000220: f86c f939 b6c4 f539 ccfe 523a 400c 3f3a
00000230: dcd3 8239 e831 e73a 0035 e138 d738 9539
00000240: 730d 0b39 1a1a 173a 4ca7 f03a e975 3239
00000250: 1c0d fc39 b986 003a e69c 9e39 68e4 153a
00000260: 2701 a73b 8915 e33a 1964 8c3a f385 b539
00000270: 40df c93b a7c8 3539 3bf8 d839 4580 073a
00000280: 95c5 db39 594d 703a 5418 473a 137b 913a
00000290: cee5 b63a ac31 cc39 924f ac3b 0718 c539
000002a0: db27 163a 9084 163c 9612 543b e5a8 ee39
000002b0: 45f7 073c bc02 153b 900a 103a 64c1 3239
000002c0: 52e3 963b e0e5 8f3a b11e 8a39 1ef0 4f3c
000002d0: fb60 293c 8ec8 b338 67f9 873a 62e3 6039
000002e0: ab3e 933b 1632 b639 6533 8239 a558 df39
000002f0: 24c0 ec3a 585b f73b cd30 2939 0fe7 ff39
00000300: 8409 9738 9d0e 8e3a 9348 0b3a 892f 9e39
00000310: 9f86 fb39 f4f7 033a f4c7 303c e82e 9339
00000320: 68f2 083a 5e2c 013a a6d5 843a 161a 713a
00000330: 6bac 8839 7f33 003b 5d9e 1039 a669 9739
00000340: 06cf 1f39 0500 1d3a faf2 d43a d24e 4239
00000350: b475 0a3a 59be 093a 574f a239 2f9d 253a
00000360: 926c c13b 9330 0a3b 3156 a33a 5191 c339
00000370: bf77 bb3b bb74 3939 7612 ed39 71c1 173a
00000380: 4968 fa39 6a0f 8f3a 645a 443a 9120 973a
00000390: 54d4 e73a 8a0a df39 8443 bb3b 7016 ce39
000003a0: 7be8 243a 0586 263c 7eec 573b 2a01 b439
000003b0: 67a2 0d3c bf54 113b 8e91 193a 4435 5a39
000003c0: a5f4 ac3b abd1 903a 79b3 9a39 3939 503c
000003d0: 7a40 2d3c e551 c138 4845 9a3a 8cac 7739
000003e0: 8092 a33b fe53 fa39 10b1 b139 6b75 f139
000003f0: dc11 eb3a f2f6 0d3c 8424 3939 cc95 063a

exp_avg f4 [5]
-0.010691941 -0.024200588 0.059587114 -0.042176627 0.017482037
00000000: 402d 2fbc 5040 c6bc 9e11 743d 66c1 2cbd
00000010: 7d36 8f3c

exp_avg_sq f4 [5]
0.005603374 0.004342557 0.008133552 0.008834463 0.0032672929
00000000: 829c b73b 024c 8e3b 9742 053c 6cbe 103c
00000010: 1420 563b
