Assets/results/Maze12/Mouse/Mouse-27526.onnx (onnx, 17067 bytes, 4 tensors)

network_body._body_endoder.seq_layers.0.weight f4 [64, 45]
0	0xbd8a3dbd	-0.06750057
1	0x3d45758d	0.04820781
2	0x3e233d02	0.15941241
3	0xbea7d947	-0.32782957
4	0xbd99e1ae	-0.07513748
5	0xbd65e5c4	-0.056127325
6	0xbe7b3255	-0.24530919
7	0xbdcf2b94	-0.10115734
8	0xbd4448f9	-0.047921155
9	0xbc4de425	-0.012566601
10	0x3ddba17e	0.107241616
11	0x3e0eb9c3	0.1393805
12	0x3e5dd215	0.21662171
13	0x3d9b5476	0.07584469
14	0x3ddfc9a9	0.109271355
15	0xbe4518ac	-0.19247693
16	0x3e19d3d5	0.15022214
17	0xbdfed763	-0.124434255
18	0xbe663ecd	-0.22484894
19	0x3d3820df	0.044953223
20	0x3e14c12f	0.14526819
21	0x3e727af5	0.23679717
22	0xbdd4ca37	-0.10390132
23	0xbc87c50f	-0.016573457
24	0x3c06b659	0.008222186
25	0xbe1f8f95	-0.15582116
26	0xbcb8b638	-0.022547826
27	0xbd67ec9f	-0.056622144
28	0xbdc225b5	-0.09479848
29	0xbdbd0905	-0.09230236
30	0x3defe837	0.11714213
31	0xbe933e42	-0.28758436
32	0xbdd23962	-0.10264851
33	0x3e474ecc	0.19463652
34	0x3c6ff464	0.01464567
35	0xbd4379fd	-0.04772376
36	0xbdef8569	-0.11695368
37	0x3dac12e7	0.08402043
38	0xbe2a622a	-0.16639009
39	0xbc30a5c2	-0.010781707
40	0x3e5b8424	0.21437126
41	0x3d46ca5f	0.04853284
42	0x3da121a6	0.07867746
43	0x3cb0a3b0	0.021562427
44	0x3d8b4e8f	0.06802093
45	0xbd1b51f6	-0.03791996
46	0xbc2675b1	-0.010159896
47	0x3e18610f	0.14880775
48	0xbe82f545	-0.2557775
49	0xbe165f86	-0.14684877
50	0x3e1afe40	0.15136051
51	0x3e0b576f	0.13607572
52	0x3eb016fa	0.3439253
53	0xbe9404ef	-0.28910014
54	0x3cf1d80b	0.029521963
55	0xbddb58a9	-0.1071027
56	0xbd2efaee	-0.042719774
57	0xbd220485	-0.03955509
58	0xbd702eed	-0.058638502
59	0x3ddc17cb	0.10746726
60	0xbd91e8c0	-0.07124472
61	0x3e33f86d	0.17575236
62	0x3d4b9585	0.04970314
63	0xbd0fd343	-0.035113584
64	0xbe6843ee	-0.22682163
65	0x381b0bef	3.6965994e-05
66	0x3e474fe3	0.19464068
67	0x3e888537	0.26664135
68	0xbe0a454a	-0.13502994
69	0xb83f6c0e	-4.5638582e-05
70	0xbd33936b	-0.04384176
71	0xbd98b0d8	-0.07455605
72	0x3d59686a	0.053078093
73	0xbd2c4e57	-0.0420669
74	0x3ea44678	0.32085013
75	0x3dc0f2e4	0.09421328
76	0xbe0f28d6	-0.13980421
77	0xbc653dfa	-0.013991827
78	0x3dd60938	0.10450977
79	0xbc476601	-0.012170316
80	0xbdb7a062	-0.089661375
81	0x3c1ac6b5	0.0094467895
82	0x3e859f7f	0.26098248
83	0xbde666cd	-0.112500764
84	0x3e36a25a	0.1783537
85	0xbe34ad21	-0.17644168
86	0x3e08b88b	0.13351648
87	0x3d9c8f47	0.076445155
88	0x3da8666c	0.082226604
89	0xbe1bf665	-0.15230711
90	0x3c5ac90d	0.013353598
91	0x3e10464c	0.14089316
92	0x3dd9dc83	0.106377624
93	0xbe34ed0c	-0.17668551
94	0x3e62b905	0.22140892
95	0xbd8f0500	-0.069833755
96	0x3d2bba56	0.04192575
97	0x3e88effa	0.26745588
98	0x3dc0a285	0.09405998
99	0xbdee6ee3	-0.11642244
100	0x3d2e2ed4	0.042525128
101	0xbe4d215d	-0.20032258
102	0xbc4774d5	-0.012173851
103	0x3e82f36e	0.25576347
104	0xbddfbc8c	-0.10924634
105	0xbdbd072d	-0.09229884
106	0xbdcbfeed	-0.099607326
107	0xbd2e3e46	-0.042539857
108	0x3caf72e9	0.021417098
109	0xbe154acb	-0.14579313
110	0xbe3bb152	-0.18329361
111	0xbe159f6c	-0.14611596
112	0xbe0c5a20	-0.13706255
113	0x3e0087fc	0.12551874
114	0xbcfcdf7d	-0.030868286
115	0x3c0e796f	0.008695944
116	0x3e88bd07	0.26706716
117	0xbd444226	-0.047914647
118	0xbe356f7d	-0.1771831
119	0xbc9465fa	-0.018115032
120	0xbe09207f	-0.13391303
121	0x3da434f2	0.08017911
122	0x3da32552	0.07966103
123	0xbdc6c0e6	-0.09704761
124	0xbd98a270	-0.074528575
125	0x3dda12b0	0.106480956
126	0x3da425d9	0.08015031
127	0x3dfca411	0.12335981
128	0xbeda7b8f	-0.42672393
129	0x3c9d2146	0.019180905
130	0xbe51b3f6	-0.20478806
131	0x3d24ec9c	0.04026471
132	0x3e004347	0.12525664
133	0xbe225958	-0.15854394
134	0xbe819e43	-0.25316057
135	0x3c5a985c	0.013341989
136	0x3daccdb4	0.08437672
137	0xbcbaffac	-0.022826992
138	0x3e1b24a9	0.15150703
139	0xbda7e139	-0.08197255
140	0x3cb5affa	0.022178639
141	0xbd247d19	-0.040158365
142	0xbe3c5354	-0.18391162
143	0x3e386985	0.18009003
144	0xbdee1c1e	-0.11626457
145	0x3d68aabf	0.05680346
146	0xbcbcb220	-0.023034155
147	0xbd834420	-0.06409478
148	0xbdb94f68	-0.09048349
149	0x3d5a2f98	0.053268045
150	0x3df5af94	0.119963795
151	0x3e35d87e	0.17758366
152	0xbe8e1c71	-0.27756074
153	0xbd804c3d	-0.06264541
154	0xbc521fd5	-0.012824972
155	0xbe392bb4	-0.18083078
156	0x3e2b21b6	0.16712078
157	0x3d20be8d	0.039244223
158	0xbcf4dc1d	-0.029890114
159	0x3cf311f6	0.02967165
160	0xbddbd075	-0.107331194
161	0xbd1b8d80	-0.03797674
162	0xbda3741e	-0.07981132
163	0x3e3576b2	0.1772106
164	0xbd84dd1b	-0.06487485
165	0xbe02f822	-0.12789968
166	0x3e6320a8	0.22180426
167	0x3c5f381a	0.0136242155
168	0xbc676fd0	-0.014125779
169	0x3cfe8c80	0.031072855
170	0x3d87190b	0.065965734
171	0x3d13f69c	0.036123857
172	0xbe52474a	-0.20535007
173	0x3d816b18	0.06319255
174	0xbd1cefef	-0.038314756
175	0x3ccffc0f	0.025388746
176	0xbe812e14	-0.25230467
177	0xbbda7b35	-0.0066675195
178	0xbe117c54	-0.14207584
179	0xbdeb2074	-0.11480799
180	0xbe145067	-0.14483796
181	0x3dc1bdf4	0.09460059
182	0xbcda6aa2	-0.026662175
183	0xbc3da3b3	-0.0115746735
184	0x3de96d2c	0.11397776
185	0xbd85c584	-0.06531814
186	0x3d912038	0.07086223
187	0xbd962425	-0.07331113
188	0x3d0fc683	0.035101425
189	0xbd98830a	-0.07446869
190	0x3ea254a4	0.317052
191	0xbe04e7d3	-0.12979059
192	0x3dd4edad	0.103968956
193	0xbea8efb1	-0.3299537
194	0xbe2020bb	-0.15637486
195	0x3e17c663	0.14821772
196	0xbd83f069	-0.06442339
197	0xbaa9bc4d	-0.0012949795
198	0xbe3b9ba9	-0.18321098
199	0xbe2d40a2	-0.16919187
200	0xbe5782d5	-0.21046002
201	0xbda9a048	-0.08282524
202	0x3d9a9f20	0.07549882
203	0xbe4ccb57	-0.19999443
204	0xbe737ec6	-0.23778829
205	0xbe2772f6	-0.16352448
206	0x3d88ff9b	0.06689378
207	0x3cdd686a	0.027027328
208	0x3e2c6422	0.16835073
209	0xbe1158ff	-0.14194106
210	0xbe0be174	-0.13660222
211	0xbe4898f3	-0.19589595
212	0xbd90ff3f	-0.07079934
213	0xbe359201	-0.17731477
214	0xbd2d0a3d	-0.042246092
215	0x3e1b2cd1	0.15153815
216	0x3d24dac1	0.040247682
217	0xba9af26e	-0.0011821517
218	0x3e432361	0.19056465
219	0xbced2115	-0.028946439
220	0x3ea44517	0.3208396
221	0xbdc1dca6	-0.094659135
222	0xbdd2e6b6	-0.10297911
223	0x3e83a34f	0.25710532
224	0xbddcfd4d	-0.10790501
225	0x3d45544e	0.048176102
226	0x3d2a43e0	0.041568637
227	0xbe05164c	-0.12996787
228	0xbbc957ae	-0.0061444854
229	0xbde66d90	-0.11251366
230	0x3c2b605b	0.010459985
231	0xbe47021e	-0.19434401
232	0x3d06b42e	0.032886676
233	0xbd8cbd72	-0.06872071
234	0xbd35d8c8	-0.04439619
235	0xbe3d2472	-0.18470934
236	0xbeaf7b4e	-0.34273762
237	0xbe49416a	-0.1965386
238	0x3d4b66f8	0.049658746
239	0x3ce6ea19	0.028187798
240	0x3ea059d6	0.3131854
241	0xbeaa9996	-0.33320302
242	0xbda44c55	-0.08022372
243	0xbda541a0	-0.080691576
244	0xba4b3efd	-0.00077532214
245	0xbe43c5d0	-0.19118428
246	0x3d29c1a0	0.04144442
247	0x3e45a633	0.19301681
248	0x3dd39a6e	0.103321895
249	0x3e55730b	0.20844667
250	0xbd8b2403	-0.06793978
251	0xbc857ee0	-0.01629585
252	0x3d73eff4	0.05955501
253	0x3c8cef01	0.01720381
254	0x3da50d34	0.08059159
255	0xbda06fbb	-0.07833811

network_body._body_endoder.seq_layers.0.bias f4 [64]
0	0xbafcd3f6	-0.0019289244
1	0x3aebbf77	0.0017986138
2	0x3ae63597	0.0017563578
3	0xbb1f452b	-0.0024302702
4	0xbb2f023f	-0.002670422
5	0xba01ed75	-0.00049563433
6	0x3ba194e0	0.0049310774
7	0xbb15a3bb	-0.0022833187
8	0xba9ab198	-0.0011802195
9	0xbb343b32	-0.0027501103
10	0x3a53466b	0.00080595043
11	0xbb9e01ca	-0.0048219906
12	0x3b72b1e0	0.0037032291
13	0x3b6171ec	0.0034400178
14	0xbaf67a0d	-0.0018804685
15	0xbba029d5	-0.0048877993
16	0x3b42c7e9	0.0029721207
17	0xbb8d2e6d	-0.004308513
18	0xbaf0a3a1	-0.0018359312
19	0x3b3524b1	0.0027640278
20	0xbac559ce	-0.0015056671
21	0xbb96adc1	-0.00459835
22	0xb97517f5	-0.00023373945
23	0xbb99c108	-0.0046922006
24	0x3b5990cf	0.0033197885
25	0x3b093e51	0.0020941684
26	0x3ba7b276	0.0051177097
27	0xbb8765e9	-0.0041320217
28	0x3bc23557	0.0059267688
29	0x39dee411	0.00042513062
30	0x3b4c5e23	0.003118404
31	0x3a38a8bd	0.0007044187
32	0x3b5b1a66	0.0033432483
33	0xba49b2e6	-0.00076941994
34	0x3b86d42e	0.0041146493
35	0x3abd187f	0.0014426856
36	0xbb75ed81	-0.0037525597
37	0x3ad472cc	0.0016208529
38	0x3b0864c1	0.0020812007
39	0x3b236612	0.0024932665
40	0xbb50daf2	-0.0031868783
41	0x3b7755be	0.0037740315
42	0x3afea61b	0.0019428165
43	0x3a860015	0.0010223413
44	0x3a5fa636	0.0008531542
45	0x3bad32e8	0.0052856095
46	0x394ab2ae	0.00019330785
47	0xb8b2dcbf	-8.5288186e-05
48	0xba4234d8	-0.0007408387
49	0x3b86a2e5	0.004108774
50	0xbb20fad6	-0.0024563572
51	0x3b6c7d39	0.003608538
52	0x3ab5fd78	0.0013884744
53	0x3b93115c	0.0044881534
54	0xbb2aa8fd	-0.0026040666
55	0x3b9be341	0.0047573154
56	0x3b52a97c	0.0032144478
57	0x398dcd31	0.00027046495
58	0xbb7f78bc	-0.0038981875
59	0x3ac67eba	0.0015143969
60	0xbb262193	-0.0025349602
61	0x3abe381c	0.0014512572
62	0xbae0bd9e	-0.0017146354
63	0xbb26fb76	-0.0025479472

action_model._discrete_distribution.branches.0.weight f4 [5, 64]
0	0xbc71bc4b	-0.014754365
1	0x3c2a7855	0.010404666
2	0x3b67b405	0.0035355103
3	0x3c82ee43	0.015982753
4	0xbcaf3929	-0.02138956
5	0x3c3c6e26	0.011500871
6	0x3bd4bfc5	0.0064925873
7	0xbc342d27	-0.010997093
8	0x3bbe7ca8	0.0058132
9	0xbc8e7ac0	-0.017392516
10	0x3b1325be	0.0022452916
11	0xbc5614f8	-0.013066523
12	0xbaadcb8b	-0.0013259513
13	0x3b8da1de	0.0043222746
14	0xbb9bc85c	-0.0047541093
15	0xbba2543f	-0.0049538906
16	0x3cb7fd6f	0.022459714
17	0xbc763f87	-0.015029795
18	0xbc88cdee	-0.016699757
19	0x3bbad322	0.0057014385
20	0x3a8683cf	0.0010262671
21	0xbb5ccd04	-0.0033691535
22	0xbc97847a	-0.018495787
23	0xbcb191d9	-0.02167599
24	0xbc748193	-0.014923471
25	0xbb3dc269	-0.0028954989
26	0x3ba4c750	0.0050286427
27	0xbb241447	-0.00250365
28	0x3bfc1928	0.0076934285
29	0xbcb7ac05	-0.022420892
30	0xbacdb428	-0.001569395
31	0x3b892a87	0.004185978
32	0xbc22044d	-0.009888721
33	0xbc176495	-0.009240289
34	0xba29fcec	-0.00064845267
35	0x3d1ae7f9	0.037818883
36	0xbc3ec569	-0.011643746
37	0x3c080faf	0.0083045205
38	0x3b0478bd	0.0020213567
39	0x3b099ffb	0.0020999897
40	0xbcdbbb06	-0.026822578
41	0x3bb834aa	0.0056215124
42	0x3a85a551	0.0010196363
43	0xbbe04bb1	-0.0068449606
44	0x3b7374ae	0.0037148404
45	0x3cd0a77e	0.025470491
46	0xbb7ebc62	-0.003886961
47	0xba931a62	-0.0011223073
48	0x3b3a0937	0.002838684
49	0x3c80b827	0.01571281
50	0xbc0dda76	-0.008658042
51	0x3bff1472	0.0077844197
52	0x3be3907d	0.0069447146
53	0xbcade009	-0.021224992
54	0x3bb716fa	0.005587456
55	0x3d0d29a5	0.034463543
56	0x3c14d0c2	0.009082975
57	0x3c52cc92	0.012866156
58	0xbb91f400	-0.004454136
59	0x3bc4fa91	0.006011315
60	0xbc3a565c	-0.011373129
61	0x3cbecd7c	0.023291342
62	0xbbaf64bc	-0.0053525846
63	0xbbc9bdd8	-0.0061566643
64	0x3bcb0189	0.0061952514
65	0xbb349f3b	-0.002756073
66	0x3a8a3aba	0.0010546066
67	0x3c1e185f	0.009649365
68	0x3c8edbdc	0.017438821
69	0xbc8873f9	-0.016656863
70	0xbcc1aa4f	-0.02364078
71	0xbc666a82	-0.014063479
72	0x3c666127	0.014061249
73	0xbba21e5b	-0.0049474663
74	0xbc217317	-0.0098541
75	0xbbd84e20	-0.00660111
76	0x3baf7081	0.0053539877
77	0x3b12217d	0.0022297793
78	0xbc7261d2	-0.01479383
79	0x3c61f7bd	0.013791976
80	0xbc73e6c7	-0.014886565
81	0x3ccedc61	0.02525157
82	0x3c95c41e	0.018281993
83	0x3d024071	0.031799737
84	0xbb806a20	-0.003918901
85	0x3c635246	0.013874596
86	0x3c2f3a14	0.010694999
87	0xbc3de44d	-0.011590076
88	0x3acb1665	0.0015494345
89	0xbc944dbf	-0.018103478
90	0x3be56869	0.007000972
91	0x3c9b9b2d	0.018994892
92	0xbc71ee45	-0.014766281
93	0x3c6007b2	0.01367371
94	0x3bf98703	0.0076149716
95	0x3d17e6c1	0.0370853
96	0xbc0f0010	-0.008728042
97	0xbcc05869	-0.023479657
98	0xbcade108	-0.021225467
99	0x3c46ff29	0.012145796
100	0xbc43662b	-0.011926214
101	0x3c0fe4f0	0.00878261
102	0x3c9fdf4e	0.01951566
103	0xbbf018a0	-0.0073271543
104	0x3c5c7aba	0.013456995
105	0x3941f0c3	0.00018495605
106	0xbc1c0a2e	-0.009523911
107	0xbccf8eb1	-0.025336595
108	0x3c6feff6	0.0146446135
109	0x3ab9b8ab	0.0014169415
110	0xbc024112	-0.007950084
111	0xbccd42cd	-0.025056267
112	0x3c7cd86c	0.015432458
113	0x3ce9778d	0.028499389
114	0x3c0be663	0.008538815
115	0xbcb863af	-0.02250847
116	0x3b6cba79	0.0036121889
117	0xbc926d8c	-0.017874502
118	0xba40f904	-0.0007361325
119	0x39865ea6	0.0002562899
120	0x3c93360e	0.017970111
121	0xbcb176bc	-0.021663062
122	0xbb89ceaa	-0.0042055445
123	0x3ca66953	0.020313894
124	0x3bd34f13	0.0064486354
125	0xbd1404f6	-0.036137544
126	0xbb52f76e	-0.0032190937
127	0x3d0ba8cc	0.034096524
128	0x3cc660e5	0.024216125
129	0xbb0b77c3	-0.00212811
130	0xbc2f63a4	-0.0107049085
131	0xbb83b0ff	-0.0040189023
132	0x3c867f07	0.016417993
133	0xbab4c3ab	-0.0013791224
134	0x3b0bc0f8	0.0021324735
135	0x3c837771	0.016048165
136	0xbbcf693f	-0.006329685
137	0xbcbf88a5	-0.023380587
138	0x3c5230fb	0.012829061
139	0x3b83630a	0.004009609
140	0xbbef8735	-0.007309819
141	0xbc05ec6b	-0.008174042
142	0x3b02ce7c	0.00199595
143	0xbc6cc4a8	-0.014451183
144	0x3c51d7c2	0.012807788
145	0x3b60f532	0.0034325835
146	0xbafb1a5e	-0.0019157638
147	0x3bf3e834	0.0074434523
148	0x3c399a12	0.011328237
149	0x3c06ee2d	0.0082354965
150	0xbc38aac4	-0.011271182
151	0xbb6ffa3c	-0.0036617657
152	0xbcb41e31	-0.021987053
153	0xbc002682	-0.007821681
154	0xbc04ea1f	-0.008112459
155	0x39ae0c73	0.00033197142
156	0xbb448ffd	-0.002999305
157	0x3bd707ed	0.006562224
158	0x3c21fbdb	0.009886707
159	0xbc138c50	-0.009005621
160	0xbbab6bb9	-0.0052313474
161	0x3bf2e9a4	0.007413106
162	0x3ad29f85	0.0016069269
163	0xbbd46aca	-0.006482457
164	0xbcbb8b95	-0.022893706
165	0xbbf77da6	-0.0075528203
166	0xbc5fd1bb	-0.0136608435
167	0x3ce90bd2	0.02844802
168	0xbb90c771	-0.0044183065
169	0x3c55efca	0.013057658
170	0xbbbc40a0	-0.0057450086
171	0xb96f68bb	-0.00022831831
172	0x3c86fb01	0.01647711
173	0x3c2430d7	0.01002141
174	0xbcd3c1f9	-0.02584933
175	0xbcd89298	-0.026437089
176	0x3c5ee6b4	0.013604809
177	0xbc0a9e67	-0.008460618
178	0xbc3a4cd9	-0.011370861
179	0xba3085e6	-0.00067338196
180	0xbabbd2c0	-0.0014329776
181	0xbcceedba	-0.025259841
182	0x3c696624	0.014245544
183	0xbc8c909d	-0.0171588
184	0x3bb88328	0.0056308694
185	0x3bcbc938	0.0062190555
186	0x3bc924fe	0.006138443
187	0x3ad46e67	0.0016207219
188	0x3cb2ede9	0.02184196
189	0x3c43e2f8	0.011955969
190	0xbc46564b	-0.012105535
191	0xbb47d0ce	-0.0030489448
192	0xbc460c9c	-0.012087967
193	0xbc9ace56	-0.018897217
194	0x3bba8242	0.0056917975
195	0xbca72625	-0.02040393
196	0xbba60ceb	-0.005067458
197	0x3a21d4e7	0.00061733875
198	0x37c5eb50	2.3593806e-05
199	0xbc7149b4	-0.014727045
200	0x3c955405	0.01822854
201	0xbb3bdc2e	-0.0028665173
202	0xbb89f6ef	-0.004210345
203	0xbb01c1e6	-0.001979941
204	0x3c01ca6b	0.007921795
205	0x3c54fca6	0.012999689
206	0x3c0be10c	0.008537542
207	0xbc443344	-0.011975113
208	0x3a87a475	0.0010348695
209	0x3bc37dc8	0.005965922
210	0xbb8d8b4b	-0.0043195835
211	0x3ad2f541	0.001609482
212	0xbaefd420	-0.0018297471
213	0xbbe4c30d	-0.0069812597
214	0xbc4a038b	-0.012329946
215	0xbcc4dfe9	-0.02403255
216	0x3cf084db	0.029360225
217	0x3cac2192	0.021012101
218	0x3b82d130	0.0039922222
219	0xbc35eca0	-0.011103779
220	0x3bf84f91	0.0075778444
221	0x3c8ce4ad	0.017198885
222	0xba99eb85	-0.0011743164
223	0x3cbff09f	0.023430167
224	0xbc114fa7	-0.008869088
225	0x3bd066c6	0.006359908
226	0xbbe70b53	-0.0070509105
227	0xbc96518f	-0.018349437
228	0xbc03e4d5	-0.008050163
229	0xbc84bac7	-0.016202344
230	0x3c29b788	0.010358699
231	0xbb4364b0	-0.0029814653
232	0xbc2289bf	-0.009920537
233	0x3c7f8425	0.015595471
234	0x3c4409a2	0.011965187
235	0x3b44f77d	0.003005474
236	0x3b868546	0.004105243
237	0x3c473522	0.012158664
238	0x3cc1c8be	0.023655292
239	0x3b21657a	0.0024627135
240	0xbc847a61	-0.016171636
241	0x3c8d5bc4	0.017255671
242	0xbb102d33	-0.0021999597
243	0xbbdcabcf	-0.0067343484
244	0x3c90374e	0.017604496
245	0x3c0f7e9b	0.008758212
246	0xbc67e22d	-0.014153046
247	0x3cb0d3ed	0.02158543
248	0x3c8b1228	0.016976431
249	0x3c67a630	0.014138743
250	0xbc6e92da	-0.014561379
251	0x3c48cc9a	0.012255812
252	0xbb828a7d	-0.0039837942
253	0x3c87d124	0.016579218
254	0x3b247738	0.0025095474
255	0x3c1e16a1	0.00964895

action_model._discrete_distribution.branches.0.bias f4 [5]
0	0x3b48b0cc	0.0030622957
1	0xba0e2704	-0.0005422684
2	0xb9f8f29e	-0.0004748301
3	0x3b51d031	0.003201496
4	0xbbb0d1a1	-0.0053960835
