Assets/results/Maze07/Mouse.onnx (onnx, 17067 bytes, 4 tensors)

network_body._body_endoder.seq_layers.0.weight f4 [64, 45]
0	0x3df74dee	0.12075411
1	0xbe16e281	-0.14734842
2	0xbe1c9048	-0.15289414
3	0x3e1aecd2	0.15129402
4	0xbd961c35	-0.07329599
5	0x3dab2597	0.08356779
6	0x3d30ba16	0.043146215
7	0x3def6282	0.11688711
8	0x3e49bc65	0.19700773
9	0xbe8e96e8	-0.27849507
10	0x3de644ab	0.11243566
11	0xbec573d9	-0.38564947
12	0xbd887a1b	-0.06663915
13	0xbc37b0d6	-0.011211595
14	0x3db4e005	0.08831791
15	0xbdda9bb5	-0.1067423
16	0xbeae1973	-0.3400379
17	0x3d90cbc0	0.07070112
18	0xbd0c0232	-0.03418178
19	0xbd946319	-0.07245464
20	0x3dcba81f	0.09944176
21	0xbd9b0e69	-0.07571108
22	0xbec900fb	-0.3925856
23	0xbe2aaadd	-0.16666742
24	0x3d1bd612	0.03804595
25	0xbdccc8b1	-0.09999216
26	0xbc5d88ff	-0.013521432
27	0xbdb573b6	-0.08859961
28	0x3e992ef0	0.29918623
29	0x3c6cd6c5	0.014455502
30	0xbe855c19	-0.26046827
31	0x3e1bcb9d	0.15214391
32	0x3e343480	0.17598152
33	0x3e2bcdf3	0.16777782
34	0x3e88dc8c	0.26730764
35	0x3d72b7b2	0.059257217
36	0x3eb8053b	0.3594149
37	0xbd92badb	-0.07164546
38	0xbdd718aa	-0.10502751
39	0xbe549fe9	-0.20764126
40	0x3e0ea1d6	0.13928923
41	0xbba49a2e	-0.0050232625
42	0xbda2bde4	-0.07946375
43	0xbe2a871e	-0.16653106
44	0xbd55f2b9	-0.05223343
45	0xbe7a1820	-0.24423265
46	0xbe4f769b	-0.20260088
47	0xbdd54eb4	-0.10415402
48	0x3d62465d	0.055242885
49	0xbe53401c	-0.20629925
50	0x3e5c1538	0.2149247
51	0x3d32f4ad	0.043690372
52	0x3dc1ee3a	0.09469266
53	0x3e4c34fa	0.19942084
54	0x3dea4ce1	0.11440445
55	0x3d597080	0.053085804
56	0xbe3a24d5	-0.18178113
57	0xbe31e328	-0.1737181
58	0xbd8be2fc	-0.06830403
59	0xbd03b2af	-0.032152828
60	0x3e85f5e3	0.2616416
61	0x3d2008de	0.039070956
62	0x3e89d351	0.26919034
63	0x3ca6b2dc	0.020348959
64	0xbcbc6276	-0.022996169
65	0xbe2c5b3a	-0.16831675
66	0x3d566e52	0.052351303
67	0xbdeb4616	-0.11487977
68	0x3e168e3b	0.14702694
69	0xbd1707b3	-0.036872577
70	0xbde42bd1	-0.1114117
71	0xbd9dcd3f	-0.07705163
72	0xbe4d6b4b	-0.2006046
73	0xbe3ba0e8	-0.183231
74	0xbdda549a	-0.10660668
75	0xbe4013ff	-0.18757628
76	0x3dc6e01a	0.09710713
77	0xbd6a63ad	-0.057223964
78	0x3e4f7bf9	0.20262136
79	0x3e49f891	0.19723727
80	0x3c9a740d	0.018854165
81	0x3e1f6beb	0.15568511
82	0x3de86c49	0.11348779
83	0xbda9ae16	-0.082851574
84	0xbe103131	-0.14081265
85	0x3e93e6a8	0.28886914
86	0x3d424820	0.047432065
87	0xbc71aba8	-0.014750399
88	0xbcfde835	-0.030994514
89	0xbda9cdc9	-0.082912035
90	0x3e253fae	0.16137573
91	0x3cfd7d21	0.030943455
92	0x3d8faeea	0.07015784
93	0x3e588f62	0.21148446
94	0x3c21216c	0.009834629
95	0x3e35793e	0.17722031
96	0x3da0be99	0.078488536
97	0xbd8a1e03	-0.067440055
98	0x3e00253a	0.12514201
99	0xbe73e95d	-0.2381949
100	0xbdb68e11	-0.08913816
101	0x3e24c0be	0.1608915
102	0x3e81402b	0.2524427
103	0xbe7d3646	-0.24727735
104	0x3e40509c	0.1878075
105	0xbcc33a3f	-0.023831485
106	0xbd6bfa35	-0.057611663
107	0xbe8b42e6	-0.27199477
108	0xbd21e0c1	-0.039520983
109	0x3d14b83a	0.036308505
110	0xbdcb1e38	-0.09917873
111	0x3e05bb4f	0.13059734
112	0x3d291ecd	0.04128914
113	0xbe44176d	-0.19149561
114	0xbdbcb10b	-0.09213456
115	0xbd2510ae	-0.04029911
116	0x3eb11e4b	0.34593424
117	0x3e31b201	0.1735306
118	0x3e9a0759	0.3008373
119	0xbdac99cd	-0.08427773
120	0x3c22d71d	0.009938982
121	0x3e86aae4	0.26302254
122	0x3e29cf14	0.165829
123	0xbd44f45b	-0.048084598
124	0xbdbfa5a2	-0.09357764
125	0xb9bb6041	-0.00035739134
126	0xbca0b432	-0.019617174
127	0x3e03d9aa	0.12876001
128	0x3e916215	0.28395143
129	0x3d36b3aa	0.044604935
130	0xbddbf864	-0.10740736
131	0x3e5b0682	0.21389201
132	0x3d5dd5b0	0.054158866
133	0xbd76a2cf	-0.06021386
134	0x3e111404	0.14167792
135	0xbe5af772	-0.21383455
136	0x3ecbf55f	0.3983564
137	0xbe5a8441	-0.21339513
138	0xbd27eeeb	-0.040999334
139	0x3e3117e2	0.17294267
140	0xbdad438a	-0.08460148
141	0x3d46ed57	0.04856619
142	0xbdef7ed3	-0.11694112
143	0x3e45b03a	0.19305506
144	0xbdfb4ad8	-0.12270135
145	0x3e0393ce	0.12849352
146	0xbce0de06	-0.027449619
147	0x3d1d1961	0.03835428
148	0xbe739252	-0.23786286
149	0xb9e89874	-0.00044364075
150	0xbcdce6cd	-0.026965523
151	0xbe6e14a9	-0.23250069
152	0xbe5797c1	-0.21053983
153	0x3dd5a5af	0.10431992
154	0xbd24c833	-0.040229987
155	0xbda2f0c9	-0.079560824
156	0x3e1e4dfd	0.15459438
157	0x3e373440	0.17891026
158	0x3d0bf428	0.034168392
159	0xbbd92b29	-0.0066274595
160	0xbe2fde47	-0.17174636
161	0xbe10553f	-0.14095019
162	0xbe15129f	-0.14557885
163	0x3de737ba	0.11289926
164	0x3dd33cfd	0.10314367
165	0xbe092804	-0.13394171
166	0x3e86c06b	0.26318678
167	0xbd876612	-0.06611265
168	0x3c67b3a4	0.014141951
169	0xbd809ac5	-0.0627952
170	0x3e9a7123	0.3016444
171	0x3e08aa1f	0.13346146
172	0x3ce34f1b	0.027747681
173	0x3d43c0c0	0.047791243
174	0x3e8e6961	0.27814773
175	0x3d1d471e	0.0383979
176	0xbc9b66eb	-0.018969974
177	0xbe047233	-0.12934189
178	0x3e4fdeb2	0.20299795
179	0x3e287aac	0.16453046
180	0xbe3ebdaf	-0.18627046
181	0x3d3c3552	0.045949288
182	0xbebe6e6b	-0.37193617
183	0xbc8ae603	-0.016955381
184	0xbe6fa788	-0.23403752
185	0xbdd0ba27	-0.10191756
186	0x3eed86cd	0.46391907
187	0x3e5f12bc	0.2178449
188	0xbe6bda99	-0.23032607
189	0xbd8541b6	-0.06506674
190	0xbe802a80	-0.25032425
191	0xbe76ab2c	-0.24088734
192	0xbe4bf5a2	-0.1991792
193	0xbe32cc80	-0.17460823
194	0x3e50786a	0.20358434
195	0xbde17a4c	-0.110096544
196	0xbe16d345	-0.1472903
197	0xbd155c28	-0.03646484
198	0x3d0deb7b	0.0346484
199	0x3e7be212	0.24597958
200	0x3e765c58	0.24058664
201	0x3ed58898	0.41705775
202	0x3e649aad	0.22324629
203	0xbe4f5ac0	-0.20249462
204	0x3e0c5acd	0.13706513
205	0xbcb44ab4	-0.022008277
206	0x3e1782d9	0.14796008
207	0xbd4a708f	-0.04942375
208	0x3e219599	0.15779723
209	0xbd2471f9	-0.040147755
210	0xbd5bd496	-0.053669535
211	0x3c598d07	0.013278252
212	0xbde6d33a	-0.11270757
213	0xbe76f684	-0.24117476
214	0x3ed414c4	0.41422093
215	0x3e0a8c6c	0.13530129
216	0xbdfeaa1b	-0.12434789
217	0xbe403d65	-0.1877342
218	0x3de85610	0.1134454
219	0xbd70993e	-0.058739893
220	0x3dd9a031	0.10626257
221	0xbeb358d8	-0.3502872
222	0xbdf9a31c	-0.12189314
223	0x3c1ab178	0.009441726
224	0x3c75141a	0.014958406
225	0xbe26ceae	-0.1628978
226	0x3cbad9f4	0.022809006
227	0x3c834c9e	0.016027745
228	0xbe32f339	-0.17475595
229	0x3df7a958	0.12092847
230	0x3cda9454	0.026682056
231	0x3c638eae	0.013888998
232	0xbdd3522f	-0.1031841
233	0xbe2e3018	-0.17010534
234	0x3c7746f4	0.0150926
235	0xbe67734f	-0.2260258
236	0xbd61e1f8	-0.05514714
237	0xbd8a32c0	-0.06747961
238	0xbd44229c	-0.04788457
239	0x3dc3f86d	0.09568868
240	0xbb362073	-0.0027790337
241	0x3e6d9e9e	0.23205039
242	0x3c6b403d	0.014358577
243	0x3dc833ef	0.097755305
244	0x3d474614	0.048650816
245	0xbde7e793	-0.11323466
246	0x3e0fb1f2	0.14032724
247	0x3dde830f	0.10864841
248	0xbdf02732	-0.11726226
249	0x3e430b6b	0.19047324
250	0x3e74a96f	0.23892759
251	0x3e167d78	0.146963
252	0xbe083346	-0.1330081
253	0xbd06d64e	-0.03291922
254	0x3e089fe8	0.1334225
255	0xbe07f8f8	-0.13278568

network_body._body_endoder.seq_layers.0.bias f4 [64]
0	0x39bf3c7d	0.00036475426
1	0xbae98d51	-0.0017818605
2	0x3ad9c168	0.0016613426
3	0xb874ca08	-5.836229e-05
4	0x3b7ee09b	0.00388912
5	0x3b2898ef	0.002572592
6	0xbadfa98b	-0.0017064078
7	0x3ac85f4f	0.0015287193
8	0xba853759	-0.001016359
9	0x3b32dd64	0.0027292604
10	0x3b1e720b	0.0024176862
11	0xb9b050f3	-0.00033629648
12	0x38839f77	6.2762694e-05
13	0x3a947c25	0.0011328502
14	0x3abfc059	0.0014629468
15	0xba436279	-0.0007453333
16	0xba9d8545	-0.0012017867
17	0xba9f5d16	-0.0012158479
18	0xba5d320b	-0.0008437938
19	0xba8575d0	-0.0010182206
20	0x3ab9aeb6	0.0014166448
21	0x3b3600b2	0.002777141
22	0x3ae48a32	0.0017436205
23	0x3ad220a3	0.0016031455
24	0x3b334af8	0.0027357917
25	0xbace0bed	-0.0015720107
26	0xb9ba68c5	-0.00035554744
27	0x3b2c796e	0.0026317495
28	0xbabe6ccd	-0.0014528275
29	0x3ab508d3	0.0013811834
30	0xbab9722a	-0.0014148403
31	0xba8732e3	-0.0010314848
32	0xbb0435b8	-0.002017362
33	0x3b28c279	0.002575068
34	0x3a37909d	0.0007002445
35	0xbb22b2ce	-0.0024825814
36	0x3b128b41	0.0022360834
37	0x39cee8d7	0.0003946486
38	0x3af90ac5	0.0019000402
39	0x3b25006b	0.002517725
40	0xbae034eb	-0.0017105615
41	0x3afda877	0.0019352575
42	0x3adb491d	0.0016730163
43	0xba1ea07e	-0.0006051137
44	0x3a8b23f7	0.0010615577
45	0xb98ddba3	-0.00027057258
46	0xbadcf8b7	-0.0016858791
47	0xbab1d76f	-0.0013568233
48	0x3a4a7550	0.00077231694
49	0xb9411ea1	-0.00018417324
50	0xb976a408	-0.00023521495
51	0x3a9d7d0d	0.0012015417
52	0xbaf2ae81	-0.0018515141
53	0xbb561e86	-0.0032672002
54	0xbab34fcc	-0.0013680398
55	0x3a084dac	0.00051995623
56	0x3b3765a3	0.0027984164
57	0x3b3c1aec	0.002870257
58	0x3b1d155c	0.002396903
59	0x3a946182	0.0011320563
60	0x3ad43689	0.0016190569
61	0x3ac2d022	0.0014863054
62	0xbac2350b	-0.0014816833
63	0xb9044f22	-0.0001261798

action_model._discrete_distribution.branches.0.weight f4 [5, 64]
0	0x3c18ab1d	0.00931814
1	0xbb045465	-0.0020191905
2	0xbcae0d6c	-0.021246634
3	0xbc607b08	-0.013701208
4	0x3b8ce7bf	0.004300087
5	0xba7bc5f2	-0.0009604386
6	0x3c5d64b5	0.01351278
7	0xbca80c7b	-0.020513764
8	0x3a276014	0.0006384861
9	0x3c5503ee	0.013001425
10	0xbc233eaa	-0.009963671
11	0x3c3af3ea	0.011410693
12	0x3c1479cb	0.009062241
13	0xbc6850c5	-0.014179413
14	0xbb81e286	-0.0039637713
15	0x3cb9dcf5	0.022688368
16	0x3b0dbb5e	0.0021626572
17	0xbc348ff9	-0.011020654
18	0x3bd0f405	0.0063767456
19	0xbc0a7ad1	-0.008452133
20	0xbc125f62	-0.008933874
21	0xbb45e9eb	-0.003019924
22	0xbc64b5c9	-0.013959357
23	0x3ca432a9	0.020043688
24	0xbc88bc2e	-0.016691294
25	0xbba49946	-0.0050231544
26	0x3b70e35c	0.003675661
27	0x3be5e2f7	0.0070155817
28	0xbc8237c7	-0.015895737
29	0xbc942b00	-0.01808691
30	0xbb77ae46	-0.0037793084
31	0x3ae6e78c	0.0017616614
32	0xbbe88a15	-0.007096539
33	0x3c6a8fd9	0.0143165225
34	0xbc626c28	-0.013819732
35	0xbbd46d9a	-0.006482792
36	0xbb39633a	-0.0028287903
37	0x3ca94055	0.020660559
38	0x3bff50de	0.0077916225
39	0x3bcae3a2	0.0061916867
40	0x3ba3aec7	0.0049952003
41	0xbcbbb333	-0.022912597
42	0xbc98b891	-0.018642696
43	0xbb099aff	-0.0020996926
44	0x3be02dc9	0.0068413955
45	0x3cc23b5d	0.023709947
46	0xbbbfe286	-0.005855861
47	0xbc609656	-0.013707718
48	0xbc157f97	-0.009124658
49	0xbc6a6330	-0.014305875
50	0xbbca24e9	-0.006168951
51	0x3cc241fa	0.0237131
52	0x3c114549	0.0088666165
53	0x3c092277	0.008370033
54	0xbc55289d	-0.013010171
55	0x3cac0cba	0.021002162
56	0x3c725e86	0.014793044
57	0xbac2031a	-0.001480195
58	0xbcd08234	-0.02545271
59	0xbbdce549	-0.0067412
60	0x3bfd1730	0.0077237114
61	0x3c515d59	0.0127786035
62	0x3d2c0139	0.041993354
63	0xbc20eb87	-0.009821779
64	0xbc264ace	-0.010149671
65	0xbc8686bf	-0.016421674
66	0x3c36d456	0.011159023
67	0x3c011592	0.007878678
68	0x3cb156e6	0.021647882
69	0xbbd1950a	-0.0063959407
70	0x3ba1f60d	0.0049426616
71	0x3bd74eda	0.006570679
72	0xbccef871	-0.02526495
73	0x3c906524	0.017626353
74	0x3c033b8d	0.0080098035
75	0x3cb8724a	0.022515435
76	0xbadf7819	-0.0017049342
77	0x3c1fef0c	0.009761583
78	0x3c5095b0	0.012731001
79	0x3c19cee5	0.009387706
80	0x3bb0be46	0.005393776
81	0x3b91891c	0.0044413935
82	0x3c0cf039	0.008602195
83	0xbaf18c9d	-0.0018428747
84	0x3c2c8b66	0.010531282
85	0xbb8035a6	-0.0039126454
86	0x3b8888c6	0.0041666953
87	0x3903304c	0.00012511126
88	0xba1fdfb2	-0.0006098702
89	0x3bf1a912	0.007374891
90	0x3a9655fa	0.0011469715
91	0x3c84a4b8	0.016191825
92	0x3a02d8ca	0.00049914105
93	0xbc072063	-0.008247468
94	0x3b6a3b9b	0.0035741094
95	0x3b6323bd	0.0034658753
96	0xbc49d38f	-0.012318506
97	0x3c12225f	0.0089193275
98	0x3ac7e08f	0.0015249419
99	0x3b253ce2	0.002521329
100	0x3cf71a50	0.030163914
101	0x3adedda7	0.0017003313
102	0x3c5d12bc	0.013493236
103	0x3cba8d50	0.022772461
104	0xbbfe8b25	-0.007768052
105	0x3c8bdace	0.017072108
106	0xbb73b513	-0.0037186786
107	0x3bdeaece	0.0067957407
108	0x3c8f9f50	0.01753202
109	0x3b7b78a9	0.003837148
110	0x3c476195	0.012169261
111	0xbcb50262	-0.022095863
112	0x3bd41b74	0.006472999
113	0xbba5e323	-0.005062477
114	0xbc68413e	-0.014175711
115	0x3c83f8f3	0.01610992
116	0xbb4432fc	-0.0029937616
117	0xbbfd5e95	-0.0077322223
118	0xbc97414a	-0.01846375
119	0xbb0e5195	-0.0021716107
120	0x3ce29e24	0.027663298
121	0x3c919947	0.017773284
122	0x3be78ee2	0.0070665935
123	0xbb4a4818	-0.0030865725
124	0x3a6969f4	0.0008904033
125	0x3ca104d5	0.019655624
126	0xbc034dca	-0.008014152
127	0xbbc04a39	-0.005868223
128	0xbc3e694e	-0.011621786
129	0x3c408fea	0.011753062
130	0xbc22f5e7	-0.009946323
131	0xbc5e67d9	-0.013574564
132	0x3c10bac7	0.008833594
133	0xba95a737	-0.0011417632
134	0xbb5ad9df	-0.0033394021
135	0x3bfdacbb	0.0077415383
136	0x3c840ded	0.016119922
137	0x3c907a36	0.0176364
138	0xbc1ddae7	-0.00963471
139	0x3ba9981f	0.005175605
140	0xbb87696b	-0.00413244
141	0xbbd89cb2	-0.0066104764
142	0xbbc2dd72	-0.0059468085
143	0x3c505e6c	0.012717824
144	0xbc886023	-0.016647404
145	0xbb43cbc8	-0.0029876102
146	0xbb8e9eb5	-0.0043524154
147	0xbc0eb472	-0.008710014
148	0xbca47f59	-0.020080255
149	0x3ccf6ffb	0.025321951
150	0xbc4307a9	-0.011903682
151	0x3cbcefd9	0.023063587
152	0x3cc567b7	0.024097307
153	0xbba1a3cc	-0.004932856
154	0x3b86cd71	0.004113846
155	0x39059869	0.00012740646
156	0x3abf7a89	0.0014608662
157	0x3b28ab80	0.0025736988
158	0x3c403b26	0.011732852
159	0xbb57a51b	-0.0032904807
160	0xbb44303a	-0.0029935972
161	0xbb17c4af	-0.0023158004
162	0x3c102976	0.008798948
163	0xbbdf7054	-0.0068188105
164	0x3b614490	0.0034373142
165	0xba12c4c9	-0.0005598781
166	0xbc49238d	-0.012276542
167	0x3bce3178	0.006292518
168	0xbc253b2c	-0.010084908
169	0xbcb5d77c	-0.022197478
170	0x3bea1d51	0.007144608
171	0x3b98b420	0.0046601444
172	0x3b695cda	0.0035608322
173	0xbbc27fcd	-0.005935645
174	0xbb87b8df	-0.0041419114
175	0xbc16f8a5	-0.009214555
176	0xbcaf28ae	-0.021381702
177	0x3cdd9ba6	0.027051758
178	0x3ca2da00	0.019879341
179	0xbcbeeae9	-0.023305373
180	0xbb70a029	-0.0036716557
181	0xb94f434e	-0.00019766131
182	0x3a8b2284	0.0010615145
183	0x3b8c27a5	0.004277187
184	0x3be15f1c	0.006877793
185	0x3b63a1a2	0.0034733792
186	0x3c36cec3	0.011157694
187	0x3c1b89de	0.009493319
188	0x3c0f352a	0.008740703
189	0x3c366fc4	0.011135045
190	0x3c8e03f7	0.017335875
191	0xbd0e2653	-0.034704518
192	0x3bca8373	0.0061802207
193	0xbba2b967	-0.0049659493
194	0xbca5e35b	-0.020250013
195	0xbc1a15ee	-0.0094046425
196	0xbb5ae681	-0.0033401551
197	0xba7d881e	-0.0009671467
198	0xbbcc4ba1	-0.0062346016
199	0xbb759f5f	-0.0037479026
200	0xbbaff62c	-0.005369922
201	0x3bc67ed8	0.0060576014
202	0xbcd6971e	-0.026195105
203	0xbb118540	-0.0022204667
204	0x3c905a2b	0.01762112
205	0x3cd260bb	0.02568089
206	0x3a951823	0.0011374991
207	0xbc850d41	-0.016241672
208	0x3b8cd2cb	0.0042975894
209	0x3b4480f4	0.0029984089
210	0xbca07225	-0.019585678
211	0x3c9358f1	0.017986747
212	0x3caae629	0.020861702
213	0x3c7b4ab4	0.015337635
214	0xba425f72	-0.0007414735
215	0xbbf9dc7d	-0.007625161
216	0x3b6ac883	0.003582508
217	0xbb24dede	-0.0025157253
218	0xbb248967	-0.0025106312
219	0x3ca555c8	0.020182505
220	0xbbe391db	-0.0069448776
221	0x3a62a819	0.00086462643
222	0x3b590669	0.0033115393
223	0xbbcf7b68	-0.00633185
224	0x3af1e0ee	0.0018453875
225	0x3bb0f162	0.005399869
226	0xbc9680f6	-0.01837204
227	0xbba793da	-0.005114061
228	0xbb5ed7e6	-0.0034003197
229	0x3c2fd13f	0.0107310405
230	0xbca2a971	-0.019856187
231	0x3b8e5272	0.0043433243
232	0x3bf870dc	0.0075818133
233	0xbc6344a7	-0.013871348
234	0x3c8009cc	0.015629672
235	0xbbacf6f6	-0.0052784635
236	0x3b405c20	0.0029351786
237	0xbd199ff8	-0.037506074
238	0xbb9ed011	-0.004846581
239	0x3c72f06b	0.014827828
240	0xbc3b0e2e	-0.011416955
241	0x3b1cf0c6	0.0023947223
242	0xbc97ccc3	-0.018530255
243	0x3ad27f04	0.0016059582
244	0x3b082cab	0.0020778577
245	0x3a846b5f	0.00101028
246	0xbc080cf1	-0.008303867
247	0x3c90b0a3	0.017662352
248	0xbcae9f44	-0.021316178
249	0x3cc5aae5	0.02412934
250	0xbb8db926	-0.00432505
251	0xbcb048ed	-0.021519149
252	0x3c8a5271	0.016885014
253	0xbcae557f	-0.021281002
254	0x3cd9b355	0.02657477
255	0xbc86f9f7	-0.016476614

action_model._discrete_distribution.branches.0.bias f4 [5]
0	0xba2c826d	-0.0006580714
1	0x3b0eb1ca	0.002177345
2	0x3aa5ac45	0.0012639841
3	0x3992bd0a	0.00027988135
4	0xbb51bc77	-0.0032003203
