Assets/results/Maze08/Mouse/checkpoint.pt (torch, 721314 bytes, 33 tensors)

network_body._body_endoder.seq_layers.0.weight f4 [64, 45]
000000 58 03 fa 3c 49 b7 0d bd cf 11 e4 3d 66 ca a5 3c
       0.030519173 -0.034598622 0.11136209 0.020238113
000010 56 01 07 be 5e e9 fb 3c 69 a9 49 3d a8 ac 17 3e
       -0.13184103 0.030750927 0.049233828 0.14811957
000020 19 de 4d 3d da 68 ba 3c c2 a2 2a bd b7 a1 d0 bd
       0.050260637 0.022755075 -0.041659124 -0.10187095
000030 31 f0 15 be d1 e2 8d 3d 5e 63 aa be e3 ee 44 3d
       -0.14642407 0.069280274 -0.33278936 0.048079383
000040 79 d5 8e bb 74 a3 0a 3d f7 f7 8a 3d c3 37 a0 3c
       -0.004358944 0.033847287 0.06785577 0.01955784
000050 5b 47 85 3e 27 2f b9 3c d7 8d 21 3d e8 89 03 3e
       0.26031002 0.022605492 0.03944191 0.12845576
000060 1e 3a b0 bc 36 a4 b7 3e 6c 4a 72 be d1 4d 38 3e
       -0.021512087 0.3586747 -0.23661202 0.17998435
000070 46 5a 62 3e f9 c5 ed bd 48 33 17 be 24 2a 49 3d
       0.22104749 -0.11610026 -0.14765656 0.049112454
000080 be 51 18 bd 08 e3 cc be d2 0a 69 3e b6 32 2b bd
       -0.03718733 -0.4001696 0.22758034 -0.04179641
000090 8c 18 42 3d 3f 1b 11 3e 54 06 15 3c fb e0 c4 be
       0.04738669 0.1417055 0.009095747 -0.38452896
0000a0 bc 5f 86 bd d4 21 8a 3d 83 42 76 bd 3c 17 2f bd
       -0.06561229 0.067447335 -0.060122024 -0.042746767
0000b0 02 5b 2b 3e cf 7c c4 3d 41 8a 07 bd 22 0f 70 3d
       0.16733935 0.09594118 -0.033090834 0.05860818
0000c0 d7 1a c5 bb 0b 1c 11 3e dd 81 86 ba d2 6f ff 3d
       -0.0060151624 0.14170854 -0.0010262091 0.124725
0000d0 4e 58 21 be df 84 5f 3d ca 99 f0 3c ab db 9f 3d
       -0.15756342 0.054570075 0.029370207 0.0780557
0000e0 8e 3b 94 bd b4 0c 04 3d 92 69 39 bd b7 79 d5 3d
       -0.07237922 0.032238677 -0.045266695 0.10423606
0000f0 91 8e 7c 3d 68 a4 56 3e ad 35 a5 bd 12 18 39 3e
       0.0616594 0.20961154 -0.080668785 0.18075588
000100 cc 88 85 be 66 45 6d bd a7 70 93 3d 8f 39 b5 3d
       -0.2608093 -0.05792751 0.07199221 0.08848869
000110 14 41 82 be 7f 57 47 be bc e3 ec bd 22 6a ae be
       -0.25440276 -0.19466971 -0.115668744 -0.34065348
000120 cf a5 75 3d 12 80 52 bd d1 ff 76 bb d2 c7 56 bd
       0.05997258 -0.05139167 -0.00376891 -0.052436657
000130 4b 05 a3 bd 30 d1 d4 3d 4c 50 5b 3e 44 cc 52 bd
       -0.07959994 0.10391462 0.2141735 -0.051464334
000140 8f 44 2e 3e 74 48 6e be 93 4d 12 3e 53 28 ed 3c
       0.1701834 -0.23269826 0.14287405 0.028949892
000150 30 e1 34 bd f4 83 10 3e 9a 0d 75 3e ea 2a 81 bd
       -0.044160068 0.14112836 0.2393097 -0.06307013
000160 03 01 a0 bb 96 14 11 bc e5 fc 93 3d 3d 68 61 3e
       -0.004882933 -0.008855006 0.0722597 0.2201242
000170 a8 f1 49 bc 66 99 26 be 30 21 1f 3e 7a 55 41 be
       -0.012325682 -0.16269454 0.15540004 -0.18880263
000180 31 68 09 3e d8 fc a9 3d 70 14 50 bd 80 cb 4b 3e
       0.13418652 0.08300179 -0.05080074 0.19901848
000190 f6 12 39 be 4c 25 33 bd 86 98 25 be a5 f6 d6 bd
       -0.1807364 -0.04373674 -0.16171464 -0.104962625
0001a0 da 0a 5f be c7 cd 2e 3e 45 1f d5 3c 70 eb 7d 3c
       -0.21781483 0.17070685 0.026015887 0.015498027
0001b0 40 c5 2f 3d ce 96 74 be 53 4f ad 3c 26 1b 8e bd
       0.04291272 -0.23885652 0.021155989 -0.06938772
0001c0 1a 92 f1 bb 1f 1c 1f be 1e ff 9c be 00 c8 8b bd
       -0.007372153 -0.15538071 -0.3066339 -0.06825256
0001d0 55 13 54 be b0 17 45 be 4a 6d ec 3d 7e dd 25 3e
       -0.207105 -0.19247317 0.11544283 0.16197774
0001e0 2a ee 08 bd 06 31 aa bc 2f 5d 16 3c 9d 81 c5 bd
       -0.033430256 -0.02077533 0.00917749 -0.096438624
0001f0 39 b6 bf bd 3d 94 40 be 95 bb 80 3d ad 65 33 be
       -0.09360928 -0.18806548 0.062857784 -0.17519255
000200 8c 34 6e be 60 11 a9 bd 78 2c 14 3e 9c 77 4c be
       -0.23262233 -0.08255267 0.14470088 -0.19967502
000210 15 83 1a 3e bd 0b 75 3e 43 50 b8 bb 3a d6 4f bd
       0.15089066 0.23930259 -0.0056248023 -0.05074141
000220 68 ad 1d 3e a9 24 e7 bc 83 53 71 3d 5e a2 96 be
       0.1539818 -0.028215723 0.058917534 -0.2942075
000230 8b 59 2b 3e c6 30 2c 3b 42 a8 a0 bd 37 2d 66 3e
       0.16733377 0.0026274188 -0.07844593 0.22478186
000240 7a e6 cd bd 5a ce 12 bd 17 5a 8a 3a dd cb 6b 3c
       -0.100537255 -0.035841323 0.0010555413 0.0143918665
000250 99 ba c3 3d 53 58 09 bd 18 61 a7 3d 50 27 c6 3b
       0.09557075 -0.0335315 0.08172816 0.006047167
000260 9c 31 1a be 9b c7 fa bd ec 4d 8e 3c cb 70 3a bd
       -0.15057987 -0.12245103 0.01737114 -0.045517724
000270 8f e2 4f 3d e6 52 56 be 87 5d b6 3c 7d 15 ad be
       0.050753172 -0.2093006 0.022261394 -0.33805457
000280 91 f6 62 be 27 9e 14 3e 17 20 61 3e bf 03 02 3e
       -0.2216437 0.14513455 0.21984898 0.12696742
000290 df 80 8d bd 46 4f 85 be 19 73 37 3d b5 f9 2d 3d
       -0.06909346 -0.26037043 0.0447875 0.042474467
0002a0 e8 33 c5 bd 0f 1f 1a bd 05 6a 64 3d 6b e7 7a 3e
       -0.09629041 -0.037627276 0.05576517 0.24502341
0002b0 e5 e4 b5 bd 4e 45 ca bd ed 57 75 bd cf 1d 06 3e
       -0.08881549 -0.098765 -0.059898306 0.13097309
0002c0 48 8c 24 be 98 ae e0 3e d9 e6 00 be 94 42 fa bd
       -0.16069138 0.43883204 -0.12588061 -0.1221973
0002d0 80 8f 59 be b8 44 34 bd c8 c2 e7 bd d9 6e 75 be
       -0.21246147 -0.044010848 -0.113164485 -0.23968066
0002e0 3d 09 0d 3e 82 50 8d 3e de 11 32 3d 4f 5f b0 bd
       0.13773055 0.27600485 0.04347407 -0.08611929
0002f0 9a e0 96 3d b5 10 a9 bd 7b d3 e2 3d ca bc e6 3d
       0.07367058 -0.0825514 0.11075493 0.112664774
000300 28 03 2d 3e 7f d5 5b 3e 87 8f 0c 3d 2f ff 7d be
       0.16895735 0.21468161 0.034316566 -0.24804376
000310 0e 69 2e 3e 95 0b dd bc 16 d5 0f bd f6 9b 0f be
       0.17032263 -0.026983062 -0.035115324 -0.14024338
000320 6c a2 5d 3d d6 f7 66 3d 58 8a df bd 53 bd 7d be
       0.054109976 0.0563887 -0.10915059 -0.24779253
000330 d9 4a cc 3d e8 d5 a6 3d d5 e7 25 bd 4d 86 96 3d
       0.099752136 0.08146268 -0.040504295 0.073498346
000340 f1 da bd bd 16 66 fe bd bd b1 75 bd db e9 72 be
       -0.092702754 -0.12421815 -0.059983958 -0.23722021
000350 fc 3f 34 3e ce 0c 1d be 02 f4 b1 3e da 56 c8 bd
       0.17602533 -0.15336916 0.34756476 -0.097821906
000360 5e bf bd bc 70 74 36 3e 89 07 36 be ea 97 c8 3d
       -0.02316254 0.17817855 -0.17776312 0.097946
000370 c6 49 3b 3e 1e f7 27 bd 2c 0c ce bd f8 c7 f7 bd
       0.18289861 -0.041007154 -0.10060915 -0.12098688
000380 00 a0 ed bc 99 9a a9 3d a5 e5 d3 be 79 e1 0d be
       -0.029006958 0.0828144 -0.41386142 -0.13855542
000390 d7 79 0f be a3 27 b5 be ce a2 59 3e f8 3a 15 3e
       -0.14011322 -0.35381803 0.21253511 0.14573276
0003a0 28 b1 0d be 7b 9b 4f be 38 cd 58 be a3 a1 59 3d
       -0.13837111 -0.20274155 -0.21172035 0.053132664
0003b0 0b a8 bd bd 92 8a bf 3c 33 48 21 be f4 e7 04 3c
       -0.09260567 0.023381505 -0.15750198 0.008111943
0003c0 cd 84 51 bd f9 be 1b bd a9 08 89 bd f6 81 85 3d
       -0.05115204 -0.038023923 -0.06691105 0.06518929
0003d0 b4 a4 49 3e 81 21 4b b9 61 50 61 be 2c 7b 8e bd
       0.19691736 -0.0001937207 -0.22003318 -0.06957087
0003e0 12 dc ad bd 2b 77 c9 3e b1 e4 10 3e 78 7b 00 bd
       -0.08489241 0.3934873 0.14149739 -0.03136775
0003f0 9c 6d cc 3d e1 0c b6 bd 5f e2 95 bc 73 32 08 3e
       0.09981844 -0.08889175 -0.018296419 0.13300495

network_body._body_endoder.seq_layers.0.bias f4 [64]
000000 c1 07 84 ba 37 d4 42 3a 17 03 69 ba c1 45 08 ba
       -0.0010073112 0.0007432135 -0.0008888705 -0.00051983824
000010 82 81 4e ba e5 cd 3f ba e2 56 1a 3a a3 f9 04 ba
       -0.00078775745 -0.00073167525 0.00058875803 -0.0005072599
000020 e1 64 6f 3a f2 67 a8 b9 0a b7 d3 b9 98 76 07 3a
       0.00091321586 -0.00032120902 -0.0004038143 0.0005167513
000030 02 dd ae b9 ba b2 49 ba a4 da 2a 38 66 2b 8f b8
       -0.0003335253 -0.0007694174 4.0734783e-05 -6.826855e-05
000040 7a d4 96 b8 3a 9d 7b ba 78 e8 5a 3a 65 cd 19 b8
       -7.192134e-05 -0.0009598319 0.00083506806 -3.666933e-05
000050 9c 5c 06 3a 2e 66 f1 39 9a 3c 59 39 ff b1 14 ba
       0.0005125494 0.00046043232 0.00020717309 -0.00056722754
000060 cc 2e 73 3a 7e 96 a1 ba 2d 53 e4 b9 e6 c7 3d 39
       0.00092766876 -0.0012328175 -0.0004354952 0.00018098913
000070 d9 70 d3 39 7c b0 25 b8 9d a2 75 ba cc 16 ae 39
       0.00040329134 -3.950343e-05 -0.00093702396 0.0003320485
000080 70 1c 98 36 6a 94 ab b8 35 cd ff 39 81 48 3f ba
       4.5332636e-06 -8.18156e-05 0.0004879028 -0.00072968757
000090 cc 53 2d 3a 72 e2 df 38 1c 23 8e 39 8c e6 bc b9
       0.0006611913 0.00010675647 0.0002711051 -0.00036029925
0000a0 ab 2a 90 3a fe e8 36 3a b9 1b c1 3a d0 f4 b6 39
       0.0010999044 0.00069774676 0.0014732993 0.00034896145
0000b0 fa 95 ae 38 bb 11 06 b8 e9 2f 69 38 d0 d7 51 ba
       8.324902e-05 -3.1964602e-05 5.559615e-05 -0.0008004876
0000c0 ee b6 6c 3a fa 11 8a ba 97 fc a9 b9 00 30 77 3a
       0.0009029944 -0.0010533922 -0.00032422386 0.0009429455
0000d0 07 0d a3 ba 4e 0d 4c ba 85 36 3e ba b8 83 5b ba
       -0.0012439796 -0.0007783965 -0.0007256049 -0.00083738146
0000e0 84 a3 b3 ba 9e 29 12 ba 76 05 7f b9 f9 34 d3 b9
       -0.0013705348 -0.00055756595 -0.0002432073 -0.00040284524
0000f0 21 03 a8 b9 2b 00 93 b8 fe ff 13 ba 17 a9 29 ba
       -0.00032045788 -7.0095375e-05 -0.0005645751 -0.0006472035

action_model._discrete_distribution.branches.0.weight f4 [5, 64]
000000 d5 09 9c bb 7d 6a ee ba a9 64 6d 3c e2 d2 c1 3a
       -0.0047619143 -0.0018189695 0.014489331 0.001478758
000010 e6 17 40 3b 43 e4 81 3c 47 e9 99 39 c2 2d 34 3c
       0.002931112 0.015855914 0.0002935624 0.010997238
000020 db 46 55 bc 04 be d2 3c 86 f3 8c 3c 02 32 d1 3b
       -0.013017382 0.025725372 0.017205965 0.006384135
000030 7a d9 e7 3c 57 e6 c0 3c ba 7d 2d bc 05 b7 66 bc
       0.028301943 0.023547335 -0.010589058 -0.014081721
000040 0c d7 5b 3c fe 91 2e 3c 2d cb 43 3c 16 0c 11 bd
       0.01341797 0.010654924 0.011950296 -0.035411917
000050 96 da 9b bc 1e 01 a1 3b 55 0d 33 3c d1 31 e4 3b
       -0.019025128 0.0049134633 0.010928472 0.0069639464
000060 8a 99 23 bc 35 20 e0 3b 0e 13 c9 3b a5 7b ce 3c
       -0.009985337 0.006839777 0.0061363047 0.025205443
000070 ad e0 5d bc 70 b8 b9 3b d8 3a eb ba e7 00 8a bc
       -0.013542336 0.0056677386 -0.0017946614 -0.016846133
000080 3f f0 0e bc 98 ba 0f bc b0 c2 0c bd 5a 5d 8a bb
       -0.008724271 -0.008772515 -0.034365356 -0.004222554
000090 fc 5b 97 3b 5a e5 6e 3b 72 43 b2 bc fe 0b 04 bb
       0.0046191197 0.0036452622 -0.021760676 -0.002014875
0000a0 9e d2 3d bb 10 07 83 ba bb 58 58 bc 5c 43 2e 3c
       -0.002896465 -0.0009996612 -0.013204749 0.010636177
0000b0 b8 0c 6c 3c 9b f2 27 bb 4d e9 a8 3b 9e 7f 0b bc
       0.014407329 -0.0025626782 0.0051547647 -0.008514313
0000c0 a3 ae e2 3b 1a 42 21 3c 40 b5 14 3c 61 5a 87 bc
       0.006917791 0.00984242 0.0090764165 -0.016522588
0000d0 e7 91 74 3b 49 cb dd bb 14 ad 3d bc 0a ec 22 3c
       0.003731841 -0.0067686182 -0.01157691 0.009943971
0000e0 97 6f 3d bb 91 72 92 3b bc d9 b9 bb 22 5f b0 3c
       -0.0028905624 0.004469224 -0.005671708 0.021529738
0000f0 66 66 87 bc 48 3c c1 3c 18 18 51 bc de c5 49 3c
       -0.01652832 0.023588315 -0.012762092 0.012315242
000100 81 38 9c ba c9 4e e0 bb 3b ec 89 3c a9 6a 90 3a
       -0.0011918695 -0.0068453294 0.016836276 0.0011018115
000110 5e a6 ca 3c 31 f7 18 bb 5e 59 8a 3c 30 eb 66 3b
       0.024737533 -0.0023340697 0.016888317 0.0035235398
000120 b7 bb 46 bc a7 cb 05 3d c1 6b 31 bb ad a6 73 3b
       -0.012129716 0.03266492 -0.0027072283 0.0037178204
000130 0b b6 46 3c e2 5a a0 3c 46 06 99 3c 0a c4 5d 3c
       0.012128363 0.019574586 0.01867975 0.013535509
000140 43 3f b2 3b 54 6c f7 bb 9e 32 86 bc 05 94 13 3b
       0.0054396703 -0.0075507555 -0.016381558 0.0022518646
000150 2f 77 26 3c fd 41 89 3c cf db ec 3c f4 ae e4 3a
       0.0101602515 0.016755098 0.028913407 0.001744716
000160 ca fe 1a bc ba f7 9b bb 75 d8 ad 3c a0 4e 7f bc
       -0.0094601605 -0.004759756 0.021221379 -0.0155827105
000170 6c ef 06 bd f2 9e 86 bc 1c db 3a bc 36 f6 0c 39
       -0.032943174 -0.016433213 -0.011404779 0.00013443161
000180 38 e6 39 3c cf 5a 80 3a 01 9c d6 38 1a e9 43 bc
       0.011346392 0.0009792688 0.00010233373 -0.011957431
000190 cc fc f1 39 2e 5d 0f bc b6 62 99 3c 3e b1 ad b8
       0.0004615545 -0.008750243 0.018723827 -8.282297e-05
0001a0 d8 ee 0e 3c 2d 8e ff ba d4 54 92 3b aa 73 04 3c
       0.008723937 -0.0019497328 0.0044656787 0.008084217
0001b0 dd ea 96 bc a4 57 90 3c 72 10 2f 3c dd a0 69 bc
       -0.018422538 0.017619915 0.010685073 -0.014259544
0001c0 4e 52 e0 3b ad ef 53 3b 29 14 91 bc c3 1c 78 3b
       0.006845749 0.0032338903 -0.017709808 0.003785894
0001d0 09 94 1b 3b fd 10 71 bb 63 ce 21 3a f8 b9 e8 3b
       0.002373936 -0.0036783807 0.00061724166 0.0071022473
0001e0 d6 4d d7 bb 7d 75 87 bb 38 27 d3 3a 92 6c 03 3b
       -0.006570558 -0.0041338787 0.001610971 0.0020053727
0001f0 7a c8 40 3c 01 f4 90 bb be 38 f8 3b 17 f9 84 ba
       0.011766547 -0.004423619 0.0075751236 -0.0010145035
000200 1f 9c a1 bc 58 fb d9 3c 44 51 cc bb 27 ae 32 ba
       -0.019727765 0.026609108 -0.0062352736 -0.0006816112
000210 95 42 0c bb f7 6d 4b 3c b9 74 05 3c b6 79 0d bc
       -0.002140199 0.012416354 0.008145505 -0.008634975
000220 5c 21 3f bc 88 41 35 bc 0d 99 f0 bc 2b 83 97 bb
       -0.011665668 -0.011062987 -0.029369855 -0.0046237907
000230 cb c7 de bb 67 93 dc 3b 14 1d c6 bc ff 8c cc bb
       -0.0067987195 0.006731439 -0.024183787 -0.006242394
000240 51 34 2d bb 8e dc 6d bc 8b 54 9a 3c a4 a2 8b 3b
       -0.0026428888 -0.014517916 0.018839141 0.0042613316
000250 47 69 31 3c 7d 6e 00 3c 3b 77 84 3b c5 8f 39 bc
       0.010828323 0.007838842 0.0040425337 -0.011325781
000260 24 90 8c 3c dd 57 36 bc 2c e2 9e bc bf 25 30 ba
       0.017158575 -0.011129347 -0.019394957 -0.0006719492
000270 66 a3 3c 3c 03 b5 7b 3c d7 ab 23 bc de 96 3b 3c
       0.011513567 0.015362981 -0.0099897 0.011449544
000280 e4 bd a7 3c 98 37 97 3b 08 c2 f0 bb b1 0d 90 bb
       0.02047629 0.0046147816 -0.007347349 -0.0043961634
000290 e9 d6 24 bc f7 94 34 3c 3e de 9f ba 0f fd 65 bc
       -0.010061004 0.011021844 -0.0012196971 -0.014037385
0002a0 fb 5a c1 3c 91 92 56 3a 08 e1 de ba 76 1f 11 bb
       0.023602953 0.0008185292 -0.001700432 -0.0022143996
0002b0 4d 68 c6 3b 13 ea 80 bc 8c aa cd bb 85 74 8a bc
       0.006054914 -0.015736615 -0.0062764343 -0.016901264
0002c0 c0 b0 d0 3c 9b 3e b1 bb e9 a7 5a bb 95 6d ad 3c
       0.025474906 -0.0054090745 -0.0033364242 0.021170417
0002d0 cb c8 5d bc 0d 6e 3d bb 1e 5e ef bb 7c 01 57 3b
       -0.013536642 -0.0028904707 -0.007304921 0.0032807281
0002e0 e6 65 51 bc 8d e1 cb 3b cc e1 6e bb a2 a0 83 bc
       -0.012780642 0.006221956 -0.0036450503 -0.016067807
0002f0 bf ad 82 3c 51 37 da 3b 17 8e 6c bc 41 6d bc bc
       0.01595199 0.0066594263 -0.014438174 -0.023001315
000300 a1 b7 4e 3b de a5 01 3b 60 2c 3f 3b da 3b c7 bb
       0.0031542557 0.0019782702 0.0029170737 -0.006080133
000310 a0 41 16 bb f6 88 e5 3b a5 10 57 3b dc 11 da bb
       -0.00229273 0.0070048524 0.0032816317 -0.006654961
000320 3e 8c ee bb 3b 5e bf bc 27 20 b0 3b b4 9c 23 3c
       -0.0072799018 -0.023360362 0.0053749266 0.009986091
000330 e1 45 d2 3b af 2b 9d bb b4 9d 8b 3c bb 1c 33 3c
       0.0064170216 -0.0047964673 0.017042972 0.010932143
000340 a2 0b a0 3c e6 cf ba 3a 02 c7 90 3c 0d ea c9 bc
       0.019536797 0.0014252632 0.01767302 -0.024647737
000350 ec 1a d4 3b a4 97 60 3c 2c ad c8 39 62 22 22 3c
       0.006472936 0.013708029 0.00038275996 0.009895893
000360 14 79 8d ba 39 b7 22 bc aa d1 21 3c 2d cf 39 3c
       -0.001079353 -0.009931379 0.009876648 0.011340898
000370 e5 e3 96 3a 87 f8 d9 bb 0a 74 04 bd 15 1f e4 bc
       0.001151201 -0.006651941 -0.032337226 -0.027846852
000380 05 6f 7c bb 43 02 19 bd 4e c2 7e 3c c7 9d 93 3b
       -0.0038518321 -0.037355673 0.015549256 0.0045048925
000390 10 43 f0 3b 7b 5d 0e 3c 67 12 8b 3c 92 c8 1e 3c
       0.007332213 0.00868928 0.016976548 0.009691374
0003a0 77 d4 9f 3c 82 e6 43 bc 3c 50 27 bb e1 c6 1b 3c
       0.01951049 -0.011956813 -0.002553 0.009507866
0003b0 0b d0 12 bb 2b 50 54 3c 71 bb ce bc f0 46 0d 3c
       -0.0022401835 0.012958567 -0.025235863 0.00862287
0003c0 d0 2e 23 bc 9f 74 f9 b9 b3 e5 eb 3a c1 ef e7 39
       -0.009959891 -0.0004757987 0.0017997533 0.00044238384
0003d0 18 d8 97 bc 8b a1 d0 3a 8c bc 15 bc 95 63 8f bc
       -0.018535659 0.0015917284 -0.009139191 -0.01750354
0003e0 dc d0 4e bc 25 26 cc bb 83 b0 5b 3c a4 e6 89 bc
       -0.012623038 -0.006230133 0.013408783 -0.01683361
0003f0 93 3b b1 bc 14 4f f7 bb 0b 41 34 bb e5 82 9a bb
       -0.021634853 -0.0075472686 -0.002750459 -0.004715311

action_model._discrete_distribution.branches.0.bias f4 [5]
000000 fc 8c 88 b9 06 79 92 39 63 06 64 3a cd 39 83 39
       -0.00026044983 0.0002793746 0.00086984615 0.00025029332
000010 8f 9c 91 ba
       -0.001110928

exp_avg f4 [64, 45]
000000 6b 6b 71 38 00 00 00 00 e6 00 c7 38 17 96 ea 38
       5.755892e-05 0.0 9.489227e-05 0.00011185946
000010 bf a0 06 39 74 a6 24 39 ec bb 2d 38 59 53 06 38
       0.00012839118 0.00015702267 4.142143e-05 3.2025713e-05
000020 f1 09 da 38 ec 2c 7d 38 00 00 00 00 83 81 d4 38
       0.00010396902 6.0361737e-05 0.0 0.00010133071
000030 f7 18 e0 38 a8 06 ba 38 0d 75 f8 38 53 02 10 39
       0.000106858024 8.870411e-05 0.00011847364 0.00013733776
000040 b3 07 89 38 95 f2 d2 38 8a 94 56 38 00 00 00 00
       6.534103e-05 0.00010058765 5.1159914e-05 0.0
000050 b5 3f bc 38 ca 16 08 39 a4 0c ac 37 0e 55 e2 38
       8.976405e-05 0.0001297846 2.0509884e-05 0.000107923624
000060 3d 92 94 38 d0 44 e9 38 29 72 e8 38 da fa 67 38
       7.084429e-05 0.00011123123 0.00011083886 5.5308315e-05
000070 00 00 00 00 f3 4b d4 38 34 84 05 39 a0 44 aa 38
       0.0 0.000101230944 0.00012733118 8.119014e-05
000080 53 a8 36 39 e1 1b 96 38 9e b1 6b 38 cf 6f f8 38
       0.00017419578 7.15775e-05 5.6193785e-05 0.000118463875
000090 d8 73 63 38 00 00 00 00 45 fb c4 38 a5 c9 ec 38
       5.4228905e-05 0.0 9.392811e-05 0.00011290916
0000a0 b6 47 19 39 94 e0 40 39 c1 92 30 38 90 7a 3d 38
       0.00014617931 0.00018394209 4.2098345e-05 4.5175257e-05
0000b0 9a ed d5 38 27 54 ae b8 00 00 00 00 d7 31 27 b9
       0.00010200888 -8.312641e-05 0.0 -0.00015944928
0000c0 bd 60 e6 b8 71 dd 45 b9 8b 81 40 b9 d5 2d d7 b8
       -0.000109852735 -0.00018869877 -0.00018358805 -0.00010260536
0000d0 ec 51 bc b8 db 7c 09 b9 66 4e b3 b8 00 00 00 00
       -8.979798e-05 -0.0001311185 -8.549988e-05 0.0
0000e0 a3 71 2c b9 c5 53 b4 b8 15 ff 53 b9 2f 71 08 b9
       -0.00016445531 -8.598672e-05 -0.00020217554 -0.00013012135
0000f0 91 f2 70 b9 29 f6 e2 b8 c3 36 ea b8 ef 23 83 b8
       -0.00022978547 -0.00010822371 -0.0001116819 -6.25326e-05
000100 00 00 00 00 13 29 f6 b8 bf 92 b0 b8 e7 bd d0 b7
       0.0 -0.00011737845 -8.4196676e-05 -2.4883962e-05
000110 df d3 a9 b8 3b 87 18 b9 b3 a4 34 b9 bc cd bb b8
       -8.098012e-05 -0.00014546227 -0.00017227493 -8.955176e-05
000120 ae 80 87 b8 00 00 00 00 ea cd 04 b9 38 50 9c b8
       -6.46127e-05 0.0 -0.0001266521 -7.4536016e-05
000130 b9 45 53 b9 fd 23 08 b9 40 8b ad b8 72 30 c7 b8
       -0.00020148502 -0.00012983377 -8.27522e-05 -9.498083e-05
000140 82 14 bf b8 45 6f 92 b8 00 00 00 00 3a 2d 03 b9
       -9.1114096e-05 -6.982548e-05 0.0 -0.00012509982
000150 5e e9 81 b8 a6 f2 87 b9 37 ae 67 b9 b6 31 f7 b7
       -6.1946674e-05 -0.00025929994 -0.00022094777 -2.9467843e-05
000160 c3 99 9f b8 2c cf a2 b8 df 77 7d 37 00 00 00 00
       -7.610351e-05 -7.763351e-05 1.5107885e-05 0.0
000170 1f 2c cb 37 35 08 f6 37 b1 da c8 b6 67 f3 88 37
       2.4220031e-05 2.9329307e-05 -5.9859235e-06 1.6325806e-05
000180 1f 29 48 38 d3 6f 62 38 87 00 e0 37 10 6c 6a 37
       4.7722013e-05 5.3986743e-05 2.6703126e-05 1.3972647e-05
000190 00 00 00 00 ef 2e b6 37 f4 8a e3 37 99 1c 11 38
       0.0 2.1717946e-05 2.7125214e-05 3.4597328e-05
0001a0 5a 4d e2 37 c4 10 d5 38 d2 4f c2 b7 9a 72 b6 37
       2.6977319e-05 0.00010159754 -2.3163771e-05 2.1749456e-05
0001b0 8f ef a6 36 00 00 00 00 d0 6e 56 37 4c 59 1a 38
       4.975074e-06 0.0 1.27811945e-05 3.6799625e-05
0001c0 66 ec ad b6 37 7d 4f b8 5f f4 00 39 13 69 b9 b7
       -5.183322e-06 -4.946926e-05 0.00012298067 -2.2102648e-05
0001d0 4b 7a dd 37 14 52 db 36 00 00 00 00 c1 6d 91 37
       2.64022e-05 6.5362638e-06 0.0 1.7336455e-05
0001e0 c7 6f f5 37 55 60 70 38 4b 10 9c 37 8c 28 8b 38
       2.9258326e-05 5.7310175e-05 1.8604236e-05 6.635589e-05
0001f0 77 c4 24 b8 ad ed d5 37 dc e1 60 37 00 00 00 00
       -3.928362e-05 2.5502255e-05 1.3404027e-05 0.0
000200 65 d1 09 38 7a 79 12 38 1d 54 c8 38 2e 16 4b 38
       3.285836e-05 3.4922246e-05 9.5524105e-05 4.8419628e-05
000210 3c 65 a4 38 ef d2 b6 b8 6f e7 1d 38 11 1a f0 33
       7.838986e-05 -8.717726e-05 3.7647256e-05 1.1180612e-07
000220 00 00 00 00 4d f1 5e 37 b5 ef 8e 37 7c 58 9a b7
       0.0 1.3288413e-05 1.7039341e-05 -1.8399434e-05
000230 e5 e1 b4 b7 c2 20 f6 37 c6 75 eb 37 d4 e9 aa 37
       -2.1562862e-05 2.934074e-05 2.8069026e-05 2.0374464e-05
000240 41 7f 03 36 00 00 00 00 ee ef 97 37 f4 50 dc 37
       1.9594593e-06 0.0 1.8112329e-05 2.626374e-05
000250 2c 17 96 35 50 33 2f b7 15 77 07 38 f0 7d f2 36
       1.1182615e-06 -1.044276e-05 3.2297412e-05 7.226823e-06
000260 82 d7 f8 37 e0 d9 16 b6 00 00 00 00 52 11 23 37
       2.9664257e-05 -2.2478562e-06 0.0 9.71959e-06
000270 e6 b8 bb 37 78 08 ef b6 67 06 be b7 a5 91 42 38
       2.2378237e-05 -7.123741e-06 -2.2652746e-05 4.6388846e-05
000280 ca 0e ba b7 c2 4d c8 37 7b 0a 48 b6 00 00 00 00
       -2.2179815e-05 2.3878067e-05 -2.9808423e-06 0.0
000290 8c 9e 22 37 c4 46 a8 37 24 4b 49 37 8f a2 0b b7
       9.692867e-06 2.0060113e-05 1.1998029e-05 -8.322894e-06
0002a0 d5 57 6e 37 9d 82 b9 b7 f6 55 bb 37 8e 27 05 35
       1.4206355e-05 -2.211454e-05 2.2332166e-05 4.960392e-07
0002b0 00 00 00 00 b6 a0 a6 37 fc f1 00 38 34 bd 3c 37
       0.0 1.9863579e-05 3.0742944e-05 1.12497255e-05
0002c0 6b fa 4e 36 7b 48 f5 37 88 df 16 b8 24 21 16 38
       3.0842155e-06 2.9240027e-05 -3.5970967e-05 3.579365e-05
0002d0 da 71 7e 38 00 00 00 00 65 33 02 39 b3 16 3a 39
       6.066435e-05 0.0 0.00012416912 0.00017746798
0002e0 29 5c 84 b8 dc 3e 09 37 fd 7c 88 39 cf df 82 39
       -6.311417e-05 8.180472e-06 0.00026033065 0.00024962283
0002f0 03 09 2e 39 d8 75 85 38 00 00 00 00 09 88 07 39
       0.0001659729 6.363884e-05 0.0 0.0001292528
000300 32 75 34 39 55 4f 55 b8 c8 87 a2 b7 2c 7c a3 39
       0.00017209796 -5.085704e-05 -1.9375133e-05 0.00031182298
000310 84 7a 82 39 ea b7 2c 39 be 3a 86 38 00 00 00 00
       0.00024886813 0.00016471712 6.4005595e-05 0.0
000320 da 26 25 39 cf 4c 57 39 9e 90 42 b8 a7 37 ac b8
       0.000157501 0.00020532611 -4.638789e-05 -8.211965e-05
000330 d7 e6 b7 39 d4 0d 6b 39 df 9d 5a 39 1a 3f 78 38
       0.0003507647 0.00022416498 0.00020848912 5.9186576e-05
000340 00 00 00 00 d7 70 19 39 36 79 4a 39 1b ff dc 38
       0.0 0.00014633253 0.00019309376 0.000105379346
000350 40 c9 2d 39 f9 cc 18 39 38 5c f1 38 1f 0d 4c 39
       0.00016573537 0.00014572208 0.000115089526 0.00019459844
000360 aa dd 8f 38 00 00 00 00 c6 76 31 39 e2 6c 57 39
       6.8600595e-05 0.0 0.00016924282 0.0002054456
000370 c1 93 71 39 7b 9a 96 39 2a 7e 02 38 e1 2e 97 b6
       0.00023038594 0.00028725326 3.1111915e-05 -4.505608e-06
000380 0c 58 62 39 5c ca 0f b8 00 00 00 00 1f af a9 b8
       0.0002158584 -3.428232e-05 0.0 -8.091167e-05
000390 8f 54 8f b8 0b 82 6a 38 dc 36 00 b7 e8 ca 05 b9
       -6.8345216e-05 5.591106e-05 -7.6421675e-06 -0.00012759457
0003a0 47 9c 2e b9 8f 56 b1 b8 4d bd 16 b8 00 00 00 00
       -0.00016652151 -8.4561405e-05 -3.5939087e-05 0.0
0003b0 69 9e bc b8 68 bf 62 b8 eb 46 a7 38 55 4b 3f 38
       -8.994045e-05 -5.406086e-05 7.97639e-05 4.5608107e-05
0003c0 58 c9 0e b9 2c 8f 84 b9 2e 93 a2 b8 68 24 bc b7
       -0.00013617182 -0.00025283673 -7.752176e-05 -2.24283e-05
0003d0 00 00 00 00 d2 38 88 b8 22 4a 73 b8 71 20 f6 38
       0.0 -6.495569e-05 -5.8004756e-05 0.00011736237
0003e0 3f 2c a6 38 ab 11 9b b8 f1 70 86 b9 3d 2d 92 b8
       7.923738e-05 -7.394267e-05 -0.0002564262 -6.970249e-05
0003f0 39 58 bc b7 00 00 00 00 ef eb 92 b8 f7 e2 99 b8
       -2.2452428e-05 0.0 -7.0057686e-05 -7.337884e-05

exp_avg_sq f4 [64, 45]
000000 cc 23 94 32 00 00 00 00 ca 10 03 34 bc 43 4c 33
       1.7245746e-08 0.0 1.2206434e-07 4.7559055e-08
000010 ca bc ce 33 bb 52 b3 33 40 40 30 34 29 02 5b 34
       9.626963e-08 8.3503856e-08 1.6414651e-07 2.039675e-07
000020 a2 f3 d4 33 09 85 95 32 00 00 00 00 51 9c 04 34
       9.916336e-08 1.740638e-08 0.0 1.2350326e-07
000030 88 e1 4b 33 ee d4 dd 33 d6 ca a8 33 6c 42 32 34
       4.746974e-08 1.0329846e-07 7.860005e-08 1.6601706e-07
000040 20 94 55 34 4c d8 d6 33 dd 41 9b 32 00 00 00 00
       1.9891058e-07 1.0004496e-07 1.8074326e-08 0.0
000050 1c 03 08 34 29 1b 56 33 34 67 f8 33 43 aa d3 33
       1.2667118e-07 4.985046e-08 1.15671725e-07 9.8564236e-08
000060 10 f4 1f 34 86 cf 62 34 62 ff dc 33 9f 68 9e 32
       1.4896818e-07 2.1123387e-07 1.0291002e-07 1.8441197e-08
000070 00 00 00 00 13 c3 08 34 85 6f 59 33 28 ee 0d 34
       0.0 1.2736955e-07 5.0625676e-08 1.3218289e-07
000080 ee ca 03 34 57 40 11 34 e9 ac 55 34 7a bf de 33
       1.2274151e-07 1.3527584e-07 1.9900075e-07 1.037251e-07
000090 9f 1f a4 32 00 00 00 00 3d 5b 0a 34 5b 55 63 33
       1.9106492e-08 0.0 1.2885444e-07 5.2930186e-08
0000a0 f2 82 18 34 10 31 1d 34 dd 7c 10 34 c5 ed 43 34
       1.4203741e-07 1.4639613e-07 1.345647e-07 1.824729e-07
0000b0 ed a8 e3 33 de 7d 25 33 00 00 00 00 e3 84 83 34
       1.06012386e-07 3.853153e-08 0.0 2.449734e-07
0000c0 85 92 1f 34 63 2e ac 34 f7 49 81 34 27 e3 bc 34
       1.4861332e-07 3.2071247e-07 2.408194e-07 3.5183004e-07
0000d0 34 cc 9c 34 8a e6 83 34 dc c0 28 33 00 00 00 00
       2.9205842e-07 2.456839e-07 3.9290953e-08 0.0
0000e0 72 93 84 34 05 35 23 34 c1 e2 a0 34 e5 44 95 34
       2.4694197e-07 1.5199846e-07 2.9967308e-07 2.780354e-07
0000f0 57 e1 b4 34 2b dd 9a 34 63 e5 85 34 68 04 2b 33
       3.369157e-07 2.8845656e-07 2.494008e-07 3.9818048e-08
000100 00 00 00 00 ea d0 86 34 48 b2 28 34 7f f3 af 34
       0.0 2.511145e-07 1.5711078e-07 3.2773457e-07
000110 87 6c 96 34 09 e9 af 34 58 5d 9c 34 e5 1a 89 34
       2.801864e-07 3.2765846e-07 2.912518e-07 2.5537807e-07
000120 8c 62 33 33 00 00 00 00 7a c8 8a 34 5d 11 36 34
       4.1766313e-08 0.0 2.585037e-07 1.6956388e-07
000130 a6 65 ba 34 c8 b9 bd 34 37 0c b9 34 34 1a 8f 34
       3.471916e-07 3.5339167e-07 3.4467823e-07 2.665489e-07
000140 fb 2d 91 34 88 bc 3d 33 00 00 00 00 e2 c2 8f 34
       2.704181e-07 4.417646e-08 0.0 2.6777622e-07
000150 15 01 3d 34 18 3d e6 34 00 25 e5 34 3b 3f a8 34
       1.760239e-07 4.288529e-07 4.2681495e-07 3.1338445e-07
000160 ad a4 85 34 9e 3f 96 34 35 b1 21 32 00 00 00 00
       2.4892998e-07 2.7985965e-07 9.411726e-09 0.0
000170 d4 0c 8c 33 c9 e9 8e 32 16 7f 0f 33 25 c5 8a 32
       6.5215914e-08 1.6637289e-08 3.3410366e-08 1.6154965e-08
000180 45 de e9 33 87 0c e8 33 0e f0 3e 33 55 69 24 32
       1.08903386e-07 1.08056206e-07 4.445615e-08 9.570006e-09
000190 00 00 00 00 8d 1f 8e 33 31 12 8f 32 5d a2 08 33
       0.0 6.618129e-08 1.6655664e-08 3.1812636e-08
0001a0 74 95 8e 32 12 74 ec 33 66 2b f2 33 a1 2c 41 33
       1.659894e-08 1.10107194e-07 1.1276897e-07 4.4976904e-08
0001b0 d0 ee 24 32 00 00 00 00 64 db 8e 33 9e 39 8f 32
       9.600356e-09 0.0 6.652297e-08 1.6673592e-08
0001c0 15 c3 3c 33 a0 20 e6 32 01 72 de 33 a3 02 ed 33
       4.3949587e-08 2.679036e-08 1.0358418e-07 1.1036652e-07
0001d0 83 f3 40 33 79 8f 30 32 00 00 00 00 2d 61 96 33
       4.4924956e-08 1.027717e-08 0.0 7.0025955e-08
0001e0 2c 9f af 32 e8 41 47 33 a5 ce 1b 33 c3 5f eb 33
       2.0445064e-08 4.639324e-08 3.6276692e-08 1.0960459e-07
0001f0 ff 3f f3 33 a3 26 55 33 bf ce 4b 32 00 00 00 00
       1.132721e-07 4.9628067e-08 1.1863164e-08 0.0
000200 2a a1 aa 33 e9 29 cd 32 97 ba 83 33 e6 4c 29 33
       7.9455575e-08 2.38842e-08 6.1341034e-08 3.9418317e-08
000210 d2 8c 07 34 f5 c5 0a 34 80 1f 74 33 e3 10 67 30
       1.2624085e-07 1.2924268e-07 5.6839326e-08 8.406131e-10
000220 00 00 00 00 b0 79 a7 31 62 7f 68 31 7f 6a c6 31
       0.0 4.874174e-09 3.3832852e-09 5.7746656e-09
000230 25 d8 ed 31 be 33 dc 31 9c 05 d2 31 65 71 b5 31
       6.9221806e-09 6.408725e-09 6.112442e-09 5.280685e-09
000240 b7 3e 72 30 00 00 00 00 61 be b1 31 e1 5f 71 31
       8.812821e-10 0.0 5.1730216e-09 3.5124617e-09
000250 d4 42 eb 31 7b 40 fc 31 11 a3 e6 31 ec 8f d9 31
       6.8469976e-09 7.341496e-09 6.7124195e-09 6.3318932e-09
000260 a8 0b be 31 c3 d0 7c 30 00 00 00 00 fc 47 bc 31
       5.531053e-09 9.1973734e-10 0.0 5.479704e-09
000270 11 79 80 31 15 a3 02 32 94 e1 13 32 f5 cc eb 31
       3.739054e-09 7.6040765e-09 8.607817e-09 6.862701e-09
000280 cc 30 cb 31 03 ac ca 31 bc 45 89 30 00 00 00 00
       5.913625e-09 5.898529e-09 9.987882e-10 0.0
000290 ab c4 cb 31 cf df 8a 31 08 ad 1f 32 5e b0 18 32
       5.930436e-09 4.0417727e-09 9.294361e-09 8.887666e-09
0002a0 e3 37 00 32 68 77 d6 31 b9 d4 d8 31 c9 bb a0 30
       7.463288e-09 6.2417946e-09 6.310611e-09 1.1694904e-09
0002b0 00 00 00 00 e1 10 f7 31 11 e3 a3 31 dc d6 29 32
       0.0 7.190565e-09 4.769739e-09 9.885948e-09
0002c0 0a 42 1c 32 19 2e 3e 32 16 ce f9 31 62 9c 01 32
       9.095411e-09 1.1069937e-08 7.270283e-09 7.544346e-09
0002d0 f1 5d 01 33 00 00 00 00 64 31 49 34 05 9f ee 33
       3.0120592e-08 0.0 1.8737552e-07 1.1111664e-07
0002e0 a2 4b 8c 34 77 87 94 34 b1 ff 77 34 5b 48 90 34
       2.6132062e-07 2.7665712e-07 2.3096688e-07 2.6874736e-07
0002f0 eb 8a 4b 34 42 cd 05 33 00 00 00 00 12 38 4f 34
       1.8956386e-07 3.1153156e-08 0.0 1.9298776e-07
000300 69 04 f4 33 63 57 94 34 74 13 98 34 d2 31 80 34
       1.13629376e-07 2.763073e-07 2.832636e-07 2.3878107e-07
000310 b7 5e a7 34 90 5f 50 34 cb 88 08 33 00 00 00 00
       3.1175088e-07 1.9406275e-07 3.178938e-08 0.0
000320 c0 8d 53 34 6e ad fa 33 a8 47 83 34 41 dd 88 34
       1.9702475e-07 1.1673079e-07 2.4452788e-07 2.5492957e-07
000330 4e 56 97 34 34 a9 ac 34 c0 3c 55 34 ca 12 0c 33
       2.8188737e-07 3.2160608e-07 1.9859272e-07 3.261338e-08
000340 00 00 00 00 4d ac 55 34 82 2d 03 34 bd 21 87 34
       0.0 1.9899853e-07 1.2216881e-07 2.5170257e-07
000350 8a f5 9d 34 6b ec 86 34 6c 9a b5 34 74 45 5a 34
       2.9422182e-07 2.5131462e-07 3.3826234e-07 2.0328099e-07
000360 b7 9a 13 33 00 00 00 00 33 7d 61 34 16 3b 0c 34
       3.4366817e-08 0.0 2.1000305e-07 1.3060011e-07
000370 30 8a a8 34 3e 64 a6 34 ea 7c 96 34 dc 25 9e 34
       3.1392983e-07 3.0992845e-07 2.8030564e-07 2.945734e-07
000380 93 8b 66 34 9a 19 ef 31 00 00 00 00 60 89 26 33
       2.1471196e-07 6.958726e-09 0.0 3.877483e-08
000390 a1 b7 00 33 14 60 ab 32 ce a0 29 33 95 be b8 33
       2.9969332e-08 1.9950711e-08 3.949463e-08 8.6028344e-08
0003a0 a5 49 9b 33 17 40 3d 33 cc 5c 05 32 00 00 00 00
       7.231146e-08 4.406328e-08 7.7627185e-09 0.0
0003b0 a6 17 3e 33 84 4c 0e 33 49 dd d2 32 83 53 2c 33
       4.425933e-08 3.3131542e-08 2.4547846e-08 4.0122824e-08
0003c0 de 50 cc 33 ff 42 a9 33 ac 92 54 33 12 6a 13 32
       9.5142e-08 7.881862e-08 4.9493494e-08 8.580644e-09
0003d0 00 00 00 00 ce 72 59 33 53 28 1c 33 2f 48 14 33
       0.0 5.0628664e-08 3.6358255e-08 3.4524586e-08
0003e0 74 a1 28 33 33 b4 ed 33 82 6c b2 33 e5 07 70 33
       3.926239e-08 1.10689506e-07 8.3085084e-08 5.5886535e-08
0003f0 5a d4 1e 32 00 00 00 00 5c 68 6a 33 1f 3b 32 33
       9.245094e-09 0.0 5.4577285e-08 4.1497625e-08

exp_avg f4 [64]
000000 99 3c 55 39 51 48 89 b9 be d3 52 38 36 aa f9 35
       0.00020335837 -0.00026184556 5.0265102e-05 1.8601484e-06
000010 cc df 86 39 b2 c3 aa b8 6d 47 ea 38 cc 0c 6b 38
       0.00025725213 -8.142683e-05 0.000111712936 5.6040284e-05
000020 db 0b 49 b8 52 8c 3d 38 9e 07 b6 b8 33 39 07 b8
       -4.7933176e-05 4.5191795e-05 -8.679855e-05 -3.223978e-05
000030 87 5f 9b 38 b6 bc c5 36 e0 99 d0 39 ac 6e cc 39
       7.408769e-05 5.8930264e-06 0.00039787497 0.0003899237
000040 8b ea d3 b7 b8 97 6f 39 50 6c d6 b9 bc 3c a4 39
       -2.5262378e-05 0.00022849336 -0.0004089796 0.00031325768
000050 26 80 0c 39 b2 cf 62 35 5c 87 97 b9 2e 88 5f 39
       0.0001339918 8.44938e-07 -0.00028901815 0.00021317668
000060 18 77 a4 b8 34 99 d3 38 d8 8b ba 39 55 e4 9f b9
       -7.842312e-05 0.000100898 0.00035580876 -0.00030496964
000070 09 10 e4 b9 2a c9 cc b9 2d 67 2c 39 78 fc c8 b9
       -0.00043499496 -0.0003905979 0.00016441634 -0.00038335077
000080 4f 47 41 b8 72 24 f2 b7 61 03 91 39 90 69 4b 39
       -4.6081197e-05 -2.886562e-05 0.00027659073 0.00019398914
000090 f4 c6 97 b9 c2 d4 67 b9 13 0e 66 39 ad ca 2d 39
       -0.00028949196 -0.00022109135 0.00021939752 0.00016574068
0000a0 c6 61 c6 b8 60 ba 4f b9 65 91 9c b9 51 ed 1d 38
       -9.4595875e-05 -0.00019810488 -0.00029862966 3.7652735e-05
0000b0 e4 58 f9 b9 20 a2 c6 39 ff 55 f6 b8 48 40 15 38
       -0.0004755921 0.00037886295 -0.00011746212 3.5584235e-05
0000c0 62 a8 11 ba eb d7 53 38 73 f5 2f 38 29 22 02 b7
       -0.0005556402 5.050741e-05 4.1951844e-05 -7.756557e-06
0000d0 95 c4 32 3a 72 7b 28 39 83 26 95 39 73 2f 12 b9
       0.0006819454 0.00016067715 0.00028448188 -0.00013941321
0000e0 d5 a0 7d 39 52 32 cd b8 9d 58 bf 38 fb d2 1f 38
       0.00024187875 -9.7845346e-05 9.124095e-05 3.8105045e-05
0000f0 75 fd 8f 39 30 9f 57 b9 a3 50 f1 37 b0 ac 8b 38
       0.00027463926 -0.000205633 2.8766988e-05 6.660202e-05

exp_avg_sq f4 [64]
000000 f3 ff 9c 34 db 8f 34 35 22 4c 3b 34 03 6f 97 32
       2.9243492e-07 6.726456e-07 1.7443429e-07 1.7629196e-08
000010 59 37 12 35 05 93 22 34 1c 37 3b 34 c5 3c 9c 34
       5.446978e-07 1.5140911e-07 1.7435781e-07 2.910148e-07
000020 e7 de eb 33 ef d0 bf 35 a2 76 06 36 2c da a3 34
       1.0983586e-07 1.4291417e-06 2.003661e-06 3.0519857e-07
000030 cf 89 5e 34 d7 37 ef 34 78 9d 05 36 95 16 2d 35
       2.0725496e-07 4.4557848e-07 1.9910203e-06 6.4480383e-07
000040 5c 86 88 34 25 31 1a 35 cf 86 9d 35 12 6e 24 36
       2.5429733e-07 5.7440985e-07 1.1736646e-06 2.4501974e-06
000050 b1 0b 96 34 26 c3 09 34 ce f4 5e 35 0b 32 87 35
       2.7948184e-07 1.2830114e-07 8.305768e-07 1.0072848e-06
000060 59 dd c0 34 8b 1d 40 34 63 a5 b1 35 9f 68 1e 35
       3.5923838e-07 1.7892141e-07 1.3235662e-06 5.901183e-07
000070 dc 32 0a 36 e6 f4 3a 35 58 dc 7a 35 59 3d 28 35
       2.0593207e-06 6.9646774e-07 9.34529e-07 6.267415e-07
000080 a4 d2 4d 34 e5 40 fa 35 ab 86 62 35 31 94 c0 34
       1.9168743e-07 1.8645338e-06 8.438753e-07 3.587061e-07
000090 27 61 0d 36 1d a8 93 34 df ba 00 35 41 14 b7 34
       2.1067187e-06 2.7503202e-07 4.795565e-07 3.4101143e-07
0000a0 e9 0d b2 34 d3 bb d3 33 b7 f3 03 35 54 38 00 34
       3.3165205e-07 9.859618e-08 4.9155955e-07 1.1941421e-07
0000b0 e4 2a 2f 35 98 44 91 35 af 53 99 34 0b 40 18 35
       6.5254994e-07 1.0823305e-06 2.855936e-07 5.671761e-07
0000c0 d5 33 d4 35 2a 66 e1 34 43 c3 44 34 0c ef 2f 35
       1.5810316e-06 4.198385e-07 1.8324958e-07 6.554044e-07
0000d0 39 df 98 36 a5 7f 58 34 98 1c 0f 35 74 f5 95 34
       4.5559395e-06 2.0163004e-07 5.331326e-07 2.7932003e-07
0000e0 4e e4 01 35 23 54 d2 33 71 c2 35 34 99 a4 d9 34
       4.838847e-07 9.7941914e-08 1.6927676e-07 4.053916e-07
0000f0 78 1e 35 36 04 b2 89 34 bd 76 53 33 b1 12 fb 33
       2.6988837e-06 2.5647762e-07 4.9235258e-08 1.1691498e-07

exp_avg f4 [5, 64]
000000 a6 ec db bb 63 2f f8 ba 7a 27 45 3b ba bc 9d 3b
       -0.0067115603 -0.0018935021 0.0030083344 0.0048137577
000010 97 ab 5d ba d3 ea 67 b9 7d b0 0b bc d0 86 91 3b
       -0.000845605 -0.00022117356 -0.008525965 0.0044411197
000020 09 72 9c bb 12 98 65 3a ff 5e 53 bc d7 68 8c 3a
       -0.0047743362 0.0008758317 -0.012901067 0.0010712397
000030 c2 4a b7 3b 57 59 87 bb 59 24 89 3a e3 df 88 bb
       0.0055936286 -0.004130523 0.0010463103 -0.00417708
000040 68 14 40 ba 42 cf f1 3a e5 33 af b9 5d 31 b2 bb
       -0.00073272595 0.0018448608 -0.00033417266 -0.0054380135
000050 63 90 81 ba 1c 83 8d 3b 2e fd ef 3a 7e e9 70 bc
       -0.000988495 0.004318608 0.0018309706 -0.014704106
000060 e2 50 39 3b 10 a5 68 3b 71 66 b7 bb 49 48 62 bb
       0.002827697 0.0035498776 -0.0055969288 -0.0034527949
000070 d1 0b 37 bb 9c e1 06 bc 0a 63 e7 3b 69 0f cb 3a
       -0.0027930627 -0.0082325 0.007061367 0.0015492263
000080 9b b0 6e 3b ec 17 71 ba 39 90 1e bb b4 32 48 bb
       0.0036421183 -0.0009196985 -0.002419485 -0.00305478
000090 0c 84 cd bb ca 45 42 bb c2 e1 78 3a 0a ac d6 ba
       -0.0062718447 -0.0029643648 0.000949409 -0.0016378176
0000a0 9b f0 dc 3a eb ee 6e 3a de 89 cb 3a 35 a0 75 ba
       0.0016856374 0.0009114581 0.0015528759 -0.0009369881
0000b0 e6 6d 27 bc 31 ec e7 bb 80 89 7f ba 3d b9 72 bb
       -0.010219073 -0.0070777168 -0.0009747967 -0.003703668
0000c0 84 fc fe ba fc 55 03 bc 96 fd 8c 3b 9f 40 01 bb
       -0.0019453918 -0.008016106 0.0043026907 -0.0019722355
0000d0 ce b8 8e 3b 2f a1 40 bb 84 41 88 ba ba 4b 29 3b
       0.0043555265 -0.0029392948 -0.0010395502 0.002583249
0000e0 41 19 85 3a d8 a7 48 ba fd 22 3f 3b 60 b4 e1 3a
       0.0010154621 -0.0007654405 0.0029165142 0.0017219894
0000f0 50 72 c8 ba e9 59 cd 3a 80 45 9a 3a 4c 1d 22 3b
       -0.0015292857 0.0015667054 0.001176998 0.00247367
000100 8e b4 a9 3b 8b 28 cb b9 ae d9 82 ba 99 77 9b bb
       0.0051789945 -0.00038749384 -0.0009983086 -0.0047444818
000110 f3 e7 24 ba 21 5c 6d 3b c6 c0 b4 3b e3 66 eb ba
       -0.00062906666 0.0036218243 0.0055161444 -0.001795974
000120 65 72 30 3c 7f e8 d0 3a f3 d5 a3 3c 17 7d e9 ba
       0.010769461 0.001593843 0.01999948 -0.0017813769
000130 eb 01 07 bc 7b 8b 7f 3b a1 84 26 bb 7a e6 61 3b
       -0.008240203 0.003899305 -0.0025408643 0.003446965
000140 f6 ce 86 3b 6b 4f dc bb 33 d4 3d 3b 97 f9 ba 3b
       0.004114027 -0.0067233345 0.0028965592 0.005706023
000150 06 69 6e 3b 66 93 11 bc 10 1f b8 bb be bb 9b 3c
       0.0036378517 -0.00888524 -0.0056189373 0.01901042
000160 14 52 03 bc 64 b7 9f bb 0f 3d 2f 3c d7 9a af b8
       -0.008015174 -0.004874157 0.01069571 -8.3734914e-05
000170 b0 3e 01 3c 54 06 8a 3c 8c 60 34 bc e6 e3 a5 bb
       0.007888481 0.01684872 -0.011009347 -0.005062568
000180 af 7d dd ba 8e 8d b9 3b 35 55 f9 3a c4 f2 88 3a
       -0.0016898419 0.0056626266 0.0019022586 0.0010448326
000190 95 81 ff 3b e2 e6 13 3c c4 a9 90 b7 9f 16 5f 3b
       0.00779743 0.009027215 -1.7245191e-05 0.0034040583
0001a0 f0 be b5 bb 94 60 13 bb 08 ae 7e bb 4f e5 cc 3b
       -0.005546443 -0.0022487985 -0.0038861055 0.0062529217
0001b0 3e fa 6b 3c b8 52 87 3c e8 a0 86 3a 6e 7a 16 3c
       0.014402924 0.016518936 0.0010271342 0.009184463
0001c0 81 ff aa 3b 8d eb 5e 3c f1 66 a2 bb a2 04 03 3c
       0.0052184467 0.013605964 -0.004956119 0.00799671
0001d0 14 7a 2c bc 6d 1b 90 3b 10 b2 dd ba 7d d4 95 bb
       -0.010527153 0.0043978007 -0.0016914029 -0.0045724497
0001e0 10 f4 4e bb 37 92 f3 3b aa 4f 30 3a 0f f9 0c bb
       -0.0031578578 0.0074332017 0.0006725738 -0.0021510755
0001f0 37 5a ec ba 84 a6 b9 bb f4 a9 1f bb bc b6 94 ba
       -0.0018032257 -0.005665602 -0.0024362775 -0.0011345963
000200 78 b0 49 3b c8 a4 66 bb 0d 0c a3 3b 14 75 83 3a
       0.003077535 -0.0035193432 0.004975802 0.0010029399
000210 1f 16 9c ba 4a 8a 2e 3b c1 f9 bc 3a 4c 34 31 3b
       -0.0011908448 0.002663272 0.0014417694 0.0027039228
000220 a1 98 97 bb 31 96 ef 3a aa 69 9a ba fa 6e 9a ba
       -0.004626349 0.0018279013 -0.0011780758 -0.0011782341
000230 b8 99 63 3b ee 52 3a 3b 47 62 18 bb 27 ef db 37
       0.0034729075 0.0028430778 -0.0023251937 2.6218198e-05
000240 a8 d9 79 3b 82 7e 52 3b d7 52 46 bb cb 29 97 bb
       0.0038124118 0.0032118862 -0.0030261779 -0.0046131364
000250 72 7b 29 3b 93 ed 13 bc a7 d0 b0 bb 33 4c bb bc
       0.0025860933 -0.00902881 -0.005395967 -0.022863483
000260 ac 95 8f bb 89 2a d5 ba 09 32 0f 3a da a0 9f 39
       -0.004381856 -0.0016263287 0.0005462473 0.00030446687
000270 a3 61 22 bb aa ba 12 3b 18 51 e4 ba 26 f0 16 bb
       -0.0024777434 0.0022389092 -0.0017419187 -0.0023031323
000280 b9 d8 26 3b 7f be a0 b8 10 22 10 3a 01 1e db b9
       0.0025458767 -7.664877e-05 0.000549824 -0.0004179329
000290 16 36 97 bb 7d f4 4a ba 98 53 2a 3b a7 b1 fe b9
       -0.004614602 -0.000774212 0.0025989767 -0.00048579017
0002a0 cd 9f 9c b8 83 06 ff 3a a7 e4 3d b9 d8 f3 9e 3b
       -7.468425e-05 0.0019456897 -0.00018109624 0.004850846
0002b0 54 4a ce 3a 88 f6 d4 b9 53 06 fa 3a 82 e5 54 3b
       0.0015738704 -0.0004061947 0.0019075371 0.003248543
0002c0 43 ec 24 bc a3 60 07 3b 6f d4 1c 3a c2 2a 02 3b
       -0.010066095 0.0020656965 0.0005982583 0.0019861911
0002d0 35 98 87 bc 4c ef a4 bb 61 47 38 bb 56 38 b4 ba
       -0.01655207 -0.005033409 -0.0028118717 -0.00137497
0002e0 bf e3 d3 bb 0d c6 18 3b 05 32 0c 3b 92 54 29 3b
       -0.0064663584 0.0023311407 0.0021392119 0.0025837761
0002f0 3d df a5 bb 5f e3 15 3b cf 3e b5 3b dd 50 60 3b
       -0.0050620125 0.002287112 0.005531169 0.0034227886
000300 53 f7 b5 3a 28 ed 19 3b 8d 02 99 ba 51 04 08 ba
       0.0013882912 0.0023487303 -0.0011673734 -0.00051886315
000310 ba b3 33 3b dd 17 84 bb d5 69 a8 3b a3 30 44 bb
       0.0027420358 -0.004031165 0.0051395693 -0.0029936216
000320 e9 99 c4 b9 52 60 e3 3a 5c a1 37 bb 86 07 f2 3a
       -0.00037498705 0.0017347431 -0.0028019762 0.0018465377
000330 eb 06 b3 ba 73 d0 cf b7 a5 5f de 39 5a bf 7f bb
       -0.0013658678 -2.477339e-05 0.000424144 -0.0039023967
000340 f9 a1 40 bb f1 fb 55 bb ff f0 97 3a da 7e b7 39
       -0.0029393418 -0.003265139 0.0011592208 0.00034998992
000350 c2 c5 17 ba bf 06 eb 3b 41 d9 a4 3b 01 62 c8 bb
       -0.0005789661 0.007172435 0.0050307815 -0.0061151986
000360 6e 95 a1 3b 24 d5 99 3a 69 3b 2d bb 27 5d af 3a
       0.0049311435 0.0011736494 -0.0026433116 0.0013379202
000370 62 85 88 bb 17 4d c7 bb 76 6c 06 3b d9 54 72 3b
       -0.004166291 -0.006082188 0.0020511425 0.0036976843
000380 7e a3 0e bb 18 ae 0e bb 06 dd 89 ba 13 8a 0a 3b
       -0.002176493 -0.0021771248 -0.0010518141 0.0021139428
000390 52 ff a8 37 73 0f 4d bb 30 d5 06 3b f7 6b 15 ba
       2.0146053e-05 -0.0031289726 0.0020573847 -0.0005699987
0003a0 48 82 7d 3a 17 6d be ba de 48 fc ba 00 ff 07 bb
       0.00096705975 -0.0014528361 -0.001924779 -0.0020751357
0003b0 64 03 89 bb c3 8e 70 bb 29 2d fe 3a ad b9 d3 ba
       -0.0041813124 -0.0036706186 0.0019392121 -0.0016153358
0003c0 93 cb e8 3b a2 67 19 bb ba ca 8f 38 0e 17 2a bb
       0.007104346 -0.0023407717 6.856532e-05 -0.0025953683
0003d0 7e 96 c9 3b e5 0b 2e bb e2 7c 47 3a 9e c2 9c 3b
       0.0061519733 -0.0026557383 0.00076098565 0.0047839424
0003e0 8e 59 60 3a 8d 05 a8 ba 5c 7e 68 bb 37 eb 11 bb
       0.00085582666 -0.0012819037 -0.0035475707 -0.0022265443
0003f0 d8 ec e7 39 3b c2 3d 3b 20 62 aa 39 66 7c eb ba
       0.00044236216 0.0028954882 0.00032498036 -0.0017966151

exp_avg_sq f4 [5, 64]
000000 23 1c 0a 39 9e c7 43 38 de 16 d8 38 82 34 99 38
       0.00013171187 4.667753e-05 0.00010303942 7.305389e-05
000010 0c 20 71 38 fd 44 a7 38 f9 51 c7 38 48 d4 26 39
       5.7488724e-05 7.9760306e-05 9.504328e-05 0.00015910075
000020 a4 35 a9 39 cc 39 9f 38 34 22 f7 39 c1 6d 56 38
       0.00032274157 7.592476e-05 0.00047136995 5.1123792e-05
000030 85 db f4 38 46 1c 27 38 25 cc 14 39 f0 50 cf 38
       0.00011675715 3.9842234e-05 0.0001419043 9.885605e-05
000040 70 18 95 38 65 4f f7 38 89 95 74 38 4e 6e 65 39
       7.1094255e-05 0.00011792666 5.83134e-05 0.00021880234
000050 8a 74 7f 38 20 3a 3d 39 03 c4 0c 39 61 95 a4 3b
       6.0905273e-05 0.00018046098 0.0001342446 0.00502269
000060 dc 01 0c 39 ff d3 7c 38 b7 c1 8c 39 55 2d 4b 38
       0.00013352133 6.027892e-05 0.0002684721 4.844119e-05
000070 6a 57 25 3a 8b 8e 92 39 ea 7e a5 38 61 4a f4 38
       0.0006307276 0.00027953493 7.891453e-05 0.00011648681
000080 7e b9 be 38 02 98 52 39 b2 7d 4b 38 0f c4 6b 38
       9.0944566e-05 0.00020083788 4.8516034e-05 5.621096e-05
000090 b2 e3 c8 39 da 56 20 39 dd 99 77 38 69 2a ff 38
       0.0003831662 0.00015291144 5.9032685e-05 0.00012167247
0000a0 e1 b6 86 38 68 9a d1 38 44 39 27 38 6e b4 ae 38
       6.423682e-05 9.994657e-05 3.9869235e-05 8.330574e-05
0000b0 1c 89 59 39 4f 54 38 3a 83 47 92 38 41 aa a4 38
       0.0002074581 0.0007031606 6.9751426e-05 7.851842e-05
0000c0 ae cb 3c 3a 6f 41 87 39 cc f9 59 38 1b 07 5b 38
       0.00072019815 0.00025797958 5.1969473e-05 5.2220286e-05
0000d0 9d 68 e6 3a b4 95 b0 39 9f 79 21 39 cb 59 0c 39
       0.0017578785 0.00033680873 0.00015399464 0.00013384891
0000e0 62 ef 8a 39 6a be 33 39 1d a6 48 38 5d 1c 8e 38
       0.00026499765 0.00017141705 4.783842e-05 6.776371e-05
0000f0 0f 28 03 39 a5 9c ee 38 23 b6 08 39 8f 5c 00 39
       0.00012508057 0.00011377902 0.00013037822 0.00012241512
000100 a8 92 fd 38 76 91 5f 38 b5 37 e2 38 3f a5 8e 38
       0.00012091297 5.3302814e-05 0.00010786896 6.801867e-05
000110 c2 81 6c 38 ca b3 98 38 c5 24 b7 38 82 00 3c 39
       5.638763e-05 7.281413e-05 8.732969e-05 0.00017929266
000120 3e 52 95 39 97 59 b4 38 61 dc d9 39 a7 45 3a 38
       0.0002848077 8.599756e-05 0.0004155366 4.4410725e-05
000130 17 ae da 38 e9 4b 17 38 b6 cf 1b 39 c3 ef fa 38
       0.00010427477 3.6071902e-05 0.0001485933 0.00011965588
000140 32 fc 76 38 70 68 11 39 a2 97 76 38 64 7e 4e 39
       5.8885846e-05 0.00013867184 5.879219e-05 0.00019692775
000150 49 59 95 38 73 70 5a 39 37 08 16 39 ec 16 ac 3b
       7.121504e-05 0.0002083199 0.00014308175 0.005251756
000160 1d 60 0d 39 ef 98 5f 38 b7 98 7c 39 5c 34 2a 38
       0.00013482613 5.3309774e-05 0.00024089483 4.0579922e-05
000170 6b 06 1e 3a 46 70 93 39 0d 56 9c 38 36 3f ed 38
       0.0006028178 0.00028121675 7.454688e-05 0.000113128146
000180 36 29 a7 38 70 d3 4a 39 a8 0b 3c 38 7c aa 62 38
       7.970857e-05 0.00019342988 4.483355e-05 5.4041375e-05
000190 61 1e c0 39 8d 3f 16 39 89 33 89 38 23 62 ee 38
       0.00036643728 0.00014328789 6.542268e-05 0.00011367004
0001a0 81 68 7d 38 b5 88 b7 38 af a4 27 38 1c 5f c2 38
       6.0417227e-05 8.751584e-05 3.9969276e-05 9.2683564e-05
0001b0 6c da 5b 39 e9 42 1c 3a 11 a1 9e 38 f0 a4 9a 38
       0.00020966836 0.0005960898 7.564028e-05 7.374014e-05
0001c0 45 a2 26 3a 29 28 81 39 ca 59 4e 38 31 2c 5e 38
       0.00063565775 0.0002463472 4.919785e-05 5.297008e-05
0001d0 53 a8 e1 3a 60 c8 b3 39 d3 71 2a 39 f6 e6 10 39
       0.0017216302 0.00034290832 0.00016254866 0.0001381895
0001e0 77 c5 93 39 e9 89 28 39 06 ea 72 38 ba 85 84 38
       0.00028185148 0.00016073104 5.7915247e-05 6.319159e-05
0001f0 f0 df 17 39 2e b7 e6 38 da 1a 09 39 24 20 fe 38
       0.00014483905 0.000110013745 0.00013075341 0.000121176505
000200 0c ed fc 38 4c 88 5b 38 de 72 e7 38 54 5c a4 38
       0.0001206045 5.2340605e-05 0.00011036334 7.837327e-05
000210 03 07 78 38 a5 47 ad 38 a9 f0 c4 38 a4 63 2c 39
       5.9134338e-05 8.262628e-05 9.390835e-05 0.00016440317
000220 64 ca a3 39 22 97 a2 38 27 6d d9 39 b7 2a 46 38
       0.00031240575 7.752913e-05 0.0004147079 4.724666e-05
000230 2b f2 eb 38 58 93 17 38 95 a5 21 39 8f e4 f7 38
       0.000112507805 3.613843e-05 0.0001541584 0.0001182045
000240 78 31 70 38 40 1b fb 38 d9 82 92 38 22 22 70 39
       5.726653e-05 0.000119736884 6.986195e-05 0.00022900899
000250 83 e1 85 38 3b d0 49 39 e6 53 0a 39 e7 8d b5 3b
       6.383939e-05 0.00019246426 0.0001319196 0.0055405977
000260 ea 64 01 39 ad ae 81 38 bb 67 77 39 78 70 41 38
       0.00012339992 6.183735e-05 0.00023594398 4.611953e-05
000270 82 bc 21 3a db 9a 89 39 6a 01 89 38 1e af f5 38
       0.00061697525 0.00026246053 6.5329325e-05 0.000117151285
000280 2d 5a b6 38 99 82 43 39 38 9a 63 38 64 80 7d 38
       8.695233e-05 0.000186453 5.4264645e-05 6.0439474e-05
000290 5a a3 c1 39 06 a1 12 39 52 e8 8c 38 cb f3 e2 38
       0.00036933535 0.00013983631 6.718993e-05 0.0001082193
0002a0 d9 d6 73 38 f7 29 d2 38 fa 63 27 38 3b b8 ad 38
       5.8135807e-05 0.00010021397 3.9909013e-05 8.2835984e-05
0002b0 92 c2 45 39 85 25 2d 3a b1 dc 9d 38 22 ab 80 38
       0.00018859867 0.0006605017 7.52745e-05 6.1353916e-05
0002c0 6b cd 37 3a 22 a5 73 39 d9 df 50 38 a0 5b 36 38
       0.00070115057 0.00023235803 4.979954e-05 4.3477514e-05
0002d0 18 20 e8 3a 5b 55 c0 39 2f 25 2c 39 33 c3 0c 39
       0.001770976 0.00036684689 0.0001641705 0.00013424158
0002e0 99 ad 94 39 9f ed 1b 39 d6 75 42 38 63 8d 93 38
       0.000283581 0.00014870473 4.6362948e-05 7.0358416e-05
0002f0 de 10 20 39 24 03 f0 38 da fc 14 39 7c 0e 0a 39
       0.00015265073 0.00011444677 0.00014208574 0.00013166101
000300 20 fa 03 39 9b 12 58 38 4e ed f6 38 36 1f 97 38
       0.00012586312 5.151574e-05 0.000117743955 7.2060546e-05
000310 f4 0e 85 38 b4 f4 ae 38 77 4f d5 38 37 59 0c 39
       6.3447194e-05 8.342546e-05 0.00010171433 0.00013384676
000320 0e 44 a3 39 15 7b a9 38 af 53 ce 39 61 55 43 38
       0.00031140487 8.081474e-05 0.0003935373 4.657114e-05
000330 64 0a e6 38 1c 0a 27 38 ab 4c 27 39 f3 f4 e0 38
       0.0001096919 3.9825318e-05 0.00015954922 0.00010726778
000340 33 1b 84 38 ca 15 fd 38 67 b1 80 38 47 70 62 39
       6.299317e-05 0.000120680386 6.1365594e-05 0.00021594866
000350 38 ac a3 38 75 9e 54 39 7a 6d 27 39 de 34 b2 3b
       7.804524e-05 0.00020276925 0.00015967144 0.005438431
000360 ff 9a 1b 39 7d c1 6e 38 81 f1 73 39 7c b9 3d 38
       0.00014839692 5.6923822e-05 0.00023264253 4.5233857e-05
000370 14 b4 1b 3a 8c 66 80 39 09 87 90 38 0b dc d4 38
       0.00059396145 0.00024490466 6.891607e-05 0.00010149934
000380 4b 2b c5 38 29 34 53 39 bb 45 63 38 e3 7c 70 38
       9.401756e-05 0.00020141959 5.418596e-05 5.733677e-05
000390 7e 9b d5 39 c0 c7 1d 39 46 66 94 38 a0 a4 e1 38
       0.00040742377 0.000150471 7.07624e-05 0.000107595
0003a0 7e 81 84 38 f1 41 c2 38 93 28 42 38 84 66 c7 38
       6.31837e-05 9.2629234e-05 4.6290992e-05 9.5081545e-05
0003b0 16 e2 43 39 20 f4 1e 3a 28 e8 aa 38 f5 30 a3 38
       0.00018680873 0.0006063599 8.149474e-05 7.781565e-05
0003c0 f8 eb 28 3a e8 42 78 39 a6 70 63 38 67 7b 60 38
       0.00064438535 0.00023676048 5.422593e-05 5.352069e-05
0003d0 9f 0a f8 3a c6 a2 b9 39 71 b6 4f 39 91 70 0f 39
       0.0018924064 0.00035407225 0.00019809023 0.00013679477
0003e0 bf 2e 99 39 53 07 28 39 16 5e 6b 38 53 97 88 38
       0.00029217263 0.00016024457 5.611599e-05 6.513172e-05
0003f0 52 a3 39 39 14 ee e3 38 e8 34 17 39 7a ee 0e 39
       0.00017703816 0.00010868549 0.00014420191 0.00013631015

exp_avg f4 [5]
000000 e6 ef 39 bc 4a 7e a7 3b d8 c1 a6 bc 66 67 d5 3b
       -0.0113487 0.0051114904 -0.020356104 0.00651257
000010 61 80 a4 3c
       0.020080747

exp_avg_sq f4 [5]
000000 79 4d 22 3b 17 eb 29 3b a2 fb 33 3b b7 85 3d 3b
       0.0024765416 0.0025927478 0.0027463217 0.0028918812
000010 23 0c 3b 3b
       0.002854117
