Assets/results/Maze11/Mouse/Mouse-250055.onnx (onnx, 17067 bytes, 4 tensors)

network_body._body_endoder.seq_layers.0.weight f4 [64, 45]
0.07829818 -0.05341683 -0.07558983 -0.085376404 0.08079094 -0.095514946 0.15768902 -0.03421166
0.19767651 -0.04177399 0.069011964 -0.021323884 0.12283817 0.18613973 0.019557396 0.17954248
0.09987628 0.3819346 0.14378913 0.26073733 0.15875596 0.14527597 -0.024587747 -0.009620587
0.1122178 -0.20259015 0.16404079 0.073524676 0.1440545 0.0038175208 -0.1679547 -0.08434601
0.12170549 0.06355272 0.13231696 0.016941847 0.3501554 -0.31249246 0.13539375 -0.028998202
-0.15029293 0.1184555 0.14640594 0.19329697 -0.18466434 0.09267009 0.0124117695 -0.094084784
0.08419036 -0.13508792 0.020744272 -0.00024367713 0.01137592 -0.096204415 -0.13921396 -0.011484545
-0.04686363 -0.07152155 -0.019086337 0.12797481 0.040705252 0.04027022 -0.070503645 -0.2386537
0.14335346 -0.1620618 -0.12227612 0.075504854 -0.009384497 -0.12932444 -0.08789636 -0.12154215
-0.10754447 0.10697015 -0.19338071 0.25334775 0.042260967 -0.06108738 -0.09285198 -0.014756146
0.1015793 0.01655766 0.087363474 -0.2563375 -0.19163536 0.026184238 -0.3084233 0.1482055
-0.13955927 0.01896936 0.099654265 -0.16631792 -0.0843468 0.050238483 0.11380363 0.13313608
-0.20121948 -0.09963397 -0.1215901 -0.21089934 -0.15384041 -0.04976348 0.07425072 -0.06303847
0.0053537306 -0.23387288 -0.044233557 -0.15341142 0.05725095 0.026654467 -0.073305614 -0.18986209
0.15983298 0.107703775 -0.3843854 -0.18145013 -0.019786162 0.008757893 0.14164142 -0.17797841
0.062349133 -0.2694608 -0.064829044 -0.15504563 0.095924705 0.111678176 -0.011759775 0.18878783
0.0447562 0.072453216 0.12493294 0.0061588553 0.10854558 -0.06330453 0.13128494 0.09102144
0.31467065 -0.06944192 0.018424457 0.24488221 0.048492756 0.02780047 0.010166062 -0.026218085
-0.111609675 -0.20740858 0.045076374 -0.15873237 -0.024583988 -0.012740261 -0.12666555 0.23978902
0.01947989 0.1283277 -0.010611895 0.032434 -0.2815799 -0.22026293 0.04553079 0.12416174
0.12874053 -0.0868992 0.07773458 0.028033055 -0.038352534 -0.12034829 -0.10442127 0.13078418
0.0760675 0.06555043 0.07262046 -0.19866644 0.07776831 0.17831673 0.21487483 0.22536655
-0.00084087014 0.084352456 0.03856053 -0.1286208 -0.12989962 0.20309682 -0.06588695 0.16644418
-0.13788085 -0.13967283 -0.05273568 0.1962655 -0.023280568 -0.34809864 0.12012627 0.07447851
-0.013289022 0.21426965 0.0791083 -0.3489702 0.35576975 -0.015597983 0.089077555 0.1229845
0.04826399 0.13297942 0.051792655 0.25508866 0.057083413 0.23442413 0.020554326 0.00051636784
0.102461636 0.16657218 -0.09531499 0.1367793 0.1347294 -0.008309994 0.15544654 0.047323026
-0.015208953 0.13139696 -0.008845918 0.01639124 -0.28956112 0.0076130494 -0.14646587 -0.06662487
-0.15442759 0.030814199 0.013323957 0.2996256 0.2973192 0.09738299 -0.061367482 -0.08041207
-0.037782047 0.05424316 0.13160267 0.34013128 -0.06969119 0.023560489 -0.09893528 0.041299306
-0.26466084 0.04441323 -0.24233747 -0.15883128 -0.047926564 -0.11609105 0.056220755 0.17240974
0.060600717 0.17818189 0.13172883 0.29430562 0.04669375 0.11338074 0.06456252 -0.09113007
00000000: cc5a a03d 9bcb 5abd d7ce 9abd d3d9 aebd
00000010: b875 a53d 579d c3bd 3b79 213e 8721 0cbd
00000020: b66b 4a3e 341b 2bbd 2556 8d3d 6daf aebc
00000030: 9492 fb3d 6a9b 3e3e d536 a03c fcd9 373e
00000040: ef8b cc3d ef8c c33e 753d 133e 5d7f 853e
00000050: ec90 223e 39c3 143e 3e6c c9bc ab9f 1dbc
00000060: 72d2 e53d cb73 4fbe 4ffa 273e 1b94 963d
00000070: 0683 133e 5f2f 7a3b 51fc 2bbe 9abd acbd
00000080: ba40 f93d ee27 823d 197e 073e a1c9 8a3c
00000090: 9247 b33e 03ff 9fbe a9a4 0a3e a38d edbc
000000a0: 64e6 19be cc98 f23d 70eb 153e a4ef 453e
000000b0: a618 3dbe d1c9 bd3d bc5a 4b3c 86af c0bd
000000c0: ff6b ac3d 7d54 0abe e4ef a93c 9583 7fb9
000000d0: 1162 3a3c d206 c5bd 1b8e 0ebe ac29 3cbc
000000e0: 14f4 3fbd e479 92bd f35a 9cbc d40b 033e
000000f0: 8dba 263d 63f2 243d 3764 90bd a361 74be
00000100: 40cb 123e 87f3 25be e76b fabd 4aa2 9a3d
00000110: 6fc1 19bc a06d 04be 0203 b4bd 17eb f8bd
00000120: 4640 dcbd 2a13 db3d 9805 46be ccb6 813e
00000130: d619 2d3d c336 7abd 2e29 bebd c3c3 71bc
00000140: cf08 d03d eea3 873c 9feb b23d ab3e 83be
00000150: 0f3c 44be 5480 d63c a9e9 9dbe 2fc3 173e
00000160: a0e8 0ebe a265 9b3c 8917 cc3d 3f4f 2abe
00000170: 04be acbd dec6 4d3d e111 e93d d354 083e
00000180: 7b0c 4ebe e50c ccbd 3b04 f9bd fff5 57be
00000190: 5788 1dbe cad4 4bbd c310 983d 501a 81bd
000001a0: 596e af3b 5f7c 6fbe 3f2e 35bd e217 1dbe
000001b0: f97f 6a3d 785a da3c 4121 96bd 356b 42be
000001c0: 42ab 233e cc93 dc3d 2ace c4be 10ce 39be
000001d0: 9716 a2bc 447d 0f3c 730a 113e f93f 36be
000001e0: ce61 7f3d c4f6 89be 17c5 84bd 48c4 1ebe
000001f0: 2c74 c43d 87b7 e43d 12ac 40bc 9951 413e
00000200: 4752 373d 5a62 943d d7dc ff3d 39d0 c93b
00000210: 254d de3d cea5 81bd 8f6f 063e 7369 ba3d
00000220: 831c a13e 9137 8ebd e3ee 963c 67c2 7a3e
00000230: 57a0 463d d0bd e33c 8e8f 263c 4fc7 d6bc
00000240: 9d93 e4bd ea62 54be 01a2 383d bd8a 22be
00000250: 5c64 c9bc 87bc 50bc 9db4 01be 418b 753e
00000260: 4a94 9f3c 5668 033e 83dd 2dbc 84d9 043d
00000270: 3e2b 90be 9b8c 61be 7e7e 3a3d 8348 fe3d
00000280: 8fd4 033e 35f8 b1bd 4f33 9f3d 94a5 e53c
00000290: 8c17 1dbd 2a79 f6bd d2da d5bd 4aec 053e
000002a0: 47c9 9b3d 4e3f 863d 09ba 943d 376f 4bbe
000002b0: fe44 9f3d a998 363e 2608 5c3e 7dc6 663e
000002c0: d76d 5cba fbc0 ac3d a5f1 1d3d 2cb5 03be
000002d0: 6804 05be 9df8 4f3e bdef 86bd 5870 2a3e
000002e0: a330 0dbe 6506 0fbe 5e01 58bd d3f9 483e
000002f0: e4b6 bebc fc39 b2be c304 f63d 3088 983d
00000300: 33ba 59bc 8169 5b3e 8803 a23d 39ac b2be
00000310: 7427 b63e af8e 7fbc 4b6e b63d 4cdf fb3d
00000320: 76b0 453d c22b 083e 8924 543d fb9a 823e
00000330: 4cd0 693d e10c 703e 8c61 a83c dc5c 073a
00000340: 68d7 d13d e691 2a3e 8134 c3bd df0f 0c3e
00000350: 81f6 093e a426 08bc 612d 1f3e cad5 413d
00000360: f92e 79bc ed8c 063e 78ee 10bc ec46 863c
00000370: 5b41 94be e376 f93b 26fb 15be 9f72 88bd
00000380: 4422 1ebe 0f6e fc3c ba4c 5a3c 8768 993e
00000390: 393a 983e bc70 c73d 785c 7bbd 15af a4bd
000003a0: 59c1 1abd 132e 5e3d dac2 063e b025 ae3e
000003b0: 41ba 8ebd ed01 c13c 959e cabd 7629 293d
000003c0: a081 87be a6ea 353d 5027 78be aba4 22be
000003d0: a54e 44bd 25c1 edbd bc47 663d 2e8c 303e
000003e0: 7538 783d 5075 363e ece3 063e 3aaf 963e
000003f0: f241 3f3d 2934 e83d 5b39 843d 67a2 babd

network_body._body_endoder.seq_layers.0.bias f4 [64]
0.018245064 -0.01747856 -0.0012761559 0.016413188 0.012764928 0.0075452114 0.009113499 -0.013787725
0.0031113424 0.012229388 -0.0008590748 -0.020753112 0.011399091 0.023309238 0.008542603 0.0029814555
0.022933872 -0.009683212 0.02625902 0.015991652 0.014183868 0.017493932 0.011343864 -0.009490767
0.00617967 0.004751589 0.02713294 0.017029028 0.005755276 -0.019603116 -0.010920191 -0.0057362686
-0.006896412 -0.00623836 0.022064416 0.020835582 -0.00032987018 0.019195344 -0.0032731812 -0.02177017
-0.013266571 0.010879069 0.024136586 0.0049753934 -0.010443323 -0.017125068 0.0051835584 0.02141631
-0.002004705 0.01841049 -0.007974248 -0.019252986 0.024738958 -0.014289721 0.022568332 0.0014383422
0.010214788 -0.008184899 0.02276089 -0.0074466015 0.011511752 -0.004887373 -0.014428642 0.008736252
00000000: ac76 953c 322f 8fbc b044 a7ba f374 863c
00000010: fd23 513c d23d f73b c950 153c e9e5 61bc
00000020: aae7 4b3b c55d 483c 8933 61ba 6e02 aabc
00000030: 41c3 3a3c 04f3 be3c 46f6 0b3c 8664 433b
00000040: d1df bb3c 56a6 1ebc 281d d73c ed00 833c
00000050: 7463 683c 6f4f 8f3c 9ddb 393c 297f 1bbc
00000060: d47e ca3b 38b3 9b3b e645 de3c 7680 8b3c
00000070: c196 bc3b b796 a0bc 9aea 32bc 4ff7 bbbb
00000080: 4cfb e1bb 286b ccbb 6fc0 b43c 62af aa3c
00000090: 6df2 acb9 8e3f 9d3c de82 56bb 5b57 b2bc
000000a0: 085c 59bc 1f3e 323c 17ba c53c a008 a33b
000000b0: 791a 2bbc df49 8cbc d7da a93b 4271 af3c
000000c0: 5e61 03bb 99d1 963c 6ca6 02bc 70b8 9dbc
000000d0: 5ba9 ca3c 6f1f 6abc 39e1 b83c c186 bc3a
000000e0: ed5b 273c f419 06bc 0c75 ba3c 9f02 f4bb
000000f0: ca9b 3c3c 4226 a0bb 1c66 6cbc 7f22 0f3c

action_model._discrete_distribution.branches.0.weight f4 [5, 64]
0.012181129 0.00051759125 -0.01568423 -0.0015211372 0.0007693079 -0.0014841141 0.031115873 0.014205708
0.013628801 -0.01784318 -0.011466752 -0.0023124695 0.041310336 -0.00088421995 0.028111782 -0.010760514
0.017987803 0.0016938146 0.006935777 0.025988031 0.011455344 0.017678507 0.01531931 0.01717857
0.008730112 -0.013548453 0.010845476 -0.005629897 -0.039407413 -0.00091774913 -0.008884777 -0.018710019
0.014873184 -0.006470929 -0.005120839 -0.0050848974 0.0024710782 0.0014606653 -0.01578532 0.009198152
-0.00302474 0.015361837 0.019753454 0.010905518 0.009217219 0.0043301787 0.026442097 0.0028147749
-0.023388674 -0.00080537755 -0.011413911 -0.022078615 0.032979537 -0.008682965 0.020474106 0.0047895787
0.0066867983 0.01441127 0.0097768465 -0.007949225 0.0019016705 0.011006229 -0.0030214489 -0.01085409
0.0014484994 0.0038900936 -0.006074154 -0.0012738573 -0.02415639 -0.011685731 0.008973061 -0.015609453
-0.014782778 0.010207991 -0.009097973 -0.0077773132 -0.005143347 0.013391249 0.024565972 0.013546169
0.0045252396 0.0039489833 -0.0021492122 0.019052448 0.007602454 -0.016695179 0.008402413 -0.00528527
0.002892158 -0.0190078 0.018826317 0.003885123 -0.0056625605 -0.0051397244 -0.016599523 -0.0064162402
-0.0076000844 0.0144931665 -0.0018043335 0.0061833044 0.002789684 -0.010816111 -0.03525794 -0.010775962
-0.020719243 0.01632746 0.012510372 -0.0041661854 -0.014953083 -0.010304123 0.02767829 -0.0041872603
-0.008110002 0.021449206 -0.014246649 0.0029844344 0.016869187 -0.0014807222 0.006349142 -0.0016647613
-0.01075267 0.0008299955 0.0016401553 0.01811012 0.0023615465 0.0037397938 0.0043890974 0.019147286
0.022632413 0.0081364345 0.008740233 -0.010075541 -0.015108574 0.007761055 -0.024126677 0.0014421296
0.0058980677 0.024124632 -0.014322997 0.0071551916 0.014635823 -0.01552331 -0.007098542 -0.029527124
-0.004738894 0.005180772 -0.02215196 -0.013764414 0.011784781 -0.025915291 0.00036203823 0.023089258
0.0077303676 0.0232436 0.006677824 -0.027085679 -0.017705219 0.015784832 -0.00401479 0.014459307
-0.02330864 0.004083685 -0.006582095 -0.0067588678 -0.010859111 0.00720518 -0.004935071 0.004176772
-0.00086973165 -0.01794374 -0.0022813405 -0.023206562 -0.003623723 0.0071835183 -3.8110084e-05 0.010497562
-0.001961756 -0.012170902 0.03333972 0.012247251 0.0052959328 0.0041758516 -0.018023005 0.018078577
-0.002783937 0.002122223 -0.00026799372 0.005036358 -0.0065168794 0.003504144 0.0038882114 -0.014594409
0.029901907 -0.01570104 -0.004687916 -0.0095875 0.020798538 0.008478964 -0.017417748 -0.020435909
0.0040014936 0.048591197 0.015064048 -0.0069307936 -0.023336302 0.06339 -0.03132921 0.005914067
0.03958678 -0.010952589 0.02605535 -0.0110281175 0.012853522 0.035203885 0.002442692 -0.009376084
-0.023218963 -0.003981793 0.05327807 -0.012482746 -0.0024589207 -0.012072113 -5.1039788e-05 0.013002734
-0.0065782946 -0.008452255 0.03093489 9.029302e-05 -0.03503746 0.017025385 0.00024161678 -0.0061971843
-0.017422713 0.014088415 0.0002912457 -0.005930501 0.0022525787 -0.013863786 -0.032050796 0.030570496
0.0034171247 0.00432881 -0.00075949734 -0.010103892 0.039047323 0.014421447 -0.005813656 -0.0056120753
-0.013683159 -0.030245245 0.01430169 -0.013312656 0.014887773 -0.03565509 -0.021704579 -0.0011283517
00000000: 5c93 473c f6ae 073a 377c 80bc e560 c7ba
00000010: 61ab 493a 9b86 c2ba b7e6 fe3c 0fbf 683c
00000020: 564b 5f3c dc2b 92bc 0bdf 3bbc cd8c 17bb
00000030: 0735 293d ffca 67ba ae4a e63c de4c 30bc
00000040: 285b 933c fd02 de3a 8445 e33b dae4 d43c
00000050: 32af 3b3c 84d2 903c d8fd 7a3c 13ba 8c3c
00000060: be08 0f3c 55fa 5dbc 39b1 313c 007b b8bb
00000070: ab69 21bd 1a95 70ba 7591 11bc c145 99bc
00000080: a8ae 733c 160a d4bb b6cc a7bb 369f a6bb
00000090: d0f1 213b cb73 bf3a 3750 81bc d9b3 163c
000000a0: b73a 46bb 37b0 7b3c ffd1 a13c 0fad 323c
000000b0: d203 173c 2ce4 8d3b 199d d83c 1678 383b
000000c0: 9b99 bfbc f91f 53ba 6a01 3bbc 36de b4bc
000000d0: 8d15 073d ff42 0ebc 50b9 a73c e6f1 9c3b
000000e0: ee1c db3b 3f1d 6c3c 112f 203c 773d 02bc
000000f0: 7941 f93a 7853 343c 8003 46bb 5ad5 31bc
00000100: 93db bd3a f1f0 7e3b b209 c7bb 8ff7 a6ba
00000110: 9fe3 c5bc 8275 3fbc bf03 133c cbbe 7fbc
00000120: 7733 72bc 6b3f 273c aa0f 15bc d5d8 febb
00000130: 8689 a8bb f866 5b3c 943e c93c c0f0 5d3c
00000140: 7648 943b 7966 813b ccd9 0cbb e113 9c3c
00000150: 021e f93b 54c4 88bc 46aa 093c 0f30 adbb
00000160: 5c8a 3d3b 3fb6 9bbc a639 9a3c 8c9d 7e3b
00000170: 008d b9bb 226b a8bb b9fb 87bc 533f d2bb
00000180: 210a f9bb bf74 6d3c 637f ecba 519d ca3b
00000190: 22d3 363b 0f36 31bc a16a 10bd a98d 30bc
000001a0: 67bb a9bc 2ac1 853c 4ef8 4c3c 7f84 88bb
000001b0: c7fd 74bc a0d2 28bc 95bd e23c 4935 89bb
000001c0: d0df 04bc 3fb6 af3c c76a 69bc 8096 433b
000001d0: 4031 8a3c cb14 c2ba 770c d03b 1f34 daba
000001e0: f72b 30bc 0e94 593a 7bfa d63a ad5b 943c
000001f0: 2dc4 1a3b 5417 753b 6bd2 8f3b c5da 9c3c
00000200: 9c67 b93c ae4e 053c 3233 0f3c e213 25bc
00000210: f489 77bc 7350 fe3b 4fa5 c5bc d705 bd3a
00000220: 9444 c13b 05a1 c53c 01ab 6abc 1976 ea3b
00000230: 17cb 6f3c 7b55 7ebc e39a e8bb dee2 f1bc
00000240: b948 9bbb 77c3 a93b 0778 b5bc 2384 61bc
00000250: f414 413c 4e4c d4bc f3cf bd39 af25 bd3c
00000260: 064f fd3b 5d69 be3c a6d1 da3b c9e2 ddbc
00000270: 890a 91bc 314f 813c 808e 83bb bbe6 6c3c
00000280: c3f1 bebc 6fd0 853b 9dae d7bb 7e79 ddbb
00000290: 6aea 31bc 6e19 ec3b 60b6 a1bb 4edd 883b
000002a0: b4fe 63ba c0fe 92bc 8b82 15bb b01b bebc
000002b0: fc7b 6dbb b863 eb3b 64d8 1fb8 f7fd 2b3c
000002c0: ce90 00bb 7768 47bc 3b8f 083d b2a8 483c
000002d0: 8189 ad3b 95d5 883b fba4 93bc 8619 943c
000002e0: b672 36bb fe14 0b3b 8281 8cb9 0808 a53b
000002f0: 8c8b d5bb c8a5 653b 5dd1 7e3b 631d 6fbc
00000300: d8f4 f43c 789f 80bc 179d 99bb e414 1dbc
00000310: b261 aa3c 5aeb 0a3c aaaf 8ebc 3569 a7bc
00000320: f61e 833b 9007 473d 32cf 763c b61b e3bb
00000330: c62b bfbc 9ed2 813d 0f53 00bd caca c13b
00000340: bf25 223d 7d72 33bc 0872 d53c 47af 34bc
00000350: 9497 523c f331 103d 9215 203b 269e 19bc
00000360: b235 bebc b379 82bb 1b3a 5a3d 6e84 4cbc
00000370: d825 21bb 1dca 45bc 8e13 56b8 6b09 553c
00000380: bc8e d7bb 547b 0abc 2b6b fd3c b25b bd38
00000390: 7183 0fbd d278 8b3c 835a 7d39 c011 cbbb
000003a0: 14ba 8ebc 18d3 663c 56b2 9839 a654 c2bb
000003b0: 00a0 133b ef24 63bc b247 03bd fa6e fa3c
000003c0: d7f1 5f3b b1d8 8d3b 0119 47ba cb8a 25bc
000003d0: 16f0 1f3d ef47 6c3c 7b80 bebb 80e5 b7bb
000003e0: 542f 60bc e0c4 f7bc a351 6a3c 541d 5abc
000003f0: d9eb 733c 120b 12bd cdcd b1bc 33e5 93ba

action_model._discrete_distribution.branches.0.bias f4 [5]
0.0046956376 0.002199396 -0.00062499475 0.015248121 -0.024121866
00000000: dddd 993b be23 103b b0d6 23ba 41d3 793c
00000010: 389b c5bc
