Assets/results/Maze05/Mouse/checkpoint.pt (torch, 565602 bytes, 33 tensors)

network_body._body_endoder.seq_layers.0.weight f4 [128, 45]
000000 68 bd 21 3e 1e c2 3b 3e 75 52 0b be ee 50 17 be
       0.15794909 0.18335769 -0.13605674 -0.14776966
000010 4b 23 ec be 45 85 28 be 53 da 84 3d 29 0e 98 be
       -0.46120676 -0.16457088 0.064869545 -0.29698303
000020 c6 d7 2b 3d 83 6b df 3d 6b a4 36 bd 34 3d 0f 3b
       0.041953824 0.10909178 -0.044590395 0.0021856548
000030 34 4b d9 3d 5a 57 2a 3e 9f 59 6e be 0c 31 5d 3e
       0.10610047 0.16634884 -0.23276375 0.21600741
000040 1e c4 00 be 57 5b 10 be 53 0d c2 3d a4 1b 8a be
       -0.12574813 -0.14097343 0.09475198 -0.26974213
000050 c1 3a a1 3c b2 07 a1 be 51 2b 2e 3e 50 47 ed bd
       0.019681336 -0.31451184 0.17008711 -0.115858674
000060 80 f9 d3 3d 2b f0 3e be dc 68 a6 3e 52 3d 90 3e
       0.10350323 -0.18646304 0.32501876 0.28171784
000070 ba 34 ed bd 37 c4 95 bd c9 fb 69 3d a5 1d 8e bd
       -0.115823224 -0.07312816 0.057124887 -0.06939248
000080 17 fa 4b be d1 d0 a5 be 8e 59 38 bc 12 ef 16 3d
       -0.1991962 -0.32385877 -0.01125182 0.03684909
000090 ca 55 7e be 1f 37 c3 bc 88 10 13 3e 78 c8 76 3d
       -0.24837413 -0.023829995 0.14361775 0.060249776
0000a0 2e 0d e8 bc 65 be 46 bd 3a 40 5b bb 8d ef 61 bd
       -0.028326597 -0.048521418 -0.003345503 -0.055160094
0000b0 dc 83 34 3e b0 cc 32 3b f5 99 a1 be 8e 14 d8 3d
       0.17628425 0.0027282648 -0.31562772 0.105507955
0000c0 a9 eb 03 be 8e a4 00 3e 5a 14 78 3e 61 c7 5d bd
       -0.12882866 0.12562773 0.24226514 -0.05414522
0000d0 0f 83 98 bc 19 8f c2 bd 9c 0d f3 bb 48 86 95 3d
       -0.018617181 -0.0949995 -0.007417394 0.07301003
0000e0 cd 6d 05 3e 8f 98 18 be 30 ea 8e be 1c 86 ab bd
       0.13030167 -0.14901946 -0.27913046 -0.08375189
0000f0 ce f2 5c bd 52 76 dd bd a2 b0 37 be 25 1a 94 3b
       -0.053942494 -0.108135834 -0.17938474 0.0045197182
000100 c7 fa cb bd d8 4d 72 3c 80 f4 60 3e 87 57 21 be
       -0.09959941 0.014789067 0.2196827 -0.15756045
000110 68 94 5c be 2a 00 a9 3e b6 ea 9e bd d5 05 08 be
       -0.21540987 0.33007938 -0.07759611 -0.13283475
000120 2e c8 b6 bd dd 12 43 3e 04 d9 1f bd 87 77 ca bb
       -0.089249 0.19050165 -0.03902532 -0.0061787996
000130 5f 18 80 3d d9 08 83 be e9 7f 84 bb 57 31 18 3e
       0.062546484 -0.25592688 -0.0040435684 0.14862572
000140 7a e3 88 be 51 3b ad 3c c1 00 8f bd 99 c3 27 3e
       -0.2673605 0.021146448 -0.06982566 0.16383208
000150 ac 47 cc bd 80 34 34 bc 02 76 3b 3e 58 d0 8f be
       -0.09974608 -0.010998845 0.18306735 -0.2808864
000160 11 16 41 be a2 7a 02 bf fc e5 61 3e 09 a4 93 be
       -0.18856074 -0.5096837 0.22060388 -0.28836086
000170 c0 fd 04 be 56 ee 43 3e 3d 65 7c 3e 2e c6 3e 3e
       -0.12987423 0.19133887 0.24647994 0.18630287
000180 39 f9 56 be 32 08 a0 bd 00 62 60 bd 9d f6 fd bd
       -0.20993508 -0.07814063 -0.05478096 -0.124005534
000190 d5 f3 70 bd 13 18 7f 3d 72 cc d1 3e 6b 4c 47 bd
       -0.058826286 0.06227882 0.40976292 -0.048656862
0001a0 bf 5b 55 be 66 2e d9 3c 31 a4 36 be ae 3c 15 3e
       -0.2083578 0.026511382 -0.17836072 0.14573929
0001b0 c5 b8 50 3d be dc fe bd 99 79 72 3d 67 a9 31 3e
       0.05095746 -0.12444447 0.059197996 0.17349778
0001c0 69 71 34 be 75 7d 34 3e 59 1f 80 3d 01 81 4f 3b
       -0.17621388 0.17625983 0.06255979 0.0031662586
0001d0 a2 c9 68 3d 91 48 da bd ef c0 1d be 94 2f f3 bd
       0.056832917 -0.10658372 -0.1540563 -0.11874309
0001e0 42 da 78 3d 2a 52 f9 3d e6 ec 5d be 3e 24 a6 bd
       0.060755022 0.12173875 -0.21672401 -0.081123814
0001f0 db e1 04 3e ce 40 31 3e b5 62 93 bd a8 47 c4 3c
       0.12976782 0.17309877 -0.07196561 0.02395995
000200 55 c6 f9 bc 16 b2 3a be e9 6e 45 bd a5 19 9c 3c
       -0.03049008 -0.18231997 -0.048201475 0.019055197
000210 b0 1a a8 bd 3a a3 8b be 65 e7 d7 3d 6d bf da 3d
       -0.08208215 -0.2727297 0.10542182 0.10681043
000220 20 19 33 bd 95 ff 07 be 33 e3 f7 bd 00 72 49 be
       -0.043725133 -0.1328109 -0.12103882 -0.19672394
000230 35 cb 3f be ff 6e fe bd 53 97 b0 bd 73 d9 68 bd
       -0.18729861 -0.124235146 -0.08622613 -0.056848
000240 3e 40 1a 3e 99 49 29 3e 20 87 1c be 30 75 9f 3c
       0.15063569 0.16531982 -0.15285921 0.019465059
000250 0d 8b 0d bc f9 24 23 be 87 e4 36 be f7 6a 6e be
       -0.008639109 -0.15932073 -0.17860614 -0.23282991
000260 11 d4 08 bc ea 5a 8c 3d 16 b5 d3 3d 41 cc 8e 3e
       -0.008351342 0.06853278 0.10337274 0.27890208
000270 da aa 87 3e 2b 1f 8f 3d 05 09 1a be 9e b3 53 3c
       0.26497537 0.06988367 -0.15042503 0.012921242
000280 00 97 eb 3e eb d7 fe 3c 0a fa 16 3d 4e b4 64 be
       0.4601364 0.031108817 0.03685955 -0.22334406
000290 86 34 d3 3c 90 23 66 3e 4e 63 67 3d 8a 3e da be
       0.025781881 0.22474504 0.05649119 -0.4262584
0002a0 49 f7 28 3d df f1 89 3e da e9 2f 3d 41 e5 a8 3e
       0.041251455 0.26942345 0.042947628 0.32987407
0002b0 3e a3 69 3c a5 7b 30 3e 96 d3 c0 3c d3 b5 aa be
       0.014260111 0.17234667 0.023538392 -0.33341846
0002c0 93 ce 12 3e f8 da 00 bd a9 cd 74 bd 9c ba 58 bd
       0.14336614 -0.031458825 -0.059766445 -0.05291234
0002d0 9d 82 14 be 6a 6f 21 3d b6 31 a6 3d c0 4c 98 3d
       -0.1450295 0.039412893 0.0811495 0.07436514
0002e0 2f d7 35 3e a6 66 4a be ee 05 85 3c 5a 94 2a 3e
       0.17757867 -0.1976572 0.016238179 0.16658154
0002f0 a5 54 cb 3d 22 da a8 be 92 0f 8a 3d 52 4d 8c 3d
       0.09928254 -0.32978922 0.06741251 0.06850685
000300 ec 6c 62 3d 32 3b 25 3e bb 8f 6d 3d c3 1d 67 3e
       0.055279657 0.16135862 0.0579984 0.22569947
000310 e2 99 d2 3d 89 b9 3a 3e 38 88 1f 3c 39 ea 14 3d
       0.10283257 0.18234839 0.009737067 0.036356185
000320 47 a6 64 be 23 7a 89 bd 62 f3 d5 3c c4 f8 05 3e
       -0.22329055 -0.06712749 0.02611703 0.13083178
000330 9c a5 6f 3e 5f c3 a8 3d 01 0d c0 be 2e bb 02 be
       0.23403019 0.08240389 -0.3750992 -0.12766716
000340 f0 5c cb 3e 46 a6 13 3e 5b ac 16 3e e6 68 05 3e
       0.39719343 0.14418897 0.14714186 0.13028297
000350 d9 9f 91 3e c8 66 83 bb e2 2e 2f bc a8 ec c0 be
       0.28442267 -0.004010055 -0.01069233 -0.37680554
000360 5a f3 d9 bc ad 86 c7 3c 9e 37 e1 3d 36 32 e5 3d
       -0.026605297 0.02435621 0.10996936 0.111912176
000370 aa 04 fb bd 83 5d 00 be 55 43 02 be 07 97 5a 3e
       -0.12256749 -0.12535672 -0.12720998 0.21346675
000380 61 57 9d 3d ed 6e 10 be 66 86 78 bd 13 1e 7d 3e
       0.07682682 -0.14104815 -0.060675047 0.24718504
000390 a7 03 1f be 13 c0 68 bd 07 12 42 3d dd e6 c1 3d
       -0.15528737 -0.0568238 0.047380473 0.09467862
0003a0 95 40 ab be 26 ef a3 3e 21 45 a8 bd a7 46 9a bd
       -0.3344771 0.32018393 -0.0821631 -0.07533007
0003b0 f6 a3 99 3e df 8e 89 3d cc 25 c5 3b 9a 3e e3 bd
       0.30007905 0.067167036 0.0060164686 -0.11095925
0003c0 a4 ec 01 be 71 10 6d 3e 64 6f 35 3d 35 b0 29 3e
       -0.12687927 0.23150803 0.044295684 0.16571124
0003d0 81 e8 94 3e 26 63 1f 3e f5 25 1c 3e f2 ab 9f 3c
       0.29083636 0.15565166 0.15248854 0.01949117
0003e0 4e a8 b7 3d 00 b4 17 be b0 19 c0 3e 08 5f b8 3e
       0.089676484 -0.14814758 0.37519598 0.36010003
0003f0 6e 29 a1 bc 26 58 8d bd 4b 5d 22 be e7 5e 67 3e
       -0.019673076 -0.069015786 -0.15855901 0.22594796

network_body._body_endoder.seq_layers.0.bias f4 [128]
000000 f6 52 0b bc 28 8b a2 bb 4a cc 54 3b 65 94 13 3a
       -0.008503666 -0.0049604364 0.0032470399 0.00056297175
000010 24 7a 5d 3c 22 7e a9 bb ff c7 d5 ba 74 91 a3 bb
       0.01351789 -0.005172507 -0.0016310214 -0.0049917046
000020 31 47 98 bb 85 86 1b 3c 82 cc fd 3b 73 fe be 3b
       -0.0046471586 0.009492521 0.0077453265 0.0058286726
000030 10 8f 98 39 57 74 eb bb f6 79 44 3c f3 ba 7a bc
       0.0002909829 -0.0071854996 0.011991968 -0.015303361
000040 1b 78 e2 ba 16 e7 dc bb 7c 0a 90 bc ed 83 99 bc
       -0.0017278226 -0.006741415 -0.017583124 -0.018739665
000050 d9 75 99 bc 95 e2 7a 3b f2 3f 6d 3c a5 ef 4e 3c
       -0.018732952 0.0038282026 0.014480578 0.012630378
000060 3d ed 61 3c fe 05 78 ba 2e 17 84 bc b6 e1 0f bc
       0.013789472 -0.0009461342 -0.016124334 -0.008781841
000070 24 42 4f 3c 06 d4 51 bc 02 90 66 3c d4 90 ed 3b
       0.0126500465 -0.012806898 0.01407242 0.007249931
000080 d5 3d 00 3c 6d cf 0b 3c 3a a3 30 3c 18 26 3a bc
       0.007827242 0.008533341 0.010781104 -0.011361621
000090 41 af a9 bc 5f ef 21 bb 44 f5 f0 bb 50 20 84 bc
       -0.02071345 -0.0024709327 -0.0073534567 -0.016128689
0000a0 c6 94 8b bc 4e f0 ba 3b d2 64 4c bc ac 32 ec 3c
       -0.017038714 0.005704916 -0.012475209 0.028832756
0000b0 26 eb 02 3c 0e 23 24 3c d9 ff c9 bb f5 7b 49 bc
       0.007990634 0.010018123 -0.0061645326 -0.01229762
0000c0 85 ff dc 3c b1 bc 91 bc 6c b9 65 39 cc c6 9d 3c
       0.02697731 -0.01779017 0.00021908217 0.019259833
0000d0 32 63 81 3c d9 e6 16 3c 0e f2 2f bc 81 52 14 3d
       0.01579437 0.009210312 -0.010738863 0.036211494
0000e0 9c 6a 03 3c b1 8a 5e 3c 4a 84 0a 3b 8c fa e6 3b
       0.008021023 0.013582871 0.002113598 0.0070489105
0000f0 a3 f6 0e bb c5 2c 0d bc 5f 12 92 3b da 69 be bb
       -0.0021814487 -0.008616631 0.0044577564 -0.0058109583
000100 a7 fb 96 3b 2f c6 44 ba 5d ae 31 3c d1 ae 87 3b
       0.004607636 -0.00075063383 0.010844794 0.004140713
000110 66 80 81 bc 64 51 01 bc 7a 4e 9b 3c 91 42 11 bc
       -0.015808295 -0.00789294 0.018958319 -0.008865968
000120 2a c4 38 3c 84 3c 0c 3c 15 04 d1 3b 98 61 87 bb
       0.011277238 0.00855935 0.0063786604 -0.004131507
000130 23 0d 22 3b 72 e7 fd bb d5 d7 2c ba bb b5 dc bb
       0.0024727068 -0.0077485377 -0.0006593441 -0.006735531
000140 68 6f 54 bc 08 cc 88 ba 66 1e d5 bb 42 ee 80 3c
       -0.012966014 -0.0010436783 -0.006503868 0.01573861
000150 12 2c 01 bc 9e ac 62 3c 03 7f 85 3b a4 72 e2 3b
       -0.007884042 0.0138351 0.004073979 0.006910639
000160 05 42 62 ba 23 ad 0c bc 0e 39 b5 3b c5 1b 98 3b
       -0.00086310535 -0.008586201 0.005530483 0.0046419823
000170 f0 28 38 bb dc 06 8f 3b 63 44 d3 bb 11 99 76 3c
       -0.0028100573 0.0043648314 -0.0064473613 0.015051142
000180 c2 e4 64 3a 24 b3 89 bc f1 76 db 3c 6d ca 7b 3c
       0.00087315973 -0.016809054 0.026790114 0.015368086
000190 0c 5f ed bb 9e 24 fd 3b 1a 12 f0 3a c0 15 6f 3c
       -0.0072439965 0.0077253124 0.0018315942 0.014592588
0001a0 44 fa 9a 3b 5f e7 78 39 49 1d 76 3c 8d dc 5a 3c
       0.004729541 0.00023737315 0.015021631 0.0133582475
0001b0 b0 e7 dd bb 5f 98 28 3b 89 df 15 3b a9 b5 8d 3c
       -0.006772004 0.0025725586 0.0022868833 0.017298536
0001c0 0f a4 b1 3b 98 51 d7 bb c8 69 e8 bb e1 2d 60 bb
       0.0054211686 -0.006571006 -0.007092688 -0.0034207033
0001d0 6e b2 69 bb 83 37 f4 ba 05 88 71 3b e2 bc 8a 3c
       -0.003565933 -0.0018632266 0.0036854756 0.01693577
0001e0 7a e5 0d bc 46 ba b1 bb d9 bd 27 bc cf fd 17 bb
       -0.0086606685 -0.005423817 -0.010238134 -0.0023192053
0001f0 26 9b c0 bb 4d 0e 44 3a 8d 91 68 bb 29 55 09 bc
       -0.00587787 0.00074789376 -0.0035487146 -0.00838212

network_body._body_endoder.seq_layers.2.weight f4 [128, 128]
000000 a5 9d 07 3e 38 3e f7 3c ee 4d 09 bd 50 a9 36 bd
       0.1324373 0.030181035 -0.033521585 -0.044595063
000010 e7 fb ab bd 38 43 11 be 86 7b 70 bd e1 25 c5 3d
       -0.08397656 -0.14185798 -0.05871155 0.096263655
000020 27 4b 75 3d 55 89 02 3d 82 37 68 3d d2 e0 d9 bd
       0.059886124 0.03186925 0.05669356 -0.10638584
000030 47 b1 d3 3d 58 8d 2e 3c a7 48 04 be 6e 97 b6 bd
       0.10336547 0.010653816 -0.1291834 -0.08915602
000040 b2 3f da bd 58 25 93 3d c6 5b f9 3d b3 6d 0c bd
       -0.1065668 0.07184857 0.121757075 -0.034284305
000050 0e 19 00 be 46 7b 78 3d 48 a8 65 3c 7f e1 8d 3c
       -0.12509558 0.060664438 0.014017172 0.017319439
000060 1b ad 38 3c 8f 4a 1d 3e a6 e7 36 bc 96 a0 98 bd
       0.01127174 0.15360473 -0.011163628 -0.07452504
000070 d8 c4 db bd bb c2 ce 3d e3 e3 40 3e 0e 50 e0 bd
       -0.10730904 0.10095736 0.18836932 -0.10952769
000080 20 a4 ca bc a7 38 ee 3d e5 77 45 3d 90 63 91 bd
       -0.024736464 0.11631899 0.048210043 -0.07099068
000090 d5 18 d9 3d f6 50 02 be a8 d3 ea bc 34 f9 c6 bd
       0.106004395 -0.12726197 -0.028665379 -0.097155005
0000a0 f0 c9 2a 3d 12 69 7a 3d 73 b1 2c 3e 54 aa 8c bd
       0.04169649 0.06113536 0.16864567 -0.06868425
0000b0 d1 04 cc 3c 11 fc 6f 3d e5 10 9b 3d 39 da 6f bd
       0.02490464 0.05859 0.07571582 -0.058557723
0000c0 cc 92 3f 3c 2a ae fb 3d 6e 62 b1 3d ef 79 99 bd
       0.011692714 0.122890785 0.08661352 -0.0749396
0000d0 e5 cc e5 ba 3a 5c 83 3c 66 8a 86 ba 1f 27 cc 3c
       -0.0017532377 0.016035188 -0.0010264635 0.024920998
0000e0 1f e3 25 bd 38 a7 18 3d 13 e3 fb bd 74 b0 41 be
       -0.040499803 0.037268847 -0.1229917 -0.18914968
0000f0 dc 72 bd 3d 49 b0 d3 bc 50 cf 72 3d dc 2b 6e 3d
       0.09250423 -0.025840895 0.05927974 0.058147296
000100 82 e3 28 be fc 62 7a 3d 63 88 02 be 74 17 8d 3d
       -0.16493037 0.061129555 -0.1274734 0.06889239
000110 81 d1 6b 3c 3d 61 83 3d 3c d0 0d be 48 13 ba bd
       0.014393211 0.06415031 -0.13848966 -0.09085709
000120 35 6e 67 bd 7a ea cb 3c 96 c9 39 3d 74 63 a6 3d
       -0.056501586 0.02489208 0.045358263 0.08124438
000130 56 3e 47 3d 0b 7d 8b bd 49 18 e9 3d 42 4f 49 3d
       0.048643433 -0.068109594 0.11381585 0.04914785
000140 b4 c3 4b bd d9 9b ff bb 33 42 5f 3d 79 48 48 bd
       -0.049747184 -0.007800561 0.054506492 -0.04889724
000150 f0 1d bb bd e3 6e 41 3d 50 8e 29 bd f5 86 34 be
       -0.091365695 0.04722489 -0.041395485 -0.17629607
000160 04 47 89 bd ac a1 94 bc 77 fc d2 bd 55 28 be bd
       -0.06702998 -0.018143497 -0.1030206 -0.092850365
000170 13 a8 a9 3c 33 56 f6 3d b7 c4 af bc 8f 83 a0 bc
       0.020710027 0.1202816 -0.021456106 -0.019593982
000180 22 6d 94 3d 46 b6 75 3d df 33 42 bd 0e 89 28 3e
       0.07247378 0.059988283 -0.04741275 0.16458532
000190 89 21 05 bc ed 64 18 bd 4a 57 ce 3c 23 e9 50 bd
       -0.008125671 -0.037205625 0.025188107 -0.051003587
0001a0 c1 8d 18 3d d9 b3 aa 3d 93 5b 12 3e a8 d6 09 3e
       0.037244562 0.083350845 0.14292745 0.13460791
0001b0 2c 42 28 3e 71 c0 fc bd 70 2c 10 3d 4c a2 d5 bd
       0.16431493 -0.12341393 0.03519863 -0.10431346
0001c0 57 25 39 bc 7f 31 d0 bd cc 0d 60 3d cd 12 fb 3b
       -0.011300406 -0.10165691 0.054700658 0.0076621533
0001d0 c1 7d 15 be 07 52 fc bb d9 10 32 3d b9 4b 8a 3d
       -0.14598753 -0.007700208 0.0434731 0.06752724
0001e0 69 3c 1d bd d0 12 04 b9 2d 07 ea bc fd 89 b2 bd
       -0.03838769 -0.00012595509 -0.028567875 -0.087177254
0001f0 9b d2 ae bd c6 d6 de 3b 8a d5 fe 3c 40 65 b3 3b
       -0.085362636 0.0068005053 0.031107683 0.0054747164
000200 00 38 30 bd 7f 31 a4 bd 43 7a d9 bd 04 53 e7 bb
       -0.043022156 -0.08017253 -0.10619023 -0.007059457
000210 59 71 4a bd e7 66 43 bd 87 17 be 3c c2 37 d1 3d
       -0.049424503 -0.047705557 0.023204578 0.10215713
000220 1d 65 27 3e 6c 12 2b 3c b0 b1 81 bd 51 c4 c8 3d
       0.16347165 0.010441404 -0.06332719 0.098030694
000230 18 95 e9 bc 73 c5 b5 3c 4f 57 3d 3d 3c 65 d1 bd
       -0.028513476 0.022188878 0.046225842 -0.10224387
000240 c4 18 9c bd 69 0b e5 bd 88 70 36 bd c7 e0 28 be
       -0.07621911 -0.11183817 -0.044540912 -0.16491996
000250 9b d5 30 be d7 45 e2 3d 90 41 49 3e 22 94 45 3e
       -0.17268984 0.11048477 0.19653916 0.1929479
000260 0f b2 5b be b8 bc 6d 3a c0 2e 41 bd f8 80 27 bd
       -0.21454643 0.0009068954 -0.047163725 -0.04089448
000270 3a 90 09 be 5c 21 f1 bd 4e 13 81 3d 64 0d 91 3d
       -0.13433924 -0.11773941 0.0630251 0.07082632
000280 ce 74 1e bd f4 f2 a8 3d 00 20 24 bc fc f9 e2 3d
       -0.038685612 0.08249465 -0.010017395 0.11082837
000290 ad 2d 0b 3e 2f 56 ef bd 67 02 b7 bc e5 51 49 be
       0.13591643 -0.1168636 -0.022340013 -0.19660147
0002a0 16 38 2f 3d 62 01 91 3d ea 9c a0 3d ce 83 df 3d
       0.042778097 0.07080342 0.07842429 0.109138116
0002b0 d5 65 d9 bd 7e e9 88 3e 6b f0 04 bd 8b c1 de 3c
       -0.10615126 0.2674064 -0.032455843 0.027191898
0002c0 4a 48 62 bd 48 39 39 be 94 9a b6 3c 2b 15 82 3d
       -0.05524472 -0.18088257 0.022290505 0.06351694
0002d0 d4 36 82 3d 2d 65 8e 3d 4a 59 c4 bd de 9e 7e bc
       0.06358114 0.069528915 -0.09587343 -0.015540807
0002e0 c3 2b 03 3d db eb 25 3d f6 1b 2e be c5 e3 d3 bd
       0.032024156 0.040508132 -0.17002854 -0.10346178
0002f0 5e 71 74 bd f3 5b 75 3d 9a a4 38 3d 1c a6 b9 bd
       -0.059678428 0.059902143 0.04507885 -0.09064886
000300 77 ff b3 3c 85 43 1c 3d 65 db 77 3d 2d 7c 87 3d
       0.021972401 0.03815033 0.060511965 0.066154815
000310 73 8f 86 bd 79 ee c0 3d 0d 0d 17 3e 7e 11 cb 3d
       -0.065703295 0.09420485 0.14751072 0.09915446
000320 b7 c7 d0 3d 95 a6 7c bd 88 e7 3e be de 32 31 be
       0.101943426 -0.061682303 -0.1864301 -0.1730456
000330 7f 3e 18 3e e7 b2 26 be ac e9 5b 3d 00 85 42 bd
       0.1486759 -0.16279183 0.053689644 -0.04749012
000340 48 10 31 bd f2 79 c8 3d 76 97 de 3a 53 07 d1 bd
       -0.043228418 0.09788884 0.0016982395 -0.10206475
000350 75 8f 8d bd 95 9e b6 ba d0 9f a8 bd 10 44 2f 3d
       -0.06912128 -0.0013932759 -0.08233607 0.04278952
000360 18 84 91 bc 7a a7 43 3b 52 3b 30 3e 9b 34 18 be
       -0.017763183 0.0029854462 0.17210129 -0.14863817
000370 35 ad 1a 3e f2 78 e1 3d 16 f6 9f 3d 97 b8 8a bd
       0.15105136 0.110093966 0.07810609 -0.06773489
000380 28 b8 a8 bd 95 30 d1 3d d8 86 95 bd 4f ad 81 bb
       -0.0823825 0.102143444 -0.0730111 -0.0039574276
000390 82 91 de bd a5 f1 6a bd 69 ec e1 3b 89 5c e6 3c
       -0.10867597 -0.057359356 0.0068946374 0.028120296
0003a0 9f 33 b5 3d 8c a6 62 be 44 dc 52 3d 74 b3 f1 bc
       0.088477366 -0.22133845 0.051479593 -0.029504515
0003b0 3f 27 d5 bd ba d3 07 bd df cf 7c 3d e1 b1 11 3c
       -0.10407876 -0.033160903 0.06172168 0.008892507
0003c0 d6 28 f0 3d 6a 21 36 bd 27 1c 27 bd fa 66 0b be
       0.11726539 -0.04446546 -0.040798333 -0.13613501
0003d0 7f 4e 0a bc 23 1d 30 3b f1 43 c6 3b a9 a9 24 3e
       -0.0084415665 0.0026872836 0.0060505797 0.16080345
0003e0 a3 70 a8 3d 26 da 8f 3c d8 15 c8 3d 50 c7 5f bc
       0.08224609 0.017560076 0.09769791 -0.01365836
0003f0 84 95 75 3d 0a 4b 4b 3d f9 10 20 3d 9f fd 16 3e
       0.059957042 0.04963211 0.039078686 0.14745186

network_body._body_endoder.seq_layers.2.bias f4 [128]
000000 43 9e f9 bb 75 a8 fb 3b 3b d0 11 3c 48 d5 61 3c
       -0.007617743 0.0076799938 0.008899744 0.01378376
000010 06 8f 6f bb 4f c8 6c ba 66 f1 77 3a 33 19 71 3b
       -0.0036553754 -0.0009032534 0.00094582734 0.0036788702
000020 3f d1 07 3c ff f7 3f 3c 2d e5 ab 3b ec 13 c1 bb
       0.008289634 0.011716842 0.0052458257 -0.0058922675
000030 1f 6d 00 bc 94 95 1e bc 75 3e df bb 8e 03 80 bb
       -0.0078385165 -0.009679217 -0.0068128654 -0.0039066738
000040 9b ad 9e 3c 15 1a 6a bb c5 88 c6 3b 0b 22 ec bb
       0.01936989 -0.0035721113 0.0060587847 -0.0072062067
000050 49 c0 57 3c 7f 92 0a 3c 21 3f 18 3b 3a 5e a8 3a
       0.013168403 0.008457779 0.0023230987 0.0012845465
000060 3a ed 9c bb dc 1c 3a bc d7 f6 aa 3a 12 78 34 bc
       -0.004789022 -0.01135942 0.0013043535 -0.011014955
000070 63 e5 c8 3b a3 f1 38 bc 44 b7 54 bb e1 81 88 3c
       0.0061308607 -0.011288079 -0.0032457868 0.016663494
000080 b5 8d 4c bc 5e b8 45 3c f9 a0 0e 3b 78 0f 59 bc
       -0.012484957 0.012067882 0.0021763428 -0.013248317
000090 88 13 aa bb 61 8d 60 3b 1b 3a 1f bc 12 86 19 3c
       -0.0051903166 0.0034263956 -0.009718443 0.009370344
0000a0 42 92 1e 3a b7 c4 1c 3c b4 90 e0 bb 4a e1 e3 bb
       0.0006049016 0.009568385 -0.0068531875 -0.006954347
0000b0 89 86 9b bc d2 33 eb bb 8d fd 15 3b 32 94 11 bc
       -0.01898505 -0.0071778083 0.0022886724 -0.00888543
0000c0 3b c3 27 bc a6 ee 11 bb 5b 09 50 3c dc fa 73 bc
       -0.010239418 -0.002226749 0.012697543 -0.0148913525
0000d0 f0 5c 1e 3c b1 ec 75 3c 29 80 67 bc a4 7d 8b 3c
       0.009665713 0.015010045 -0.014129677 0.017027684
0000e0 c1 3d 91 3c 45 a5 f0 ba 71 54 d5 3c c6 b1 16 bb
       0.017729642 -0.0018359801 0.026041241 -0.0022994145
0000f0 f8 20 04 3b ff 14 80 bb ce 3c 13 bc 6c bf b7 ba
       0.0020161252 -0.003908753 -0.008986665 -0.001401884
000100 af cb 82 3c 1f e3 a5 bb ad e0 82 bc 00 e8 d9 3b
       0.015966265 -0.0050624753 -0.015976274 0.006649971
000110 ce 7c e9 39 9b cf 87 3c cc df 13 3b 56 f4 f9 3a
       0.0004453421 0.016578486 0.0022563813 0.001907001
000120 bb 4e 6e ba ff 7c 95 bc ca 9b 33 bc b4 cd 56 3b
       -0.0009090711 -0.01824808 -0.010962436 0.0032776417
000130 49 5c 77 3c 88 c9 52 bb 67 1e 8a 3b 52 40 24 bc
       0.015097686 -0.003216358 0.00421505 -0.010025101
000140 6d 5e 0f 3a a8 7d 78 3b 39 0d 49 bb 3d 6a 31 3c
       0.00054690876 0.0037916694 -0.0030678047 0.010828552
000150 96 7f 9f 3b 0e 79 be 3b 1a 55 7a 38 d0 7e a9 3c
       0.0048675044 0.0058127707 5.96839e-05 0.020690352
000160 e0 51 9e 3b f2 93 05 bc 24 28 77 3b 68 63 ef 3b
       0.0048315376 -0.008152949 0.0037713135 0.0073055513
000170 85 e6 01 3c e7 d4 ae bb cb 51 66 3c 35 29 ab 3c
       0.007928495 -0.0053354385 0.014057587 0.020893672
000180 d5 4d 65 3c 4f 06 15 3c 90 5c c6 3a b1 fe 76 3c
       0.013995607 0.009095742 0.0015133787 0.015075372
000190 27 57 b3 bb 7b 54 e9 3b e6 79 c5 3b 52 c6 70 3b
       -0.005473036 0.0071206666 0.0060264943 0.0036739302
0001a0 19 69 32 3c a3 8c f5 3b 7c 49 ec bb 1d 80 fd 3b
       0.010889315 0.007493572 -0.0072109085 0.0077362196
0001b0 72 44 18 3c 16 42 99 3c ad 43 7a bc dd c7 17 3b
       0.009293662 0.01870827 -0.015274924 0.00231599
0001c0 57 0a 2c bc 2e 5b ee bb bc 8d 8c 3b 56 5e ea ba
       -0.010500512 -0.007274053 0.004289357 -0.0017880898
0001d0 e5 9f 19 3a 40 69 21 bb 57 a1 21 3c cd c7 d7 bb
       0.0005860313 -0.0024629384 0.009865127 -0.0065850974
0001e0 56 44 ad 3c c1 38 53 3c b9 c5 f0 bb 74 cd 38 bc
       0.02115075 0.012891949 -0.007347789 -0.011279453
0001f0 2d 92 c4 3b d9 f1 36 3b 16 a9 a1 bb 51 f1 11 bc
       0.005998871 0.0027915149 -0.0049334867 -0.008907632

action_model._discrete_distribution.branches.0.weight f4 [5, 128]
000000 b3 39 e2 bc cb d2 46 3c 2c 4a 05 3d 4f 4e 66 bc
       -0.027615404 0.012135218 0.03254144 -0.014056756
000010 b7 bd c3 39 2e 54 5e 3b a8 80 cc 3c 5e 03 c5 3b
       0.00037334647 0.0033924687 0.024963692 0.0060123643
000020 0a 1e 92 3c 31 ec 91 3c 0e 67 5e 3c 7a 38 4c bc
       0.01783659 0.01781282 0.013574375 -0.012464637
000030 0d f4 f7 3b c6 06 af 3c 2f 89 67 3c 25 f2 32 3c
       0.007566935 0.021365535 0.014131828 0.01092199
000040 31 a5 d5 ba 2c fa 9e 3c a6 7c 6f bc bf a1 ce bb
       -0.0016299841 0.0194064 -0.014617121 -0.0063059027
000050 34 27 0a bc fb 30 e7 3b a9 dc 90 3c 37 72 bc bc
       -0.008432198 0.0070553995 0.017683344 -0.02300368
000060 fd a8 22 bc 78 6e 53 ba 75 5e 94 3b 61 f5 6d bc
       -0.009927985 -0.00080654724 0.0045278617 -0.014523835
000070 b7 63 ef bc d5 a7 83 bc 56 66 89 bc c7 9d 0d 3d
       -0.029222352 -0.01607124 -0.01677243 0.034574296
000080 80 4e 11 3c c2 dc 8f bc 9d 7c 45 3c 59 86 8e bc
       0.0088688135 -0.01756132 0.012053636 -0.017398046
000090 35 55 8e bc 64 3b 7d 3c 24 c7 f3 bc 75 47 7e bb
       -0.017374614 0.015456054 -0.029758044 -0.0038799916
0000a0 09 5f a9 bb c1 49 5f b9 ab ec 2a ba d0 11 ec bb
       -0.0051688 -0.00021294413 -0.00065202516 -0.007204272
0000b0 fc ca ed bc 3d 46 b3 ba 75 0e 9d 3c 81 ad 73 bc
       -0.029027455 -0.0013677549 0.019171933 -0.0148729095
0000c0 d8 0c 09 3c d2 6d 9f bc b7 b2 e0 3b 06 c3 aa 3b
       0.008364879 -0.019461546 0.006857242 0.005211237
0000d0 91 45 9a 3c 6d 22 b0 3c 47 36 2e bc 08 09 da 3a
       0.018832 0.02150079 -0.010633058 0.0016634772
0000e0 12 fc aa bc 17 03 e7 bc bd bb 9f ba ac 97 95 3c
       -0.02087215 -0.028199716 -0.0012186688 0.0182608
0000f0 dc 89 ac bc b6 e9 4e 3b a6 d0 9a 3b f5 b7 22 ba
       -0.02106183 0.0031572408 0.00472458 -0.00062072213
000100 8b d6 87 3c 63 64 9f 3b 4c 69 4f 3c b6 05 f6 3b
       0.016581794 0.004864262 0.012659382 0.007508005
000110 59 81 a7 3c 2e 61 08 3d 98 c7 17 bd 79 c6 65 bc
       0.02044742 0.033295803 -0.03705558 -0.01402437
000120 34 ac 2c bc c4 e1 af bc e0 0b 9f bb fa 21 21 ba
       -0.010539103 -0.021469958 -0.0048537105 -0.00061467255
000130 2f 57 53 3c f4 19 45 3c 96 ed 0d 3d 9d 70 3b 3b
       0.012899204 0.0120301135 0.034650408 0.0028601058
000140 bb f6 9c bc 4a 54 90 bc 08 7f ed bb 06 e9 17 bb
       -0.019160619 -0.017618317 -0.0072478093 -0.0023179664
000150 21 a8 3d bb f0 ce ba ba 8a 99 2d 3c 8c 74 92 3c
       -0.0028939324 -0.0014252346 0.010595689 0.01787784
000160 a3 1d e5 bc 2b 58 fe 3b ce 0f c6 bb 82 cb ac ba
       -0.027968233 0.0077619753 -0.0060443645 -0.0013183209
000170 7b d6 f3 3c 61 8f 93 bb 97 aa 0d bc f2 93 f1 3c
       0.029765358 -0.004503176 -0.008646629 0.029489491
000180 12 ec 22 3c 84 22 50 bc d9 87 10 3d 63 d6 f4 3c
       0.009943979 -0.012703542 0.035285804 0.029887384
000190 72 07 02 bd ce 57 ac bb 4c dc 03 bd fb 44 96 bc
       -0.03174538 -0.0052594906 -0.032192513 -0.01834344
0001a0 a4 6f 0f 3d c4 15 f1 3a 19 99 9b 3b d0 af 01 3d
       0.03501858 0.0018393327 0.0047484753 0.03166181
0001b0 03 94 9e bc f1 92 90 3c c6 c0 9d bb fc 98 11 b9
       -0.019357687 0.017648192 -0.00481424 -0.00013885269
0001c0 67 00 d6 bc 1f 01 88 3c 66 95 af 3c 4c 77 c7 3c
       -0.026123239 0.016602097 0.021433543 0.024348877
0001d0 52 37 9e 3c 3c d2 eb 38 0e 1b 92 3a e4 0a 54 3b
       0.019313488 0.000112448324 0.0011146979 0.0032355124
0001e0 70 d7 bc bb d6 9d f7 bc db f8 9a b9 0b 1e ac 39
       -0.005762987 -0.03022663 -0.0002955858 0.0003282878
0001f0 c8 4d 91 bc 3c 9a f1 3b 9e 7f 10 3b 4a 64 8d bc
       -0.017737284 0.0073731225 0.0022048722 -0.017259736
000200 16 c8 88 3a 5a 35 50 3c c7 61 b9 bb e6 b8 16 3c
       0.0010435607 0.0127080325 -0.005657408 0.009199357
000210 b9 a3 24 bc 52 30 33 3b d4 d5 bc 3c d4 c5 1e bc
       -0.0100488 0.0027342034 0.02305118 -0.009690721
000220 2c 28 94 3c 3c ee 5a bc 35 66 e0 3c bc bb 84 3c
       0.018085562 -0.013362464 0.027392486 0.0162028
000230 f9 3c 0b 3c 10 50 27 bc 70 43 b2 ba e7 17 dc 3b
       0.008498424 -0.0102119595 -0.001360042 0.0067167166
000240 8f 60 a4 3c a7 d5 59 bb 2a 1f d3 3c 25 5d 00 3c
       0.020065574 -0.003323892 0.025771696 0.007834707
000250 bb a8 12 3d 4e f2 35 bb c9 f4 86 3c e3 79 59 3c
       0.035805445 -0.0027762833 0.016474145 0.013273689
000260 6d 35 8e 3c ee a4 0e bc 3e a5 93 3c c1 59 5a 3b
       0.01735946 -0.0087063145 0.01802313 0.0033317658
000270 c3 6b d0 bb 65 6c 09 3c 35 1d 0b 3c 3b 31 6f bb
       -0.0063605024 0.00838766 0.00849085 -0.003649785
000280 46 af 29 bc 57 05 1b 3b 60 d9 a5 bc 25 7c 81 bb
       -0.01035673 0.0023654306 -0.020245254 -0.0039515668
000290 61 9e 30 bb 9c 85 1b 3c d9 4b 73 bc 26 50 9a 3c
       -0.002694987 0.009492304 -0.014849626 0.018837046
0002a0 5a c6 b7 bb 41 33 3c 3c 8b 83 ec 3b c1 ce 5a bc
       -0.005608362 0.011486829 0.0072178296 -0.013354958
0002b0 69 84 a6 bb ad 84 26 bc d5 e7 03 3d 17 7b 0b 3c
       -0.0050817025 -0.010163468 0.032203514 0.008513234
0002c0 3f 20 16 3b be 02 10 38 ee 85 ef bc f9 73 62 bb
       0.0022907404 3.433483e-05 -0.029238667 -0.0034553988
0002d0 62 71 f6 bb be 2c 65 bc 1d fc d0 3c 71 4c 04 bb
       -0.0075208405 -0.013987718 0.025510842 -0.0020187164
0002e0 6e 7a ab 3c 3e 3c 83 3c e6 89 ef 3c 2c 30 b0 ba
       0.020932402 0.016019937 0.02924056 -0.0013442091
0002f0 47 fc b9 bc 60 bd dc ba 52 d8 52 bc 9d 2a dd 3b
       -0.022703303 -0.0016841106 -0.012868958 0.0067494647
000300 ff e0 99 3c 1b c0 e6 bb 43 1d 92 bc bc 1e 84 bc
       0.018784044 -0.0070419437 -0.017836219 -0.016127937
000310 45 d0 ab bc 9c b9 b0 3b bb 83 ac 3c 16 5a c7 3a
       -0.020973334 0.00539322 0.021058908 0.0015209343
000320 18 80 93 3a 1c cc 58 bb a3 5f 51 3b 06 8a 52 3c
       0.0011253385 -0.0033080643 0.0031947873 0.01285029
000330 bb c2 80 3b 56 ba 56 bc fa a8 84 3c 44 2a 85 3c
       0.0039294637 -0.013105949 0.016193856 0.016255505
000340 92 c3 fa 3c 45 9e d5 3c dc 91 d7 b9 94 f3 2c bc
       0.030610833 0.026076445 -0.0004111667 -0.01055612
000350 b1 b1 9a 3c 05 fb 9e 3c 0b 72 86 bc 88 5b 12 bd
       0.018883558 0.019406805 -0.016411802 -0.035731822
000360 b0 0d 5c bc 20 66 00 bd 88 e9 07 bb f3 e5 a4 3c
       -0.013430998 -0.031347394 -0.002073856 0.02012918
000370 bd a5 03 3c 8e 77 07 bc 5a 93 a3 bc 50 ca 14 bc
       0.008035121 -0.00826825 -0.019967724 -0.009081438
000380 c2 fc 85 bb 0f 89 4b 3d 96 33 18 3c 31 36 91 bb
       -0.004088969 0.049691256 0.009289643 -0.004431509
000390 bc 71 8c 3b 80 62 8a bc 86 f2 e8 3c 1e 46 99 3a
       0.004286019 -0.016892672 0.028435957 0.001169387
0003a0 81 06 f0 bb 84 af c4 bc a2 a2 ae bc 48 1f b7 3b
       -0.007324994 -0.024009474 -0.021317784 0.005588446
0003b0 e3 36 6b 3a 33 33 fe bb 52 52 e0 bb 25 32 92 3c
       0.00089727173 -0.0077575683 -0.006845751 0.017846176
0003c0 2d 87 03 bc 54 49 e9 3a f1 69 32 3b c0 05 d2 bc
       -0.008027834 0.0017798343 0.002722379 -0.025637507
0003d0 71 04 e4 3a ea 4e 86 bb 92 76 bb 39 76 19 82 3c
       0.0017396343 -0.0040987628 0.0003575576 0.015881281
0003e0 93 32 04 b9 cc 36 a9 bb 7b aa af bb c4 9c b5 39
       -0.00012607341 -0.005164003 -0.005360899 0.0003463981
0003f0 1f e1 22 3b bd 6c aa bb cb 11 a0 3b bb f5 6e 3b
       0.002485342 -0.005200951 0.0048849336 0.0036462385

action_model._discrete_distribution.branches.0.bias f4 [5]
000000 cc 6d 11 3b 86 0f 26 3c d3 ce 63 bb fd 34 9f 3b
       0.0022190688 0.010135537 -0.0034760728 0.0048586116
000010 32 6b 6e bc
       -0.014551925

exp_avg f4 [128, 45]
000000 01 07 cf b6 bc 77 f5 b6 37 73 c1 b7 28 60 35 b7
       -6.169896e-06 -7.315508e-06 -2.3061044e-05 -1.0810829e-05
000010 8f 2b 9d 36 a1 2d 42 37 fb 39 07 b8 50 67 bb b7
       4.6840355e-06 1.1573925e-05 -3.2240507e-05 -2.2340246e-05
000020 57 00 59 b5 9e ab de b6 5a 12 c0 b6 11 00 be b7
       -8.0839294e-07 -6.6360944e-06 -5.7241823e-06 -2.2649796e-05
000030 77 8a 33 b7 ea fa b5 37 32 b9 79 37 d1 57 03 b8
       -1.070147e-05 2.1693722e-05 1.4884676e-05 -3.131462e-05
000040 c5 a4 17 b8 f8 71 09 b5 75 f4 d1 b6 fb 98 bd b6
       -3.615466e-05 -5.1202323e-07 -6.257144e-06 -5.650448e-06
000050 46 a9 c4 b7 6b 27 40 b7 6d 57 83 37 d3 46 1a 37
       -2.3443845e-05 -1.14532695e-05 1.5657128e-05 9.195605e-06
000060 b1 60 ef b7 fd 4d 10 b8 b1 e4 15 35 6a 93 22 b7
       -2.8536046e-05 -3.4404908e-05 5.5839615e-07 -9.690275e-06
000070 42 4e be b6 12 1f c9 b7 41 ac 6d b7 11 0d b7 b6
       -5.6715517e-06 -2.3975535e-05 -1.4166407e-05 -5.455346e-06
000080 5a 53 a5 37 0b 53 2d b8 8f fe 7b b7 d6 11 6b b6
       1.9708346e-05 -4.1323754e-05 -1.5020035e-05 -3.502811e-06
000090 8a 98 24 b7 b0 38 be b6 48 4d bc b7 1f 07 48 b7
       -9.8106775e-06 -5.6690405e-06 -2.2447333e-05 -1.1922587e-05
0000a0 d5 72 37 36 13 71 8f b5 75 46 8c b7 51 62 cf b7
       2.7335966e-06 -1.0687239e-06 -1.672211e-05 -2.4722105e-05
0000b0 3a 8e 6b b6 51 7f 66 b6 4b ab b0 b7 d7 2a e3 b7
       -3.5100516e-06 -3.4346779e-06 -2.10606e-05 -2.7080458e-05
0000c0 f0 c1 02 b8 8e 93 99 b7 cc a7 ad b6 73 06 49 36
       -3.1175034e-05 -1.8307732e-05 -5.175336e-06 2.9955088e-06
0000d0 d1 2f 1f b7 f5 22 ef 36 71 18 67 b6 a1 22 b1 b7
       -9.488272e-06 7.1268246e-06 -3.443591e-06 -2.111617e-05
0000e0 54 61 e6 b7 c0 f3 04 b8 10 34 9b b7 9b 22 c1 b6
       -2.7463459e-05 -3.1698262e-05 -1.8501683e-05 -5.755877e-06
0000f0 f4 ae c8 b6 e1 64 c8 b6 e7 e8 f5 36 25 46 5b b6
       -5.9808317e-06 -5.9722083e-06 7.3286824e-06 -3.2674373e-06
000100 44 4c b1 b7 e1 10 e8 b7 38 b0 01 b8 da fc 86 b7
       -2.1135558e-05 -2.7664415e-05 -3.0920113e-05 -1.6091788e-05
000110 82 b3 d4 b6 e1 69 d1 b5 c7 98 1d b7 e3 06 12 37
       -6.33899e-06 -1.5602528e-06 -9.3935005e-06 8.703882e-06
000120 e1 6b 86 b6 34 8a b3 b7 01 d7 e5 b7 61 6f 06 b8
       -4.00607e-06 -2.1402819e-05 -2.7399046e-05 -3.205182e-05
000130 62 8d b1 b7 95 6b 77 b6 ab 17 0e b7 1d 34 17 b6
       -2.116588e-05 -3.686849e-06 -8.46937e-06 -2.2531087e-06
000140 b6 d1 bd 36 b1 ab 26 b6 43 73 b3 b7 e5 37 d6 b7
       5.6570525e-06 -2.4835865e-06 -2.1392136e-05 -2.5536816e-05
000150 ed cd 07 b8 44 73 9a b7 df 80 69 b6 a7 f3 02 b6
       -3.237829e-05 -1.8411905e-05 -3.4794718e-06 -1.9513334e-06
000160 a1 d1 8a 36 f8 c9 01 37 6c 85 8d 37 77 88 5b b9
       4.1371245e-06 7.736024e-06 1.687064e-05 -0.00020936305
000170 b5 21 8f b8 0d df 2f b9 ca 22 61 b8 90 b4 fe b6
       -6.82505e-05 -0.00016772393 -5.367658e-05 -7.59081e-06
000180 1d 00 84 b6 fa 9c 82 b8 6f dc a5 b7 a6 79 89 37
       -3.9339197e-06 -6.228122e-05 -1.977218e-05 1.638832e-05
000190 39 5d 59 b9 8a bc 8e b8 64 af 37 b9 85 a1 e4 b8
       -0.00020729461 -6.806206e-05 -0.00017517578 -0.000109019726
0001a0 c3 6f f3 b7 20 36 89 b7 e1 41 00 37 5d 65 c4 b7
       -2.90199e-05 -1.6356877e-05 7.644733e-06 -2.3412222e-05
0001b0 e3 8f 85 37 9e 9e 5a b9 be f9 a5 b8 f2 ab 38 b9
       1.5921838e-05 -0.0002084919 -7.914331e-05 -0.00017611662
0001c0 07 78 d1 b8 29 5b 24 b8 11 25 74 b7 72 06 7e b8
       -9.9882534e-05 -3.9185546e-05 -1.45521635e-05 -6.056432e-05
0001d0 b7 08 00 b8 4e b4 43 37 b3 86 5b b9 ac 69 8b b8
       -3.0525694e-05 1.1664886e-05 -0.00020935647 -6.6477194e-05
0001e0 c9 8c 39 b9 81 93 17 b9 99 31 8e b8 e9 21 c7 37
       -0.00017695421 -0.00014455432 -6.780326e-05 2.373844e-05
0001f0 d6 62 a2 36 c1 23 0e b8 50 22 81 37 4e 7e 5b b9
       4.8394822e-06 -3.3888737e-05 1.5393976e-05 -0.0002093252
000200 93 cb 70 b8 f9 c5 37 b9 b1 a9 37 b9 4e 75 85 b8
       -5.7410052e-05 -0.0001752599 -0.00017515455 -6.363784e-05
000210 d5 4d 2d 38 50 89 c9 37 07 1e c6 b7 7b a3 0e b8
       4.13189e-05 2.4025008e-05 -2.3617422e-05 -3.400769e-05
000220 67 d3 b3 b8 3b 24 df b8 8e c0 73 b8 6f 48 8c b7
       -8.574762e-05 -0.00010640217 -5.8115045e-05 -1.672303e-05
000230 23 0e 9e 37 23 a4 4d b8 75 9e f3 b8 ca d8 43 b8
       1.884165e-05 -4.9028673e-05 -0.00011616658 -4.6693523e-05
000240 63 19 09 b8 3b ce b5 b8 2f 60 de b8 88 6b 8a b8
       -3.268699e-05 -8.669166e-05 -0.000106037005 -6.600382e-05
000250 90 a0 11 b9 4b f6 70 b7 9a 2a 11 b8 43 3c 04 b7
       -0.00013888092 -1.4362459e-05 -3.461037e-05 -7.881844e-06
000260 03 9f 45 b8 d5 a3 0e b8 b3 2e b6 b8 bf 6d dd b8
       -4.711655e-05 -3.400802e-05 -8.687135e-05 -0.00010558543
000270 87 3b 88 b8 ba cc 1c b9 0d 59 bb b7 a3 44 54 b8
       -6.496073e-05 -0.00014953586 -2.2333605e-05 -5.060866e-05
000280 de 6b a7 b8 29 32 52 b8 20 e3 06 b8 ad 2b b6 b8
       -7.9832724e-05 -5.0114617e-05 -3.2159616e-05 -8.6865715e-05
000290 0d 3e d6 b8 2a 00 82 b8 1b 3a 84 b8 ac be 56 b8
       -0.00010215873 -6.1989136e-05 -6.3050735e-05 -5.1199153e-05
0002a0 a9 5f c9 b7 24 3b b5 b8 16 f2 49 b8 a5 17 06 b8
       -2.4005612e-05 -8.641768e-05 -4.8147594e-05 -3.197011e-05
0002b0 dc 2f b6 b8 25 fe cf b8 82 46 90 b8 b1 db 30 b8
       -8.687351e-05 -9.917867e-05 -6.879588e-05 -4.2166273e-05
0002c0 37 d3 ac 36 52 b4 eb b8 fc f6 e0 b8 7a e1 58 b8
       5.150588e-06 -0.000112392605 -0.00010727157 -5.1708404e-05
0002d0 a0 01 ca 39 cf d8 06 3a 1b 70 ab 39 cf fc ca 39
       0.00038529653 0.00051440013 0.00032699187 0.000387168
0002e0 a8 ec bf 39 a2 86 ef 39 de 6a 86 39 60 a8 c3 39
       0.00036606682 0.00045685942 0.00025638094 0.00037318747
0002f0 fa cc 3a 39 6d d1 c8 39 31 a4 04 3a 71 21 b3 39
       0.00017814702 0.00038303007 0.0005059867 0.00034166456
000300 59 ac d6 39 59 5a 0d 3a 17 57 d0 39 06 35 f4 39
       0.0004094567 0.0005392186 0.0003973774 0.00046578812
000310 ca ba 02 39 fe c9 47 39 e2 5a ca 39 99 a4 05 3a
       0.0001246735 0.00019053367 0.00038596155 0.00050980743
000320 d7 ea c3 39 7d 82 d8 39 c8 30 12 3a a1 06 d0 39
       0.00037368268 0.00041295952 0.0005576727 0.0003967779
000330 63 ef 04 3a d6 ed ad 39 8e 70 61 39 7b 58 cd 39
       0.0005071072 0.00033174333 0.00021499602 0.0003916657
000340 c1 9e 05 3a 5b 56 be 39 c0 89 df 39 f8 9f 5e 3a
       0.00050972035 0.00036303964 0.00042636506 0.0008492465
000350 4c 53 a6 39 5b 56 b9 39 6a c1 b7 38 94 ff 5c 39
       0.00031724048 0.0003535029 8.762146e-05 0.00021076045
000360 c0 cc cc 39 9a 9e 05 3a 34 2d b7 39 8a ff cf 39
       0.00039062463 0.0005097181 0.0003493816 0.00039672508
000370 79 53 2c 3a cb c7 c3 39 ad d7 76 39 47 3e a5 39
       0.00065737177 0.00037342156 0.00023540734 0.00031517653
000380 91 b9 47 39 8b b9 00 39 f2 34 59 b8 cc f9 e8 b8
       0.00019047248 0.00012276151 -5.178614e-05 -0.000111091504
000390 8d 7d ab 37 e3 ce 47 39 30 72 e1 39 75 49 dc 38
       2.0443253e-05 0.0001905519 0.0004300042 0.000105041
0003a0 ec d4 ed b8 5c 54 8f b8 ae 33 00 39 86 c9 7a b8
       -0.000113407004 -6.8344845e-05 0.00012226283 -5.9792328e-05
0003b0 d8 63 d0 b8 0e 9b 25 37 b4 42 e2 b8 4f c7 92 39
       -9.93681e-05 9.870868e-06 -0.00010788944 0.00027995787
0003c0 4f 09 ed 38 2d 19 c6 b5 4c a3 91 b8 d4 c3 fb 38
       0.000113027745 -1.4759477e-06 -6.944555e-05 0.000120050885
0003d0 1c 31 7e b8 bc 4d dd b8 24 24 69 37 43 e4 65 b8
       -6.0604056e-05 -0.0001055258 1.3896297e-05 -5.481044e-05
0003e0 1e 53 af 39 58 32 c0 36 13 cb 63 b9 11 8b 9e b8
       0.00033440528 5.7279067e-06 -0.00021724058 -7.55993e-05
0003f0 a2 7c 01 39 36 04 80 b8 e8 51 9e b8 be fb fb 37
       0.00012348828 -6.1043e-05 -7.549283e-05 3.0038758e-05

exp_avg_sq f4 [128, 45]
000000 d1 31 39 31 a6 1f 7a 31 90 d8 55 31 88 a4 ca 30
       2.694936e-09 3.6397778e-09 3.111868e-09 1.4744197e-09
000010 38 77 93 31 3d 41 52 31 37 2b 90 31 1c 43 55 31
       4.2918167e-09 3.0596106e-09 4.1958645e-09 3.1033727e-09
000020 a2 e0 81 31 1a 5b 4b 31 6f b0 84 31 49 83 62 31
       3.779932e-09 2.9592173e-09 3.861764e-09 3.2961955e-09
000030 19 8f d8 30 7b a4 b8 31 4b 6f 45 31 d3 63 96 31
       1.5756739e-09 5.373804e-09 2.8730536e-09 4.3769233e-09
000040 dd e3 4d 31 57 b0 88 31 f4 e2 5a 31 53 0c 92 31
       2.9960951e-09 3.9781685e-09 3.1852183e-09 4.2505603e-09
000050 48 a2 70 31 5a 34 dc 30 97 5e d5 31 e6 d7 78 31
       3.5016843e-09 1.6021986e-09 6.2098695e-09 3.6211474e-09
000060 1f 1d 96 31 c4 7e 51 31 6e c7 95 31 96 6f 66 31
       4.3688853e-09 3.048556e-09 4.3591433e-09 3.3532834e-09
000070 e3 eb 96 31 28 2b 79 31 3b e7 e0 30 99 38 d1 31
       4.392392e-09 3.62588e-09 1.6363865e-09 6.089135e-09
000080 26 52 86 31 e5 28 88 31 48 62 7c 31 a9 53 9a 31
       3.9092525e-09 3.96277e-09 3.6726693e-09 4.491501e-09
000090 a0 95 84 31 3c 2e ae 31 5f 28 87 31 c9 64 f0 30
       3.858716e-09 5.0693227e-09 3.9336068e-09 1.7490943e-09
0000a0 11 68 e5 31 04 6b b0 31 77 48 96 31 e0 44 8a 31
       6.676608e-09 5.1344404e-09 4.373813e-09 4.024159e-09
0000b0 04 48 ad 31 3b 68 90 30 db 97 5c 30 50 2c ab 30
       5.04315e-09 1.0507003e-09 8.0251333e-10 1.2454482e-09
0000c0 b3 df 1d 30 eb f5 df 30 de 16 ac 30 1b 24 a6 30
       5.7434163e-10 1.629528e-09 1.2521146e-09 1.2088351e-09
0000d0 a0 f2 9f 30 cf a5 fb 2f 5d 02 92 30 cc 19 60 30
       1.1637731e-09 4.5774448e-10 1.062357e-09 8.1527385e-10
0000e0 41 e3 ac 30 26 38 1d 30 88 c5 c6 30 e2 3c a4 30
       1.2579237e-09 5.719606e-10 1.4462538e-09 1.1949874e-09
0000f0 29 03 bd 30 a5 07 ac 30 5c e8 fc 2f 93 be 91 30
       1.3752458e-09 1.251682e-09 4.6003634e-10 1.0604303e-09
000100 56 ae 63 30 79 f9 ad 30 e5 ce 20 30 e1 70 c9 30
       8.2829865e-10 1.2658311e-09 5.8501676e-10 1.4656757e-09
000110 e8 6b 9c 30 6b aa c0 30 2c 06 a7 30 dc 36 fb 2f
       1.1381163e-09 1.4018274e-09 1.2152603e-09 4.5695614e-10
000120 13 e9 96 30 58 a4 74 30 a1 8f b4 30 53 54 20 30
       1.098018e-09 8.900023e-10 1.3137545e-09 5.8327493e-10
000130 d5 af d6 30 d4 7a ae 30 e2 d0 9b 30 9c 2d ac 30
       1.5620524e-09 1.2695076e-09 1.1337102e-09 1.252761e-09
000140 05 2c 07 30 56 84 a2 30 8d ec 89 30 9d 2e bd 30
       4.917527e-10 1.1824663e-09 1.0035294e-09 1.3764808e-09
000150 7f d4 2a 30 51 a0 ee 30 3f 5c db 30 c9 79 88 30
       6.2147615e-10 1.7362344e-09 1.5960565e-09 9.929916e-10
000160 41 1b b1 30 c2 6a 1c 30 41 2b 3c 33 d8 15 09 34
       1.2886191e-09 5.690418e-10 4.38115e-08 1.2767066e-07
000170 e7 56 ad 33 6d 6d bb 33 84 e2 3c 34 67 cc 20 34
       8.071748e-08 8.7277705e-08 1.759127e-07 1.4975522e-07
000180 63 5e 9b 33 a5 24 74 33 62 3c a6 33 8e 27 43 33
       7.234919e-08 5.6844005e-08 7.740961e-08 4.543795e-08
000190 6a bb 0a 34 72 bc af 33 42 18 bd 33 34 96 37 34
       1.2920432e-07 8.1833505e-08 8.805411e-08 1.7097847e-07
0001a0 72 8b 19 34 8a 72 a6 33 04 94 82 33 02 0e aa 33
       1.4299965e-07 7.750812e-08 6.0805206e-08 7.91879e-08
0001b0 be 5e 44 33 a8 eb 0b 34 12 ee af 33 44 aa bc 33
       4.5720974e-08 1.3031115e-07 8.192377e-08 8.785403e-08
0001c0 40 72 3a 34 f9 d4 1b 34 d6 9e ab 33 5e 40 8e 33
       1.7364164e-07 1.4512979e-07 7.9917e-08 6.6240986e-08
0001d0 88 72 ab 33 59 16 46 33 c6 f8 0c 34 1c d1 b1 33
       7.983641e-08 4.6120793e-08 1.312902e-07 8.2802416e-08
0001e0 ce 91 bc 33 e4 0a 37 34 59 76 1d 34 42 3b bc 33
       8.780954e-08 1.7047165e-07 1.4664819e-07 8.765211e-08
0001f0 a9 51 8e 33 8e 44 ad 33 2e f8 4b 33 b9 b6 0f 34
       6.627244e-08 8.06841e-08 4.749034e-08 1.3384387e-07
000200 89 85 b2 33 5c 50 bd 33 ab 56 3a 34 4c 96 29 34
       8.313061e-08 8.8156156e-08 1.735413e-07 1.5794029e-07
000210 1f f6 af 33 63 5b 86 33 77 aa af 33 5e e0 65 32
       8.193842e-08 6.2564844e-08 8.18008e-08 1.33805695e-08
000220 ae 65 b0 32 00 19 ab 32 22 33 42 32 76 68 db 32
       2.0535335e-08 1.9918389e-08 1.13039125e-08 2.5542459e-08
000230 a4 62 83 32 3b 26 c3 32 c3 e5 c5 32 ec cc 77 32
       1.5295264e-08 2.2718373e-08 2.3038302e-08 1.4423886e-08
000240 00 67 6d 32 be 21 b5 32 13 6a af 32 eb a3 47 32
       1.3818635e-08 2.1086517e-08 2.0420918e-08 1.1620595e-08
000250 32 e8 e6 32 d7 db 7c 32 22 2c de 32 9b 6e e0 32
       2.6881114e-08 1.4718316e-08 2.586427e-08 2.612733e-08
000260 a2 94 7d 32 7f db 73 32 0e a5 bb 32 1c cf b4 32
       1.4760333e-08 1.4194369e-08 2.1844723e-08 2.104894e-08
000270 b0 f6 4b 32 bd e5 eb 32 00 13 76 32 dc ed e5 32
       1.1872245e-08 2.7462074e-08 1.4323405e-08 2.6767275e-08
000280 ab d8 f4 32 6d 9b 82 32 12 a0 72 32 81 2a bd 32
       2.8503868e-08 1.5204671e-08 1.412265e-08 2.2021824e-08
000290 75 54 b5 32 3e 9a 4e 32 f9 31 d1 32 4a f1 64 32
       2.110958e-08 1.2025849e-08 2.4353527e-08 1.33262095e-08
0002a0 e5 38 f4 32 0c 07 fc 32 ad 42 82 32 d6 39 79 32
       2.8431211e-08 2.9339866e-08 1.5164312e-08 1.4506858e-08
0002b0 ed eb c0 32 cc 8f b5 32 62 32 52 32 10 7e cd 32
       2.2459028e-08 2.1136564e-08 1.22350645e-08 2.3922468e-08
0002c0 d9 e3 9c 32 e6 1a eb 32 b1 b8 f9 32 d9 c1 82 32
       1.8264403e-08 2.7369833e-08 2.9071403e-08 1.5222144e-08
0002d0 45 bd 29 34 12 e8 3d 35 c6 52 f9 34 de 34 e3 34
       1.5808207e-07 7.0745693e-07 4.644009e-07 4.232051e-07
0002e0 03 29 50 35 12 da 12 35 bd 9c 19 35 56 6a 10 35
       7.754572e-07 5.470657e-07 5.7225026e-07 5.379892e-07
0002f0 86 30 d7 34 53 50 2c 34 46 5d 3f 35 67 22 fa 34
       4.0082176e-07 1.604797e-07 7.1288775e-07 4.659116e-07
000300 55 a6 e3 34 cb a9 4b 35 81 65 1c 35 6a f5 20 35
       4.2403067e-07 7.5870474e-07 5.8262236e-07 5.996177e-07
000310 43 d3 14 35 69 a5 d7 34 1a 86 2b 34 5c a4 3f 35
       5.544172e-07 4.0167222e-07 1.5974402e-07 7.139222e-07
000320 fd b5 f9 34 52 bd e2 34 27 fd 49 35 8a 8f 1a 35
       4.6512278e-07 4.223353e-07 7.524672e-07 5.757835e-07
000330 df 9d 25 35 6d 0f 1d 35 92 da d7 34 29 56 2e 34
       6.169702e-07 5.8509505e-07 4.0205902e-07 1.6236358e-07
000340 58 e7 40 35 dd 68 fc 34 88 e3 e4 34 83 d1 4a 35
       7.1862223e-07 4.7014956e-07 4.263386e-07 7.5555744e-07
000350 45 77 21 35 12 d1 1e 35 93 20 18 35 a4 3f da 34
       6.0150734e-07 5.9163824e-07 5.6671814e-07 4.065197e-07
000360 69 a9 2e 34 d9 d1 40 35 d9 78 fb 34 f0 9f e5 34
       1.6266644e-07 7.183094e-07 4.6840321e-07 4.2770944e-07
000370 3a 0a 4a 35 3e f6 22 35 7f 30 17 35 4e 7c 13 35
       7.5265746e-07 6.070803e-07 5.6322455e-07 5.4942655e-07
000380 9b c4 d8 34 e9 5a 1a 34 d6 c2 e3 34 eb 9e 94 34
       4.0376185e-07 1.437544e-07 4.2423807e-07 2.7682776e-07
000390 c5 f2 6d 34 60 d5 06 35 52 84 de 34 3f 91 c2 34
       2.2160664e-07 5.022939e-07 4.1446998e-07 3.6240996e-07
0003a0 7c e1 a3 34 86 ce 98 34 f0 eb 1c 34 95 74 e4 34
       3.0525177e-07 2.8462472e-07 1.4614466e-07 4.2553134e-07
0003b0 b5 c4 94 34 12 f1 6f 34 7e 47 08 35 96 46 e1 34
       2.771027e-07 2.234631e-07 5.0767983e-07 4.1960874e-07
0003c0 37 e7 c1 34 5d f6 b3 34 84 3c 96 34 cd 07 23 34
       3.6117282e-07 3.35206e-07 2.7983708e-07 1.5183396e-07
0003d0 d6 92 e8 34 28 e6 96 34 43 cf 73 34 e3 82 0f 35
       4.3320205e-07 2.8107138e-07 2.270654e-07 5.3462117e-07
0003e0 95 54 e9 34 44 e7 ba 34 e3 9a b1 34 93 af 98 34
       4.3461174e-07 3.4813468e-07 3.3081514e-07 2.8439953e-07
0003f0 9f 52 23 34 18 a1 e9 34 52 55 96 34 eb 02 75 34
       1.5210615e-07 4.3516843e-07 2.8001756e-07 2.2818465e-07

exp_avg f4 [128]
000000 15 52 15 b7 96 32 89 b7 80 82 ab b8 05 f4 aa b8
       -8.900203e-06 -1.6355229e-05 -8.178223e-05 -8.151684e-05
000010 e7 f9 36 3a 33 c9 27 39 42 1a 6c b9 e2 b7 cb 38
       0.00069799874 0.00016001314 -0.00022516496 9.714045e-05
000020 2b 85 4f b9 89 8a 49 38 d9 da 1d b9 72 e2 e8 39
       -0.00019790667 4.8051155e-05 -0.00015054214 0.00044419203
000030 8c 21 5a 39 14 d3 3c 36 5c 7f 1e 39 f3 dd 75 b8
       0.00020802597 2.8137047e-06 0.00015115499 -5.861926e-05
000040 5f 3c 75 b8 9e 72 2a 38 c2 6d ad 37 72 2e e3 36
       -5.8468777e-05 4.0637904e-05 2.0674317e-05 6.770534e-06
000050 cf 33 28 b9 e0 40 a7 b8 3c 5a 85 39 3e f4 fd b8
       -0.00016041029 -7.9752645e-05 0.00025434967 -0.00012109474
000060 99 4f 97 37 23 63 83 b8 b9 4a 74 35 50 11 eb b7
       1.8037668e-05 -6.2650324e-05 9.100582e-07 -2.8022245e-05
000070 06 52 46 b7 61 47 19 b8 12 3e 52 39 52 64 95 b8
       -1.1820817e-05 -3.654452e-05 0.00020050284 -7.12356e-05
000080 f1 c3 0c 39 ae 4b cf 39 16 e8 0d 37 07 32 a9 38
       0.00013424434 0.00039538502 8.458292e-06 8.067866e-05
000090 2f d1 34 b8 01 b9 89 38 ad 08 cb 38 ce 26 59 b8
       -4.311016e-05 6.567129e-05 9.68141e-05 -5.177297e-05
0000a0 72 dd 44 39 1e 69 09 37 07 0b fe b8 ef ae 08 38
       0.00018774511 8.190311e-06 -0.00012113718 3.2587846e-05
0000b0 d8 8b b3 b8 97 65 8a 38 4b 11 89 b7 1b 1c 0b b9
       -8.561433e-05 6.5992754e-05 -1.6339725e-05 -0.00013266543
0000c0 dc fe d7 b8 91 d0 34 b8 ee 6a 08 b8 28 38 c1 b8
       -0.0001029947 -4.3109587e-05 -3.2524513e-05 -9.213417e-05
0000d0 ca 61 4a 38 9b 73 c5 38 fb 13 eb b7 03 74 cf b9
       4.8251626e-05 9.415225e-05 -2.8023487e-05 -0.00039568552
0000e0 65 39 db 39 d3 58 a1 38 71 8c 5c 37 4b b9 28 39
       0.00041813697 7.693623e-05 1.3145721e-05 0.00016090756
0000f0 3c 04 15 39 86 08 be b8 00 e4 b4 b7 6f c1 a3 b7
       0.00014211325 -9.0614936e-05 -2.1563843e-05 -1.9521189e-05
000100 23 bc 12 37 2f 8f 87 b8 e4 f7 09 3a 0d 19 c0 39
       8.746082e-06 -6.463972e-05 0.0005263074 0.00036639758
000110 e8 a9 cb b8 3d 42 f4 b8 d9 5e 62 39 f4 97 a8 b8
       -9.711442e-05 -0.000116471645 0.00021588373 -8.039168e-05
000120 92 6d 1d 38 70 6c c5 b7 d0 ae dc b8 44 60 4e 37
       3.7533762e-05 -2.3534725e-05 -0.00010522979 1.230097e-05
000130 2c 85 e5 b8 0e 60 00 38 29 62 99 b8 3e f3 c7 b8
       -0.00010944376 3.0607036e-05 -7.313892e-05 -9.534367e-05
000140 46 ba 07 b8 e9 ac ea 38 a4 21 d8 b8 24 25 16 3a
       -3.235999e-05 0.000111901965 -0.00010305949 0.000572758
000150 c1 f5 90 b8 fd 8f d2 b8 7d f1 a3 39 c2 aa 33 b9
       -6.91223e-05 -0.000100404 0.00031269706 -0.00017134383
000160 db 5c 86 39 1f e7 4c b9 18 38 26 3a 00 dd 45 39
       0.00025627654 -0.00019541055 0.0006340756 0.00018869713
000170 4d 0b c6 b9 b6 9f d0 38 07 97 3a b8 e2 3f 02 b9
       -0.00037773923 9.9479614e-05 -4.448651e-05 -0.00012421564
000180 85 a2 28 b9 68 bf 40 b8 ba c8 4a b8 ec bd bf b8
       -0.00016082272 -4.5954628e-05 -4.8347494e-05 -9.1429654e-05
000190 92 9b ff 38 8f cf 9a 38 a5 e3 b6 38 19 a1 ba b8
       0.00012188325 7.381953e-05 8.7208384e-05 -8.899178e-05
0001a0 8e 0a ed 37 23 e6 af 38 bb 50 6e 38 86 8c 22 b9
       2.8257517e-05 8.3875166e-05 5.6818808e-05 -0.00015501873
0001b0 9a 96 21 38 3e 43 37 b7 83 18 0e 39 90 07 70 39
       3.852565e-05 -1.0923306e-05 0.00013551307 0.00022891001
0001c0 ab 1f af b8 94 42 6e b8 42 a2 4f 37 bb 3d 66 b7
       -8.350549e-05 -5.6805628e-05 1.237594e-05 -1.3723441e-05
0001d0 e8 5b 1e 36 51 1c 0d b8 5e ee ef 38 5e bd f9 38
       2.3597331e-06 -3.364339e-05 0.000114408074 0.000119085176
0001e0 ee 72 4a 37 e4 3b ef b7 32 f6 78 38 71 6d 89 b9
       1.2066897e-05 -2.8518909e-05 5.9357095e-05 -0.00026212216
0001f0 b2 85 75 b9 77 dc 87 b7 c2 8d 8b 39 18 be a5 b8
       -0.00023414826 -1.6195916e-05 0.00026617764 -7.903221e-05
