Assets/results/Maze14/Mouse/checkpoint.pt (torch, 721314 bytes, 33 tensors)

network_body._body_endoder.seq_layers.0.weight f4 [64, 45]
000000 18 c6 00 3c 90 f3 58 3d af c5 16 bd f0 0b ed 3d
       0.007859729 0.052966654 -0.03680962 0.115745425
000010 04 f8 48 3d 8b 47 8e 3e d7 4a ba bd fe 1e 11 3e
       0.04906465 0.27788958 -0.09096306 0.14171979
000020 c7 60 40 be 65 73 84 be 96 b2 ee 3d 6a aa 88 be
       -0.18786918 -0.2586929 0.11655156 -0.26692516
000030 5a c2 a5 bd a3 df 1d 3d d5 23 21 be 73 51 9e 3c
       -0.0809371 0.038543355 -0.15736325 0.019325947
000040 70 3f 83 3d 7b ff 91 3d 3f cf f5 3d fc 81 9f 3c
       0.06408584 0.07128807 0.1200242 0.019471161
000050 93 b8 c5 3d 47 8b 19 be 9d a1 28 be bf e0 ff 3d
       0.09654345 -0.14994536 -0.164679 0.12494039
000060 61 68 82 3d 3a 60 f0 3c 82 9c 12 3e 34 c6 0c 3e
       0.06367565 0.02934276 0.14317515 0.13747483
000070 fe 26 09 3e ec f6 aa 3d 96 99 23 3d 7d 72 92 3e
       0.1339378 0.08347878 0.039941393 0.28602973
000080 c6 6c 92 be 93 81 fa 3d 49 f1 88 be 0a 00 c7 3d
       -0.28598613 0.122317456 -0.26746586 0.09716804
000090 27 b8 dd bd 51 a3 19 bd c7 e6 41 bd 6a 5b 1e bc
       -0.1082614 -0.037509266 -0.047339227 -0.0096653495
0000a0 b8 e1 15 3c d4 87 29 be 14 1b df 3d 0b c1 0e 3e
       0.009148054 -0.1655572 0.108938366 0.13940828
0000b0 0b c9 a5 bd 47 67 f5 3c d3 09 1d 3d 36 1b 17 bd
       -0.080949865 0.029956473 0.038339447 -0.036891185
0000c0 b9 30 f4 3d b7 70 29 3e 90 6a 75 3d 1a e3 6e 3e
       0.119233556 0.16546904 0.05991608 0.2332882
0000d0 c0 bb 54 3e b4 46 29 bc ee 88 9f 3d a3 a0 1f 3d
       0.20774746 -0.010331798 0.07789789 0.038971554
0000e0 77 d0 b0 3c c8 38 67 3e fb c3 23 be bf 22 62 3c
       0.021583779 0.22580254 -0.1599273 0.013802229
0000f0 87 4d 1e 3e 62 20 3e be 0c 5f 41 bd a5 31 16 bd
       0.15459262 -0.1856704 -0.047209784 -0.03666844
000100 92 3b 03 be ef c1 56 3e d5 e3 2d bd 7c 55 39 be
       -0.12815693 0.20972417 -0.042453606 -0.18099016
000110 61 4a 03 bc 1b 14 fb be 89 86 f4 bd 2c 58 36 3e
       -0.008013339 -0.49038777 -0.11939723 0.17807072
000120 0c 4a 11 3e f1 11 a5 be a4 a9 d3 bd b8 5d 67 be
       0.14188403 -0.3224025 -0.10335091 -0.22594345
000130 6f 5e 35 3e 8f 99 bc bd 5e 97 2c be cc 84 e6 3d
       0.17711805 -0.092089765 -0.16854617 0.11255798
000140 b6 26 9f bd be ee bc 3b c2 1a 0d 3e 52 51 5e be
       -0.077710554 0.005765765 0.13779739 -0.21710709
000150 30 01 02 3e 92 8d 4d be b2 f3 8d bb 93 88 0b 3e
       0.12695765 -0.20073536 -0.0043320293 0.13626318
000160 90 72 8c 3c a3 85 2f 3e 42 66 cd 3d 21 88 44 be
       0.017144471 0.17140822 0.1002927 -0.19192554
000170 6c 6e cf 3b 11 ec 19 be a2 37 f6 3a 24 e4 75 3e
       0.006330302 -0.15031458 0.001878489 0.2401281
000180 93 a2 a7 be e9 fd ff bb 06 38 97 3d 76 9c ab bb
       -0.32741222 -0.007812251 0.073837325 -0.0052371575
000190 b6 ad bf 3c 10 8f f4 bd bb b1 16 3e 76 26 83 be
       0.023398262 -0.119413495 0.14716236 -0.2561528
0001a0 49 fc 06 3e 50 74 15 be db 83 19 bd a9 2e cd bc
       0.13182177 -0.14595151 -0.037479263 -0.025046663
0001b0 9c f4 4e be 94 a0 02 3e 48 90 a1 3c ab 6e b5 bd
       -0.20210499 0.12756568 0.019722119 -0.08858999
0001c0 48 f6 fe be ad aa d4 3d bd ca 1f bd e7 9b ad bc
       -0.49797273 0.10384116 -0.039011706 -0.021192504
0001d0 db ac 0e be 75 f9 0b be 55 fb 01 3e 83 4e c3 3d
       -0.13933127 -0.13669379 0.12693532 0.09536459
0001e0 b9 7d 05 3e 85 5e 8d be 2a 6e cc bd a3 9c a4 be
       0.1303624 -0.27611175 -0.099819496 -0.32150754
0001f0 c1 5c 10 be d9 11 32 3e 2f 95 82 be d9 39 74 3e
       -0.14097883 0.17389621 -0.25504443 0.23850192
000200 60 3c 87 bd 65 3e 33 be 94 d4 37 be 68 1f 0b 3e
       -0.066033125 -0.1750427 -0.17952186 0.135862
000210 d3 ef 2e 3e e1 a2 96 3d 06 19 81 3d ef 79 e2 3c
       0.17083673 0.073552854 0.06303601 0.027646033
000220 e4 b0 94 be db a1 88 3e 90 27 53 3e bc 99 6e be
       -0.29041207 0.26685986 0.2062056 -0.23300833
000230 93 18 12 3e eb 55 83 bd a4 0b 3b 3e 78 9c 04 3e
       0.14267187 -0.06412872 0.1826616 0.12950313
000240 c8 2c 11 bd e0 c8 bc 3e fd d0 8a 3e 00 60 4c 3e
       -0.035443097 0.36872005 0.2711257 0.19958496
000250 5e 8d 78 be 7c fe a0 bd 4e 5e 58 3e 0b 16 e4 3d
       -0.24272677 -0.07861039 0.21129724 0.11137017
000260 6a 7b f9 3d f6 fc f2 3d 66 f0 3e 3e 2b df 26 3e
       0.121817425 0.11864655 0.18646392 0.1629607
000270 6d 6d 21 be 61 91 a1 3d 67 21 1b 3e a6 68 72 3d
       -0.15764399 0.07889057 0.1514946 0.05918183
000280 60 65 83 3d f5 9b 82 be b7 e0 ea 3d 59 8a 4e 3d
       0.0641582 -0.2550961 0.11468642 0.050424907
000290 df d3 a7 3d 57 6f 6e bd e2 52 c7 3d de 6c c3 bd
       0.08194708 -0.05821165 0.097326055 -0.09542249
0002a0 f5 39 f4 bd e7 7c 84 bd 32 90 5e 3d c0 dd 99 3d
       -0.11925117 -0.06469136 0.054336734 0.075129986
0002b0 76 37 78 3e 5d 06 49 bd 34 1b 03 bd a7 56 a0 b8
       0.24239907 -0.049078334 -0.032008365 -7.645535e-05
0002c0 67 95 85 3d fb 91 08 3e 04 bd a7 bc 32 19 57 3d
       0.06522637 0.13336937 -0.020475872 0.052514262
0002d0 91 cb 08 3e 6c 91 ae 3d ab a3 f2 3d 04 03 8b bd
       0.13358904 0.08523831 0.118476234 -0.067876846
0002e0 8a 12 17 be 31 44 5a 3e 0a 9a 9e bd a8 f7 b0 3d
       -0.14753166 0.21315075 -0.07744224 0.08640987
0002f0 d9 bf 52 3e 33 28 a9 be c1 f8 94 3e 09 68 97 3c
       0.20580997 -0.33038482 0.29096034 0.018482225
000300 2c 45 3f be 70 d8 aa 3c 86 67 5f bd 53 4e 65 bd
       -0.1867873 0.020855159 -0.054542087 -0.0559829
000310 09 f6 a2 3e 79 9b 67 be 38 a1 14 3e 31 ea 27 3d
       0.31828335 -0.22617902 0.14514625 0.040994827
000320 79 45 2b 3e 1f d1 df 3d b9 17 90 bd f0 aa fb bc
       0.1672572 0.109285586 -0.07035775 -0.030721158
000330 2c 8c e0 3d 4c bb 98 3d 2a f2 7c 3d a5 f7 04 3e
       0.10964236 0.07457599 0.061754383 0.12985094
000340 7f da 33 be 34 7a 67 bc f1 1c df 3b b3 a8 b1 3c
       -0.17563818 -0.014128257 0.00680887 0.021686887
000350 ca 45 29 3e 9b 3d 8c bd 5e b2 bc 3d d5 0c 9d 3e
       0.16530529 -0.06847688 0.09213708 0.30673853
000360 aa f6 c6 3d 60 94 1c 3e e4 a4 e6 3d 35 a7 cc ba
       0.09715016 0.15290976 0.11261919 -0.0015613796
000370 0b ce 41 bd d0 73 66 3e 22 6c 88 3e 5e 7e 16 be
       -0.04731564 0.22505116 0.26645 -0.14696643
000380 71 3d d7 3c a7 ba c6 3d 96 36 cf bd 42 85 12 3e
       0.026274415 0.0970357 -0.10117833 0.14308646
000390 73 18 94 3d 1e b9 31 3c b3 41 03 3d 4a 0c 51 3d
       0.07231226 0.010847358 0.032045078 0.05103711
0003a0 3e a7 16 be 84 88 a2 bd b1 fe 22 3e d5 3e c1 bd
       -0.14712235 -0.079361945 0.1591747 -0.094358124
0003b0 cd aa 4f bd 58 07 68 3e 2d 13 b4 bd 85 83 82 be
       -0.050699998 0.22659051 -0.0879272 -0.25490966
0003c0 79 a7 1d be 19 ad cf be 63 82 9a be 5e ef 95 3c
       -0.15395917 -0.4056175 -0.30177602 0.018302616
0003d0 00 18 c5 bd 83 d7 89 bd c1 23 11 3e 59 d4 3f ba
       -0.09623718 -0.06730559 0.14173795 -0.0007317714
0003e0 7f 16 55 3e 62 69 3a be 82 a6 b2 be 78 0a 3b 3c
       0.20809363 -0.18204263 -0.3489266 0.01141607
0003f0 84 c0 dd bd 20 b6 fe ba 75 b1 96 be b5 85 0f 3e
       -0.10827735 -0.001943294 -0.29432264 0.14015849

network_body._body_endoder.seq_layers.0.bias f4 [64]
000000 79 cb 37 3c 90 56 51 3c 7a f9 eb bb 12 6d 4a 3c
       0.011217945 0.012776986 -0.007201371 0.012355106
000010 2e 42 8e 3c d4 b5 2d 39 bf 63 11 3c b6 40 f2 bb
       0.017365541 0.00016566302 0.008873879 -0.007392968
000020 9d 04 f6 3b 24 a3 ba bb cb 88 63 3b 44 cd 38 3a
       0.007507874 -0.0056957174 0.0034718986 0.000704963
000030 ea 9c 96 3c 6f 0c a1 3c 64 d7 ec ba 73 a1 81 3b
       0.01838537 0.01965925 -0.0018069563 0.003956014
000040 fd 1a 7f 3c 14 c9 2c 3c 81 46 8e bc 5b 3e 2b bc
       0.015570399 0.010545988 -0.017367603 -0.010451878
000050 18 23 06 bc 95 83 1a 3c a7 f8 7d bc 66 be bb bb
       -0.008187078 0.009430786 -0.015501178 -0.0057294844
000060 46 8e 76 bc 51 9f a0 38 6a 3a 06 3b 37 81 02 3c
       -0.015048569 7.6590695e-05 0.0020481595 0.0079653775
000070 26 51 7f bc 52 52 97 bc 9f 47 20 3c 26 9e 5b 3c
       -0.015583312 -0.01847187 0.009782701 0.013404405
000080 03 4b 00 3c 5b e7 b3 3c e0 51 7b 3c 00 e2 c9 3b
       0.007830384 0.021960905 0.015339345 0.0061609745
000090 db ea 22 3c fc d5 39 3c 2b 84 94 3b dc e9 97 3c
       0.009943689 0.011342522 0.004532357 0.01854413
0000a0 e6 40 7f 3c fb 6b 7f 3b 3c 65 48 3c db d7 9d 3b
       0.015579438 0.0038974273 0.012231167 0.0048169917
0000b0 a3 74 5d 3c 93 53 29 bc 77 69 99 3c 82 43 38 3c
       0.013516578 -0.010334867 0.018727047 0.011246564
0000c0 6c a8 cc 3b 5d 1c 5d bc 58 ef 8d 3b ce fb ab bb
       0.0062456634 -0.013495532 0.0043315105 -0.0052485233
0000d0 6c aa b4 3b 13 04 a4 3b e6 c3 56 3c 19 cf 69 3b
       0.00551348 0.0050053685 0.013108229 0.0035676418
0000e0 37 d7 20 3c 6b b4 71 3c ee 68 48 bb fe 4f 5e bc
       0.009816936 0.014752488 -0.003058012 -0.013568876
0000f0 a9 13 fe 3b e7 d3 e3 3a 5d 0a 5a bc 81 00 53 bc
       0.0077538085 0.0017381877 -0.013308135 -0.012878538

action_model._discrete_distribution.branches.0.weight f4 [5, 64]
000000 6c 71 2a 3b a3 4e 81 3c 1f 28 ae bb a6 00 af 3c
       0.0026007546 0.015784567 -0.0053148414 0.021362614
000010 3c d5 ef bb 7e 82 0b bd e4 63 85 bc f7 1a f0 bc
       -0.0073191207 -0.034059994 -0.016282983 -0.029309733
000020 6a c4 58 bc f7 93 80 bc 3d 85 0f 3c 1b 7c 23 3c
       -0.0132304225 -0.015695555 0.008759794 0.0099783195
000030 ab d3 21 3c 72 20 68 3c 00 60 02 3b 4a 93 a8 bb
       0.009877126 0.014167892 0.0019893646 -0.0051445113
000040 e1 16 da bb 78 3b cb bb 7f 46 1e bb 6e 94 d3 bb
       -0.0066555594 -0.0062021576 -0.0024150906 -0.006456903
000050 3a 69 0d bd 9b a5 25 3c af 3d 92 bc 48 0e c0 3a
       -0.03452418 0.010110284 -0.017851679 0.0014652694
000060 d3 dd 50 bc f7 2e 2d bc 73 85 af 3b d1 a3 dd bb
       -0.0127481995 -0.010570279 0.0053564846 -0.006763913
000070 eb 9f e4 3b a0 9f b4 bc c4 51 e2 3a 0b 1e 38 bb
       0.0069770715 -0.022048771 0.00172668 -0.002809408
000080 a7 b2 83 bb 06 33 88 3b ba 25 f5 3b f5 60 8e 3c
       -0.0040190998 0.004156473 0.007481304 0.017380217
000090 bf 94 5d 3c ac f9 45 bb 24 bb 25 3b 14 6d 66 bc
       0.013524233 -0.003020863 0.0025288546 -0.014064092
0000a0 2c 49 d7 3c ba 3b 65 3b b3 2e b5 3b 2f 2e ce ba
       0.026280008 0.0034978227 0.0055292486 -0.0015730317
0000b0 34 da 70 3b c4 da 31 bc 5c 6e 8c ba 40 b1 4b bb
       0.0036751153 -0.01085538 -0.0010714042 -0.003108099
0000c0 99 2b 7a bc 51 0c fa 3b 5d 1a c9 bc 99 bd 4e bc
       -0.015269184 0.0076308628 -0.024548704 -0.012618446
0000d0 ed 5a b9 3c 92 37 59 bc 98 05 98 3b 65 0a eb ba
       0.022626365 -0.013257878 0.0046393387 -0.0017932175
0000e0 fb e2 e2 3c 35 92 39 3c 29 2e 9c bc 02 d9 da 3b
       0.027696123 0.011326362 -0.01906498 0.0066787014
0000f0 26 82 9c bc d0 76 f1 bb 3c 04 13 bc 73 b1 91 bc
       -0.019105028 -0.0073689 -0.0089731775 -0.01778481
000100 b1 ad 5f 3c e0 a3 92 3c 49 2e 82 3c 68 73 ec 3c
       0.013652251 0.017900407 0.015891211 0.028863624
000110 0d 82 cd 3b 69 86 94 bb 35 74 46 3c c1 6f dc bc
       0.006271607 -0.0045326245 0.012112667 -0.026908757
000120 bf e2 58 3c 0f b9 aa bb c8 82 d0 3c 3f a1 94 bc
       0.013237654 -0.005210049 0.025452986 -0.018143294
000130 33 f7 8d 3c 61 7d bc ba 3a 4a 8d 3a 2d 88 b1 3c
       0.017329788 -0.0014380628 0.0010779568 0.021671379
000140 9c aa 64 3c 6a b9 51 bc 8f 71 75 bb 80 be 37 bc
       0.013956692 -0.012800554 -0.003745172 -0.011214852
000150 a5 52 8e 3a ef 17 85 3b 6e 7d d3 3b 74 5a 5b bc
       0.001085837 0.004061691 0.0064541614 -0.013388265
000160 f0 e7 53 bb 26 c0 41 3b 6d 94 db bc 58 18 ec bc
       -0.003233429 0.0029563992 -0.026804173 -0.028820202
000170 bf 0e cd 3b 3a 8b 9d 3a ef 5a 83 3b 62 74 8c bb
       0.0062578614 0.0012019642 0.004008643 -0.004286335
000180 83 b3 7d 3a 1e 7d c7 bb e6 76 7b b9 c8 da 74 ba
       0.00096779334 -0.006087913 -0.00023981518 -0.0009340462
000190 b0 2b df bb 59 8b ac 3b 7c b0 2c bd 69 54 a6 3b
       -0.006810628 0.005265635 -0.042160496 0.0050759804
0001a0 b2 21 88 3c 60 0d bd bc 38 d6 fe b8 c0 20 4f 3c
       0.01661763 -0.023077667 -0.00012151565 0.012642086
0001b0 e5 30 6c bc 15 41 98 3b 9d 48 65 bb bb e3 e3 3b
       -0.014415954 0.0046464303 -0.0034985908 0.006954638
0001c0 0b 9b 73 3c ef 01 de 3b 26 cc b4 bc 46 6a e8 3a
       0.014868508 0.006775133 -0.022070002 0.0017731867
0001d0 65 fa c0 bc fb 36 87 bb 52 00 dd bc fe 09 f1 bb
       -0.023556897 -0.004126427 -0.026977692 -0.0073559275
0001e0 67 bf b0 3c e9 9c 45 3b 99 fc a8 ba e6 42 1d 3c
       0.021575643 0.003015334 -0.0012892663 0.009598469
0001f0 11 f9 7d 3c c9 21 a4 3b 41 8a dd bb 50 62 c8 3b
       0.015501277 0.0050089103 -0.006760866 0.0061152354
000200 55 46 37 3c b1 64 d1 3c 72 be 88 3b 09 65 11 3b
       0.011186202 0.025560709 0.0041730935 0.0022185466
000210 bf a1 1a 3c b8 1b 43 bb b0 bd 6a bc 22 88 bd 3c
       0.009437977 -0.002977116 -0.014327452 0.023136202
000220 d8 d1 ad ba fa 54 ee 3b f9 9e 50 bc db f3 c6 3c
       -0.0013261391 0.0072733136 -0.012733215 0.024286201
000230 86 2c 39 3b ae 42 42 3c 40 f9 ef 3a 1f 3b 7c bc
       0.0028255298 0.011856718 0.0018308535 -0.015394955
000240 c3 bb cb 3b 4a 54 59 ba 5c 12 de bb 76 90 6f ba
       0.0062174513 -0.0008290453 -0.006777091 -0.0009138653
000250 a6 c6 da ba 2b 5f 59 39 71 06 4e 3b 1d 50 c1 3b
       -0.0016691282 0.00020730185 0.0031436945 0.005899443
000260 8c a8 31 3b cc 25 1e bc 20 56 bc 3b 9f 41 c7 bc
       0.0027108518 -0.009652566 0.0057475716 -0.024323283
000270 81 0e c5 bc 7a c4 65 bb c9 e4 f9 bb 5f b3 9d bc
       -0.024054768 -0.0035059736 -0.0076261503 -0.01925057
000280 5f 55 29 3b f9 f8 b0 3b 2c 0f ca 3c 0a 20 85 3b
       0.0025838239 0.0054007736 0.024665438 0.0040626572
000290 14 1a 71 3b fe 84 87 3c a7 3f 80 bc d2 3b 14 3c
       0.0036789225 0.016542908 -0.015655352 0.009047465
0002a0 65 55 a4 3b 77 9a 19 3c 25 d9 8c 3c 73 27 a3 3c
       0.0050150626 0.009375206 0.017193386 0.019916272
0002b0 c0 d4 5d 3c db 26 93 bc ce c6 06 3c 0a ea ca 3c
       0.013539493 -0.017962864 0.00822611 0.024769802
0002c0 e6 07 03 bc 15 13 ce 3a f8 e1 55 bb 69 5b c2 3b
       -0.007997489 0.001572224 -0.0032635909 0.005931307
0002d0 a6 51 ca bc 4c 6c 8f bb bb d8 92 3c ea a1 89 3c
       -0.024697136 -0.0043769237 0.01792561 0.01680084
0002e0 f9 c3 d6 3b 41 34 83 bc b9 2b 85 3c 8b b4 54 bc
       0.0065541235 -0.016016128 0.0162562 -0.012982498
0002f0 bb 13 99 38 ba ab 17 bc 57 8e 8a bc 43 88 ce 3b
       7.2992836e-05 -0.009257251 -0.016913576 0.0063028648
000300 4d 03 df bc 1d c7 8c bb e6 eb 07 bc 84 74 71 bb
       -0.027223254 -0.004296197 -0.008295989 -0.003684313
000310 39 e6 05 3c a9 46 cc bc 51 4c 32 3d 90 da e1 bc
       0.008172565 -0.024936037 0.043529812 -0.027570039
000320 0b 58 5c 39 69 f8 67 3c 2a 7c 8d 3b c8 67 36 bc
       0.00021013634 0.014158347 0.00431778 -0.011133142
000330 93 44 2f bc c4 0b 14 3c ff 51 5a bc f7 1e 96 bc
       -0.010697502 0.009036008 -0.013325213 -0.018325312
000340 d5 48 0e 3d 13 10 2d bd 75 71 eb 39 d1 70 c2 bc
       0.034737427 -0.042251658 0.00044907225 -0.023735436
000350 62 54 d1 bc 23 8b f3 bc bd d7 eb ba 1d 3d 6e 3b
       -0.025552932 -0.029729431 -0.0017993372 0.0036352344
000360 65 cb 1b bc 00 1b 0b 3d 31 ac cb 3b 2f 2a 23 3d
       -0.009508942 0.033961296 0.006215595 0.03983515
000370 c5 25 82 b9 e0 97 b1 bc 2b 11 95 3c 7e 4e 4f bc
       -0.00024823673 -0.021678865 0.018196663 -0.012652991
000380 cf ab a6 bc 34 6b 5e 3b a6 a1 02 bd 42 71 af bc
       -0.020345597 0.003393841 -0.03189244 -0.02141631
000390 df 0a d1 3b be 6f b2 3c f5 d2 50 3c ef c4 2f 3d
       0.0063794698 0.021781798 0.012745609 0.04291242
0003a0 18 78 f1 3c 7f c5 28 3c 03 a9 b8 3c f7 5c da bc
       0.02947621 0.010300993 0.022541529 -0.026655657
0003b0 63 3f fc 39 76 4b 36 3c b0 e4 b1 3c 5b fb fd bb
       0.00048112412 0.01112639 0.021715492 -0.007750911
0003c0 a9 1c 18 3d 3a 3a ee bc 3c 4f 04 bc 5d 66 e4 bc
       0.037136707 -0.029080499 -0.008075532 -0.027880842
0003d0 3f b8 78 bc d1 5a b9 3c cf d6 8f bc fb 8f 30 3b
       -0.015180646 0.022626312 -0.017558483 0.0026941288
0003e0 fa ea 8d 3c 22 57 44 bc f8 9c 6d 3c 69 74 c4 3b
       0.01732396 -0.011983665 0.014502756 0.0059953225
0003f0 e3 ad 12 3d 1d 63 e9 3c d0 92 8e bc 27 93 ce bc
       0.035810363 0.028489644 -0.01740399 -0.025216652

action_model._discrete_distribution.branches.0.bias f4 [5]
000000 0f e2 00 3c 21 db 77 3a fe fa a1 3b 0e 83 98 3b
       0.007866397 0.0009454955 0.0049432507 0.004654295
000010 db a3 b0 bc
       -0.021562507

exp_avg f4 [64, 45]
000000 04 00 00 80 e3 02 41 b9 32 9f b4 b9 99 ab 10 b9
       -6e-45 -0.0001840699 -0.00034450885 -0.00013796835
000010 4a b6 07 ba a1 df f5 b7 7c d0 07 ba eb 9e 60 b9
       -0.00051770045 -2.9310411e-05 -0.0005180908 -0.00021421506
000020 09 98 ba b9 04 00 00 80 e3 02 41 b9 34 b7 af b9
       -0.0003558996 -6e-45 -0.0001840699 -0.00033515098
000030 69 7e 0d b9 44 29 93 b9 2f 32 6d 39 1b 9c eb b9
       -0.000134939 -0.0002806877 0.00022620776 -0.00044939
000040 0a 81 a8 b9 74 65 b3 b9 04 00 00 80 e3 02 41 b9
       -0.000321396 -0.0003421713 -6e-45 -0.0001840699
000050 b0 96 ac b9 89 ac 12 b9 c1 34 91 b9 65 bd be 38
       -0.00032918667 -0.0001398792 -0.0002769586 9.0951835e-05
000060 04 ec 27 ba 4b dd b3 b9 ca e1 ae b9 04 00 00 80
       -0.00064057135 -0.00034306417 -0.00033356092 -6e-45
000070 e3 02 41 b9 b8 ee b7 b9 f6 2c 15 b9 05 9b dd b9
       -0.0001840699 -0.0003508234 -0.00014226497 -0.00042267903
000080 ce 37 90 39 27 8e 17 ba 2c a9 cd b9 3e 97 bb b9
       0.00027507398 -0.0005781375 -0.0003922669 -0.00035780104
000090 04 00 00 80 e3 02 41 b9 30 c1 ab b9 1c 9d 22 b9
       -6e-45 -0.0001840699 -0.00032759598 -0.00015508052
0000a0 bb 77 f2 b8 7c 22 98 b8 a7 db 50 ba eb f5 4b b9
       -0.00011561761 -7.254348e-05 -0.0007967301 -0.000194512
0000b0 7c 99 af b9 04 00 00 80 ed b3 82 36 2d 81 73 b7
       -0.00033492956 -6e-45 3.895248e-06 -1.4514005e-05
0000c0 46 ad b8 37 90 3a d5 b7 1e 33 3e 39 2b 01 6c b9
       2.2015196e-05 -2.5418849e-05 0.00018138855 -0.00022507149
0000d0 42 87 ca b8 27 4a 42 b7 04 00 00 80 ed b3 82 36
       -9.657304e-05 -1.1580566e-05 -6e-45 3.895248e-06
0000e0 b7 55 78 b7 0b 19 e2 37 33 18 4c 38 0d 54 9f 39
       -1.4801909e-05 2.6952961e-05 4.8659927e-05 0.00030389466
0000f0 e6 c0 47 b9 bb e8 0b b9 5a 56 0c b7 04 00 00 80
       -0.00019049979 -0.00013342772 -8.364756e-06 -6e-45
000100 ed b3 82 36 dc 2d 66 b6 c9 de 9e 37 e8 c3 fa 38
       3.895248e-06 -3.4299364e-06 1.893881e-05 0.00011957419
000110 bc 98 76 39 f6 30 95 b9 7f 22 2f b9 e5 a0 76 36
       0.00023517286 -0.00028455973 -0.00016702151 3.675051e-06
000120 04 00 00 80 ed b3 82 36 bd f7 5d b7 86 06 8e 37
       -6e-45 3.895248e-06 -1.3230308e-05 1.6930757e-05
000130 15 86 d4 37 ea 64 90 39 b6 1f 90 b9 ad 60 30 b9
       2.5334806e-05 0.00027541007 -0.00027489447 -0.00016820683
000140 6a ff 06 b7 04 00 00 80 ed b3 82 36 2c d8 b4 36
       -8.046491e-06 -6e-45 3.895248e-06 5.3895837e-06
000150 16 ec 46 37 9e 5c 14 39 d2 61 3b 39 01 ba 65 b9
       1.1856688e-05 0.00014148882 0.0001787015 -0.00021908434
000160 54 e6 76 38 e6 44 1e 37 04 00 00 00 12 b4 fa b6
       5.886548e-05 9.4335755e-06 6e-45 -7.4715435e-06
000170 11 94 9d b7 66 cf ad 37 32 de 76 b8 96 c3 f0 b7
       -1.8784807e-05 2.0719785e-05 -5.8857906e-05 -2.8701306e-05
000180 08 c4 17 36 b7 62 4b 38 ea 05 97 b7 04 00 00 00
       2.2614859e-06 4.8490907e-05 -1.8003357e-05 6e-45
000190 12 b4 fa b6 aa 67 9d b7 cb ad aa 37 e3 0d b6 36
       -7.4715435e-06 -1.876413e-05 2.0346508e-05 5.4256393e-06
0001a0 bd 29 26 b7 3f 2c c9 36 ba f8 d7 37 2d 00 99 b7
       -9.904089e-06 5.9954177e-06 2.574582e-05 -1.8239103e-05
0001b0 04 00 00 00 12 b4 fa b6 fe 9f c5 b7 47 b7 a7 37
       6e-45 -7.4715435e-06 -2.3558732e-05 1.9993297e-05
0001c0 f1 fc 08 b8 31 53 be b7 ed c7 ac 37 cd c6 e0 37
       -3.2660497e-05 -2.2688504e-05 2.0597095e-05 2.6795455e-05
0001d0 6a bf c0 b7 04 00 00 00 12 b4 fa b6 f0 55 d1 b7
       -2.2977318e-05 6e-45 -7.4715435e-06 -2.495476e-05
0001e0 6c c1 b0 37 e1 45 41 b8 4c 46 a3 35 8d 60 1a 38
       2.1070904e-05 -4.6079866e-05 1.2164905e-06 3.680638e-05
0001f0 4b 81 06 38 0f d9 c7 b7 04 00 00 00 12 b4 fa b6
       3.2068503e-05 -2.3823724e-05 6e-45 -7.4715435e-06
000200 15 da c2 b7 6d f4 9a 37 a7 f8 38 b7 af d5 8d b7
       -2.3228155e-05 1.847205e-05 -1.10251485e-05 -1.6908014e-05
000210 b5 98 a2 b8 89 cc 71 b7 d1 52 c8 b7 04 00 00 80
       -7.753206e-05 -1.4412341e-05 -2.3880422e-05 -6e-45
000220 7e e8 a6 39 fc 9f 0c 3a d1 fd e5 39 23 0d f8 39
       0.00031835207 0.00053644157 0.00043867392 0.00047312034
000230 6f a4 9f 3a 64 0f 2c b9 2c 46 87 39 80 79 14 3a
       0.0012179742 -0.00016408932 0.0002580149 0.0005663857
000240 04 00 00 80 7e e8 a6 39 55 f1 13 3a 70 1c f8 39
       -6e-45 0.00031835207 0.0005643566 0.00047323434
000250 fb c1 44 3a 32 82 8f 3a 2c c0 c8 39 11 c9 57 39
       0.0007505712 0.0010948835 0.00038290152 0.00020578901
000260 00 a4 1d 3a 04 00 00 80 7e e8 a6 39 9c d9 22 3a
       0.00060135126 -6e-45 0.00031835207 0.0006212236
000270 34 26 f8 39 ad fe 7b 3a d2 1e 27 3a e4 82 1b 39
       0.0004733071 0.000961284 0.0006375137 0.00014830712
000280 81 0e 39 39 ad bd 2c 3a 04 00 00 80 7e e8 a6 39
       0.00017648378 0.0006589543 -6e-45 0.00031835207
000290 6d 7b 1e 3a f0 13 ee 39 8e 98 11 3a 73 81 1b 3a
       0.00060456136 0.00045409752 0.00055540435 0.000593207
0002a0 8a 13 0d 38 6f 73 a7 39 d3 c2 23 3a 04 00 00 80
       3.3635217e-05 0.00031938727 0.00062469876 -6e-45
0002b0 7e e8 a6 39 b4 3d 27 3a b4 a1 e4 39 4f 14 8c 3a
       0.00031835207 0.0006379739 0.00043608027 0.0010687205
0002c0 0d 6c b1 39 93 5f a0 39 47 ca 88 3a c1 8d 2c 3a
       0.00033840575 0.00030588786 0.001043626 0.0006582402
0002d0 04 00 00 80 a5 18 b3 38 2b 35 27 39 da 7c ef 38
       -6e-45 8.5399755e-05 0.00015946168 0.000114196635
0002e0 32 90 d8 39 e9 90 2c 39 a8 65 fb b9 f6 ac 0b b9
       0.00041306164 0.00016457181 -0.0004795019 -0.00013320506
0002f0 fd e9 3f 39 04 00 00 80 a5 18 b3 38 38 d6 15 39
       0.00018302347 -6e-45 8.5399755e-05 0.0001428955
000300 47 7b 0e 39 e2 41 60 39 8f 3a 60 38 b5 16 90 b8
       0.000135881 0.00021386848 5.34603e-05 -6.8706846e-05
000310 dc c6 35 b7 5d 3e 31 39 04 00 00 80 a5 18 b3 38
       -1.0834741e-05 0.00016903268 -6e-45 8.5399755e-05
000320 b7 f4 4a 39 a8 24 c2 38 95 ef cf 39 28 1e c5 38
       0.00019355385 9.2574686e-05 0.0003966062 9.399309e-05
000330 8e 14 d4 b9 32 27 8a 37 c8 9c 62 39 04 00 00 80
       -0.00040451105 1.6469134e-05 0.00021611445 -6e-45
000340 a5 18 b3 38 e3 d1 38 39 e8 ce 99 38 b2 11 6f 39
       8.5399755e-05 0.00017625796 7.334148e-05 0.00022799408
000350 8d ad a8 38 ee 72 d2 b9 09 ff 4d 39 b3 0f 45 39
       8.0431906e-05 -0.0004013995 0.00019645331 0.00018793232
000360 04 00 00 80 a5 18 b3 38 9a b1 52 39 23 e6 8d 38
       -6e-45 8.5399755e-05 0.00020093322 6.76627e-05
000370 4d f5 93 39 87 68 3d 39 7a f0 e9 39 18 29 8d 3a
       0.00028220788 0.00018063384 0.00044620392 0.0010769693
000380 66 b2 58 39 04 00 00 00 32 e7 d1 b7 49 16 db b7
       0.00020665824 6e-45 -2.50224e-05 -2.6117212e-05
000390 ac 61 b2 b7 2b cc 5f b8 23 9c b2 b8 03 0c 3d b8
       -2.1264736e-05 -5.335749e-05 -8.516784e-05 -4.50723e-05
0003a0 d9 0d 36 37 76 52 0f b8 04 00 00 00 32 e7 d1 b7
       1.08512695e-05 -3.4170655e-05 6e-45 -2.50224e-05
0003b0 01 c8 c8 b7 43 27 b8 b7 6f dd 79 b8 ef 80 69 b8
       -2.3934992e-05 -2.1952792e-05 -5.9572452e-05 -5.5671608e-05
0003c0 86 b3 5d b8 2f e8 16 38 0b 68 08 b8 04 00 00 00
       -5.28577e-05 3.5979025e-05 -3.2521824e-05 6e-45
0003d0 32 e7 d1 b7 a3 5e c9 b7 dc db a4 b7 25 42 31 b8
       -2.50224e-05 -2.4005136e-05 -1.9652703e-05 -4.226169e-05
0003e0 7d ab 92 b8 48 e6 23 b8 7b 2d 6a 37 d0 91 05 b8
       -6.993765e-05 -3.9076695e-05 1.3958076e-05 -3.184547e-05
0003f0 04 00 00 00 32 e7 d1 b7 bf 4a e6 b7 4d 4f 9e b7
       6e-45 -2.50224e-05 -2.7452943e-05 -1.8871995e-05

exp_avg_sq f4 [64, 45]
000000 ff 2b 3b 34 2e 2e 59 35 33 bf d0 35 45 49 88 35
       1.7431738e-07 8.0906e-07 1.5552854e-06 1.0154114e-06
000010 2f 23 14 36 5b 00 fd 35 8b 55 ed 35 33 68 e2 35
       2.2074198e-06 1.8850072e-06 1.7682772e-06 1.6868638e-06
000020 28 70 e7 35 cb d9 3d 34 66 35 59 35 29 d4 d2 35
       1.7243483e-06 1.7681229e-07 8.0916504e-07 1.5707966e-06
000030 51 77 89 35 e5 9e 19 36 7b 53 e7 35 17 ff f5 35
       1.0242021e-06 2.2891265e-06 1.7235137e-06 1.8328163e-06
000040 bc a0 d3 35 bf 9c e9 35 b7 0a 3f 34 45 34 5a 35
       1.5767505e-06 1.7405472e-06 1.7792159e-07 8.128739e-07
000050 ea 69 d3 35 60 02 8a 35 75 ba 17 36 a7 a5 f3 35
       1.575155e-06 1.0282492e-06 2.2609286e-06 1.8153122e-06
000060 8b 6d f6 35 7b 63 cf 35 b6 96 ea 35 19 84 3f 34
       1.836031e-06 1.5451654e-06 1.7478221e-06 1.7836318e-07
000070 d1 98 5a 35 80 1c d6 35 c9 9c 8a 35 1d b0 20 36
       8.1433706e-07 1.5952537e-06 1.0327432e-06 2.394437e-06
000080 fd 51 df 35 13 c8 fb 35 46 a3 cc 35 78 17 ed 35
       1.6638656e-06 1.8759187e-06 1.5246703e-06 1.7664706e-06
000090 e7 8e 40 34 ca 65 5b 35 23 f7 d5 35 dd 10 8a 35
       1.7933381e-07 8.173198e-07 1.5941663e-06 1.0286709e-06
0000a0 3b fa 1f 36 32 86 e5 35 8c e5 f7 35 e6 47 d0 35
       2.38385e-06 1.7100886e-06 1.8469741e-06 1.5518133e-06
0000b0 c5 e2 ec 35 3d ac b5 33 a5 5e 82 34 ac 64 10 35
       1.7649369e-06 8.459799e-08 2.428325e-07 5.3790677e-07
0000c0 2b d6 d9 34 c0 99 4a 35 ab d1 2e 35 58 c9 2a 35
       4.0575227e-07 7.54746e-07 6.512516e-07 6.362293e-07
0000d0 a2 77 1b 35 46 46 2b 35 5b 0f b6 33 f6 6d 82 34
       5.791609e-07 6.3804725e-07 8.4778286e-08 2.4294394e-07
0000e0 ef 1c 10 35 42 41 db 34 dc 8f 49 35 55 1c 37 35
       5.3686284e-07 4.083941e-07 7.508768e-07 6.821404e-07
0000f0 64 dd 25 35 3f 14 05 35 e0 fb 2a 35 cd 9b ba 33
       6.1789456e-07 4.9575823e-07 6.369646e-07 8.68964e-08
000100 86 30 83 34 a5 76 10 35 9e d2 d8 34 af 48 51 35
       2.4435957e-07 5.381683e-07 4.038638e-07 7.7964336e-07
000110 d3 ae 37 35 98 53 02 35 05 3f 04 35 a0 44 2b 35
       6.8427215e-07 4.855042e-07 4.926554e-07 6.3802327e-07
000120 e5 b1 ba 33 78 2c 83 34 cf 52 11 35 72 81 d7 34
       8.693659e-08 2.4433007e-07 5.413721e-07 4.0141055e-07
000130 5d 22 59 35 74 a2 33 35 39 b3 06 35 ae 12 12 35
       8.0888805e-07 6.6919097e-07 5.0179693e-07 5.441642e-07
000140 68 e6 2b 35 7e e0 be 33 b5 e2 85 34 23 be 11 35
       6.403775e-07 8.888399e-08 2.4938132e-07 5.4293395e-07
000150 85 6a d8 34 1d 91 51 35 3c c5 35 35 18 1d 1b 35
       4.0310638e-07 7.8069735e-07 6.771477e-07 5.7784337e-07
000160 c7 34 0f 35 0e 0f 2d 35 37 09 45 31 87 dd c6 32
       5.334845e-07 6.446943e-07 2.867251e-09 2.3150973e-08
000170 de a0 35 33 70 77 13 33 1e 5d 9a 33 12 26 b3 33
       4.2288654e-08 3.4334732e-08 7.188122e-08 8.342262e-08
000180 6b 14 f7 32 0b 15 2c 33 24 26 61 33 57 6f 45 31
       2.876387e-08 4.006601e-08 5.2421584e-08 2.8730562e-09
000190 43 dd c6 32 0e 40 36 33 d1 56 14 33 96 8a 8b 33
       2.3150852e-08 4.2433435e-08 3.4537894e-08 6.4979005e-08
0001a0 32 bd b0 33 93 ee 10 33 7f 26 2d 33 71 d5 61 33
       8.230053e-08 3.3744595e-08 4.0314713e-08 5.258102e-08
0001b0 e3 94 45 31 05 34 c7 32 b2 e6 37 33 76 7e 14 33
       2.8751905e-09 2.3190305e-08 4.2817824e-08 3.457395e-08
0001c0 0a 7a 7f 33 32 4a ab 33 0c a8 22 33 c9 47 35 33
       5.9482808e-08 7.976304e-08 3.7871402e-08 4.2207635e-08
0001d0 2f 9a 63 33 f7 3a 57 31 ad 46 cf 32 71 8b 3d 33
       5.2992785e-08 3.1320135e-09 2.4130111e-08 4.4131813e-08
0001e0 2d 96 14 33 c7 74 87 33 57 2b a8 33 df ca 27 33
       3.459552e-08 6.307669e-08 7.830993e-08 3.9067228e-08
0001f0 25 72 3f 33 81 81 6c 33 38 4e 7c 31 5e 4c d0 32
       4.4574467e-08 5.5065815e-08 3.6715289e-09 2.4249115e-08
000200 4a 54 42 33 fc 33 15 33 55 27 8d 33 32 81 ab 33
       4.5245805e-08 3.4739045e-08 6.5729786e-08 7.9863085e-08
000210 ae f9 65 33 5f d8 60 33 33 2d 74 33 b9 01 0a 35
       5.35453e-08 5.2350853e-08 5.6851786e-08 5.1411513e-07
000220 ed 43 1f 36 57 6f a1 36 0d 9e 54 36 2c 9e d3 36
       2.3732384e-06 4.8111356e-06 3.168246e-06 6.3067037e-06
000230 fb 4e b8 36 6b 11 c0 36 67 7b a5 36 83 7d b2 36
       5.492822e-06 5.7240736e-06 4.931749e-06 5.319425e-06
000240 17 06 0a 35 ff 3f 1f 36 2e 62 a1 36 de ee 54 36
       5.141787e-07 2.3730097e-06 4.8096035e-06 3.17295e-06
000250 2f af d9 36 14 f3 b1 36 6b 4c bc 36 91 a5 a2 36
       6.487498e-06 5.303309e-06 5.611733e-06 4.8472507e-06
000260 aa 84 b2 36 67 b8 0b 35 5d 4c 1f 36 bb 32 a2 36
       5.3202575e-06 5.2049876e-07 2.3737296e-06 4.833882e-06
000270 72 fb 54 36 28 0b e5 36 8a 2b b2 36 a4 2f b4 36
       3.1736822e-06 6.8260306e-06 5.309882e-06 5.369964e-06
000280 0f 41 99 36 9c 15 b3 36 58 a9 0c 35 64 05 20 36
       4.567329e-06 5.3371314e-06 5.240049e-07 2.3844996e-06
000290 1f 10 a2 36 6a 17 55 36 64 9d d8 36 1a 0f ba 36
       4.829853e-06 3.1753102e-06 6.4556243e-06 5.54499e-06
0002a0 5d c2 b4 36 4d 8c a0 36 c9 6a b3 36 b9 97 0d 35
       5.387045e-06 4.7847047e-06 5.347047e-06 5.274738e-07
0002b0 8b 27 20 36 af 64 a1 36 72 e5 54 36 be aa dc 36
       2.3864875e-06 4.809895e-06 3.1724016e-06 6.576388e-06
0002c0 b2 18 bc 36 ac 8b c0 36 3d 37 a7 36 36 ea b2 36
       5.6057115e-06 5.738306e-06 4.9834184e-06 5.332079e-06
0002d0 2d 74 16 35 15 48 29 36 74 18 a9 36 6c 74 54 36
       5.604841e-07 2.522492e-06 5.039439e-06 3.1658228e-06
0002e0 e1 18 ef 36 1c db d0 36 a7 fe c1 36 b1 d6 b5 36
       7.1256513e-06 6.2243907e-06 5.7814937e-06 5.4192137e-06
0002f0 7f fa bd 36 12 d0 16 35 2c 6d 29 36 4e 02 a9 36
       5.6618005e-06 5.6182137e-07 2.5246509e-06 5.036861e-06
000300 e3 9a 54 36 be 71 e9 36 7b 31 ce 36 77 c1 b8 36
       3.1680618e-06 6.9571824e-06 6.1450387e-06 5.5061496e-06
000310 04 fc b5 36 4f 9c bd 36 45 25 1e 35 9a b3 29 36
       5.423559e-06 5.6508356e-06 5.891382e-07 2.5287504e-06
000320 8d 2f a9 36 3a cc 54 36 57 55 f5 36 6a 6a cf 36
       5.042128e-06 3.1709337e-06 7.311504e-06 6.181469e-06
000330 50 01 b8 36 bc 0a ab 36 ee 1e be 36 26 43 1e 35
       5.48378e-06 5.097447e-06 5.666042e-06 5.89573e-07
000340 d6 2f 2a 36 70 a3 a9 36 ce ed 54 36 be d2 f7 36
       2.5359818e-06 5.055619e-06 3.1728882e-06 7.3857072e-06
000350 a7 bc d6 36 8a 1d c0 36 88 aa ae 36 e9 f6 be 36
       6.399659e-06 5.7254847e-06 5.2054565e-06 5.6911854e-06
000360 5e e2 1e 35 6f c2 2a 36 4e fb a8 36 a4 8e 54 36
       5.9188994e-07 2.544515e-06 5.036046e-06 3.167349e-06
000370 50 37 f9 36 1d be d4 36 9d 3e bf 36 55 f3 aa 36
       7.4272175e-06 6.3402244e-06 5.6995327e-06 5.0947224e-06
000380 2f 71 be 36 d1 53 9b 32 d9 03 6a 33 39 29 ba 33
       5.6756176e-06 1.808249e-08 5.448587e-08 8.668798e-08
000390 fb 5a e5 33 df da 4e 34 7c 37 3c 34 e5 d7 b6 33
       1.0680193e-07 1.926487e-07 1.752905e-07 8.5143064e-08
0003a0 ac 46 ef 32 59 0f ea 33 32 5f 9b 32 a4 35 6a 33
       2.78554e-08 1.0899266e-07 1.8087665e-08 5.4531156e-08
0003b0 4b 0d ba 33 bd 1d e7 33 dd cb 54 34 32 c0 3b 34
       8.663718e-08 1.0762185e-07 1.9818204e-07 1.7485652e-07
0003c0 e4 01 9f 33 c1 fa 6c 32 e2 da ea 33 08 8d 9e 32
       7.4043584e-08 1.3794023e-08 1.0936289e-07 1.8457754e-08
0003d0 71 e3 6a 33 db 48 ba 33 61 0a e7 33 4d fa 56 34
       5.4689227e-08 8.674552e-08 1.0758664e-07 2.0021362e-07
0003e0 8b d5 3e 34 c7 26 a1 33 49 cb 63 32 88 89 ec 33
       1.7772815e-07 7.5042e-08 1.3259361e-08 1.1014623e-07
0003f0 20 27 a0 32 05 da 6d 33 e8 24 be 33 84 d5 e5 33
       1.8644243e-08 5.537915e-08 8.854278e-08 1.0702482e-07

exp_avg f4 [64]
000000 3e cc ce b9 f0 09 0c 37 38 4e 86 b7 89 d4 32 3a
       -0.00039443554 8.346964e-06 -1.6010468e-05 0.00068218313
000010 94 e3 3f 39 6c e5 60 b8 86 44 72 38 bd 07 05 ba
       0.00018299959 -5.3619427e-05 5.7761114e-05 -0.00050747005
000020 a7 99 ee b8 68 9d 97 b9 0e 4e 6c 39 aa b8 d3 37
       -0.00011377344 -0.0002891824 0.00022535792 2.5239151e-05
000030 30 2f 65 39 04 06 03 3a a4 94 c1 b7 37 c4 ce b8
       0.0002185672 0.000499815 -2.3076609e-05 -9.859393e-05
000040 d2 8a 43 38 48 cc 0f b9 f7 8a c2 35 da 51 aa b9
       4.662091e-05 -0.00013713643 1.449457e-06 -0.0003248591
000050 c5 3b 77 b9 4a da 6e b9 e4 1b 89 b8 4f 50 93 b8
       -0.00023578022 -0.00022778768 -6.537864e-05 -7.024465e-05
000060 04 12 52 b9 b2 6d a4 39 00 9d 76 b7 03 1e 8d 39
       -0.00020033872 0.00031362247 -1.4699297e-05 0.00026915976
000070 e0 5e 2e 38 51 38 a7 38 3a 4f be 39 e5 fd 18 39
       4.1573192e-05 7.97367e-05 0.00036298652 0.00014590433
000080 85 c2 4f b9 29 e6 0e 3a f2 de b6 b9 98 b0 ad 37
       -0.00019813523 0.00054511667 -0.00034879852 2.070544e-05
000090 50 2e 88 39 84 63 bc 37 f8 12 de 39 00 87 89 37
       0.00025974447 2.2457687e-05 0.00042357272 1.6394537e-05
0000a0 ce 06 85 3a da 90 c9 37 9e 9c a6 38 3f 5c 34 ba
       0.0010149123 2.4028519e-05 7.944669e-05 -0.0006880201
0000b0 2a ff c3 38 4f 70 0a b9 2b f0 a5 39 34 f8 c0 b9
       9.3458526e-05 -0.00013202544 0.00031650192 -0.0003680602
0000c0 e1 c0 9b b9 7a 4b 9a 38 57 94 cb 38 08 a0 46 b9
       -0.0002970761 7.357351e-05 9.707425e-05 -0.00018942368
0000d0 02 7a 47 3a 90 6d af b8 e9 b7 7f b9 00 c7 76 b9
       0.0007609428 -8.365058e-05 -0.00024387207 -0.00023534521
0000e0 8c 05 41 3a 16 8c d0 39 aa 6c c6 b9 93 e3 3a 39
       0.0007363192 0.00039777224 -0.00037846464 0.0001782312
0000f0 33 cb aa b9 95 9a 59 39 65 bf 99 b8 d6 f7 e4 b9
       -0.00032576322 0.00020752319 -7.3312585e-05 -0.000436722

exp_avg_sq f4 [64]
000000 1d d1 37 36 33 76 83 35 cb 4b c9 33 bd 56 0a 37
       2.7390845e-06 9.794661e-07 9.3735785e-08 8.245636e-06
000010 c0 00 17 37 ed 15 67 34 c9 68 37 37 9e 8b 74 35
       9.000476e-06 2.1521528e-07 1.0932047e-05 9.1100253e-07
000020 0f 81 13 36 1d c3 9f 35 2f 2b 92 35 f0 32 66 34
       2.197983e-06 1.1903209e-06 1.0890416e-06 2.143895e-07
000030 cb 98 7c 36 76 15 9f 36 22 ca ac 34 82 e1 53 35
       3.7639863e-06 4.7410676e-06 3.2184568e-07 7.893178e-07
000040 e5 cd 46 36 50 0d 1e 35 eb a9 83 32 cc f2 6d 35
       2.9624146e-06 5.887896e-07 1.5327677e-08 8.8642696e-07
000050 f2 b1 cc 34 39 dc 8f 36 f8 32 d3 34 3f f7 21 35
       3.8127433e-07 4.2873694e-06 3.9338897e-07 6.0336964e-07
000060 c1 94 a4 34 9c 8c 80 36 3e c5 12 36 17 8c 5b 37
       3.0655613e-07 3.8310664e-06 2.1870505e-06 1.3086034e-05
000070 c7 c2 18 35 c4 1f 1c 33 66 0d 0e 36 eb 9a 54 34
       5.690785e-07 3.635047e-08 2.1167448e-06 1.9800397e-07
000080 da 08 7e 34 ce 78 ea 36 fc 75 a8 36 6e 6b 5c 36
       2.3658814e-07 6.987807e-06 5.0205254e-06 3.2845087e-06
000090 80 03 c1 35 ba 69 55 36 89 4f b8 36 9d 84 29 37
       1.4380639e-06 3.1801014e-06 5.4928864e-06 1.0104061e-05
0000a0 16 c6 07 37 18 97 27 36 73 1b 5e 36 1b 92 ae 36
       8.0927475e-06 2.4972887e-06 3.3096555e-06 5.202613e-06
0000b0 95 51 72 36 fb a9 8e 35 83 0e 97 36 0e 14 cd 36
       3.6108297e-06 1.0629295e-06 4.50184e-06 6.1118108e-06
0000c0 ac df 02 37 24 44 a4 33 6a c7 cd 33 8d 08 00 35
       7.8006815e-06 7.64924e-08 9.5823296e-08 4.769616e-07
0000d0 e2 a8 d4 36 60 99 97 35 fe 41 4c 36 be 81 35 36
       6.337753e-06 1.1295015e-06 3.0436781e-06 2.7046622e-06
0000e0 10 28 66 36 82 57 bb 35 b6 d1 c7 35 03 35 67 35
       3.429599e-06 1.3958054e-06 1.4887689e-06 8.613135e-07
0000f0 8d 4c 14 37 2d b6 01 37 19 4c 44 34 b5 01 10 36
       8.839311e-06 7.731415e-06 1.8281607e-07 2.1458666e-06

exp_avg f4 [5, 64]
000000 c0 59 32 3b 3a 12 6e bb 62 26 ce bb 45 52 b1 3c
       0.002721414 -0.0036326782 -0.0062911967 0.021645674
000010 32 c1 d2 3c dc 42 b7 bb fa 19 19 3c 41 fe b3 bb
       0.025726888 -0.005592687 0.009344572 -0.005492956
000020 6d f2 22 3c 5c 7a 84 39 49 d0 2f bb c2 fe ec bb
       0.009945494 0.00025268167 -0.0026827028 -0.007232518
000030 eb 1b 49 3c ce d4 d8 3c bd f4 78 bb f1 dc cd ba
       0.012274723 0.02646866 -0.0037987672 -0.0015706104
000040 e8 0b 1e 3b 64 9c ea bb 06 bd e4 bb ef 9b 71 bb
       0.0024115983 -0.0071597565 -0.006980541 -0.0036866625
000050 1b 8e d3 bb b4 18 7e 3c c8 40 c9 bb 03 76 df ba
       -0.0064561493 0.015508819 -0.0061417557 -0.001704872
000060 ab 45 d3 bb 2e 91 9f 3b 97 d9 27 3b 6f 41 a4 3c
       -0.006447514 0.0048696017 0.0025611871 0.020050732
000070 b8 87 bd bb 5c 6e da bb 81 eb ef 3b 77 cb 91 bb
       -0.005784001 -0.006665988 0.0073217754 -0.0044493037
000080 6d 14 36 bb db 66 28 3d 18 f7 ae 3b f9 8e 7f 3b
       -0.002778317 0.041113716 0.0053395145 0.003899513
000090 1b de 08 3b c3 bf 36 3c 08 a6 14 3c 6d 74 3b 3c
       0.0020884338 0.011154118 0.009072788 0.011441332
0000a0 52 35 1d 3d 1b b7 42 3a 13 6f 9a 3c 22 36 7f 3b
       0.03838093 0.00074277975 0.018851792 0.0038942178
0000b0 37 9f 12 3c 83 d2 58 b9 95 e6 16 3c 47 bc 7f 3c
       0.008949093 -0.00020677787 0.0092102485 0.015608854
0000c0 d0 87 4b 3c 55 ce d5 bb 2e 46 b9 bb 26 32 8b bb
       0.012422517 -0.006524841 -0.005654118 -0.0042479215
0000d0 42 24 21 3c bb c9 36 3a 1e 89 da 3a 67 1f 08 3d
       0.009835305 0.0006972809 0.0016672944 0.033233073
0000e0 e3 f3 f0 3c 43 5d db 3b a8 b0 b5 ba 81 37 66 3b
       0.02941317 0.0066944673 -0.0013861852 0.0035128298
0000f0 e0 ab 53 3c 5b d0 55 3d 33 8d 8f bb f5 4a a3 bb
       0.012919396 0.052200656 -0.004380846 -0.004983301
000100 c0 49 8b 3b f4 ff 35 ba b1 b1 cb 3a 1d a3 2b 3b
       0.004250735 -0.0006942742 0.0015540627 0.0026189752
000110 1a 07 4f bb b8 45 e2 b8 e5 98 84 ba 1f 2b 35 3b
       -0.0031589926 -0.00010789506 -0.0010116367 0.002764411
000120 22 18 d8 39 cd c9 4c bb 28 13 ff b8 f6 3f 11 39
       0.0004121671 -0.0031248212 -0.00012162916 0.00013852105
000130 3c 9f 9d bb 8a 4a 24 3b ca 7c 13 3a 74 f5 08 bb
       -0.004810242 0.0025068843 0.00056262 -0.0020898255
000140 d3 42 28 3a 4c 56 17 3a 5d 96 21 3a 84 cd c6 ba
       0.0006418649 0.0005773052 0.00061640685 -0.001516745
000150 e0 77 24 ba 5d c2 0f bc aa 3b 45 39 47 31 c7 ba
       -0.0006273966 -0.008774367 0.0001880961 -0.0015197181
000160 31 ad 07 3b 6f 0e 83 39 05 10 ca 3b 15 bf 7c bb
       0.0020702595 0.0002499702 0.0061664605 -0.0038566042
000170 8a 76 4d b9 88 05 c5 39 2f 89 c6 bb c1 29 e1 3a
       -0.00019594483 0.0003757889 -0.006058834 0.0017178581
000180 32 43 2c 3a eb fc 6d 3b 3d 07 89 bb 97 80 01 3c
       0.0006571292 0.003631408 -0.004181771 0.007904193
000190 53 98 14 3c a2 61 9c 3b 6e 1f 93 3a f5 ae c3 ba
       0.00906952 0.004772381 0.0011224577 -0.0014929461
0001a0 cd 74 04 3c b4 7c c8 3b 1f 27 4b bb 6c 23 27 ba
       0.008084488 0.0061183814 -0.003099866 -0.00063758227
0001b0 24 45 a2 ba 86 e6 60 ba 33 a2 3b 3b c5 48 aa bb
       -0.0012380225 -0.00085792725 0.0028630614 -0.005196663
0001c0 70 3c c0 39 be dd ad 39 8d 09 85 39 73 ef 0f ba
       0.00036666123 0.00033162342 0.00025374853 -0.0005490698
0001d0 dd f6 f0 3a 8f 7b b3 ba 05 ac 10 bb de c9 55 bb
       0.0018384118 -0.001369344 -0.0022075188 -0.0032621543
0001e0 d5 5e 13 bb 7b 97 df ba 1a a8 1b ba aa e9 44 3b
       -0.0022486944 -0.0017058695 -0.000593783 0.0030046501
0001f0 f6 8a cd ba 84 86 f0 ba 2a 3d de b9 11 93 4b bb
       -0.0015681672 -0.0018350636 -0.0004238871 -0.0031063
000200 81 51 4f bc f3 94 87 3b 4e 86 b0 3b 8c cd c0 bc
       -0.012653709 0.004137629 0.005387104 -0.023535512
000210 b8 05 c0 bc ed 2b b4 3b ad d9 0c ba 47 cc 04 3b
       -0.023440227 0.0054984004 -0.00053730124 0.002026336
000220 26 a2 bf bb 77 4c 2b 3b 94 ac 0c bb e1 ae ab 3b
       -0.005848187 0.0026138106 -0.002146517 0.005239353
000230 60 03 82 bc 9b d0 69 bc 9b f7 92 3b c4 e4 fd 3a
       -0.01587075 -0.014270927 0.0044850833 0.0019370546
000240 00 69 2a 39 63 c5 af 3b a5 37 b2 3b 27 e9 0a 3b
       0.00016251579 0.0053641065 0.0054387623 0.0021196099
000250 e8 53 b1 3b 11 74 a7 bc fe 3d 52 3b 77 ab e1 ba
       0.0054116137 -0.020441087 0.0032080407 -0.0017217238
000260 b4 26 a9 3b 27 40 bf bb c1 4d cf 39 27 f4 d5 3a
       0.0051620845 -0.005836505 0.00039540048 0.0016323373
000270 de ef 8c 3b 13 38 a0 3b d9 e4 8c bb 08 38 fc 38
       0.0043010553 0.004889497 -0.0042997417 0.00012026733
000280 12 c6 d6 3a 5d 97 09 bd 1f a3 9b bb fa dd 9e bc
       0.0016385934 -0.033591617 -0.00474967 -0.019392956
000290 5f c6 18 bc db c0 92 bb c5 b0 b1 ba bd e6 6c bb
       -0.009324639 -0.0044785566 -0.001355671 -0.0036148273
0002a0 67 3c 1a bd a9 b2 b7 bb f8 1b 92 bc 4d 95 8f bc
       -0.03765526 -0.0056060147 -0.017835602 -0.017527247
0002b0 47 d5 8d bc 5c 6a 73 3b e3 17 a3 bb da 40 97 bc
       -0.017313613 0.0037142253 -0.0049772128 -0.01846354
0002c0 a9 63 5d 3b 17 8b b2 3b 7e ec bb 3b 5f 32 8c 3b
       0.0033781326 0.0054487097 0.005734979 0.0042784656
0002d0 1d 29 cc bb 71 c7 37 ba 8a f2 96 bb 88 07 10 bd
       -0.006230487 -0.0007010615 -0.0046065496 -0.035163432
0002e0 ef e5 c6 bc 3d fc 08 bc fc 0d 25 3b ca df 9b ba
       -0.024279563 -0.00836092 0.0025185337 -0.0011892256
0002f0 eb 60 8f 3b 65 7d c0 bc 8d 40 89 3b 54 d8 f9 3a
       0.004375567 -0.023497293 0.0041886033 0.0019061663
000300 b9 d8 04 3c a9 05 6c 39 d9 85 0e bb 23 b3 12 3c
       0.008108311 0.00022508822 -0.002174726 0.008953842
000310 f1 9e 2e 3c 0e a0 19 bb 28 34 8a bb d1 0a 02 bb
       0.010658012 -0.0023441347 -0.0042176433 -0.0019842873
000320 c8 00 20 bb 0b a9 0f bb 8f 55 a6 3b 6c d5 9b ba
       -0.0024414528 -0.0021920826 0.0050761173 -0.0011889166
000330 27 bb 5d 3c 74 be 5e ba 4b d1 4a bb d3 70 e2 b9
       0.01353339 -0.00084970077 -0.0030947502 -0.0004319014
000340 e0 db 86 ba 6a d7 a0 ba df 4e 0a bb 9d 6c 3f 3b
       -0.0010288917 -0.001227123 -0.002110414 0.0029209026
000350 9a 77 67 ba e1 a8 c3 3c 49 35 80 ba 73 83 8a 3b
       -0.00088297727 0.023884239 -0.0009781505 0.0042270957
000360 82 47 11 bb 95 b9 d3 3b 93 54 09 bc f9 d2 4e bc
       -0.0022167866 0.006461332 -0.0083819805 -0.012623542
000370 58 3c 97 ba 3a 5b de ba d4 57 88 3b 41 7e 8c 3a
       -0.001153837 -0.0016964443 0.0041608606 0.0010718779
000380 30 ab 0b ba 8c a5 de 3b 1b 03 71 3b 95 b7 26 3c
       -0.0005327938 0.006794637 0.0036775533 0.010175605
000390 ee 2f e6 3a 4f 19 16 bb 9c 49 98 bb 8b 17 2b ba
       0.0017561892 -0.0022903269 -0.004647447 -0.00065266405
0003a0 37 78 0c 3c 2d 9d fa 3a cd 07 b0 3b 9f 25 5e 3c
       0.008573583 0.0019120328 0.0053720237 0.013558774
0003b0 d6 40 8c 3c 38 1f 82 bb 20 b7 80 3b 50 ec 80 3c
       0.01712076 -0.0039710067 0.00392808 0.015737683
0003c0 bc cf 5b bc 6b 57 12 bb 7c 8d 2a bb 94 17 d9 ba
       -0.013416227 -0.0022329937 -0.0026024273 -0.0016562813
0003d0 95 b3 5c ba a1 19 26 bb d5 db f5 3b 91 ba 98 3c
       -0.0008419094 -0.0025344866 0.0075030127 0.01864365
0003e0 72 b4 39 3c af be c5 3b 31 39 12 bb 45 bb 6e bb
       0.011334525 0.006034694 -0.002231192 -0.003642754
0003f0 d5 5f 0f bc 5d 8c d2 bb 6e 1d 84 ba 07 75 35 3b
       -0.0087508755 -0.006425424 -0.0010079572 0.0027688162

exp_avg_sq f4 [5, 64]
000000 09 4c 8f 39 46 1b b1 38 4f ae b1 39 bd 50 b8 3b
       0.00027331736 8.445098e-05 0.0003388994 0.005624859
000010 e2 d4 c9 3b 50 d7 ae 39 81 2d 82 3a ba 5d a1 39
       0.006159411 0.00033348287 0.0009931774 0.00030778145
000020 a5 e3 7a 3a dd 00 d1 38 53 f9 13 39 39 50 c6 39
       0.0009570665 9.9660574e-05 0.00014111893 0.00037825273
000030 c4 a2 df 3a f3 ed d3 3b 69 6f 1d 39 cc f9 29 39
       0.0017062058 0.0064675747 0.0001501419 0.00016210153
000040 8b 5a 39 39 4c e3 95 39 ee 6f ce 39 ea 9c 18 39
       0.00017676705 0.00028588844 0.00039374776 0.00014554305
000050 36 12 ab 39 51 f0 4d 3b ec 17 99 39 fb 05 0a 39
       0.0003262923 0.0031423757 0.00029200257 0.00013162933
000060 84 57 99 39 c3 94 a5 39 be c8 16 3a ad 58 f0 3a
       0.00029247638 0.0003158209 0.0005751959 0.0018336974
000070 09 48 97 39 8d cd d4 39 0f c5 50 3a cf 2f cc 38
       0.00028854635 0.00040588938 0.00079639343 9.736383e-05
000080 bc d2 83 39 35 ea 2c 3c 63 d3 e8 39 d3 1b b1 3a
       0.00025143276 0.010553886 0.00044407984 0.0013512321
000090 bb 23 a8 3a 94 71 9e 3a 47 d6 72 3a 41 5b 83 3a
       0.0012828031 0.0012088292 0.0009263497 0.0010021703
0000a0 86 07 4d 3c 47 cf 24 3a 0f 8b 00 3b fc 2a ff 3a
       0.012514001 0.000628699 0.0019614135 0.0019467766
0000b0 39 db 62 3b 36 5f a6 38 4e 8a d9 3a ab 9b 61 3b
       0.003461553 7.933231e-05 0.0016597004 0.003442506
0000c0 47 5a 92 3a 6b 8f d1 39 a1 49 b3 39 ba e5 6b 39
       0.0011165821 0.0003997044 0.00034196398 0.00022496926
0000d0 b4 a3 0f 3b 13 e4 15 39 4d 9c aa 39 cd cd 1d 3c
       0.0021917643 0.00014294712 0.0003254138 0.009631586
0000e0 91 f5 eb 3b 22 1e 17 3a c8 55 19 39 4b e2 c8 39
       0.0072009047 0.0005764683 0.00014623173 0.00038315574
0000f0 7c 8b d3 3a 9e f4 38 3c 86 61 70 39 bb be dd 38
       0.0016139592 0.01128879 0.00022924514 0.000105736275
000100 7b 96 71 39 ca 4e 9b 38 4c 16 99 39 26 4d 99 3b
       0.0002303961 7.4056516e-05 0.00029199047 0.0046783863
000110 84 80 a2 3b 9a 85 8e 39 97 02 71 3a c3 5f 8c 39
       0.004959168 0.00027183892 0.00091938063 0.0002677423
000120 78 82 61 3a da 3f cf 38 cb 02 00 39 1f 63 a7 39
       0.000860251 9.8824225e-05 0.00012208072 0.00031926573
000130 10 df bd 3a 98 91 af 3b 9c 0a 0e 39 8a cc 0a 39
       0.0014486033 0.0053579323 0.00013546128 0.00013236902
000140 c1 ed 3c 39 69 7e 76 39 fd 97 ac 39 5b 39 08 39
       0.00018017647 0.0002350748 0.00032919637 0.00012991337
000150 49 6a 8d 39 32 ef 2e 3b 88 2f 87 39 fb b7 05 39
       0.00026972804 0.0026692864 0.0002578462 0.00012752406
000160 92 e3 88 39 d8 33 7e 39 76 6d f9 39 40 34 e6 3a
       0.00026109495 0.00024242641 0.00047574536 0.0017563179
000170 78 26 83 39 87 f9 b5 39 df 64 4c 3a 9b 66 b5 38
       0.00025014929 0.00034708923 0.00077970134 8.649864e-05
000180 bf 36 69 39 f5 7e 0e 3c e5 65 cd 39 29 dc 97 3a
       0.00022241006 0.008697261 0.00039176564 0.0011585999
000190 85 3b 91 3a 0d e7 86 3a 43 78 57 3a 4f f0 6e 3a
       0.001108036 0.0010292247 0.00082195195 0.0009114788
0001a0 42 08 2a 3c bf d9 0d 3a b2 a0 d8 3a c7 0c e4 3a
       0.010377945 0.000541117 0.0016527383 0.0017398827
0001b0 58 ae 3b 3b 01 dd 9a 38 44 7c b0 3a 5a c5 39 3b
       0.0028637853 7.3844574e-05 0.0013464768 0.002834639
0001c0 a1 ba 8a 3a 30 5b b1 39 77 98 98 39 8f 3a 46 39
       0.0010584184 0.0003382801 0.00029105294 0.00018904566
0001d0 41 c5 e2 3a 97 66 04 39 8f d5 92 39 e0 6a 08 3c
       0.0017301218 0.00012626719 0.00028006404 0.008326262
0001e0 f6 5c c3 3b f4 b4 f1 39 e8 bd 0a 39 28 8c b7 39
       0.0059620095 0.00046101923 0.00013231451 0.00035008905
0001f0 1c 88 c4 3a c4 c5 19 3c 7f 63 4e 39 1b 08 ba 38
       0.0014994177 0.00938553 0.00019682756 8.870681e-05
000200 27 1d 87 39 6b 8b a7 38 83 fe 9e 39 6f cc a3 3b
       0.00025770927 7.989149e-05 0.00030325734 0.0049987356
000210 6e 92 ae 3b 64 73 95 39 f6 be 84 3a b1 38 93 39
       0.0053275144 0.00028505467 0.0010127712 0.00028080263
000220 dc 45 74 3a 25 ca d6 38 82 00 09 39 14 73 ae 39
       0.0009318271 0.000102419675 0.00013065527 0.00033273606
000230 b2 58 b5 3a 03 38 bb 3b 36 bc 13 39 61 0b 11 39
       0.0013835637 0.005713464 0.00014089126 0.00013832517
000240 a6 75 3f 39 0e 4c 85 39 37 16 b7 39 04 20 1a 39
       0.00018259007 0.00025424402 0.0003492103 0.00014698511
000250 98 1e 98 39 14 5c 2b 3b ad 5a 84 39 70 57 1c 39
       0.00029014493 0.0026147412 0.0002524456 0.00014909892
000260 3f 17 8a 39 76 5d 9a 39 db 49 16 3a 10 5f f0 3a
       0.0002633873 0.00029442803 0.0005733051 0.0018338878
000270 e1 05 86 39 d9 b4 bc 39 81 53 57 3a 6d 5e b5 38
       0.00025562852 0.00035992896 0.0008214042 8.648341e-05
000280 a3 a1 77 39 e9 9f 1a 3c 87 c6 c7 39 97 2c 96 3a
       0.0002361597 0.00943754 0.00038104152 0.0011457381
000290 db 51 98 3a 66 3c 8e 3a ab 51 76 3a 2a bb 7f 3a
       0.0011621075 0.001085174 0.0009396325 0.00097553676
0002a0 20 ba 31 3c 42 c6 19 3a 93 91 e1 3a 42 95 e7 3a
       0.010847598 0.00058660295 0.0017209522 0.0017668384
0002b0 76 41 52 3b 76 41 ad 38 90 f0 cc 3a bc 1c 46 3b
       0.0032082475 8.261476e-05 0.0015635658 0.003022953
0002c0 9a 6a 99 3a 91 89 b6 39 6c da a0 39 af 07 49 39
       0.0011704743 0.0003481624 0.00030680315 0.00019171716
0002d0 79 aa e2 3a 50 50 0b 39 b8 5a a3 39 36 32 08 3c
       0.0017293236 0.00013285992 0.00031157373 0.0083127525
0002e0 a1 cf cc 3b b0 ce ff 39 7b 38 15 39 7e 0e c2 39
       0.006250337 0.00048791384 0.00014230788 0.0003701336
0002f0 9d e4 d7 3a e1 b8 22 3c fd 41 5a 39 67 db ca 38
       0.001647133 0.009931774 0.00020814683 9.6729775e-05
000300 59 5e 8a 39 0e a3 a7 38 35 a4 ae 39 c4 62 a9 3b
       0.00026391706 7.993552e-05 0.0003331021 0.0051692445
000310 02 6d b8 3b 72 ec a1 39 a2 5e 9b 3a c9 ca a6 39
       0.005628229 0.00030884478 0.0011853764 0.00031813074
000320 53 90 75 3a f3 48 d5 38 9b 64 1e 39 25 12 c3 39
       0.0009367514 0.00010170219 0.00015105533 0.00037206817
000330 b7 d4 cb 3a 6a b8 c4 3b 51 a8 1c 39 85 b5 2d 39
       0.0015551065 0.006003429 0.00014940022 0.00016566187
000340 5c ae 66 39 55 55 93 39 da 75 cb 39 90 f7 2c 39
       0.00021999463 0.00028101602 0.00038806984 0.00016495422
000350 19 fb a8 39 5e ba 27 3b 1a e7 9c 39 67 ae 10 39
       0.0003223054 0.0025593261 0.00029926823 0.0001379788
000360 27 d5 96 39 83 2f 9f 39 5f 97 2a 3a 7a 7c 19 3b
       0.0002876904 0.00030362242 0.00065075414 0.002342014
000370 42 9c 93 39 5c 43 d1 39 4f 1d 72 3a 77 cd d5 38
       0.00028154446 0.00039913773 0.00092359347 0.00010194902
000380 df 51 91 39 7a 93 2b 3c d6 34 d3 39 50 5f 9e 3a
       0.00027717554 0.010472173 0.00040284422 0.0012082849
000390 e2 fc 95 3a a5 0b ab 3a b3 e4 99 3a 43 c0 95 3a
       0.0011443163 0.0013049735 0.0011741131 0.0011425096
0003a0 72 2c 3d 3c 0a ce 2e 3a b6 86 f9 3a 54 d7 e8 3a
       0.011546241 0.00066682755 0.0019037339 0.0017764368
0003b0 59 02 5b 3b d5 df a6 38 0a 90 f0 3a 92 dd 4b 3b
       0.0033418147 7.957189e-05 0.0018353474 0.0031107408
0003c0 d6 93 bc 3a af 34 cb 39 7b 04 ae 39 ba c3 61 39
       0.001438732 0.0003875843 0.00033191204 0.00021530586
0003d0 6e 92 ef 3a 75 70 13 39 c2 b7 a7 39 49 1f 12 3c
       0.0018277892 0.00014060906 0.00031989632 0.008918592
0003e0 d6 a9 df 3b f1 8d f4 39 3f 18 1f 39 1d e1 be 39
       0.006825666 0.0004664506 0.00015172454 0.00036407346
0003f0 03 c2 04 3b 10 6b 3e 3c cd 60 6f 39 cf a0 e8 38
       0.0020257242 0.011622205 0.00022828877 0.00011092575

exp_avg f4 [5]
000000 ec 78 cc 3c 7f 52 f8 ba 12 18 a1 bc 78 bc fc 3b
       0.024960004 -0.0018945484 -0.019664798 0.007712897
000010 99 15 36 bc
       -0.011113548

exp_avg_sq f4 [5]
000000 2d 1b ba 3b 9c bd 9e 3b 07 c1 a5 3b 00 bf b5 3b
       0.005679509 0.0048443805 0.005058411 0.0055464506
000010 92 53 57 3b
       0.0032856208
