Assets/results/Maze07/Mouse/Mouse-14711.pt (torch, 721369 bytes, 33 tensors)

network_body._body_endoder.seq_layers.0.weight f4 [64, 45]
000000 ee 4d f7 3d 81 e2 16 be 48 90 1c be d2 ec 1a 3e
       0.12075411 -0.14734842 -0.15289414 0.15129402
000010 35 1c 96 bd 97 25 ab 3d 16 ba 30 3d 82 62 ef 3d
       -0.07329599 0.08356779 0.043146215 0.11688711
000020 65 bc 49 3e e8 96 8e be ab 44 e6 3d d9 73 c5 be
       0.19700773 -0.27849507 0.11243566 -0.38564947
000030 1b 7a 88 bd d6 b0 37 bc 05 e0 b4 3d b5 9b da bd
       -0.06663915 -0.011211595 0.08831791 -0.1067423
000040 73 19 ae be c0 cb 90 3d 32 02 0c bd 19 63 94 bd
       -0.3400379 0.07070112 -0.03418178 -0.07245464
000050 1f a8 cb 3d 69 0e 9b bd fb 00 c9 be dd aa 2a be
       0.09944176 -0.07571108 -0.3925856 -0.16666742
000060 12 d6 1b 3d b1 c8 cc bd ff 88 5d bc b6 73 b5 bd
       0.03804595 -0.09999216 -0.013521432 -0.08859961
000070 f0 2e 99 3e c5 d6 6c 3c 19 5c 85 be 9d cb 1b 3e
       0.29918623 0.014455502 -0.26046827 0.15214391
000080 80 34 34 3e f3 cd 2b 3e 8c dc 88 3e b2 b7 72 3d
       0.17598152 0.16777782 0.26730764 0.059257217
000090 3b 05 b8 3e db ba 92 bd aa 18 d7 bd e9 9f 54 be
       0.3594149 -0.07164546 -0.10502751 -0.20764126
0000a0 d6 a1 0e 3e 2e 9a a4 bb e4 bd a2 bd 1e 87 2a be
       0.13928923 -0.0050232625 -0.07946375 -0.16653106
0000b0 b9 f2 55 bd 20 18 7a be 9b 76 4f be b4 4e d5 bd
       -0.05223343 -0.24423265 -0.20260088 -0.10415402
0000c0 5d 46 62 3d 1c 40 53 be 38 15 5c 3e ad f4 32 3d
       0.055242885 -0.20629925 0.2149247 0.043690372
0000d0 3a ee c1 3d fa 34 4c 3e e1 4c ea 3d 80 70 59 3d
       0.09469266 0.19942084 0.11440445 0.053085804
0000e0 d5 24 3a be 28 e3 31 be fc e2 8b bd af b2 03 bd
       -0.18178113 -0.1737181 -0.06830403 -0.032152828
0000f0 e3 f5 85 3e de 08 20 3d 51 d3 89 3e dc b2 a6 3c
       0.2616416 0.039070956 0.26919034 0.020348959
000100 76 62 bc bc 3a 5b 2c be 52 6e 56 3d 16 46 eb bd
       -0.022996169 -0.16831675 0.052351303 -0.11487977
000110 3b 8e 16 3e b3 07 17 bd d1 2b e4 bd 3f cd 9d bd
       0.14702694 -0.036872577 -0.1114117 -0.07705163
000120 4b 6b 4d be e8 a0 3b be 9a 54 da bd ff 13 40 be
       -0.2006046 -0.183231 -0.10660668 -0.18757628
000130 1a e0 c6 3d ad 63 6a bd f9 7b 4f 3e 91 f8 49 3e
       0.09710713 -0.057223964 0.20262136 0.19723727
000140 0d 74 9a 3c eb 6b 1f 3e 49 6c e8 3d 16 ae a9 bd
       0.018854165 0.15568511 0.11348779 -0.082851574
000150 31 31 10 be a8 e6 93 3e 20 48 42 3d a8 ab 71 bc
       -0.14081265 0.28886914 0.047432065 -0.014750399
000160 35 e8 fd bc c9 cd a9 bd ae 3f 25 3e 21 7d fd 3c
       -0.030994514 -0.082912035 0.16137573 0.030943455
000170 ea ae 8f 3d 62 8f 58 3e 6c 21 21 3c 3e 79 35 3e
       0.07015784 0.21148446 0.009834629 0.17722031
000180 99 be a0 3d 03 1e 8a bd 3a 25 00 3e 5d e9 73 be
       0.078488536 -0.067440055 0.12514201 -0.2381949
000190 11 8e b6 bd be c0 24 3e 2b 40 81 3e 46 36 7d be
       -0.08913816 0.1608915 0.2524427 -0.24727735
0001a0 9c 50 40 3e 3f 3a c3 bc 35 fa 6b bd e6 42 8b be
       0.1878075 -0.023831485 -0.057611663 -0.27199477
0001b0 c1 e0 21 bd 3a b8 14 3d 38 1e cb bd 4f bb 05 3e
       -0.039520983 0.036308505 -0.09917873 0.13059734
0001c0 cd 1e 29 3d 6d 17 44 be 0b b1 bc bd ae 10 25 bd
       0.04128914 -0.19149561 -0.09213456 -0.04029911
0001d0 4b 1e b1 3e 01 b2 31 3e 59 07 9a 3e cd 99 ac bd
       0.34593424 0.1735306 0.3008373 -0.08427773
0001e0 1d d7 22 3c e4 aa 86 3e 14 cf 29 3e 5b f4 44 bd
       0.009938982 0.26302254 0.165829 -0.048084598
0001f0 a2 a5 bf bd 41 60 bb b9 32 b4 a0 bc aa d9 03 3e
       -0.09357764 -0.00035739134 -0.019617174 0.12876001
000200 15 62 91 3e aa b3 36 3d 64 f8 db bd 82 06 5b 3e
       0.28395143 0.044604935 -0.10740736 0.21389201
000210 b0 d5 5d 3d cf a2 76 bd 04 14 11 3e 72 f7 5a be
       0.054158866 -0.06021386 0.14167792 -0.21383455
000220 5f f5 cb 3e 41 84 5a be eb ee 27 bd e2 17 31 3e
       0.3983564 -0.21339513 -0.040999334 0.17294267
000230 8a 43 ad bd 57 ed 46 3d d3 7e ef bd 3a b0 45 3e
       -0.08460148 0.04856619 -0.11694112 0.19305506
000240 d8 4a fb bd ce 93 03 3e 06 de e0 bc 61 19 1d 3d
       -0.12270135 0.12849352 -0.027449619 0.03835428
000250 52 92 73 be 74 98 e8 b9 cd e6 dc bc a9 14 6e be
       -0.23786286 -0.00044364075 -0.026965523 -0.23250069
000260 c1 97 57 be af a5 d5 3d 33 c8 24 bd c9 f0 a2 bd
       -0.21053983 0.10431992 -0.040229987 -0.079560824
000270 fd 4d 1e 3e 40 34 37 3e 28 f4 0b 3d 29 2b d9 bb
       0.15459438 0.17891026 0.034168392 -0.0066274595
000280 47 de 2f be 3f 55 10 be 9f 12 15 be ba 37 e7 3d
       -0.17174636 -0.14095019 -0.14557885 0.11289926
000290 fd 3c d3 3d 04 28 09 be 6b c0 86 3e 12 66 87 bd
       0.10314367 -0.13394171 0.26318678 -0.06611265
0002a0 a4 b3 67 3c c5 9a 80 bd 23 71 9a 3e 1f aa 08 3e
       0.014141951 -0.0627952 0.3016444 0.13346146
0002b0 1b 4f e3 3c c0 c0 43 3d 61 69 8e 3e 1e 47 1d 3d
       0.027747681 0.047791243 0.27814773 0.0383979
0002c0 eb 66 9b bc 33 72 04 be b2 de 4f 3e ac 7a 28 3e
       -0.018969974 -0.12934189 0.20299795 0.16453046
0002d0 af bd 3e be 52 35 3c 3d 6b 6e be be 03 e6 8a bc
       -0.18627046 0.045949288 -0.37193617 -0.016955381
0002e0 88 a7 6f be 27 ba d0 bd cd 86 ed 3e bc 12 5f 3e
       -0.23403752 -0.10191756 0.46391907 0.2178449
0002f0 99 da 6b be b6 41 85 bd 80 2a 80 be 2c ab 76 be
       -0.23032607 -0.06506674 -0.25032425 -0.24088734
000300 a2 f5 4b be 80 cc 32 be 6a 78 50 3e 4c 7a e1 bd
       -0.1991792 -0.17460823 0.20358434 -0.110096544
000310 45 d3 16 be 28 5c 15 bd 7b eb 0d 3d 12 e2 7b 3e
       -0.1472903 -0.03646484 0.0346484 0.24597958
000320 58 5c 76 3e 98 88 d5 3e ad 9a 64 3e c0 5a 4f be
       0.24058664 0.41705775 0.22324629 -0.20249462
000330 cd 5a 0c 3e b4 4a b4 bc d9 82 17 3e 8f 70 4a bd
       0.13706513 -0.022008277 0.14796008 -0.04942375
000340 99 95 21 3e f9 71 24 bd 96 d4 5b bd 07 8d 59 3c
       0.15779723 -0.040147755 -0.053669535 0.013278252
000350 3a d3 e6 bd 84 f6 76 be c4 14 d4 3e 6c 8c 0a 3e
       -0.11270757 -0.24117476 0.41422093 0.13530129
000360 1b aa fe bd 65 3d 40 be 10 56 e8 3d 3e 99 70 bd
       -0.12434789 -0.1877342 0.1134454 -0.058739893
000370 31 a0 d9 3d d8 58 b3 be 1c a3 f9 bd 78 b1 1a 3c
       0.10626257 -0.3502872 -0.12189314 0.009441726
000380 1a 14 75 3c ae ce 26 be f4 d9 ba 3c 9e 4c 83 3c
       0.014958406 -0.1628978 0.022809006 0.016027745
000390 39 f3 32 be 58 a9 f7 3d 54 94 da 3c ae 8e 63 3c
       -0.17475595 0.12092847 0.026682056 0.013888998
0003a0 2f 52 d3 bd 18 30 2e be f4 46 77 3c 4f 73 67 be
       -0.1031841 -0.17010534 0.0150926 -0.2260258
0003b0 f8 e1 61 bd c0 32 8a bd 9c 22 44 bd 6d f8 c3 3d
       -0.05514714 -0.06747961 -0.04788457 0.09568868
0003c0 73 20 36 bb 9e 9e 6d 3e 3d 40 6b 3c ef 33 c8 3d
       -0.0027790337 0.23205039 0.014358577 0.097755305
0003d0 14 46 47 3d 93 e7 e7 bd f2 b1 0f 3e 0f 83 de 3d
       0.048650816 -0.11323466 0.14032724 0.10864841
0003e0 32 27 f0 bd 6b 0b 43 3e 6f a9 74 3e 78 7d 16 3e
       -0.11726226 0.19047324 0.23892759 0.146963
0003f0 46 33 08 be 4e d6 06 bd e8 9f 08 3e f8 f8 07 be
       -0.1330081 -0.03291922 0.1334225 -0.13278568

network_body._body_endoder.seq_layers.0.bias f4 [64]
000000 7d 3c bf 39 51 8d e9 ba 68 c1 d9 3a 08 ca 74 b8
       0.00036475426 -0.0017818605 0.0016613426 -5.836229e-05
000010 9b e0 7e 3b ef 98 28 3b 8b a9 df ba 4f 5f c8 3a
       0.00388912 0.002572592 -0.0017064078 0.0015287193
000020 59 37 85 ba 64 dd 32 3b 0b 72 1e 3b f3 50 b0 b9
       -0.001016359 0.0027292604 0.0024176862 -0.00033629648
000030 77 9f 83 38 25 7c 94 3a 59 c0 bf 3a 79 62 43 ba
       6.2762694e-05 0.0011328502 0.0014629468 -0.0007453333
000040 45 85 9d ba 16 5d 9f ba 0b 32 5d ba d0 75 85 ba
       -0.0012017867 -0.0012158479 -0.0008437938 -0.0010182206
000050 b6 ae b9 3a b2 00 36 3b 32 8a e4 3a a3 20 d2 3a
       0.0014166448 0.002777141 0.0017436205 0.0016031455
000060 f8 4a 33 3b ed 0b ce ba c5 68 ba b9 6e 79 2c 3b
       0.0027357917 -0.0015720107 -0.00035554744 0.0026317495
000070 cd 6c be ba d3 08 b5 3a 2a 72 b9 ba e3 32 87 ba
       -0.0014528275 0.0013811834 -0.0014148403 -0.0010314848
000080 b8 35 04 bb 79 c2 28 3b 9d 90 37 3a ce b2 22 bb
       -0.002017362 0.002575068 0.0007002445 -0.0024825814
000090 41 8b 12 3b d7 e8 ce 39 c5 0a f9 3a 6b 00 25 3b
       0.0022360834 0.0003946486 0.0019000402 0.002517725
0000a0 eb 34 e0 ba 77 a8 fd 3a 1d 49 db 3a 7e a0 1e ba
       -0.0017105615 0.0019352575 0.0016730163 -0.0006051137
0000b0 f7 23 8b 3a a3 db 8d b9 b7 f8 dc ba 6f d7 b1 ba
       0.0010615577 -0.00027057258 -0.0016858791 -0.0013568233
0000c0 50 75 4a 3a a1 1e 41 b9 08 a4 76 b9 0d 7d 9d 3a
       0.00077231694 -0.00018417324 -0.00023521495 0.0012015417
0000d0 81 ae f2 ba 86 1e 56 bb cc 4f b3 ba ac 4d 08 3a
       -0.0018515141 -0.0032672002 -0.0013680398 0.00051995623
0000e0 a3 65 37 3b ec 1a 3c 3b 5c 15 1d 3b 82 61 94 3a
       0.0027984164 0.002870257 0.002396903 0.0011320563
0000f0 89 36 d4 3a 22 d0 c2 3a 0b 35 c2 ba 22 4f 04 b9
       0.0016190569 0.0014863054 -0.0014816833 -0.0001261798

action_model._discrete_distribution.branches.0.weight f4 [5, 64]
000000 1d ab 18 3c 65 54 04 bb 6c 0d ae bc 08 7b 60 bc
       0.00931814 -0.0020191905 -0.021246634 -0.013701208
000010 bf e7 8c 3b f2 c5 7b ba b5 64 5d 3c 7b 0c a8 bc
       0.004300087 -0.0009604386 0.01351278 -0.020513764
000020 14 60 27 3a ee 03 55 3c aa 3e 23 bc ea f3 3a 3c
       0.0006384861 0.013001425 -0.009963671 0.011410693
000030 cb 79 14 3c c5 50 68 bc 86 e2 81 bb f5 dc b9 3c
       0.009062241 -0.014179413 -0.0039637713 0.022688368
000040 5e bb 0d 3b f9 8f 34 bc 05 f4 d0 3b d1 7a 0a bc
       0.0021626572 -0.011020654 0.0063767456 -0.008452133
000050 62 5f 12 bc eb e9 45 bb c9 b5 64 bc a9 32 a4 3c
       -0.008933874 -0.003019924 -0.013959357 0.020043688
000060 2e bc 88 bc 46 99 a4 bb 5c e3 70 3b f7 e2 e5 3b
       -0.016691294 -0.0050231544 0.003675661 0.0070155817
000070 c7 37 82 bc 00 2b 94 bc 46 ae 77 bb 8c e7 e6 3a
       -0.015895737 -0.01808691 -0.0037793084 0.0017616614
000080 15 8a e8 bb d9 8f 6a 3c 28 6c 62 bc 9a 6d d4 bb
       -0.007096539 0.0143165225 -0.013819732 -0.006482792
000090 3a 63 39 bb 55 40 a9 3c de 50 ff 3b a2 e3 ca 3b
       -0.0028287903 0.020660559 0.0077916225 0.0061916867
0000a0 c7 ae a3 3b 33 b3 bb bc 91 b8 98 bc ff 9a 09 bb
       0.0049952003 -0.022912597 -0.018642696 -0.0020996926
0000b0 c9 2d e0 3b 5d 3b c2 3c 86 e2 bf bb 56 96 60 bc
       0.0068413955 0.023709947 -0.005855861 -0.013707718
0000c0 97 7f 15 bc 30 63 6a bc e9 24 ca bb fa 41 c2 3c
       -0.009124658 -0.014305875 -0.006168951 0.0237131
0000d0 49 45 11 3c 77 22 09 3c 9d 28 55 bc ba 0c ac 3c
       0.0088666165 0.008370033 -0.013010171 0.021002162
0000e0 86 5e 72 3c 1a 03 c2 ba 34 82 d0 bc 49 e5 dc bb
       0.014793044 -0.001480195 -0.02545271 -0.0067412
0000f0 30 17 fd 3b 59 5d 51 3c 39 01 2c 3d 87 eb 20 bc
       0.0077237114 0.0127786035 0.041993354 -0.009821779
000100 ce 4a 26 bc bf 86 86 bc 56 d4 36 3c 92 15 01 3c
       -0.010149671 -0.016421674 0.011159023 0.007878678
000110 e6 56 b1 3c 0a 95 d1 bb 0d f6 a1 3b da 4e d7 3b
       0.021647882 -0.0063959407 0.0049426616 0.006570679
000120 71 f8 ce bc 24 65 90 3c 8d 3b 03 3c 4a 72 b8 3c
       -0.02526495 0.017626353 0.0080098035 0.022515435
000130 19 78 df ba 0c ef 1f 3c b0 95 50 3c e5 ce 19 3c
       -0.0017049342 0.009761583 0.012731001 0.009387706
000140 46 be b0 3b 1c 89 91 3b 39 f0 0c 3c 9d 8c f1 ba
       0.005393776 0.0044413935 0.008602195 -0.0018428747
000150 66 8b 2c 3c a6 35 80 bb c6 88 88 3b 4c 30 03 39
       0.010531282 -0.0039126454 0.0041666953 0.00012511126
000160 b2 df 1f ba 12 a9 f1 3b fa 55 96 3a b8 a4 84 3c
       -0.0006098702 0.007374891 0.0011469715 0.016191825
000170 ca d8 02 3a 63 20 07 bc 9b 3b 6a 3b bd 23 63 3b
       0.00049914105 -0.008247468 0.0035741094 0.0034658753
000180 8f d3 49 bc 5f 22 12 3c 8f e0 c7 3a e2 3c 25 3b
       -0.012318506 0.0089193275 0.0015249419 0.002521329
000190 50 1a f7 3c a7 dd de 3a bc 12 5d 3c 50 8d ba 3c
       0.030163914 0.0017003313 0.013493236 0.022772461
0001a0 25 8b fe bb ce da 8b 3c 13 b5 73 bb ce ae de 3b
       -0.007768052 0.017072108 -0.0037186786 0.0067957407
0001b0 50 9f 8f 3c a9 78 7b 3b 95 61 47 3c 62 02 b5 bc
       0.01753202 0.003837148 0.012169261 -0.022095863
0001c0 74 1b d4 3b 23 e3 a5 bb 3e 41 68 bc f3 f8 83 3c
       0.006472999 -0.005062477 -0.014175711 0.01610992
0001d0 fc 32 44 bb 95 5e fd bb 4a 41 97 bc 95 51 0e bb
       -0.0029937616 -0.0077322223 -0.01846375 -0.0021716107
0001e0 24 9e e2 3c 47 99 91 3c e2 8e e7 3b 18 48 4a bb
       0.027663298 0.017773284 0.0070665935 -0.0030865725
0001f0 f4 69 69 3a d5 04 a1 3c ca 4d 03 bc 39 4a c0 bb
       0.0008904033 0.019655624 -0.008014152 -0.005868223
000200 4e 69 3e bc ea 8f 40 3c e7 f5 22 bc d9 67 5e bc
       -0.011621786 0.011753062 -0.009946323 -0.013574564
000210 c7 ba 10 3c 37 a7 95 ba df d9 5a bb bb ac fd 3b
       0.008833594 -0.0011417632 -0.0033394021 0.0077415383
000220 ed 0d 84 3c 36 7a 90 3c e7 da 1d bc 1f 98 a9 3b
       0.016119922 0.0176364 -0.00963471 0.005175605
000230 6b 69 87 bb b2 9c d8 bb 72 dd c2 bb 6c 5e 50 3c
       -0.00413244 -0.0066104764 -0.0059468085 0.012717824
000240 23 60 88 bc c8 cb 43 bb b5 9e 8e bb 72 b4 0e bc
       -0.016647404 -0.0029876102 -0.0043524154 -0.008710014
000250 59 7f a4 bc fb 6f cf 3c a9 07 43 bc d9 ef bc 3c
       -0.020080255 0.025321951 -0.011903682 0.023063587
000260 b7 67 c5 3c cc a3 a1 bb 71 cd 86 3b 69 98 05 39
       0.024097307 -0.004932856 0.004113846 0.00012740646
000270 89 7a bf 3a 80 ab 28 3b 26 3b 40 3c 1b a5 57 bb
       0.0014608662 0.0025736988 0.011732852 -0.0032904807
000280 3a 30 44 bb af c4 17 bb 76 29 10 3c 54 70 df bb
       -0.0029935972 -0.0023158004 0.008798948 -0.0068188105
000290 90 44 61 3b c9 c4 12 ba 8d 23 49 bc 78 31 ce 3b
       0.0034373142 -0.0005598781 -0.012276542 0.006292518
0002a0 2c 3b 25 bc 7c d7 b5 bc 51 1d ea 3b 20 b4 98 3b
       -0.010084908 -0.022197478 0.007144608 0.0046601444
0002b0 da 5c 69 3b cd 7f c2 bb df b8 87 bb a5 f8 16 bc
       0.0035608322 -0.005935645 -0.0041419114 -0.009214555
0002c0 ae 28 af bc a6 9b dd 3c 00 da a2 3c e9 ea be bc
       -0.021381702 0.027051758 0.019879341 -0.023305373
0002d0 29 a0 70 bb 4e 43 4f b9 84 22 8b 3a a5 27 8c 3b
       -0.0036716557 -0.00019766131 0.0010615145 0.004277187
0002e0 1c 5f e1 3b a2 a1 63 3b c3 ce 36 3c de 89 1b 3c
       0.006877793 0.0034733792 0.011157694 0.009493319
0002f0 2a 35 0f 3c c4 6f 36 3c f7 03 8e 3c 53 26 0e bd
       0.008740703 0.011135045 0.017335875 -0.034704518
000300 73 83 ca 3b 67 b9 a2 bb 5b e3 a5 bc ee 15 1a bc
       0.0061802207 -0.0049659493 -0.020250013 -0.0094046425
000310 81 e6 5a bb 1e 88 7d ba a1 4b cc bb 5f 9f 75 bb
       -0.0033401551 -0.0009671467 -0.0062346016 -0.0037479026
000320 2c f6 af bb d8 7e c6 3b 1e 97 d6 bc 40 85 11 bb
       -0.005369922 0.0060576014 -0.026195105 -0.0022204667
000330 2b 5a 90 3c bb 60 d2 3c 23 18 95 3a 41 0d 85 bc
       0.01762112 0.02568089 0.0011374991 -0.016241672
000340 cb d2 8c 3b f4 80 44 3b 25 72 a0 bc f1 58 93 3c
       0.0042975894 0.0029984089 -0.019585678 0.017986747
000350 29 e6 aa 3c b4 4a 7b 3c 72 5f 42 ba 7d dc f9 bb
       0.020861702 0.015337635 -0.0007414735 -0.007625161
000360 83 c8 6a 3b de de 24 bb 67 89 24 bb c8 55 a5 3c
       0.003582508 -0.0025157253 -0.0025106312 0.020182505
000370 db 91 e3 bb 19 a8 62 3a 69 06 59 3b 68 7b cf bb
       -0.0069448776 0.00086462643 0.0033115393 -0.00633185
000380 ee e0 f1 3a 62 f1 b0 3b f6 80 96 bc da 93 a7 bb
       0.0018453875 0.005399869 -0.01837204 -0.005114061
000390 e6 d7 5e bb 3f d1 2f 3c 71 a9 a2 bc 72 52 8e 3b
       -0.0034003197 0.0107310405 -0.019856187 0.0043433243
0003a0 dc 70 f8 3b a7 44 63 bc cc 09 80 3c f6 f6 ac bb
       0.0075818133 -0.013871348 0.015629672 -0.0052784635
0003b0 20 5c 40 3b f8 9f 19 bd 11 d0 9e bb 6b f0 72 3c
       0.0029351786 -0.037506074 -0.004846581 0.014827828
0003c0 2e 0e 3b bc c6 f0 1c 3b c3 cc 97 bc 04 7f d2 3a
       -0.011416955 0.0023947223 -0.018530255 0.0016059582
0003d0 ab 2c 08 3b 5f 6b 84 3a f1 0c 08 bc a3 b0 90 3c
       0.0020778577 0.00101028 -0.008303867 0.017662352
0003e0 44 9f ae bc e5 aa c5 3c 26 b9 8d bb ed 48 b0 bc
       -0.021316178 0.02412934 -0.00432505 -0.021519149
0003f0 71 52 8a 3c 7f 55 ae bc 55 b3 d9 3c f7 f9 86 bc
       0.016885014 -0.021281002 0.02657477 -0.016476614

action_model._discrete_distribution.branches.0.bias f4 [5]
000000 6d 82 2c ba ca b1 0e 3b 45 ac a5 3a 0a bd 92 39
       -0.0006580714 0.002177345 0.0012639841 0.00027988135
000010 77 bc 51 bb
       -0.0032003203

exp_avg f4 [64, 45]
000000 04 00 00 80 a2 43 c7 b7 0e c5 09 b8 18 c7 f2 b7
       -6e-45 -2.3754143e-05 -3.2846867e-05 -2.8941358e-05
000010 a5 f4 d0 b8 d8 1b 07 b9 f9 49 b2 38 0e a2 a5 b8
       -9.9637815e-05 -0.00012884976 8.50148e-05 -7.897998e-05
000020 d6 0d 2c b8 04 00 00 80 a2 43 c7 b7 ba ea f8 b7
       -4.102088e-05 -6e-45 -2.3754143e-05 -2.9673207e-05
000030 8b 9b f0 b7 ca 40 6c b8 2e 70 26 b9 51 ed c8 38
       -2.868266e-05 -5.6327124e-05 -0.00015872784 9.580947e-05
000040 3a 77 f0 b8 13 96 16 b8 04 00 00 80 a2 43 c7 b7
       -0.000114662995 -3.5902554e-05 -6e-45 -2.3754143e-05
000050 e3 60 05 b8 a3 36 04 b8 05 2f 92 b8 32 b9 ef b8
       -3.1799904e-05 -3.1522137e-05 -6.9705806e-05 -0.000114309034
000060 d5 68 b4 38 e4 8b e6 b8 c8 52 2a b8 04 00 00 80
       8.602595e-05 -0.00010993311 -4.0608254e-05 -6e-45
000070 a2 43 c7 b7 28 f1 f4 b7 bd 49 05 b8 ac 83 a1 b7
       -2.3754143e-05 -2.9199364e-05 -3.1778345e-05 -1.925401e-05
000080 d6 c0 08 b9 40 c5 ac 38 b3 4a 1a b9 df 95 2c b8
       -0.00013041808 8.23834e-05 -0.00014714412 -4.1147574e-05
000090 04 00 00 80 a2 43 c7 b7 06 cb 09 b8 68 ba 11 b8
       -6e-45 -2.3754143e-05 -3.2852426e-05 -3.47443e-05
0000a0 92 89 7c b8 1b 4a 00 b9 f2 5c 87 38 29 ae 97 b8
       -6.0209604e-05 -0.00012234638 6.454614e-05 -7.232681e-05
0000b0 d7 14 45 b8 04 00 00 00 06 4a 25 39 15 c4 bf 38
       -4.698787e-05 6e-45 0.00015763202 9.144113e-05
0000c0 a1 63 9b 39 17 f7 d2 b6 0f b8 41 39 7c 8e d4 39
       0.00029638133 -6.2872527e-06 0.00018474481 0.0004054195
0000d0 03 f6 8b 39 d8 fb 90 39 04 00 00 00 06 4a 25 39
       0.0002669544 0.00027653459 6e-45 0.00015763202
0000e0 fb d5 bb 38 53 c3 9a 39 1e 01 d9 38 50 91 1d 39
       8.956712e-05 0.00029518697 0.000103475744 0.0001502682
0000f0 f0 98 a5 39 74 8d a9 39 fb 3c 8c 39 04 00 00 00
       0.000315852 0.00032339583 0.00026748315 6e-45
000100 06 4a 25 39 f1 46 af 38 e4 08 9e 39 8e 1d eb 38
       0.00015763202 8.357864e-05 0.00030142732 0.00011211178
000110 06 b4 e6 38 bd 1d c1 39 99 b7 5a 39 9a 06 90 39
       0.000110007866 0.00036833985 0.00020858496 0.0002747074
000120 04 00 00 00 06 4a 25 39 ea c9 b7 38 3b b9 9a 39
       6e-45 0.00015763202 8.7637294e-05 0.00029511176
000130 45 63 e8 38 f6 20 27 39 2b 2e 98 39 1c ab 83 39
       0.000110811125 0.0001593864 0.00029026097 0.00025113754
000140 6b f6 8e 39 04 00 00 00 06 4a 25 39 51 97 be 38
       0.00027267946 6e-45 0.00015763202 9.088091e-05
000150 e7 22 9e 39 cc b3 20 38 2e ae c9 38 08 14 d0 39
       0.00030162113 3.831442e-05 9.6168704e-05 0.00039687776
000160 c2 9f 80 39 dd 72 93 39 04 00 00 80 8d 55 15 b9
       0.0002453309 0.00028123605 -6e-45 -0.00014241617
000170 29 c5 ef b8 e2 b1 75 b9 f2 4a 52 39 f7 fa 0b 39
       -0.00011433132 -0.00023431287 0.0002005508 0.00013349565
000180 fb 38 2f ba 0b 37 58 b9 ba d5 90 b9 04 00 00 80
       -0.0006684211 -0.0002061987 -0.0002762506 -6e-45
000190 8d 55 15 b9 56 8e ff b8 21 96 6c b9 c8 80 aa b8
       -0.00014241617 -0.0001218586 -0.00022562641 -8.130219e-05
0001a0 40 2b 29 39 73 96 f6 b9 44 a2 42 b9 5d 88 91 b9
       0.00016133208 -0.0004703287 -0.0001856173 -0.00027758154
0001b0 04 00 00 80 8d 55 15 b9 51 a9 d5 b8 47 63 72 b9
       -6e-45 -0.00014241617 -0.00010188169 -0.00023115902
0001c0 13 01 cc b5 46 bb 91 38 88 6a 17 ba ed 67 15 b7
       -1.5199497e-06 6.949021e-05 -0.0005776067 -8.905289e-06
0001d0 30 df 92 b9 04 00 00 80 8d 55 15 b9 20 25 f4 b8
       -0.00028013578 -6e-45 -0.00014241617 -0.00011641742
0001e0 0c 3b 6d b9 b9 d9 32 b9 d2 51 dd 37 d1 37 f8 b9
       -0.00022624078 -0.00017056511 2.6383354e-05 -0.00047343833
0001f0 35 e5 d9 38 9b 69 91 b9 04 00 00 80 8d 55 15 b9
       0.000103900595 -0.00027735237 -6e-45 -0.00014241617
000200 81 1f ec b8 af 0f 6f b9 31 1c 8d 38 24 6c 52 39
       -0.00011259225 -0.00022798659 6.728655e-05 0.00020067446
000210 8f bb 33 ba a3 1d 07 b9 0d 47 8e b9 04 00 00 80
       -0.00068562565 -0.00012885644 -0.00027137288 -6e-45
000220 aa 40 6c b8 9d df 8d 36 2a 93 df b8 90 69 49 39
       -5.6327008e-05 4.2281595e-06 -0.0001066088 0.00019208179
000230 61 26 3e b8 d6 f2 b3 b9 82 04 e9 37 43 9c b5 b8
       -4.5335273e-05 -0.00034322467 2.7777864e-05 -8.6598586e-05
000240 04 00 00 80 aa 40 6c b8 7d 37 82 36 a2 e9 ce b8
       -6e-45 -5.6327008e-05 3.8807616e-06 -9.866363e-05
000250 17 ff eb 37 f0 8d 1d 36 da 7a 67 b9 59 81 47 b6
       2.8132969e-05 2.3477442e-06 -0.00022075642 -2.97286e-06
000260 a8 34 ae b8 04 00 00 80 aa 40 6c b8 66 7a 81 37
       -8.3067745e-05 -6e-45 -5.6327008e-05 1.5434995e-05
000270 c6 18 d9 b8 ae 94 dc 38 a8 45 bd 37 be 5f aa b9
       -0.00010351981 0.00010518111 2.2562992e-05 -0.0003249626
000280 fd 94 1c 38 02 7c b0 b8 04 00 00 80 aa 40 6c b8
       3.7332054e-05 -8.415432e-05 -6e-45 -5.6327008e-05
000290 93 e9 9e 36 0b 99 d0 b8 dc f3 51 38 69 e2 89 38
       4.7359586e-06 -9.9467194e-05 5.0056595e-05 6.574841e-05
0002a0 74 da 96 b9 89 4b f1 37 9b 66 b2 b8 04 00 00 80
       -0.0002877299 2.8764613e-05 -8.506813e-05 -6e-45
0002b0 aa 40 6c b8 a7 7d 7b 36 89 38 d6 b8 03 60 0e 39
       -5.6327008e-05 3.7475054e-06 -0.00010214846 0.00013577942
0002c0 57 d1 74 38 2f d2 b4 b9 09 64 f2 36 45 b1 b1 b8
       5.8369096e-05 -0.00034488874 7.2238076e-06 -8.473037e-05
0002d0 04 00 00 80 fb af 8b b9 a2 e1 85 b9 e6 fd 06 ba
       -6e-45 -0.00026643262 -0.00025535846 -0.0005149528
0002e0 85 8b cc b5 ab 3a 58 38 dc 5f 3b ba 7a 30 52 ba
       -1.523979e-06 5.1553052e-05 -0.0007147768 -0.0008018088
0002f0 63 4a 08 ba 04 00 00 80 fb af 8b b9 74 89 88 b9
       -0.0005199073 -6e-45 -0.00026643262 -0.00026042352
000300 6b 03 09 ba 41 df 1a b9 ef c0 51 b8 3b 26 23 ba
       -0.00052266446 -0.00014769753 -5.0009166e-05 -0.00062236533
000310 4f c8 2e ba b3 ab 07 ba 04 00 00 80 fb af 8b b9
       -0.00066674215 -0.00051754265 -6e-45 -0.00026643262
000320 46 75 88 b9 7a ba 09 ba 8b a2 8a b9 ad 32 ad b8
       -0.00026027317 -0.00052539224 -0.00026442515 -8.258722e-05
000330 1e dc 0e ba e4 b1 fb b9 f8 b0 0a ba 04 00 00 80
       -0.000544967 -0.0004800699 -0.00052906526 -6e-45
000340 fb af 8b b9 93 95 89 b9 94 ed 07 ba 28 98 d0 b9
       -0.00026643262 -0.00026242118 -0.0005185243 -0.00039786217
000350 c9 66 51 b9 29 f9 d5 b9 02 77 f4 b9 6f 48 08 ba
       -0.00019970084 -0.00040812165 -0.00046627974 -0.0005198782
000360 04 00 00 80 fb af 8b b9 54 a3 8b b9 b6 75 08 ba
       -6e-45 -0.00026643262 -0.00026633835 -0.00052055286
000370 e4 3a a1 b9 35 fb ce 38 e5 19 36 ba 6d c1 1a ba
       -0.0003075219 9.8696364e-05 -0.00069466076 -0.00059034565
000380 71 c1 09 ba 04 00 00 00 26 71 13 b9 57 02 67 b9
       -0.000525496 6e-45 -0.00014061164 -0.00022030748
000390 55 4d 53 b9 b1 4f 47 b9 f0 ed 4c 37 f9 78 20 b9
       -0.00020151337 -0.00019007806 1.2214747e-05 -0.00015303855
0003a0 cb 26 10 ba 09 2a 9e b9 04 00 00 00 26 71 13 b9
       -0.00054989447 -0.00030167427 6e-45 -0.00014061164
0003b0 53 d9 68 b9 3d 6d 61 b9 8b 9b 2a b9 8c b9 ba b8
       -0.00022206204 -0.00021498367 -0.00016270408 -8.903732e-05
0003c0 97 57 28 b9 e6 f7 f7 b9 ac 0b 9d b9 04 00 00 00
       -0.00016054358 -0.0004729621 -0.0002995407 6e-45
0003d0 26 71 13 b9 0d bd 6c b9 34 08 5b b9 2d 9e a2 b9
       -0.00014061164 -0.00022577141 -0.00020888523 -0.00031016898
0003e0 ea 49 1b b9 53 b3 e7 b7 d9 c9 bc b9 84 ab 9e b9
       -0.00014809487 -2.762085e-05 -0.00036008543 -0.00030263897
0003f0 04 00 00 00 26 71 13 b9 dc 6d 63 b9 60 ae 58 b9
       6e-45 -0.00014061164 -0.00021689333 -0.00020664325

exp_avg_sq f4 [64, 45]
000000 2e 44 94 32 7e a8 c0 32 2b 0c 44 33 7a 75 0c 34
       1.7260472e-08 2.2428363e-08 4.5645873e-08 1.3081254e-07
000010 8e 40 d5 33 a6 7b 0e 34 f1 8c e6 33 63 91 b6 33
       9.930328e-08 1.3269764e-07 1.0735847e-07 8.501481e-08
000020 80 3e dc 33 5f 4a 94 32 98 76 c0 32 91 92 42 33
       1.0255917e-07 1.7263288e-08 2.2405672e-08 4.5302446e-08
000030 61 bc 0c 34 e9 ac d5 33 41 59 18 34 5c f1 e9 33
       1.3107048e-07 9.9500376e-08 1.4188574e-07 1.0893811e-07
000040 17 fe 9a 33 88 95 db 33 30 93 95 32 a1 56 c0 32
       7.2174025e-08 1.0225182e-07 1.7412816e-08 2.2391136e-08
000050 dc 42 43 33 49 c2 0b 34 d6 d0 b8 33 d4 88 07 34
       4.5462784e-08 1.3016064e-07 8.606155e-08 1.2622633e-07
000060 21 a8 02 34 f2 8f cc 33 e1 c2 da 33 82 ef 95 32
       1.2168358e-07 9.525674e-08 1.0186864e-07 1.7454798e-08
000070 a2 74 c0 32 f9 16 45 33 2b 24 0b 34 63 f4 ce 33
       2.240478e-08 4.588853e-08 1.2958542e-07 9.637076e-08
000080 4c c2 0b 34 46 ac f8 33 e6 d6 d5 33 ce 3a da 33
       1.3016069e-07 1.1579736e-07 9.957675e-08 1.01621126e-07
000090 51 9a 95 32 4e 71 c0 32 3a 0e 46 33 12 b9 0a 34
       1.7416058e-08 2.2403267e-08 4.6113406e-08 1.291958e-07
0000a0 bf e7 f2 33 95 90 0e 34 b6 2c d8 33 53 2e c6 33
       1.13111575e-07 1.3277379e-07 1.0066417e-07 9.22852e-08
0000b0 db fb d9 33 c1 22 41 33 ee a4 b9 33 d9 40 4e 34
       1.0150662e-07 4.4967923e-08 8.644734e-08 1.9208836e-07
0000c0 6f 14 01 35 cd 82 8d 34 3b 2d c0 34 55 73 08 35
       4.808598e-07 2.6358467e-07 3.5795696e-07 5.083178e-07
0000d0 4a 13 d5 34 42 b9 d7 34 e6 0f 41 33 63 a4 b9 33
       3.9688376e-07 4.0181664e-07 4.4950774e-08 8.6446356e-08
0000e0 45 b6 4f 34 08 44 00 35 99 8b 8b 34 14 d1 b1 34
       1.9344687e-07 4.7782714e-07 2.5992338e-07 3.3120943e-07
0000f0 8e 21 0b 35 61 f6 df 34 2d 5d d7 34 a7 14 41 33
       5.1830364e-07 4.171625e-07 4.0114665e-07 4.4955097e-08
000100 b7 cd b9 33 79 5d 50 34 0c 76 00 35 e7 c1 92 34
       8.652153e-08 1.9405515e-07 4.7855497e-07 2.7335702e-07
000110 76 37 b4 34 f8 1a 06 35 a0 35 e2 34 b5 1e d8 34
       3.3567966e-07 4.9958135e-07 4.2134798e-07 4.0255478e-07
000120 8b 2e 41 33 fc da b9 33 88 51 51 34 7c e1 ff 34
       4.4978645e-08 8.654567e-08 1.9494303e-07 4.7661513e-07
000130 c8 ba 9b 34 c2 ac ae 34 8b 3d 00 35 2c c8 ea 34
       2.90069e-07 3.2535723e-07 4.777327e-07 4.373154e-07
000140 72 b1 d7 34 90 a8 41 33 b7 e5 b9 33 f1 07 52 34
       4.017598e-07 4.508962e-08 8.656519e-08 1.9560663e-07
000150 04 4a 00 35 ba e4 b2 34 a3 74 b0 34 62 c4 fc 34
       4.779142e-07 3.3321504e-07 3.286742e-07 4.7081545e-07
000160 7c 60 e4 34 09 e5 d8 34 6a f3 07 34 de 01 9a 34
       4.253851e-07 4.039978e-07 1.2661408e-07 2.8686094e-07
000170 09 f7 39 35 06 27 f3 35 53 ce c8 35 23 63 d0 35
       6.9277354e-07 1.8116268e-06 1.496121e-06 1.552606e-06
000180 c9 f1 af 35 d2 48 83 35 be 81 bf 35 9c ef 07 34
       1.3108885e-06 9.781454e-07 1.4268369e-06 1.2660024e-07
000190 79 ff 99 34 95 74 39 35 72 cd f1 35 53 ae c2 35
       2.8684352e-07 6.908752e-07 1.8015692e-06 1.4504861e-06
0001a0 b0 0f cd 35 1b 0c a7 35 dc da 92 35 4b 7e be 35
       1.5278256e-06 1.2445993e-06 1.0941544e-06 1.4192859e-06
0001b0 a6 1a 08 34 6d ea 99 34 dd e0 39 35 a4 2e f3 35
       1.2675682e-07 2.8669038e-07 6.924509e-07 1.8118485e-06
0001c0 75 62 c6 35 9f 6f ce 35 0e a0 ae 35 6e bf 93 35
       1.4780804e-06 1.5380682e-06 1.3010592e-06 1.1008067e-06
0001d0 a4 f6 bf 35 8a 1d 08 34 77 ea 99 34 5f 1f 3a 35
       1.4302391e-06 1.2676733e-07 2.8669066e-07 6.933605e-07
0001e0 9c bb f3 35 bd 93 c1 35 70 f3 cc 35 44 9a af 35
       1.8159512e-06 1.4422618e-06 1.5270034e-06 1.3083413e-06
0001f0 e9 19 91 35 62 3a c0 35 5f 9b 08 34 ef ea 99 34
       1.0810883e-06 1.4322106e-06 1.272251e-07 2.8669407e-07
000200 eb 5f 3a 35 44 3a f4 35 63 a9 c8 35 bb 67 c4 35
       6.942998e-07 1.8196374e-06 1.4950459e-06 1.4633328e-06
000210 e9 63 c1 35 9f 59 8f 35 97 13 c1 35 91 6d e5 32
       1.4408698e-06 1.0680413e-06 1.4385322e-06 2.6708934e-08
000220 f4 41 c8 33 9b ad 60 34 0f e2 20 35 22 63 15 35
       9.3252225e-08 2.0924783e-07 5.9933603e-07 5.565108e-07
000230 54 79 05 35 19 41 cc 34 bc 2a 8f 34 36 ce f1 34
       4.9722917e-07 3.8045326e-07 2.666692e-07 4.5039786e-07
000240 6a 5d e5 32 e2 4e c8 33 ba 4d 60 34 42 b2 20 35
       2.6701588e-08 9.3275744e-08 2.0889902e-07 5.9864044e-07
000250 25 1b 0d 35 1f 4f 05 35 f6 b6 c0 34 05 7d 96 34
       5.2566094e-07 4.96615e-07 3.5895908e-07 2.803064e-07
000260 f7 c9 f1 34 b9 2d e7 32 64 5b c8 33 fb 41 60 34
       4.5036697e-07 2.6912732e-08 9.3298496e-08 2.0885629e-07
000270 38 15 21 35 f6 8f 10 35 7e b3 07 35 cd 46 c9 34
       6.000805e-07 5.385367e-07 5.0552615e-07 3.7490682e-07
000280 2a 5a 94 34 6f 66 f2 34 7f 5a e7 32 98 7a c8 33
       2.763275e-07 4.5150543e-07 2.6933092e-08 9.3355254e-08
000290 c8 f0 60 34 3a bf 20 35 ea 92 13 35 02 dc 06 35
       2.0949221e-07 5.9882916e-07 5.4975555e-07 5.0239044e-07
0002a0 08 e7 cc 34 c3 70 9f 34 30 50 f2 34 bc d5 e7 32
       3.8166058e-07 2.9698103e-07 4.5134357e-07 2.6989134e-08
0002b0 dc 7a c8 33 37 14 62 34 7f 42 20 35 e4 33 12 35
       9.335574e-08 2.1055244e-07 5.970141e-07 5.446475e-07
0002c0 be 38 05 35 72 db d4 34 f6 cd ae 34 35 66 f2 34
       4.962893e-07 3.9647745e-07 3.2559882e-07 4.5150378e-07
0002d0 33 6b e8 32 66 24 3a 34 54 a1 e5 34 ef e4 7a 35
       2.7057103e-08 1.7335842e-07 4.2771956e-07 9.34654e-07
0002e0 78 4e 9b 34 35 18 c0 34 db 75 9c 35 6c db 8d 35
       2.8928093e-07 3.57804e-07 1.1657206e-06 1.0569179e-06
0002f0 8b f7 59 35 46 4f e8 32 7a 25 3a 34 ff 5a e6 34
       8.119902e-07 2.7044404e-08 1.7336234e-07 4.2907047e-07
000300 bb bb 7a 35 62 03 c4 34 23 f8 e8 34 c5 d6 91 35
       9.340544e-07 3.6510306e-07 4.339391e-07 1.0865848e-06
000310 40 a6 86 35 8e 36 5a 35 78 cd e8 32 50 22 3a 34
       1.0032163e-06 8.1290716e-07 2.7101791e-08 1.7335083e-07
000320 ad 83 e9 34 f2 46 7a 35 cc e4 02 35 11 b1 b5 34
       4.349544e-07 9.3235496e-07 4.8761717e-07 3.384271e-07
000330 db 59 8e 35 e5 a4 87 35 4a bc 5b 35 13 e4 e8 32
       1.0605976e-06 1.0106274e-06 8.1857854e-07 2.711207e-08
000340 62 64 3a 34 b8 3d ea 34 2f c8 77 35 cf 93 ec 34
       1.7359119e-07 4.3630803e-07 9.2305976e-07 4.406597e-07
000350 63 fc aa 34 5f b5 81 35 da 72 97 35 2a 6e 5a 35
       3.1848603e-07 9.664035e-07 1.1283803e-06 8.137164e-07
000360 fb b6 e9 32 35 5c 3a 34 9b e7 ea 34 e5 7d 7a 35
       2.720798e-08 1.7356145e-07 4.3754412e-07 9.331546e-07
000370 b4 a1 f6 34 22 d1 a0 34 2a 13 8c 35 89 14 8c 35
       4.5938725e-07 2.9954487e-07 1.043639e-06 1.0436789e-06
000380 2b 06 5d 35 ee 85 ef 32 b9 fd bc 33 6e b7 87 34
       8.233789e-07 2.7884166e-08 8.800584e-08 2.5279172e-07
000390 30 6f 02 35 19 c3 e7 34 06 f9 d6 34 d0 5a d2 34
       4.8590573e-07 4.3169055e-07 4.0041795e-07 3.9181623e-07
0003a0 56 1a ea 34 71 83 ef 34 da 8d ef 32 23 fe bc 33
       4.3605058e-07 4.4612855e-07 2.7887769e-08 8.8006594e-08
0003b0 11 3c 88 34 b6 e0 02 35 65 90 d5 34 5b f5 ca 34
       2.5375678e-07 4.875577e-07 3.9779403e-07 3.7803952e-07
0003c0 c3 07 dc 34 0d 1e ee 34 e4 c1 f0 34 9c ac f1 32
       4.098384e-07 4.435282e-07 4.4844558e-07 2.8134586e-08
0003d0 53 fc bc 33 69 cb 88 34 2a 57 02 35 00 7b d7 34
       8.80033e-08 2.5479974e-07 4.8555614e-07 4.0136365e-07
0003e0 21 1f bf 34 db 12 e4 34 6b d3 f6 34 57 b8 f0 34
       3.5599172e-07 4.2482029e-07 4.5974897e-07 4.4837608e-07
0003f0 82 02 f2 32 56 89 bd 33 92 3a 88 34 fa ab 02 35
       2.8173648e-08 8.8259796e-08 2.537459e-07 4.867903e-07

exp_avg f4 [64]
000000 b9 72 95 b8 09 ef f7 39 51 00 e0 b9 80 30 31 b9
       -7.1262424e-05 0.00047289606 -0.00042724845 -0.00016898103
000010 f6 87 51 ba b6 29 dd b9 69 a4 17 39 9d 17 44 b8
       -0.0007992977 -0.00042183482 0.0001446173 -4.6752033e-05
000020 e6 42 ae 39 36 c9 10 b8 15 46 54 b9 9d 73 e8 37
       0.0003323771 -3.4519668e-05 -0.00020244003 2.7710392e-05
000030 89 3a 25 b9 1c 4d 14 ba 3a b9 85 b9 22 8b 8b 39
       -0.00015757432 -0.0005657242 -0.0002550574 0.00026615808
000040 d3 1a 58 b7 e6 78 e7 38 a5 d9 11 39 23 cd 26 b9
       -1.2880849e-05 0.000110374574 0.00013909356 -0.00015907413
000050 58 81 50 ba f3 34 ca b9 2d 1e 4d b9 a7 ea ad b6
       -0.0007953844 -0.00038567893 -0.00019561565 -5.183119e-06
000060 d0 bf b1 b9 ca 4d 09 39 ec 15 68 38 96 9d ca b9
       -0.00033902982 0.00013094317 5.5333527e-05 -0.00038645853
000070 ba ea 92 39 22 63 a5 b7 59 0d 6f 39 0a 0f ed 36
       0.00028022175 -1.9715695e-05 0.00022797789 7.064901e-06
000080 ed 73 04 39 7e e6 51 ba f8 2b ae 38 a0 7c 91 39
       0.00012631687 -0.00080070633 8.3051564e-05 0.00027749408
000090 47 24 e8 b9 8e ac 94 b8 01 5f 89 b9 72 87 8d b9
       -0.00044277517 -7.089331e-05 -0.0002620146 -0.0002699453
0000a0 95 cb 6b b8 c5 2d a0 b9 be a4 7b b9 7e 88 da 38
       -5.6217967e-05 -0.0003055168 -0.00023998597 0.00010420474
0000b0 1d b7 74 b9 19 0f 95 38 7c ce 1f 39 26 99 31 39
       -0.00023337868 7.107686e-05 0.00015240343 0.00016937088
0000c0 8d 20 71 b9 fd 5c 90 38 9c 3b f7 39 06 5c 2e ba
       -0.00022995677 6.8837755e-05 0.00047155924 -0.0006651286
0000d0 58 85 59 b6 ab 61 67 39 5c 7d 69 39 2a c9 88 b9
       -3.2413136e-06 0.00022066261 0.00022267312 -0.0002608982
0000e0 7c 2a 81 ba 24 90 4b ba 21 3e 3a b8 64 f4 c7 37
       -0.000985458 -0.0007765314 -4.4403718e-05 2.3836452e-05
0000f0 82 f6 52 b9 f5 80 d1 b8 a1 a1 b9 39 4c 2a 1a b9
       -0.00020118992 -9.989917e-05 0.00035406373 -0.00014702341

exp_avg_sq f4 [64]
000000 20 ab 76 34 18 6a 64 35 37 da 3b 36 9d aa 6e 35
       2.297279e-07 8.5091006e-07 2.799219e-06 8.8910184e-07
000010 4f 57 d7 35 2e fe 62 35 2c d6 e4 34 0b 6c 5f 35
       1.6044158e-06 8.456144e-07 4.262414e-07 8.3231197e-07
000020 5e 2e 58 35 89 b8 8a 33 a7 25 09 35 bc 64 ee 34
       8.0533744e-07 6.4596925e-08 5.109127e-07 4.4404248e-07
000030 3d a3 c2 34 15 2d 60 36 c6 f4 e7 34 ac 0e 24 36
       3.6254087e-07 3.3404842e-06 4.32052e-07 2.4446445e-06
000040 71 0e 56 34 fe 67 c4 34 45 9d 37 36 72 86 46 35
       1.9935557e-07 3.658351e-07 2.7360668e-06 7.395639e-07
000050 b8 97 59 36 14 5d 1e 36 41 05 46 34 4e 9f 71 33
       3.2423832e-06 2.3598013e-06 1.8442098e-07 5.6257072e-08
000060 88 bb 50 36 05 c6 77 34 ff b3 2d 32 6d ef 01 35
       3.1103573e-06 2.3075707e-07 1.0110852e-08 4.8404655e-07
000070 54 80 77 35 fe 25 be 34 2a 66 68 34 fe 4f ab 33
       9.220141e-07 3.54179e-07 2.1643851e-07 7.9773585e-08
000080 8b dd 62 33 61 4e 11 36 4a a7 f2 34 ac 0f 24 35
       5.2821218e-08 2.1652306e-06 4.5197731e-07 6.1117566e-07
000090 9a c1 9a 35 d0 4f 35 32 21 bb cc 34 b4 95 df 34
       1.153024e-06 1.0553734e-08 3.8134115e-07 4.164591e-07
0000a0 c2 c3 57 35 f8 08 05 35 1f 50 4f 35 24 7b 1d 34
       8.0378607e-07 4.955941e-07 7.72301e-07 1.4666563e-07
0000b0 e9 4a 0a 35 03 34 4b 36 be b8 48 35 35 7b bf 35
       5.1518015e-07 3.0279632e-06 7.477464e-07 1.4266467e-06
0000c0 6d b1 fe 34 a1 03 20 33 00 83 2a 36 54 15 41 36
       4.744028e-07 3.7256203e-08 2.5408226e-06 2.8771656e-06
0000d0 9a 98 b2 31 ce 31 90 34 6d a1 3d 34 45 b4 b6 35
       5.1978306e-09 2.6858328e-07 1.7660723e-07 1.3612522e-06
0000e0 da 6c da 36 b5 3e 0b 36 40 56 01 35 ad 92 84 34
       6.5095783e-06 2.0749114e-06 4.8181755e-07 2.4693637e-07
0000f0 7a 5e a8 34 f2 44 c8 35 ea 49 1b 36 5a 4d ff 34
       3.136118e-07 1.4921227e-06 2.3139823e-06 4.7553732e-07

exp_avg f4 [5, 64]
000000 5b 15 98 3a 4a 56 78 3b f9 04 88 ba 75 04 51 bb
       0.0011603044 0.003789323 -0.0010377459 -0.0031893526
000010 96 54 58 3b 30 a9 d8 bb f2 ad 2e 3b 3f 75 22 bb
       0.0033009402 -0.0066119656 0.0026653972 -0.0024789122
000020 25 9c 88 bb 21 a2 d5 3a 8f 63 b2 3a 78 6a da bb
       -0.0041690045 0.0016298929 0.0013609993 -0.006665524
000030 19 43 19 3b 63 96 aa ba 49 a5 86 bb f8 fc a8 bb
       0.002338594 -0.001301479 -0.004109059 -0.0051571093
000040 6f 85 d1 3a 95 67 2c ba 9f 53 39 3c f8 c9 4d ba
       0.0015985201 -0.0006576714 0.011311441 -0.0007850225
000050 77 9a 08 3b a0 e5 ef 38 50 1f 00 3b 17 4f 4d ba
       0.0020844021 0.00011439179 0.0019549914 -0.00078319147
000060 1d 80 71 bb 9d e8 a2 3a c0 ef d0 3a 01 e4 05 3a
       -0.0036850043 0.0012428943 0.0015940592 0.00051075226
000070 45 49 18 3b a1 82 a4 bb 28 9c 90 ba 2d 58 3f bb
       0.0023237031 -0.005020455 -0.0011032866 -0.0029196844
000080 60 53 94 3a 83 3a a9 bb 59 f2 d1 3a 8d e7 db bb
       0.0011316352 -0.005164446 0.001601766 -0.0067109526
000090 20 8b 80 ba 57 2d d7 b9 8a ac 6c ba 26 d2 f7 ba
       -0.0009807087 -0.00041041776 -0.0009028396 -0.0018907234
0000a0 80 2a aa b8 f9 51 5b 3b 8a 40 3b 3b c5 90 4c bb
       -8.114148e-05 0.0033465608 0.0028572404 -0.003121422
0000b0 74 a5 ad 3a cd 91 01 ba 49 56 27 bb aa 75 9e ba
       0.0013248161 -0.00049426855 -0.0025533608 -0.001208951
0000c0 27 30 dc 39 af a8 f2 b9 f7 d6 ac 3b 73 b4 81 3a
       0.00041997546 -0.00046283516 0.0052746492 0.0009895697
0000d0 17 7c bb b9 5a 47 3c 3b 00 12 b1 3a c6 ff e9 ba
       -0.00035759874 0.0028729052 0.0013509393 -0.0017852716
0000e0 47 66 f8 3b dd 4d b7 3b b3 f9 07 bb b2 a2 62 ba
       0.007580552 0.005593999 -0.0020748198 -0.00086454593
0000f0 4e f7 8a 3a 2e 54 1b ba 3c 1e 66 3b aa 38 a0 ba
       0.0010602267 -0.00059253245 0.0035113236 -0.0012223918
000100 49 05 45 3b fb f5 79 bb 00 77 5d bc 32 26 8c bb
       0.0030062965 -0.0038141 -0.013517141 -0.004277014
000110 ef 99 0e bc d4 e0 59 bc 99 a2 71 bb df f7 8c 3b
       -0.008703693 -0.013298232 -0.0036870597 0.0043020095
000120 9c 7b a9 3b 29 ca 49 3b 27 0e 07 3a b5 ca 93 3b
       0.005172206 0.0030790663 0.000515195 0.0045102485
000130 99 dd c1 3a c3 64 61 bc 62 aa 07 bb 86 af 78 ba
       0.0014790773 -0.013756934 -0.0020700921 -0.0009486604
000140 bc f0 0d 3b 31 3d 03 3b a9 33 ed bc 60 23 91 3b
       0.0021658381 0.0020025487 -0.028955298 0.004429266
000150 e1 3a 2a bc 14 d3 65 ba 73 86 63 ba 22 ff ed 3b
       -0.010390014 -0.000876711 -0.0008679397 0.00726308
000160 c9 82 03 bc 73 e1 0c 3b 6b 93 17 3b 90 2b 3c bb
       -0.008026787 0.0021496683 0.002312864 -0.0028712489
000170 f5 93 e1 bb a6 bd c3 3b 40 80 c5 3b 70 d7 0c 3b
       -0.006884093 0.0059735356 0.0060272515 0.0021490715
000180 a8 93 9a 3b 65 1f 44 bc 37 73 33 ba 04 b3 74 bb
       0.004717309 -0.011970376 -0.00068454765 -0.0037338147
000190 09 ba 96 3a 3e b8 f2 3b d7 dd 7b 3b 33 2b 75 3b
       0.0011499535 0.0074072173 0.0038431787 0.0037409782
0001a0 a7 a7 4a bc 07 25 ca 3a a6 bb f0 3a d5 25 49 3b
       -0.012369073 0.0015422412 0.001836647 0.0030692716
0001b0 49 d7 3a bc 80 3b a4 b9 82 b2 bb 3a 01 b7 42 ba
       -0.011403867 -0.00031324849 0.0014320167 -0.00074277824
0001c0 35 34 24 3b dd f0 ea 3b 09 c3 02 bc 06 30 2c bb
       0.0025055532 0.0071698264 -0.00798107 -0.0026273741
0001d0 dc d7 df 3b 18 c9 80 bb 1d e8 c7 3a 9e 89 97 bb
       0.0068311524 -0.0039302222 0.001525167 -0.0046245595
0001e0 e0 17 9a bc a8 00 ae bc 21 a7 90 3b bb 8f 7f 3b
       -0.018810213 -0.021240547 0.0044144546 0.0038995582
0001f0 11 73 35 ba 58 c3 96 bb dc 70 d1 bb aa 99 d5 39
       -0.0006921748 -0.0046009235 -0.0063916277 0.00040741015
000200 2b 34 f3 39 f8 80 dd 3a 1b 61 dd 3b 86 7a 44 3a
       0.0004638744 0.0016899398 0.0067559606 0.0007495064
000210 dd 98 b4 38 b3 30 4e 3b 5d d6 25 b9 71 73 53 bb
       8.611542e-05 0.0031462132 -0.00015815483 -0.0032264853
000220 7e 99 59 ba b5 0d 21 bb a4 24 0f ba 18 1a 3a 3b
       -0.0008300765 -0.002457482 -0.0005460477 0.00283969
000230 a6 92 d7 ba d4 f8 62 3b cf b7 8e 3b a5 eb 77 bb
       -0.0016446903 0.0034633176 0.004355408 -0.0037829664
000240 37 d2 89 ba c3 8d cd ba ba 05 f0 3b 3c 65 83 3b
       -0.0010514919 -0.0015682507 0.0073249014 0.004009871
000250 fa 79 9d ba b8 e5 c7 b9 45 a6 90 b9 3b 08 f7 ba
       -0.0012014501 -0.00038127392 -0.000275897 -0.0018847057
000260 e9 32 d5 ba e3 a0 88 ba 81 88 cd 39 7b dc 08 3b
       -0.0016265783 -0.0010423925 0.0003920235 0.002088337
000270 0f 58 04 bb d1 df 8a bb f9 44 bf b9 5a a7 97 3b
       -0.0020194089 -0.004238107 -0.00036481748 0.004628104
000280 75 3c 0d bb 40 d6 91 3b 39 d9 72 ba 4e d2 6a ba
       -0.0021550928 0.0044505894 -0.0009263936 -0.00089577294
000290 39 a9 93 bb f8 45 da ba c8 d3 b1 3a 54 1f 9a 3a
       -0.004506257 -0.0016652932 0.0013567144 0.0011758604
0002a0 9e 75 d0 3b 60 ea d7 b9 a5 d7 f0 ba 88 e3 ac ba
       0.0063616773 -0.0004118262 -0.0018374814 -0.0013190368
0002b0 2d 50 6f b9 8e 81 25 ba 35 30 90 3b 79 13 03 3a
       -0.00022822684 -0.00063135556 0.004400278 0.0005000155
0002c0 e2 c8 34 bb ac c9 f3 ba 81 61 83 bb 8f e5 53 3b
       -0.0027585556 -0.0018599532 -0.004009426 0.0032332873
0002d0 26 54 bc ba 4c c8 3e 3b 43 99 1e bb 08 d0 68 3b
       -0.001436834 0.0029111085 -0.0024200238 0.0035524387
0002e0 40 89 93 3b 09 34 8f 3b 19 fd 04 37 b2 28 18 ba
       0.0045024455 0.0043702167 7.926742e-06 -0.0005804404
0002f0 0f 13 5c bb b6 78 ba 3b d9 97 15 3b bd 22 fe ba
       -0.0033580696 0.0056906594 0.0022826104 -0.0019389015
000300 c4 e7 66 3a c3 2e 71 bb 16 a9 3e bc f1 39 3b 39
       0.00088083395 -0.0036801554 -0.011636993 0.00017855295
000310 d1 fe 03 bb a8 b0 00 bb fa 08 16 3a 80 ff 74 bb
       -0.0020140896 -0.0019636545 0.00057233835 -0.0037383735
000320 a7 b5 0a 3b 23 df 86 39 26 13 28 39 9d 9f 99 3a
       0.0021165402 0.00025724721 0.00016028862 0.0011720542
000330 a0 80 1f bb 49 28 f3 3a bb 25 95 3a 40 a5 b2 bb
       -0.002433814 0.0018551435 0.0011379042 -0.0054518282
000340 f1 ff 38 3b 1b f0 4d ba d2 03 46 bc 93 22 0c bc
       0.0028228725 -0.0007855908 -0.012085872 -0.008553165
000350 e6 c9 14 bc cc 04 74 ba 87 cc 75 3b 23 f3 4b 3b
       -0.009081339 -0.0009308576 0.003750594 0.0031120263
000360 e0 b6 df ba 81 c5 1f ba b5 b2 69 3a 07 b2 97 38
       -0.0017068051 -0.0006094799 0.0008914874 7.233401e-05
000370 13 14 64 bb dd da 73 3b 62 5e 0f bb 2a 6b ec 3a
       -0.0034802004 0.003720931 -0.0021876325 0.0018037308
000380 fc fa 20 3b 43 a0 d4 bb aa 58 da 3a 4e 16 15 bb
       0.002456366 -0.0064888312 0.0016658504 -0.002274889
000390 f2 59 b0 3a 8b b0 3b 3b 41 06 43 3b c8 dd 00 3b
       0.001345454 0.0028639163 0.0029758366 0.0019663442
0003a0 22 12 31 ba 32 e1 5d 3a f9 2d 57 bb 04 1b e3 3a
       -0.0006754716 0.00084640377 -0.0032833798 0.0017326777
0003b0 a8 23 c1 bb ad 3d 91 ba 52 74 bc bb 40 54 d7 b9
       -0.005894143 -0.0011081003 -0.005751171 -0.00041070767
0003c0 41 fc 8b 39 48 0b 5e 3b 72 04 ca bb 13 26 1e 3a
       0.0002670009 0.0033881236 -0.0061650807 0.0006032895
0003d0 f5 ef 49 3b ed d3 8d 3a e2 05 10 3b 69 c7 34 3a
       0.0030813192 0.0010820605 0.0021976163 0.00068961695
0003e0 cb b6 f2 bb 9c 68 cf b9 87 bf 3a 3b 4f 6e 7d 3b
       -0.0074070445 -0.00039560057 0.0028495507 0.0038670485
0003f0 ea aa ce 39 f4 2d 69 3b 4e 1f ef bb 46 f0 65 3b
       0.00039418723 0.0035580369 -0.007297433 0.003508584

exp_avg_sq f4 [5, 64]
000000 1c 9a db 38 25 80 dc 38 b7 42 36 3b 74 0b 12 3a
       0.00010471439 0.00010514286 0.0027810761 0.00055711647
000010 6d ab 7f 39 4f f9 aa 3a 3d cb a4 38 9b 0a 82 39
       0.00024382556 0.001304427 7.8579855e-05 0.00024803434
000020 9b 44 c4 38 5e b2 cb 38 fb 20 b5 38 13 f2 a2 38
       9.358787e-05 9.713018e-05 8.636896e-05 7.769852e-05
000030 5f 3d 1b 38 ac e2 91 3a 1b 45 3e 39 ba 75 4f 3a
       3.7012036e-05 0.0011130176 0.00018145556 0.0007913966
000040 4f 43 d8 38 f5 93 f1 38 c2 02 b2 3b e3 6a 5d 39
       0.0001031222 0.00011519335 0.0054324577 0.00021116021
000050 7b ea ae 3a 52 58 74 39 dc 48 c3 38 9c d4 89 39
       0.0013345027 0.00023302555 9.311896e-05 0.00026289083
000060 79 c1 22 3a 7e ef 17 39 b2 9b 33 39 79 f5 44 39
       0.0006208639 0.000144897 0.00017128771 0.00018783462
000070 e5 97 60 39 72 d8 35 39 44 74 b8 38 4f 98 c3 38
       0.0002141889 0.00017342137 8.79546e-05 9.326694e-05
000080 3c 90 4b 39 2d 58 c8 3a 7b 97 81 38 9a 72 bc 39
       0.0001941332 0.0015285067 6.179415e-05 0.0003594354
000090 74 37 98 38 8d b7 8e 39 44 f4 19 39 83 83 cd 38
       7.258254e-05 0.00027221107 0.00014682213 9.799658e-05
0000a0 6f f1 5f 3a 3a 05 32 39 04 2e 9c 38 8c ed 46 38
       0.00085427513 0.0001697735 7.447231e-05 4.742811e-05
0000b0 ba ac c5 3a a5 9c dc 38 70 f7 25 39 26 9e 23 39
       0.0015081384 0.00010519595 0.00015827804 0.00015603806
0000c0 8c 56 5b 38 fa 32 95 39 32 71 14 3a 06 3a 06 39
       5.2294272e-05 0.00028457475 0.00056626194 0.00012800851
0000d0 72 45 8d 39 54 7b 33 39 87 3c c4 38 15 76 51 39
       0.00026945357 0.00017116714 9.3572824e-05 0.00019975782
0000e0 88 c6 86 3a 76 3f e2 3a ec a0 f6 38 39 0c 3a 39
       0.0010282556 0.0017261344 0.00011760168 0.00017742896
0000f0 c5 01 05 39 ae b6 48 39 bf b8 bc 39 b9 fa 88 38
       0.00012684528 0.0001914154 0.000359958 6.531686e-05
000100 66 8a f5 38 5b db 01 39 cf 82 4f 3b bc 6c 27 3a
       0.00011708289 0.00012384115 0.0031663661 0.0006386747
000110 fb 19 8e 39 53 0e b6 3a a3 39 b4 38 e6 2c 83 39
       0.00027103708 0.0013889767 8.5938045e-05 0.0002501972
000120 da 3c e5 38 00 fd d8 38 2e 10 ba 38 de 8f 99 38
       0.000109309054 0.000103468075 8.872185e-05 7.322406e-05
000130 a0 a7 33 38 aa 85 a3 3a 39 a4 4c 39 cd 52 58 3a
       4.283304e-05 0.0012475748 0.00019516134 0.00082520844
000140 68 f9 e0 38 e6 99 09 39 ce 0b d0 3b 46 40 3f 39
       0.00010727608 0.0001312267 0.0063490635 0.00018239123
000150 26 0d b8 3a 1a 41 88 39 2e 97 be 38 a0 89 97 39
       0.0014042004 0.00025988446 9.0880654e-05 0.00028903503
000160 4d 25 44 3a ed 35 2e 39 a4 c1 41 39 95 c7 3d 39
       0.0007482365 0.00016614022 0.00018478051 0.00018098795
000170 2e 1b 68 39 ae 1f 38 39 27 ec f7 38 b2 38 cd 38
       0.0002213537 0.00017559409 0.000118218646 9.785722e-05
000180 85 67 5b 39 7a ba d1 3a 84 1e 8a 38 40 9f d2 39
       0.00020924032 0.0016001009 6.586037e-05 0.00040172972
000190 e7 14 ac 38 1b 5e 9d 39 52 2e 2c 39 55 28 ea 38
       8.2054925e-05 0.00030015488 0.00016420454 0.00011165502
0001a0 9e b5 89 3a b6 4b 38 39 37 e9 c3 38 f3 17 52 38
       0.0010506397 0.00017575812 9.341764e-05 5.0090206e-05
0001b0 3b d5 e3 3a 3d df c9 38 6b cd 1c 39 4c d9 32 39
       0.0017382273 9.626008e-05 0.00014953843 0.00017056352
0001c0 8d 82 81 38 e3 20 a6 39 a4 ce 33 3a 27 30 19 39
       6.175516e-05 0.0003168649 0.00068591 0.00014609155
0001d0 98 d2 9b 39 af 65 4b 39 64 e5 d9 38 a1 94 86 39
       0.00029720808 0.00019397469 0.00010390094 0.0002566921
0001e0 b1 75 9b 3a cf 4f fd 3a 1d ed 09 39 62 ca 49 39
       0.0011860636 0.0019326153 0.0001315367 0.00019244247
0001f0 46 63 0b 39 23 95 6c 39 6d d6 ba 39 c6 97 a2 38
       0.00013293055 0.00022562272 0.00035636444 7.753032e-05
000200 a8 37 e2 38 78 28 d0 38 b8 11 46 3b a9 62 1c 3a
       0.000107868866 9.925751e-05 0.0030222964 0.0005965629
000210 b1 a1 62 39 87 2c a9 3a b3 99 b2 38 fe 67 7a 39
       0.00021613274 0.0012906947 8.51633e-05 0.00023880598
000220 c4 9b c3 38 2b 24 cf 38 0e 8b af 38 29 66 96 38
       9.327338e-05 9.877266e-05 8.370551e-05 7.171586e-05
000230 ae 70 1f 38 8d b3 88 3a 6a e9 22 39 1c 5a 61 3a
       3.8013495e-05 0.0010429487 0.00015536477 0.0008596496
000240 c3 18 dd 38 62 83 f3 38 78 3b b0 3b 2a 30 5a 39
       0.000105427134 0.00011611615 0.005378183 0.00020808043
000250 1a 7c b0 3a bb 5e 82 39 9f ed c5 38 3d 38 8b 39
       0.001346472 0.00024866112 9.4379524e-05 0.00026554047
000260 24 9e 32 3a 4c 59 0b 39 84 f3 3f 39 47 84 3e 39
       0.0006813726 0.00013289339 0.00018305896 0.00018169089
000270 61 de 61 39 e8 39 43 39 e9 2d b2 38 4d f5 d2 38
       0.00021540515 0.00018618221 8.496253e-05 0.00010059271
000280 c9 72 4e 39 4b 9c bd 3a 1f 24 8c 38 c1 d2 b9 39
       0.00019688452 0.0014466135 6.682448e-05 0.00035442974
000290 24 9f 98 38 23 fa 90 39 9a 7e 2a 39 39 7e e8 38
       7.277567e-05 0.00027652187 0.00016259626 0.00011086133
0002a0 96 68 5f 3a 29 e6 32 39 47 51 a9 38 0c b2 48 38
       0.00085223594 0.00017061144 8.073687e-05 4.7849535e-05
0002b0 98 75 d3 3a 0c be d4 38 13 05 23 39 4c 45 2f 39
       0.0016133068 0.00010144347 0.00015546782 0.00016715116
0002c0 30 16 4d 38 79 2c 96 39 b0 23 2c 3a ed 87 02 39
       4.8896472e-05 0.00028643364 0.0006566597 0.00012448402
0002d0 5b 1e 8f 39 3a 87 3b 39 f0 62 bd 38 69 3e 45 39
       0.00027297702 0.00017884086 9.030651e-05 0.00018810634
0002e0 68 ff 83 3a 78 e2 c5 3a ad 58 02 39 e5 b5 32 39
       0.0010070624 0.00150974 0.000124308 0.00017043164
0002f0 7b 98 02 39 63 4e 43 39 6d 57 b5 39 28 82 8a 38
       0.0001245457 0.0001862585 0.00034588148 6.604596e-05
000300 c0 ba cd 38 3f ee f7 38 cf 84 37 3b 3d 0e 25 3a
       9.809947e-05 0.000118222546 0.0028002744 0.0006296372
000310 d7 f0 6c 39 af 64 8d 3a 94 67 a8 38 4a b0 7a 39
       0.00022596434 0.0010787452 8.030157e-05 0.0002390753
000320 f2 61 b3 38 76 ce c6 38 e0 91 ae 38 f1 16 93 38
       8.553629e-05 9.479832e-05 8.324138e-05 7.0137794e-05
000330 f4 f7 2c 38 93 a9 84 3a 17 f3 35 39 6d 69 32 3a
       4.123892e-05 0.0010121338 0.00017352063 0.0006805871
000340 1d 59 c7 38 77 eb ee 38 4f b9 a8 3b 8e 99 47 39
       9.505658e-05 0.00011392583 0.0051490436 0.00019035322
000350 d9 92 92 3a 4a 5f 7e 39 19 94 c6 38 40 ff 80 39
       0.001118268 0.00024258826 9.468961e-05 0.0002460424
000360 a0 c5 1b 3a b0 3d 2b 39 1d 7a 2b 39 f2 48 2c 39
       0.0005942229 0.00016330811 0.00016353322 0.00016430372
000370 65 bf 45 39 83 86 25 39 4a 24 bc 38 5a 53 b5 38
       0.00018858684 0.00015785736 8.971298e-05 8.646278e-05
000380 b1 29 38 39 f1 f3 bf 3a 8a b3 84 38 40 7d ba 39
       0.00017563139 0.0014644844 6.327692e-05 0.00035570003
000390 6b 1c 86 38 15 93 86 39 6d 08 18 39 43 4b c0 38
       6.394911e-05 0.00025668056 0.00014498988 9.169292e-05
0003a0 a0 8a 63 3a f9 00 2b 39 29 29 a3 38 04 53 4e 38
       0.00086800195 0.00016308193 7.780112e-05 4.919154e-05
0003b0 63 cc c3 3a a6 a6 cd 38 64 5a 35 39 5c 61 30 39
       0.0014938231 9.8062024e-05 0.00017295178 0.00016820937
0003c0 e4 78 4d 38 5d b7 8b 39 6d 18 1b 3a da 91 0c 39
       4.8988397e-05 0.00026648762 0.00059164205 0.00013405774
0003d0 db 56 84 39 e4 2d 3d 39 cc 89 b6 38 bd 28 44 39
       0.00025241714 0.0001804154 8.704103e-05 0.00018707193
0003e0 c5 90 81 3a d5 41 b9 3a b0 d6 e9 38 d8 21 26 39
       0.0009885064 0.0014133999 0.000111502944 0.00015843601
0003f0 1f 7c 04 39 b8 40 4b 39 b3 0b ae 39 8b fb 8a 38
       0.0001263474 0.00019383698 0.00033196583 6.627206e-05

exp_avg f4 [5]
000000 ab 57 97 38 3d 1c d8 bc 32 d3 00 3c 72 a9 44 bc
       7.2165705e-05 -0.026380653 0.007862853 -0.01200329
000010 04 70 f9 3c
       0.030448921

exp_avg_sq f4 [5]
000000 27 ff 81 3b a9 97 8f 3b 11 aa 83 3b 34 d6 73 3b
       0.003967184 0.004382093 0.004018076 0.0037206532
000010 a0 55 7f 3b
       0.0038960949
