Assets/results/Maze03/Mouse/Mouse-51823.pt (torch, 455069 bytes, 33 tensors)

network_body._body_endoder.seq_layers.0.weight f4 [128, 9]
00000000: 72fc 4bbe b546 a13d e1e8 c03e 923a 95be
00000010: ee48 30be cdd1 8f3e 6b67 cabe 9d5d 2fbe
00000020: 27ac 373f 7744 163f 4b51 d2be 3999 e1bd
00000030: 0a94 f9be 6612 88be 0625 00bd e661 dcbe
00000040: 5b84 d5be 8d86 433d 3b3f cbbc 312d c6bc
00000050: 2503 743d 1a81 a0bd da41 053f d92f 63bc
00000060: b4aa 0dbe 960b 77be 095a a43e 5fc7 c43e
00000070: 3012 183e 9013 a23e a8c4 a7be efe9 3e3e
00000080: f989 fabd 8cdb 7abe 77f8 cb3d a156 a7bd
00000090: f382 66be dcd5 56be 489e b1be a3e7 b83e
000000a0: fb89 2c3e bc4c 923e d197 1b3e 2271 113f
000000b0: 61b7 383f 6789 ad3e e76c c33d 5140 9d3e
000000c0: 8d6d 18be 21c2 b93e 0b80 643d 2a64 60bf
000000d0: de4e e1b8 9541 0a3d 1344 bebe 55be 98bd
000000e0: b2f3 4cbe 5bdd 7bbd ee4e 923d eaeb b03e
000000f0: a2e5 253e 0e4c a5be ecbd dfbd e793 143f
00000100: 4e04 43be 0e8b 76be 8a44 e33d 8f88 3bbc
00000110: 063a 2bbe fb25 963e f3ac 063f 4bb7 8bbe
00000120: ea28 843c 434b ab3d 130a 023e 62f5 c33e
00000130: 62b4 cdbd 821e 75bd beb2 583e 5811 753e
00000140: bbfc 0b3d a4c7 51be 2ce8 6abe 96da 4fbe
00000150: d9cf a1be c8d2 b8be 5eaf 4e3e 3c97 92bd
00000160: df7e c63c 2198 913e 1080 6d3d b378 203f
00000170: 039a adbe ca03 28bd 7f14 3fbd 361b f4be
00000180: 5bd0 c1be 410e 27bf 574d bfbd 2894 09bc
00000190: a13f 943e a7c0 523e 243a 05bf 23ab 9dbe
000001a0: db2e 2cbe 97d4 413e aa12 dc3e c79f 573d
000001b0: c508 023e deba a83d 971b 3e3e 8e0d d6bc
000001c0: c5c3 cb3e 7151 803e a2a0 ef3e bf2e 2dbf
000001d0: b961 60bf ad72 adbe fe18 49bf ac30 0b3d
000001e0: 3064 f0be 2b89 c13d dc78 81bd b55e 04bf
000001f0: 73dc cabd a112 d13e ef8b 66bd 722b 8c3e
00000200: 87de a1be 1dcf 14bf 560c b0be f9a3 9b3d
00000210: fc17 6fbe 7508 cebd e64e 97be a890 c53e
00000220: f035 b0be 1ae9 80ba 45b4 d23e 8c58 123c
00000230: bc8c c2be 0395 243e 27c6 86be 3633 94bd
00000240: 999d aebe 96cc ae3d d2e1 0dbe 6584 d43e
00000250: 23ef c63e 15f2 963e 1030 92be 8556 14bf
00000260: ac73 243e 7c76 87be a173 acbe 0c89 c9bd
00000270: 8493 6b3b bbed f73d 6f0e 26be ed50 863e
00000280: 751d 08bf d176 0a3e 8aed 153e 4952 2a3f
00000290: 7d82 a3be fd1b 913e a97d c9bd 6fc6 72bd
000002a0: 96e1 d33c f32e 08be 6a46 dfbe 5124 dabe
000002b0: 42e6 0bbf 7816 d33d 5167 1a3e 8de2 aabe
000002c0: 7c50 c33d a52a 22bf 9c02 203e 09e1 613e
000002d0: d7ac cf3d 89ee 873f 938b a23d 8e91 523f
000002e0: de9b 753d 4b03 d33e 6cf9 623f 051a 583e
000002f0: 59c4 073f bce0 8a3e 76a1 103d 42a9 9cbe
00000300: eb1b 833e b6c5 753e 467e 053e 9949 1f3e
00000310: 5b43 ed3e fcda 9c3d e4eb 533e 9ac2 3b3e
00000320: eaf7 a33d fbaf 933e 7259 aebe 1e8f 2f3e
00000330: 1f33 02bf 84d9 9fbe 4c46 2fbf 28a5 8e3d
00000340: 8dbd ee3e 417c a13d f65a fb3e 495a 25be
00000350: cd0c cfbd 1a57 f7bd bfa2 593e bb9a d2bd
00000360: e676 27bc e99b 303e f624 25bd daee 05bf
00000370: 6cdc ecbc e927 38be ff00 28be 1d31 593e
00000380: a64b 17bf 3073 cfbe 1380 4bbe 7bdf ca3d
00000390: a8b6 0abe 7083 15bf 1850 243e 0466 a23e
000003a0: 5e48 4bbe a108 d63d ecf6 dcbe 7443 6f3e
000003b0: e4c3 aa3d c036 2bbe 6917 5cbd 18c4 7abe
000003c0: 65bd 5bbd 9e7e 03be e88d d4bd b51a e93d
000003d0: c428 e2be 38a4 ac3e bc71 8b3e e011 97be
000003e0: ab61 853d a01b 03bf 0615 273e 79fa a13e
000003f0: 36fd c9bd e938 26bd 6fc1 82be 0fac 61bf
-0.19920519 0.078748144 0.37677673 -0.29146248 -0.1721532 0.28089753 -0.39532027 -0.17125554
0.7174706 0.5869822 -0.41077647 -0.11015553 -0.48745757 -0.26576537 -0.03128531 -0.4304344
-0.41702542 0.04773574 -0.024810424 -0.02419147 0.05957331 -0.07837124 0.52053607 -0.013866388
-0.1383465 -0.24125513 0.3209994 0.38433358 0.14850688 0.3165555 -0.32767224 0.18643926
-0.122333474 -0.24497813 0.099595 -0.0817082 -0.2251089 -0.20980018 -0.34691072 0.36114225
0.1684951 0.2857417 0.15194632 0.5681325 0.72154814 0.33893892 0.09542256 0.30713132
-0.1488554 0.3628092 0.055786174 -0.8765284 -0.00010743526 0.03375395 -0.37161312 -0.07458178
-0.20014837 -0.061490398 0.07143961 0.34554988 0.16200879 -0.32284588 -0.109248966 0.5803818
-0.19044611 -0.24076483 0.11097057 -0.011446132 -0.16721353 0.29325852 0.5260765 -0.2728828
0.01613279 0.083639644 0.12699156 0.3827315 -0.10044171 -0.059843548 0.21161935 0.23932397
0.03417657 -0.20486313 -0.22940129 -0.20298228 -0.31603888 -0.36098313 0.20184085 -0.07157752
0.024230419 0.28436378 0.057983458 0.6268417 -0.33906564 -0.04101924 -0.046650406 -0.4767701
-0.37854275 -0.65256125 -0.09340923 -0.00839714 0.28954795 0.20581304 -0.5204184 -0.3079463
-0.16814749 0.18928753 0.4298299 0.05264261 0.12698658 0.08238767 0.18565212 -0.02612951
0.39797798 0.25062135 0.4680224 -0.67649454 -0.8764911 -0.33876553 -0.7855376 0.033981964
-0.46951437 0.09449991 -0.0632188 -0.5170701 -0.099053286 0.40834525 -0.056285795 0.27376896
-0.31615087 -0.5812853 -0.34384412 0.07599635 -0.23348993 -0.10060207 -0.29552382 0.38586926
-0.3441615 -0.0009835095 0.4115316 0.008932244 -0.37997997 0.16072468 -0.26323053 -0.0723633
-0.34104612 0.085351154 -0.13855675 0.4150726 0.38854322 0.2948157 -0.28552294 -0.5794452
0.1605975 -0.26457584 -0.33681968 -0.09840593 0.003594608 0.1210589 -0.16216443 0.26233616
-0.5316995 0.13521887 0.14641395 0.6653181 -0.31935492 0.28341666 -0.09838421 -0.059271272
0.025864404 -0.1329916 -0.4360841 -0.42605832 -0.5464822 0.1030702 0.15078475 -0.3337597
0.095368356 -0.6334632 0.15625995 0.220585 0.101403885 1.061967 0.07936778 0.8225335
0.0599631 0.4121345 0.8866184 0.21103676 0.5303398 0.27124584 0.03531023 -0.30597883
0.25607237 0.24001202 0.1303645 0.15555419 0.4634045 0.076589555 0.20695454 0.18335953
0.0800627 0.288452 -0.34052616 0.17144439 -0.50859255 -0.3122064 -0.6846664 0.06965095
0.4662899 0.07885028 0.49092835 -0.16147722 -0.101098634 -0.1207716 0.21253489 -0.10283419
-0.010221219 0.17246975 -0.04031845 -0.52317584 -0.0289137 -0.17983975 -0.1640663 0.21210141
-0.59099805 -0.4051757 -0.19873075 0.09905907 -0.1354624 -0.5840368 0.16046178 0.31718457
-0.19851825 0.104508646 -0.43157136 0.23365575 0.083381444 -0.16720104 -0.053733263 -0.24488866
-0.053647418 -0.1284127 -0.10378629 0.11382047 -0.44171727 0.3371904 0.2723521 -0.29505825
0.06512769 -0.5121403 0.16316614 0.31636408 -0.09862749 -0.040581618 -0.25538203 -0.88153166

network_body._body_endoder.seq_layers.0.bias f4 [128]
00000000: f31c 1c3d 8b36 293d 4a0d 323c 6e1e ef3c
00000010: 1bd9 3fbc 2631 223d bce0 a33c 5bb9 c03c
00000020: 0405 45b8 0934 dc3c f475 1bbd 43ad 8b3c
00000030: 3e89 b23c ddae 423d eafb 15bc ac99 4e3c
00000040: 69a0 7e3d a3dc 83bc 99de 003d 50fd c1bc
00000050: 7d13 9a3c cbe4 bfbc 3c23 28bc 6dd4 8bbb
00000060: 5d79 a43c 0517 883c 002a 25bc 74bc 2e3d
00000070: 59aa ad3b fb96 e03c d5ef 273c a52f f1bb
00000080: e782 9d3c 5d88 873c 7d34 943d fa24 993c
00000090: 977e 553d 6f7c 04bc 05d5 fe3c 1b46 4abd
000000a0: 6a66 c13c 29a9 e939 d157 2e3d e69e 6e3c
000000b0: cf19 0f3d ca17 693c f576 20bc 34c0 9d3c
000000c0: 4f27 aa3c c506 3f3d 7eda 753b 4f3f e53c
000000d0: c4d1 173d 9a32 953c 7a2b ce3c 563b d23c
000000e0: 206c e03c 2778 d23c a58a cf3c a58f 833c
000000f0: 72cd 2bbc c263 95bb 5e4b 22bc 75e8 253d
00000100: 137e 003d 1af6 913b 613b 043a bc5d 8b3c
00000110: fcd1 9dbd 8785 8d3c 16b5 903c 0933 e13c
00000120: 7d32 923c f760 ae3c 2b44 d43c 0a5d b8bc
00000130: 002d bd3c 2a6f 463c 00a2 643b 53c1 333d
00000140: 2aff 0cbc 4a05 543d 9879 8ebc 4098 013d
00000150: 2bcc 723d dd4a e23b 56be 183d 4115 f83c
00000160: 00b3 db3a 5668 8d3c eb73 373c 7710 463d
00000170: b3f0 7c3d e3d0 e13c 5630 8fbb f9c1 0e3b
00000180: f58a 03bb 6f2f 333c fa8b b13c e195 ae3c
00000190: 5e09 b23c e951 b43c ab8d 703c 6ded c13c
000001a0: a66c 80bb acde c23d 07ff 0cbd 561f ac3c
000001b0: 3242 383d f516 d0bb 0ab3 353d f387 56bb
000001c0: 749d 27bc 0fbc 0a3c 0dfb 26bd 82f5 643d
000001d0: 3f3d 953c e92b d6bc fdef 493d f4a6 9c3c
000001e0: f90b 7f3c f001 ed3c c259 0e3d 8960 583d
000001f0: 1a27 a1bc a56f 403c 4e8a 893d b855 023d
0.038113546 0.04131178 0.010867426 0.029189315 -0.011709477 0.039597653 0.020004623 0.023525884
-4.697313e-05 0.026880281 -0.037954286 0.017050391 0.021793958 0.047530044 -0.009154299 0.01260988
0.062164698 -0.016096419 0.031462286 -0.02368036 0.01880812 -0.023424527 -0.010262307 -0.0042672665
0.020077402 0.016612539 -0.010080814 0.04266019 0.005299848 0.027415743 0.0102500515 -0.007360416
0.019227458 0.016544515 0.07236574 0.01869439 0.05212268 -0.008086308 0.031107435 -0.049383264
0.023608405 0.00044567257 0.042564217 0.0145642515 0.034936722 0.014226863 -0.009793987 0.019256689
0.020770697 0.046637315 0.0037514265 0.02798429 0.037065282 0.018212605 0.025167216 0.02566306
0.027395308 0.025692059 0.025334666 0.016059706 -0.010485994 -0.004559011 -0.009905664 0.04050489
0.031370234 0.0044543864 0.00050442485 0.01701247 -0.07706067 0.017275585 0.017664474 0.027490156
0.01784634 0.02128647 0.025911411 -0.022505302 0.023092747 0.0121114645 0.0034886599 0.04388554
-0.008605758 0.051762857 -0.017391965 0.031639338 0.05927674 0.006905897 0.037290893 0.030283572
0.001676172 0.017261665 0.011197071 0.048355546 0.061752986 0.027565425 -0.0043697758 0.0021783097
-0.0020071839 0.010936602 0.021673191 0.021311702 0.021732982 0.022011714 0.014682214 0.023672784
-0.003919202 0.095151275 -0.0344229 0.021011036 0.044985004 -0.006350393 0.044360198 -0.003273484
-0.010230411 0.008467688 -0.040766764 0.055898197 0.018217681 -0.026143985 0.049301136 0.019122578
0.015566819 0.028931588 0.03475357 0.052826438 -0.019671965 0.011745368 0.06715833 0.03182003

network_body._body_endoder.seq_layers.2.weight f4 [128, 128]
00000000: 9bdc c4bc 65dd 9f3d 34d0 a83d 9819 363d
00000010: 1d67 9dbd 578c 92bd afd0 bbbd 069f ffbd
00000020: 22c5 bdbd ffbe 613d 44d0 7ebb 858b 8bbd
00000030: 295e 2b3d 038d 013e 1889 5b3d 4482 be3d
00000040: b9a1 e33d dc91 cf3c 8b3c a73d d8b2 a63d
00000050: 59d7 c0bd 0e25 24be 550c 923c ef7d 44bd
00000060: b4a9 8cbd d3b3 18bd 582e 47bd 6e4a b3bd
00000070: 4da4 7d3d 7eca 38bc 8305 4d3d 6e88 d43d
00000080: b9b9 05be 16c7 573d faae 2f3d a87f 8d3d
00000090: 44f4 813d d543 923d 053e 943d 1755 d33d
000000a0: 8c8c 0d3d 0c21 173d d599 273b 1c76 f1bd
000000b0: 6677 483e c2c6 78bd 8d93 27bd d461 ce3c
000000c0: 8dee 5abd ff99 8b3d 8204 c53d ae85 9e3d
000000d0: c1d4 9a3d 9cf9 8ebd 12c2 013c ee70 ca3c
000000e0: 0b99 e3bd 4441 eebd d6f4 e63c db30 14be
000000f0: a8d5 03bd bf94 d33d 5377 c5bd 8d54 823d
00000100: f66e cd3d cec3 363e a2e3 1dbd 7e66 93bd
00000110: 8d79 303c 66db 5dbd de55 08bd 5de5 b0bd
00000120: 05e7 2e3e 164b 21bd 4224 2f3d fb2c bfbd
00000130: f653 94bd 7d58 813d 77ee 343d 7889 05be
00000140: c44a 10bd 6d50 e2bc 2cf6 3a3e e08a 533d
00000150: 883d 023e 4666 073d 3a41 643d f2a3 05be
00000160: 6a5c 383d 7d55 1c3e 3b83 e3bb a556 dc3d
00000170: d900 07be 74a2 4cbe 7340 81bb 6cad 91bc
00000180: fa2a b23c 374e f43d 2c8a 4fbd b908 39be
00000190: 3523 753e 39f9 5f3e 9275 893a afe2 28bd
000001a0: 1f1d 933d d5ed 4c3d c834 c63b 3463 313e
000001b0: fc9b 3fbd 7c29 e5bb 2106 b6bb 7c69 76bd
000001c0: 256a c3bd e9ad babd 0643 043e 1c9d 97bc
000001d0: fc69 5cbd 7dc2 92ba 3326 00be 6d74 ee3c
000001e0: 934e 56be 56c2 a3bd c447 0a3e ede7 b9bd
000001f0: dc9f 4cbe 3f09 b03c 69b8 d43d 4c65 d53c
00000200: ece6 b23d bc93 31be 363c 0ebe c9d6 ec3c
00000210: 99d1 1ebe 28d3 5ebd 69ac e5bd f113 693d
00000220: c745 b83d 8644 0e3d 52e2 03be e0c7 4bbd
00000230: 166f 7fbe 6d4f 0a3d b54c bc3d 23ba babd
00000240: a3cc 49bd b2ad 9dbd d71f 7b3d 7b78 c6bd
00000250: 619b 433d f437 8b3c 173c 14bd 3faf 843d
00000260: 623f 34be 6d34 b4bc c535 f73c 054f 0e3d
00000270: 4709 b2bd bbd4 0d3d 33b0 4a3d b5ff 763d
00000280: e517 993d 861b c7bd 70fd ac3d 049c 16be
00000290: 6572 9bbd a64f b5bd b427 a83b 6847 ea3c
000002a0: 2653 df3d 38c0 b6bb e004 5d3e 41f7 a13d
000002b0: 7164 993d 8117 6a3c 0696 aabc 6d34 a0bd
000002c0: 7878 a1bd 6b8f d9bc 8a1e ffbd 36c2 d5bc
000002d0: a1fe 63bd e607 62bd c48d c33c 4563 f13d
000002e0: 38b0 92bc 9ac9 b43d 55ed 1a3d c6c6 72bb
000002f0: 6957 8d3d 91b7 2b3c 7876 30bd 8e40 a93c
00000300: ecec 8ebb 2b8c 163e deca 0dbd 9653 933d
00000310: e0a5 11bd 903f 423e 755a edbd 44e3 a13a
00000320: 0ae4 6b3d 831e 9d3d e101 ab3b 1e5d 12be
00000330: eebb 7ebd d808 283d 9433 e7bc a58f 353e
00000340: 9a3b 6bbd 5cbc 90bb f6ea 873d 0154 30be
00000350: 355e c03d e983 4fbc 4e74 003e 2ec7 90bd
00000360: 5b65 0dbd 3f72 313e d462 acbd 8852 70bd
00000370: 3aa0 323e b6a6 89bc 815f febd 1ca2 ef3b
00000380: 83db 55bc 0458 2abe f07a 4abd 56f2 62bd
00000390: c842 e43d 2bab a23c f20f 6f3d cfd4 c5bd
000003a0: 09d3 533d 3937 173c 57f4 17be 02ec 10be
000003b0: e3c4 eebc dcb2 26bd 19e1 c1bd 2a71 b0bd
000003c0: 043e 04be 1e53 6c3d a4a9 c4bc 84d4 aabd
000003d0: e2dc 9ebc b7bd 52bd 3779 ecbd 876c 1e3d
000003e0: f466 753d 83a0 b03d af41 70bc f2c3 c23d
000003f0: f3ea 0cbd 7992 90bc 8ea2 05be 0d1c e03d
-0.024030974 0.078058995 0.082428366 0.044458 -0.07685683 -0.07155674 -0.091706626 -0.12481503
-0.09266116 0.05511379 -0.003888146 -0.068137206 0.041837845 0.12651448 0.05359754 0.0930219
0.111148305 0.025338106 0.081658445 0.081395805 -0.09416074 -0.1602976 0.017828146 -0.047971662
-0.06868306 -0.03728087 -0.04862818 -0.08754431 0.061924268 -0.011278747 0.050054085 0.103775844
-0.13059129 0.052680098 0.04289148 0.06909114 0.06345418 0.07141844 0.07238392 0.10318964
0.034557864 0.03689675 0.0025573869 -0.11790106 0.19576797 -0.060736425 -0.0409122 0.025193132
-0.053450156 0.06816482 0.096200004 0.07740341 0.07560111 -0.06981203 0.007919805 0.024712052
-0.11113175 -0.11633542 0.028192919 -0.14471762 -0.03218618 0.103311054 -0.096419 0.06363783
0.1003093 0.17848131 -0.038547166 -0.07197283 0.010771167 -0.054164313 -0.033285014 -0.086374976
0.17080314 -0.03937825 0.042759188 -0.09334751 -0.07242577 0.06315706 0.04417273 -0.13040721
-0.035227552 -0.02762624 0.1825797 0.051646113 0.12718785 0.03305652 0.055726267 -0.13050821
0.045010008 0.15266986 -0.006943134 0.10758714 -0.13183917 -0.19983846 -0.0039444505 -0.01778289
0.021749008 0.11928981 -0.05066888 -0.18069734 0.23939212 0.21872415 0.0010487309 -0.041231807
0.07183289 0.0500315 0.0060487725 0.17322999 -0.046779618 -0.0069934707 -0.00555493 -0.06015919
-0.0954173 -0.09115202 0.12916192 -0.018507533 -0.053812012 -0.0011196878 -0.12514572 0.02910825
-0.20928411 -0.07996051 0.13503939 -0.090774395 -0.19982857 0.021488784 0.10386736 0.026049279
0.08735451 -0.17341512 -0.13890156 0.028911011 -0.15509643 -0.054400593 -0.11214525 0.056903783
0.08997684 0.034733318 -0.12879303 -0.049751163 -0.2494472 0.033767153 0.09194318 -0.09117534
-0.049267422 -0.076991454 0.06130966 -0.096909486 0.047755603 0.016994454 -0.03619012 0.06478738
-0.17602304 -0.021997655 0.030177006 0.034743328 -0.08693176 0.034626704 0.049484443 0.060302455
0.07475261 -0.097220466 0.08446777 -0.14707953 -0.075901784 -0.08853082 0.005131686 0.028598502
0.10904531 -0.0055771135 0.21583891 0.07908488 0.07489861 0.01428783 -0.02082349 -0.078224994
-0.07884306 -0.026557645 -0.12456997 -0.026093584 -0.055662755 -0.055183314 0.02387131 0.11786512
-0.017906293 0.08827515 0.037823994 -0.0037044748 0.06901438 0.010480777 -0.04308173 0.020660665
-0.0043617394 0.14701907 -0.034617297 0.07193677 -0.03555858 0.1896956 -0.11589519 0.0012351056
0.057590522 0.07671835 0.00521873 -0.14293334 -0.062190942 0.04102406 -0.028222837 0.17730577
-0.057429887 -0.0044169854 0.06636612 -0.17219545 0.093929686 -0.012665727 0.12544367 -0.070692405
-0.03452049 0.17328738 -0.084172875 -0.058672458 0.17443934 -0.016803127 -0.1242056 0.007313026
-0.013052824 -0.16635138 -0.04943365 -0.05540689 0.1114555 0.01985701 0.058364816 -0.09659731
0.05171493 0.009229475 -0.14839302 -0.1415253 -0.029146617 -0.040697917 -0.09466762 -0.08615334
-0.12914282 0.057696454 -0.024006672 -0.083413154 -0.019392435 -0.051450457 -0.115465574 0.03867772
0.059912637 0.08624365 -0.014664098 0.0951003 -0.034403753 -0.017647969 -0.13050291 0.1094285

network_body._body_endoder.seq_layers.2.bias f4 [128]
00000000: 9f51 b8bb 6b4c d33c fd93 dc3c 1074 f13c
00000010: a7fd d13c aa4f 463c 1a88 803b 95b0 4e3c
00000020: 9953 c33c 1a73 113d a55a c33c 8cb3 3fbc
00000030: b024 9d3c 67ab 9e3c 3c1e 223d 4dd0 743c
00000040: db70 093d 7622 a83c adbb 733c 53b3 ac3b
00000050: aff2 633b c14d 863c ac98 033d 9820 8f3c
00000060: 1ac6 823c 5b78 93bb 7832 613b 7794 86bc
00000070: 1960 1fbd 2d41 e6bc afe3 e2bc 7213 0d3d
00000080: cd1b f53c a6da 083d 8d62 9b3c d8f9 a23b
00000090: a622 a83c 4dcd 0d3d 4838 873c 7328 093d
000000a0: 288b 943c 58ca e23c 51b4 183d 1060 853c
000000b0: 2142 053d 63cb 8f3c 36a1 1f3d 0df9 b13c
000000c0: fd0a b83c 6a2c 373c 086e 69bc bb75 dd3b
000000d0: 7909 343c be9f 423c 2302 2e3c 6cad e13c
000000e0: 6927 af3c 782d 6f3c f961 843c 197d 8abc
000000f0: 6da3 bebc c2a5 493c af38 863c 5105 f93c
00000100: 7808 173d 316d 4e3b 5dd0 373a 1273 8e3c
00000110: 534f 693c 18ce b03c 3760 983c c017 4f3c
00000120: c7f7 393a 25e5 70bc 9dbb ac3c ec9b 223d
00000130: 407a 8d3c ca28 1c3d bb19 11bd 2fbb c2bc
00000140: efeb 6b3c acd9 e63c 5641 c73b 3e0d 493c
00000150: d6b6 1b3d c570 5abc 4400 5f3b 56f2 0a3d
00000160: 8893 9d3b 94ed de3c 562b 4bbc 1207 2b3c
00000170: c773 013c b2c6 223c 726b 9aba 0245 ba3c
00000180: 9beb d03c 0105 34bb e7b3 3239 2bcb 5d3c
00000190: 6286 513c 9c16 2ebb 1fcd 253c 2421 2fbc
000001a0: 306b 8abc 5ee5 f6bb cde1 aebb 878f e8bc
000001b0: ce41 583c 242f 2dbc 28d6 093d ea97 c93c
000001c0: 36d7 383d 500b 72bb 2395 733c 16fa b6bc
000001d0: 51d3 5b3c 5c03 e33c 620b 053d 899f 513c
000001e0: 8c82 01bd bac0 c73b 8c1d eb3c 26c1 3a3b
000001f0: 1e3a f93c b6ad c73c 5426 88bc 1025 82bc
-0.0056249644 0.025793275 0.026926035 0.029474288 0.025633646 0.012103954 0.0039224746 0.012615343
0.023843573 0.03551016 0.023846934 -0.011700522 0.019182533 0.01936884 0.039579615 0.014942241
0.033554893 0.020524245 0.014876288 0.0052704006 0.0034782102 0.016394498 0.03212802 0.017471597
0.015963603 -0.0045004315 0.0034362357 -0.016428215 -0.038910005 -0.02810725 -0.027696459 0.034442373
0.029920483 0.033411644 0.018967891 0.0049736314 0.020524334 0.03461962 0.01650633 0.03348584
0.018132761 0.027684376 0.037281338 0.016281158 0.03253377 0.017553037 0.038972102 0.021725202
0.022466177 0.011180023 -0.014247425 0.0067584193 0.010988587 0.011878906 0.010620627 0.027548514
0.021381097 0.014598243 0.016159998 -0.016905354 -0.023271287 0.012307586 0.01638445 0.030398043
0.03687331 0.0031498189 0.00070119445 0.017388854 0.014240104 0.021582648 0.018600566 0.01263994
0.00070941116 -0.01470307 0.021085555 0.03969948 0.017270207 0.038124837 -0.03542493 -0.023770897
0.014399513 0.028179966 0.0060807867 0.012271224 0.038016163 -0.01333255 0.0034027258 0.033922516
0.004808847 0.027212895 -0.012400469 0.010438697 0.007901139 0.009935068 -0.0011781289 0.022737984
0.02550297 -0.0027468803 0.00017042422 0.013537209 0.012788387 -0.002656377 0.010119705 -0.010689054
-0.016896814 -0.007534667 -0.005336976 -0.028388752 0.013199283 -0.010570321 0.0336515 0.024608571
0.045127116 -0.0036933012 0.0148671 -0.022336047 0.013417081 0.027711563 0.03248156 0.012794384
-0.03161864 0.006095973 0.028700612 0.0028496473 0.03042322 0.024374824 -0.016619839 -0.015886813

action_model._discrete_distribution.branches.0.weight f4 [5, 128]
00000000: a670 5cbc 5394 1b3d 39dc 393d beba 673b
00000010: f6a9 753c 2bea 643d 0534 98bc f6b1 b33c
00000020: c52c 913d 1a42 b03d c097 bb3b 530c 893c
00000030: b6ae c3bd b761 bbbc 281c 193d 0800 c5bc
00000040: ce39 0b3d 99ac 55ba d888 a9bd 7c1e b4bc
00000050: 3c58 db3c c555 09bd 1361 583d 89a7 b0bd
00000060: 9b80 093d 4d4b 6b3c 5ba5 0e3c c447 a4ba
00000070: 289f 69bc 6911 89bc ff4c 48bc 94d5 eebc
00000080: bb90 943c 8d1e 473d 105f 77bb db4a ddbc
00000090: 3b0d 9dbc 3bff 6a3d 1a98 d83c 9d86 2b3d
000000a0: 1216 603d 9090 143c 5030 79bd a18e 49bd
000000b0: b3fc 98bd 56d7 893b b2cc 9e3c 569a 7d3d
000000c0: ac38 c73d 1c27 93bc e2f6 f4bc 4c06 da3a
000000d0: f53e 20bb 04c7 973c 198e 1a3c cfa2 5fbd
000000e0: 9b1e 3ebd ea25 83bd 1f47 d53c 47d8 1dbd
000000f0: 8a0b 2cbc d599 84bb 0482 f8ba d8ed 33bd
00000100: eeda 4e3d f84b 99bd 06f1 4c3d c2f7 dabd
00000110: 291a 1a3d f608 d03c b25d 103c 4fc0 e4bc
00000120: ff1f f53b 2106 48bc da4e c83b 0813 9c3d
00000130: cf6e 78bd cbcc 413d 29c9 f93b d757 04bc
00000140: 2218 cc3c 7b65 a23c 7320 f13c feb4 633d
00000150: 0df3 013d b603 ad3c 3cb4 a33b 420c 7a3d
00000160: f5bd 903c 8056 36bd 4463 3fbd f74e 8bbc
00000170: 7bc8 bebd f55f 49bc 66aa 23bd 1332 1c3c
00000180: 7f6d 0cbd 8695 0e3d a0e3 96bc da84 36bc
00000190: ba92 82bc edc5 833c 025b 283b 48fd 59bb
000001a0: ac60 c33a d291 8abc e670 0bbc 128d 1cbc
000001b0: 875d 93bc 6c6f c1bc 8421 243d 7a80 3e3d
000001c0: 3c77 ab3d 1d58 53bd 8c5d fbbc a1db 673b
000001d0: 58e7 1bbd 3d6e fe3c 2e49 55bd 7bf2 31b9
000001e0: 510f 003b ca80 91bc d4e7 a6bd c899 f83c
000001f0: 3603 7a3d 6179 043c 6ae3 133c 0909 9d3b
00000200: ff1d 12bc aa83 4fbc ab0c c7bb bae5 ae3c
00000210: 3f28 623b 70a3 67bc 4cc5 f13c dc63 2ebd
00000220: b338 60bc 21fd d7bd da10 af3c c600 86bb
00000230: fdbc 9f3d 3ab2 823c 8529 81bd 019b 053b
00000240: db27 8ebd fcc0 77bd b589 293d 8220 363c
00000250: badf e9bc fbd2 2b3d 4c73 6c3c 6e11 843d
00000260: 91a3 423d 2e25 f7bc 6848 46bd 5c77 323b
00000270: 7f61 5a3c bce0 933b be30 023c e3d0 58bd
00000280: 4a38 a4bd 7df9 f6bc cfb3 763c 9972 4f3c
00000290: ddd5 f43c 6b7f 8bbd 3098 2f3d 47c2 d0bc
000002a0: f4bb 41bd 4053 c9b9 c566 aabc ee1d b1bc
000002b0: 25ba b5bc 198b 693c d699 c1bd 9b5b 9cbd
000002c0: 6d4b 5fbd bc7f 4a3d 171e 173d e0c6 7b3c
000002d0: 31dc 9ebb eeb6 67bd 383f 943c c228 d2bc
000002e0: dd04 823d 47aa f2bb 0a9e 99bd e081 e03c
000002f0: ee8d c03c 16d1 683d fb5e 54bc 188b f4bc
00000300: f06c 5e3c d5eb 063d e9cb 27bd 5d1f 993d
00000310: 0693 b6bd f2fa be3c f6be f33c e793 c23c
00000320: bbed 56bd a5a2 81bb 2e42 3a3d 712f dabd
00000330: 362d 2a3c f8ab c7bc cdda 643c 76b5 953c
00000340: 328e 0ebc c06f a1bb d787 fa3b 3e79 12bd
00000350: 675b 71bc 9d22 963c 826d 573d 2e00 afbd
00000360: 5394 0dbd d3b3 0dbd 3aa5 493d 1364 4abd
00000370: fa4d 813d 681e 2f3c 9596 3cbc 80f6 94bc
00000380: d9dc 4b3d 1201 32bc d2d5 d93b 3c93 5c3d
00000390: e7ea eb3b 73cf 18bc 4a6a 933c 03c7 d63b
000003a0: be47 013d 2aef f1bb 3507 89bc 6f81 773c
000003b0: ecb9 2bbd 24da 153d 371f bebd 5be7 b53c
000003c0: f212 c0bd 96da 953d a26c 583b 01b3 d63c
000003d0: ca5e 343c c07a 59bd 204e 343a 31d8 de3c
000003e0: 215e a83b 3c75 a43c 7d61 83bc 7349 f03c
000003f0: f925 a1bc c742 89bd e19c 553c fef3 cf3b
-0.013454592 0.03798325 0.045376036 0.003535911 0.014994135 0.055887382 -0.018579492 0.021935444
0.07088617 0.08606358 0.005724877 0.01672951 -0.09554808 -0.022873743 0.037380368 -0.024047866
0.033990674 -0.0008151024 -0.08278054 -0.021987192 0.026775472 -0.03352906 0.052826952 -0.08625705
0.033569913 0.014361215 0.008706416 -0.0012533595 -0.014259137 -0.016731935 -0.012225389 -0.029154576
0.01813542 0.04861312 -0.003774587 -0.027013233 -0.019171348 0.057372313 0.026439715 0.041876424
0.054708548 0.0090676695 -0.06083709 -0.049208287 -0.074700736 0.0042065782 0.019384716 0.061914764
0.09727606 -0.017962985 -0.02990288 0.0016633957 -0.0024451588 0.018527515 0.009433293 -0.054598626
-0.046415906 -0.06403716 0.02603489 -0.038536336 -0.010500798 -0.0040466585 -0.0018959646 -0.043927997
0.050501756 -0.07485193 0.050034545 -0.10691787 0.037622605 0.025394898 0.008811401 -0.027923731
0.007480621 -0.0122084925 0.0061129155 0.076208174 -0.06065255 0.047314446 0.007622857 -0.008077583
0.024913851 0.01982378 0.029434418 0.05559253 0.031725932 0.021119934 0.004995851 0.061046846
0.017668704 -0.044516087 -0.046725526 -0.017005427 -0.09315582 -0.012290944 -0.039957426 0.009533423
-0.03428411 0.034810565 -0.018419087 -0.011140073 -0.015939105 0.01608559 0.002568901 -0.003326254
0.001490613 -0.016915236 -0.008510804 -0.009555118 -0.017988933 -0.0236127 0.040071025 0.046509244
0.083723515 -0.051597703 -0.030684255 0.0035378712 -0.038062423 0.031058425 -0.052071743 -0.00016970366
0.001954038 -0.017761607 -0.081496865 0.030346766 0.06103822 0.00808558 0.009026388 0.004792337
-0.008918284 -0.0126656685 -0.006074508 0.021349777 0.0034508852 -0.014138088 0.029513024 -0.042575702
-0.013685393 -0.105463274 0.02137034 -0.0040894477 0.077997185 0.015954126 -0.06306747 0.002038658
-0.069411956 -0.06048678 0.041391093 0.011116149 -0.028549064 0.041949254 0.014431786 0.06448637
0.04751927 -0.030169096 -0.048408896 0.0027231788 0.013328909 0.0045128744 0.007946191 -0.052933585
-0.08018549 -0.030148262 0.015057518 0.0126616 0.029887134 -0.068114124 0.042869747 -0.025483264
-0.047298387 -0.00038399734 -0.020800957 -0.021620717 -0.022183487 0.014254355 -0.0945317 -0.0763466
-0.05451529 0.049438223 0.03689393 0.01536724 -0.004848026 -0.05657094 0.018096551 -0.0256542
0.06348584 -0.0074055525 -0.07500847 0.02740568 0.023505177 0.056840025 -0.012962098 -0.029851481
0.013575777 0.03293975 -0.04096595 0.07476685 -0.08914761 0.02331302 0.029754143 0.023752166
-0.05247281 -0.0039561563 0.04547327 -0.1065358 0.010386756 -0.024373993 0.013968182 0.018275004
-0.008700894 -0.0049266517 0.007645588 -0.035760157 -0.014731265 0.018327052 0.05259467 -0.08544956
-0.03456528 -0.034595322 0.049229838 -0.049411844 0.06313701 0.010688402 -0.011510511 -0.018183947
0.049771164 -0.010864513 0.006647804 0.05385135 0.0071996334 -0.0093268035 0.017995019 0.0065544858
0.03156256 -0.007383247 -0.01672707 0.015106543 -0.041925356 0.03658499 -0.092832975 0.022205045
-0.093786135 0.073170826 0.0033023735 0.026208403 0.011008928 -0.05309558 0.00068780966 0.027202697
0.005138174 0.020075433 -0.016037697 0.029331898 -0.019671427 -0.0670219 0.013037891 0.006346225

action_model._discrete_distribution.branches.0.bias f4 [5]
00000000: e91c 9a3b bd28 1abc 7caa ddbc c3bb 47bb
00000010: 8310 fe3c
0.0047031534 -0.009409127 -0.027058832 -0.0030476905 0.031013733

exp_avg f4 [128, 9]
00000000: fa9d 05b9 475a 0200 ef55 c7b8 d5d5 e5b8
00000010: 8b60 ee37 19ac 37b8 3765 23b9 cacb 30b9
00000020: 4db2 ccb8 0b92 deb7 8c22 0080 dddd 9bb7
00000030: 6cfc 44b8 a9c6 88b8 641e dfb6 85fc cab7
00000040: 4e59 d437 84ca 24b8 524a dd38 8515 0880
00000050: acc9 c138 f675 4637 8c1d 1639 d8b0 04b8
00000060: 8867 1a39 5aa7 bd37 2b3f db37 b4fe 31ba
00000070: 618c 0000 39b2 12ba ace6 42b9 f7c2 27b9
00000080: 58a3 d938 5661 6aba 9089 61ba b350 65b9
00000090: ee77 91b9 1ba9 0800 e86f 77b9 4d4d 72b7
000000a0: abbe 2337 685e cd38 9680 d9b9 79df e2b9
000000b0: 348f 2bb8 9cc5 8cb9 f852 0180 fd6f 62b9
000000c0: 5cba 2fb9 4ee4 35b9 ea50 3a38 2945 bab9
000000d0: 2dee 72b9 8867 24b9 5e07 1739 4c5f 0080
000000e0: e758 0039 1084 b337 ba2d 8137 c3eb 48b8
000000f0: ee8c 6939 9746 4b39 8bae 0538 a88f 1bba
00000100: 29b5 0500 8f8f 04ba 0fb2 c6b7 c1e9 34b8
00000110: fbc3 f638 3514 54ba 154a 5eba d0d7 b3b8
00000120: b499 9338 ccbf 0080 dab2 4938 c8bd f038
00000130: 6919 6739 eb47 4837 bee6 9238 9488 f0b8
00000140: 4231 d438 9edf a837 bbbc 0100 483a 9237
00000150: a44d 29b7 61c9 d5b7 4692 25b7 2d86 0d38
00000160: 36ed 6738 0596 d5b6 ae57 21b8 f475 0000
00000170: 66b3 02b8 4e39 91b7 ea7d 65b8 26bb 71b7
00000180: 6954 26b8 cd0f d036 0f98 a5b7 af90 f5b9
00000190: 9de7 0300 b2e0 ceb9 c9b3 6eb8 77a4 0fb9
000001a0: 88cb 6d38 4944 22ba e81a 10ba 044b d3b8
000001b0: a9b8 1e3a fd48 0b80 850a 053a 0064 1539
000001c0: 344c 5739 230a f3b8 67e9 5f3a 94e6 2f3a
000001d0: c889 3d39 c73f 9e37 7d79 0080 2baa 9637
000001e0: 9476 92b7 a24e e1b7 c9e1 beb7 36d6 3838
000001f0: b341 6a38 54b8 3cb7 3c3e 5c38 7142 0000
00000200: 689b 3938 c67a 9a36 71eb 4db7 9eb5 f2b6
00000210: 1599 a238 03f8 ab38 f4a6 1b37 3110 1b3a
00000220: a28a 0480 da38 f839 ed2c 9639 c5ad d739
00000230: a36b 05b6 37ee 433a a681 dc39 9f30 9c39
00000240: 586b 0039 3170 0a80 aad5 e538 a758 8837
00000250: 9f0d 4639 bb16 a4b8 3412 5139 d3f8 8a37
00000260: 5ed5 0038 6a7f 6739 22c5 0080 1a71 4039
00000270: 6b9a 4338 cd86 9936 b30b 28b8 2441 a639
00000280: 1b04 a139 0a53 7d38 837e f336 e8fa 0200
00000290: d4ee b536 b321 f135 a429 f2b7 6b64 4236
000002a0: ff6a 3d37 f6bd 0e38 58e9 c135 65b2 3c38
000002b0: ed8a 0180 9832 1a38 c70e 4337 121b bfb7
000002c0: 433d f8b5 633a 9338 dd05 9c38 82b1 6b37
000002d0: 4304 99b9 8e70 0e00 4540 89b9 59ee 2b39
000002e0: cacb 103a 43cd f838 5bab 01ba c13f 7aba
000002f0: 6c1d dc38 3fbd 0fb8 e007 0080 c26d 0bb8
00000300: b7a8 0638 115e b338 c915 0038 a426 8fb8
00000310: a6f4 11b9 5b53 c437 39a8 a538 2453 0380
00000320: 57ef 9138 cb1f d4b6 f970 53b7 df7c 49b8
00000330: 5de3 0c39 3893 0f39 8560 2b36 60cf 29b9
00000340: 6893 0500 0232 10b9 afba 9cb7 3915 4237
00000350: 727c 1838 0db1 7db9 0c63 79b9 db13 08b8
00000360: 8c01 feb7 eb83 0080 8ab6 d2b7 5e0e 30b7
00000370: 475a 85b8 0703 4037 38b0 d8b7 e30d 3ab6
00000380: 555d 4fb7 931d fc38 da8e 0100 ddcf cd38
00000390: 38f5 dc37 0e03 8ab7 58b5 3cb7 b50a 3139
000003a0: 7428 3c39 727c 0a38 a5dd 8738 5aaf 0080
000003b0: 2a3e 6738 31eb 13b7 83f1 b3b8 510f edb6
000003c0: a074 cc38 704e 3039 881a 96b5 bdb1 14ba
000003d0: 595e 0400 b177 f3b9 2cef 34b9 a7fc cab7
000003e0: d724 8738 ab12 4dba aefe 49ba 3b21 4eb9
000003f0: 1c53 9b38 b82c 0180 520f 8638 aa33 e2b7
-0.00012742719 2.16056e-40 -9.505066e-05 -0.000109594 2.8416767e-05 -4.379088e-05 -0.00015582597 -0.00016860585
-9.760689e-05 -2.6532469e-05 -1.2393e-41 -1.8580753e-05 -4.6965128e-05 -6.521989e-05 -6.649456e-06 -2.4197865e-05
2.5313955e-05 -3.9289254e-05 0.000105519444 -7.42404e-40 9.2405215e-05 1.1829185e-05 0.00014316122 -3.163595e-05
0.00014725153 2.2608485e-05 2.613625e-05 -0.0006789968 5.0358e-41 -0.0005596015 -0.00018587214 -0.00015998991
0.000103777915 -0.0008940896 -0.0008603567 -0.00021869205 -0.0002774591 7.95348e-40 -0.00023597444 -1.4442322e-05
9.75995e-06 9.792746e-05 -0.0004148527 -0.0004327258 -4.0902945e-05 -0.0002685011 -1.21599e-40 -0.00021594758
-0.00016758725 -0.00017346555 4.4421213e-05 -0.00035528213 -0.00023167646 -0.00015678827 0.00014403227 -3.4186e-41
0.0001224015 2.139996e-05 1.5399291e-05 -4.7903286e-05 0.00022273112 0.00019385885 3.1872227e-05 -0.0005934187
5.24165e-40 -0.0005056792 -2.3686354e-05 -4.3133045e-05 0.00011766698 -0.0008090169 -0.0008479667 -8.575583e-05
7.038136e-05 -6.8804e-41 4.8088703e-05 0.00011479441 0.00022039343 1.1937674e-05 7.0048016e-05 -0.000114695315
0.00010118123 2.013129e-05 1.59539e-40 1.7431696e-05 -1.0091262e-05 -2.5485353e-05 -9.868823e-06 3.374198e-05
5.529561e-05 -6.3653592e-06 -3.846705e-05 4.2314e-41 -3.1161493e-05 -1.7312032e-05 -5.471512e-05 -1.4408293e-05
-3.9656097e-05 6.2007225e-06 -1.974034e-05 -0.0004683784 3.58594e-40 -0.00039458793 -5.691106e-05 -0.0001369881
5.6694756e-05 -0.0006189985 -0.00054971734 -0.00010075237 0.0006054738 -1.036374e-39 0.0005075115 0.00014247
0.00020532386 -0.00011589031 0.00085415546 0.0006710079 0.00018075772 1.8864766e-05 -4.3582e-41 1.7960634e-05
-1.7459774e-05 -2.6858706e-05 -2.2754904e-05 4.4068518e-05 5.5851135e-05 -1.124859e-05 5.2510048e-05 2.3835e-41
4.425217e-05 4.6038504e-06 -1.227377e-05 -7.233305e-06 7.753276e-05 8.200111e-05 9.277592e-06 0.00059151935
-4.17074e-40 0.00047344604 0.00028643702 0.00041137464 -1.9881197e-06 0.00074741564 0.00042058266 0.00029790864
0.0001224702 -9.58602e-40 0.00010959369 1.6253745e-05 0.00018887826 -7.824363e-05 0.00019938574 1.656675e-05
3.071629e-05 0.00022077342 -7.0718e-41 0.0001835268 4.6635436e-05 4.575448e-06 -4.0065217e-05 0.0003171052
0.00030711372 6.0397237e-05 7.2566922e-06 2.73679e-40 5.4220236e-06 1.7965707e-06 -2.8868038e-05 2.8966704e-06
1.129019e-05 3.4032353e-05 1.4447533e-06 4.4988836e-05 -1.41673e-40 3.676358e-05 1.1626346e-05 -2.278158e-05
-1.8495269e-06 7.0203816e-05 7.439752e-05 1.4048421e-05 -0.0002918561 1.326074e-39 -0.0002617856 0.00016396622
0.0005523531 0.000118637945 -0.00049464934 -0.0009546243 0.00010495898 -3.4270106e-05 -2.825e-42 -3.3242402e-05
3.2105218e-05 8.5529064e-05 3.0537867e-05 -6.825969e-05 -0.00013919416 2.3403836e-05 7.899147e-05 -3.05332e-40
6.958719e-05 -6.3217935e-06 -1.26028835e-05 -4.803843e-05 0.0001343614 0.00013692386 2.5537167e-06 -0.00016194349
5.12057e-40 -0.0001375154 -1.868358e-05 1.1568242e-05 3.6355523e-05 -0.00024193917 -0.00023783388 -3.244342e-05
-3.027988e-05 -4.7323e-41 -2.5118952e-05 -1.0493763e-05 -6.35875e-05 1.1444797e-05 -2.5831265e-05 -2.7724243e-06
-1.2359892e-05 0.00012021805 1.43081e-40 9.813879e-05 2.6340233e-05 -1.6452304e-05 -1.1247896e-05 0.00016884024
0.00017944147 3.3017663e-05 6.478586e-05 -6.2904e-41 5.5132587e-05 -8.816643e-06 -8.58037e-05 -7.0649335e-06
9.749201e-05 0.00016813888 -1.1183593e-06 -0.0005672237 4.01188e-40 -0.0004643775 -0.00017255236 -2.4197927e-05
6.4441636e-05 -0.0007822911 -0.0007705492 -0.0001965807 7.406456e-05 -1.07878e-40 6.3924716e-05 -2.6965357e-05

exp_avg_sq f4 [128, 9]
00000000: 5d4a c235 ad6c d932 5cec 4435 75a4 8d34
00000010: 2196 e035 f9f6 d835 3010 6135 5428 6635
00000020: a5fd e834 772f 7b34 fd5b 0731 d693 1c34
00000030: d54c fc32 f4fa 2334 b2c7 aa33 5f95 9d34
00000040: 0b0d 9034 4974 4633 7eb0 8335 ceff 0433
00000050: cd27 0335 a94e 3c34 3a13 c035 3d55 8235
00000060: 6335 1f35 b231 d334 e4bc 9c34 9030 9536
00000070: 4ef0 1133 5cc2 4436 15ef 0c35 34f3 f335
00000080: 350e e834 a238 da36 a26a d136 e1ac 4235
00000090: 6a6b ac35 4fe0 f332 c12f 4835 42ca 5c34
000000a0: 8848 6635 0bcf 2435 9715 b935 8623 bc35
000000b0: 3cee a434 78d6 1936 9e4a 4533 62ca b535
000000c0: 658e c434 7695 1f36 1c6d a135 63fb 1236
000000d0: 0c68 0136 d9bb 0e35 8b38 5334 1528 0e30
000000e0: 5283 0434 94fc 0033 2141 0a34 ccbd 7933
000000f0: 386f 8c34 8fc3 5734 4f3e 3033 93b6 8136
00000100: 49c1 dc33 b813 1d36 661c 1a35 31de 0d36
00000110: 8d71 9135 7520 a636 dd2e 9e36 1615 6235
00000120: 2d71 1736 05ad 5333 e342 c435 e7ac b334
00000130: 9ea2 2735 ed1c 4134 de1a 7236 c06b 5936
00000140: 846b f534 1639 2334 8652 bd30 bde8 cd33
00000150: 9267 9f32 21c7 1833 b398 0b33 6102 6e34
00000160: a7d0 7a34 4803 f832 e5c9 3333 578c ad31
00000170: e3e0 9432 5b06 3832 b1cd 8933 20b9 0833
00000180: ebbb 0733 df46 9e31 76e3 9332 fb84 2036
00000190: 0662 9633 6aa4 c835 2e85 9d34 39f9 4335
000001a0: 9899 c134 9766 6636 781f 7236 d5e9 f934
000001b0: 561d 3f36 6b3b 2732 e8f7 f335 43e6 d934
000001c0: c0ba 1636 50ab 3935 3714 7f36 cdc7 3036
000001d0: 248a 1235 34c3 a333 c010 ed2f f9d7 2533
000001e0: 8673 1832 77e8 fe33 3409 c633 1806 af32
000001f0: 280e 0b33 89f0 a232 33d0 a432 f22a 7330
00000200: b2ec 3232 9f58 d630 40c0 4932 1e6b 3032
00000210: d7be a132 2055 cc32 c1fd 9231 7c20 ca36
00000220: 3256 c932 bf81 8536 3fd4 6b35 1c49 2036
00000230: f6b7 3435 8fc1 1f37 d8d9 0437 59b7 9735
00000240: b288 a435 ee3e c832 6c7c 1c35 2a0d 7d34
00000250: 0d80 0436 21f7 cf35 4ffc f734 a21e 7534
00000260: b26a cd34 12f7 dc34 54dc 9931 6419 8e34
00000270: fb51 9233 384c 9734 910b 3933 4c6d 2c35
00000280: ac35 da34 2188 c233 cd80 b633 baf5 b032
00000290: dc53 1533 1633 9032 a7fc 0c33 74e0 c032
000002a0: 5c6c d433 d732 de33 066e 2233 315c bd32
000002b0: 939b 5f30 2efa 4032 2c77 8b31 e92e 9832
000002c0: 1729 c732 9f4f 5332 5018 dc32 6fb6 0032
000002d0: 7828 1437 f490 d634 012c b336 5b48 cd35
000002e0: a0ac 9336 2043 fa35 1033 5a37 1ff1 2c37
000002f0: 5d85 1736 8597 bc34 39b1 0e32 d65a 6934
00000300: 6a0b 7d33 a7e4 6d34 1375 b933 2926 0535
00000310: b974 d134 805d b333 8146 1b34 aecd fe30
00000320: 8814 b433 a02a a832 9cce dd33 b16d d233
00000330: 05b9 fc33 9a89 2634 d169 0033 cddd 4c34
00000340: 4da1 c232 8e93 d033 9a44 2233 e761 e233
00000350: 8458 b333 3646 5c34 44d1 6934 46b8 8a33
00000360: e046 9733 3211 1c30 e578 4133 9a01 db31
00000370: 3e49 0633 46d8 a932 02cd bb33 f98f da33
00000380: 98a8 2f32 97f2 2e34 61f0 b730 4f69 e633
00000390: 7a56 a932 56ff f532 ed10 8b32 b6d0 9334
000003a0: bb0f 8934 590f f332 0a33 b433 8381 6b31
000003b0: ad41 6133 0ebb 6032 c5f3 3433 5c5d 2932
000003c0: 42f4 0934 ec8d dd33 c83a aa32 89e3 3636
000003d0: 9744 9532 afd9 e735 6e16 c634 77a0 8635
000003e0: 1106 5535 35f3 7336 0ee8 8036 7aea 0a35
000003f0: fc4e 6c34 4303 0132 2716 0234 2c94 1833
1.4475769e-06 2.5311545e-08 7.335964e-07 2.6382955e-07 1.6732994e-06 1.6165133e-06 8.384259e-07 8.574036e-07
4.3397918e-07 2.3393464e-07 1.9697375e-09 1.4582415e-07 2.93716e-08 1.5271854e-07 7.952566e-08 2.935221e-07
2.683158e-07 4.6206228e-08 9.811627e-07 3.0966298e-08 4.885922e-07 1.7537481e-07 1.431071e-06 9.710562e-07
5.9309804e-07 3.933797e-07 2.91947e-07 4.4461995e-06 3.3979e-08 2.9319408e-06 5.2501974e-07 1.8175692e-06
4.3223704e-07 6.503499e-06 6.241099e-06 7.2522204e-07 1.284626e-06 2.8390927e-08 7.4575297e-07 2.0562678e-07
8.5787224e-07 6.139605e-07 1.3789858e-06 1.401743e-06 3.072072e-07 2.2923614e-06 4.59355e-08 1.3544452e-06
3.661145e-07 2.3779844e-06 1.202719e-06 2.1902022e-06 1.9283061e-06 5.3172477e-07 1.9671477e-07 5.171626e-10
1.2341232e-07 3.003204e-08 1.2875945e-07 5.814745e-08 2.6157954e-07 2.0094579e-07 4.1034863e-08 3.865754e-06
1.0279707e-07 2.34063e-06 5.7410796e-07 2.113997e-06 1.083639e-06 4.950964e-06 4.7142225e-06 8.4222245e-07
2.256663e-06 4.9284626e-08 1.4622605e-06 3.346715e-07 6.2448987e-07 1.7985049e-07 3.6076449e-06 3.2398239e-06
4.5713034e-07 1.5201326e-07 1.3775014e-09 9.588391e-08 1.8557134e-08 3.5571365e-08 3.250234e-08 2.2166343e-07
2.3358972e-07 2.8872492e-08 4.1860307e-08 5.0509175e-09 1.7331734e-08 1.0711655e-08 6.416975e-08 3.1833338e-08
3.1603047e-08 4.6064623e-09 1.721649e-08 2.3919263e-06 7.00275e-08 1.4949012e-06 2.934043e-07 7.300583e-07
3.6060806e-07 3.4332386e-06 3.6079127e-06 4.655e-07 2.8478294e-06 9.7341895e-09 1.8177061e-06 4.0586937e-07
2.2460445e-06 6.9167163e-07 3.8009728e-06 2.6342343e-06 5.459026e-07 7.625786e-08 4.312195e-10 3.8613482e-08
8.8738314e-09 1.1870082e-07 9.2217675e-08 2.0375452e-08 3.2376335e-08 1.8968665e-08 1.918679e-08 8.8463914e-10
1.0414782e-08 1.5595737e-09 1.1743452e-08 1.0268904e-08 1.882965e-08 2.3787436e-08 4.2780077e-09 6.023851e-06
2.3438677e-08 3.9788133e-06 8.785318e-07 2.3884413e-06 6.7322924e-07 9.522205e-06 7.918534e-06 1.1303738e-06
1.2258736e-06 2.3311681e-08 5.8295586e-07 2.356725e-07 1.9744068e-06 1.5494626e-06 4.6190914e-07 2.2828547e-07
3.8261857e-07 4.115796e-07 4.4779345e-09 2.6468035e-07 6.813567e-08 2.8181398e-07 4.308419e-08 6.423404e-07
4.0644716e-07 9.058591e-08 8.498464e-08 2.060084e-08 3.4768036e-08 1.6787038e-08 3.2826076e-08 2.2453811e-08
9.89173e-08 1.0346928e-07 3.781863e-08 2.204442e-08 8.134801e-10 1.1232755e-08 4.0589807e-09 1.7716461e-08
2.3185335e-08 1.229992e-08 2.5622427e-08 7.492061e-09 8.83091e-06 3.9966073e-07 5.3397384e-06 1.5294748e-06
4.4010376e-06 1.8645987e-06 1.30057015e-05 1.0308139e-05 2.257838e-06 3.5127974e-07 8.305784e-09 2.1732862e-07
5.8916534e-08 2.2155528e-07 8.6360295e-08 4.960189e-07 3.901421e-07 8.3523446e-08 1.4461149e-07 1.853939e-09
8.385638e-08 1.9577158e-08 1.03286965e-07 9.79884e-08 1.1768319e-07 1.5510014e-07 2.9898562e-08 1.9079671e-07
2.2657924e-08 9.712595e-08 3.7780957e-08 1.05417534e-07 8.351438e-08 2.0514639e-07 2.1775946e-07 6.459645e-08
7.0443775e-08 5.6776905e-10 4.5046267e-08 6.373921e-09 3.126592e-08 1.977254e-08 8.745157e-08 1.01776045e-07
1.0224674e-08 1.6293266e-07 1.3383322e-09 1.0729365e-07 1.9713514e-08 2.8637867e-08 1.6189427e-08 2.753274e-07
2.5529684e-07 2.8295903e-08 8.391187e-08 3.427062e-09 5.2446627e-08 1.3081047e-08 4.2131223e-08 9.858322e-09
1.284798e-07 1.031693e-07 1.9817335e-08 2.7252556e-06 1.7377074e-08 1.7274195e-06 3.6896694e-07 1.0030479e-06
7.935751e-07 3.6351387e-06 3.841712e-06 5.1750214e-07 2.2007947e-07 7.50953e-09 1.2115252e-07 3.552502e-08

exp_avg f4 [128]
00000000: f727 32b9 5261 14b8 e586 1339 9c53 6dba
00000010: 3df5 c1b9 25b2 bbb9 255f 4939 356a 4fba
00000020: fecc c438 1c2a e137 921f 57b8 ccb5 23ba
00000030: e1a0 533a b1ff d237 28d4 9238 44c0 4e3a
00000040: ca39 2b39 f154 9a39 4c54 2237 8898 7b38
00000050: ae05 ccb9 fea6 3fb8 4de0 dc38 d469 62b9
00000060: 6656 29b8 b913 2839 8527 b538 5342 46ba
00000070: 7b19 cf38 8669 8039 7e7d 2238 b61e 053a
00000080: 7bef c2b9 3822 dcb8 98d2 d6b9 d204 e939
00000090: 372c 3a38 fd5f 8c3a 4571 853a af61 0838
000000a0: 185a cf38 9073 3db9 a995 28ba dbc4 d5b8
000000b0: 06e7 2838 cccb 5139 c46c ac38 9378 a1b9
000000c0: bc45 2b39 35c8 513a 145c c438 8534 8039
000000d0: 73ee a4b9 90ee d8b9 7d3a e0b9 207b f5b9
000000e0: 37f6 6739 21f3 283a 9f98 5f3a d610 2839
000000f0: 5a01 cd38 cd46 aeb9 ec82 9d37 2237 d3b9
00000100: 382b ca38 5b53 2239 81e5 39ba 545b 05ba
00000110: 31f9 9238 0987 90b9 abda 3b39 9cd9 39b8
00000120: dbe0 10ba c181 b338 c1e5 53b9 af8a 3e39
00000130: 097d 81b8 1f05 133a cf89 11ba 55b3 a0ba
00000140: 8368 6937 4e06 fa39 3f70 d137 3292 ca38
00000150: 4661 53b9 2f17 0bba d12a 5db9 4136 a3b7
00000160: 0e42 4e39 7cd7 e3b9 b02d a03a 72e4 0438
00000170: 70f8 fcba 2a6c 0aba f769 5f38 62da 2ab9
00000180: 2642 09b9 9104 d139 a6b0 e737 c726 27ba
00000190: f752 01ba d872 3aba a5eb 133a 90b0 9cba
000001a0: 8665 6c37 26fa 87b9 904b d7b7 5e6b aeb8
000001b0: c334 f439 cc8b cc37 ab2d 8139 4b61 c339
000001c0: 80cd 6938 94f0 20ba 367e 09ba 9c7b 693a
000001d0: d18b 8b3a 45ee 2138 7b4c 81b8 306c c9b7
000001e0: 5c13 89b9 a0a0 9eba a4a8 afb9 e0c6 0eba
000001f0: 8ccf b939 c12a cbb9 27fc 4bb7 88c3 2eba
-0.00016990291 -3.5376586e-05 0.00014069265 -0.0009053291 -0.00036994545 -0.00035800147 0.00019204298 -0.00079122494
9.384191e-05 2.6841699e-05 -5.1289397e-05 -0.00062450464 0.0008072984 2.5153016e-05 7.00134e-05 0.0007886926
0.00016329359 0.00029436455 9.675579e-06 5.998512e-05 -0.00038914144 -4.5693472e-05 0.00010532197 -0.00021592464
-4.0373205e-05 0.00016029076 8.638114e-05 -0.00075629837 9.875275e-05 0.00024492684 3.8740684e-05 0.00050781236
-0.0003718099 -0.00010496791 -0.00040974165 0.00044444815 4.4387034e-05 0.0010709759 0.0010180852 3.25159e-05
9.8873104e-05 -0.00018067495 -0.00064309925 -0.00010193299 4.026948e-05 0.00020007713 8.221858e-05 -0.00030798148
0.00016333809 0.00080025505 9.363159e-05 0.00024453193 -0.00031458176 -0.00041376473 -0.00042768187 -0.00046821777
0.00022121599 0.00064449204 0.0008529517 0.00016028 9.7754135e-05 -0.00033240617 1.8776824e-05 -0.00040286133
9.640161e-05 0.00015480576 -0.00070913887 -0.00050871563 7.008238e-05 -0.0002756643 0.0001791517 -4.43101e-05
-0.000552667 8.559554e-05 -0.00020208118 0.00018171476 -6.174489e-05 0.0005608368 -0.0005551846 -0.0012260476
1.3912216e-05 0.00047688413 2.496701e-05 9.6593416e-05 -0.00020158765 -0.0005305884 -0.00021092153 -1.9456378e-05
0.00019670298 -0.00043457362 0.0012220647 3.168401e-05 -0.0019300114 -0.00052804 5.326603e-05 -0.00016293817
-0.0001308998 0.0003986699 2.7619604e-05 -0.00063763227 -0.0004933322 -0.000711245 0.0005642719 -0.0011954475
1.4090334e-05 -0.00025935582 -2.5665184e-05 -8.316965e-05 0.00046578617 2.4383793e-05 0.00024638823 0.00037265787
5.5742916e-05 -0.00061393646 -0.0005244942 0.0008906664 0.0010646527 3.8607297e-05 -6.165445e-05 -2.4011446e-05
-0.000261451 -0.0012102313 -0.00033504248 -0.0005446505 0.00035440584 -0.0003875103 -1.2158452e-05 -0.00066667097

exp_avg_sq f4 [128]
00000000: 8091 2a36 ed4a de34 0ef5 e335 ed04 0437
00000010: 76d2 1736 7473 8636 acb2 bb34 d008 e336
00000020: 4694 8536 fd23 9134 521c 9233 c0d8 8c36
00000030: ff45 a936 d1fa 1134 e0bd 0f33 5370 3337
00000040: 2a26 0f36 9baf 4335 450c 0c34 226a 2a33
00000050: 23fa 8037 7de8 2535 63b5 8834 ab29 aa34
00000060: f3ee 0534 5212 9c34 7058 1e34 f8f7 a136
00000070: 9383 ce34 42d9 2835 3a35 b334 184a d736
00000080: d464 4437 1406 0034 1f71 6936 dda4 3136
00000090: 56b0 0634 1e3c 3737 e96e 7137 45a2 d132
000000a0: 91f5 8037 9f17 bf34 049b 5536 9ff3 6d35
000000b0: ec85 2636 6457 6135 c41b 7532 a49b 7c35
000000c0: 5ac9 2536 de6d aa36 7961 d634 011f 2c35
000000d0: 797e a435 f2e7 7136 5853 9936 83d0 3036
000000e0: ce52 2637 16c8 6137 96ac 2737 fe3d ac36
000000f0: 7dba 7f35 885a 9634 5194 8731 1405 1f36
00000100: 3de5 6036 8990 b735 fbbf e336 41cf 9736
00000110: af7f a333 8eea 7935 c195 1135 d966 fe33
00000120: 64dd a236 056f 0034 3a7a 1135 62d7 d535
00000130: de07 a534 481e 8f36 4db5 6636 d1c6 3937
00000140: 9760 2334 446c 9f36 6e35 bb32 6c24 9335
00000150: 7945 9635 c393 0036 6df6 8a35 1398 a135
00000160: 621f e235 27b6 9c36 79cb 0038 444a 0f35
00000170: 944c 2638 6f5e 8836 2c49 2934 76aa cd34
00000180: 4696 b635 851d 8c36 27ec b435 f955 8536
00000190: 8428 2a36 4db5 9036 5899 a636 d951 6e37
000001a0: df69 e832 74b4 3a35 2939 d131 8dfc 3036
000001b0: 73bf 5836 6806 7d35 b290 1c36 5ded f535
000001c0: 9058 ff32 8799 f936 dc9e 1a36 12a6 3437
000001d0: 2a60 a237 7f2f 8334 de67 2336 c09a 5a35
000001e0: 0350 9235 081c 4d37 7a3e 0036 0d70 5136
000001f0: 8aef 1836 cf3d 3d36 7ad6 bc35 1697 3b36
2.5416666e-06 4.1405238e-07 1.6984138e-06 7.86896e-06 2.2623258e-06 4.0069517e-06 3.4961465e-07 6.766153e-06
3.98097e-06 2.703454e-07 6.803806e-08 4.197558e-06 5.044741e-06 1.3595424e-07 3.3467472e-08 1.0695384e-05
2.1330875e-06 7.28987e-07 1.304298e-07 3.9677737e-08 1.5375268e-05 6.1805605e-07 2.546395e-07 3.1695285e-07
1.247352e-07 2.9070594e-07 1.474707e-07 4.8270413e-06 3.8466223e-07 6.290103e-07 3.3380076e-07 6.416125e-06
1.1705986e-05 1.192314e-07 3.478555e-06 2.6471018e-06 1.2543873e-07 1.0921647e-05 1.4390543e-05 2.4404594e-08
1.537314e-05 3.559371e-07 3.1829704e-06 8.8643895e-07 2.481388e-06 8.39462e-07 1.426719e-08 9.41038e-07
2.4704118e-06 5.079185e-06 3.9931527e-07 6.412011e-07 1.225576e-06 3.6046808e-06 4.569458e-06 2.6347413e-06
9.9136505e-06 1.3457631e-05 9.994159e-06 5.1332163e-06 9.526628e-07 2.8005547e-07 3.9458787e-09 2.3695802e-06
3.3512035e-06 1.3676628e-06 6.7874767e-06 4.524278e-06 7.6135045e-08 9.310105e-07 5.423463e-07 1.18465046e-07
4.8537495e-06 1.1961318e-07 5.419457e-07 1.5932421e-06 3.073937e-07 4.2652573e-06 3.4378202e-06 1.107315e-05
1.5215697e-07 4.751173e-06 2.1793962e-08 1.0962954e-06 1.119609e-06 1.9159495e-06 1.035352e-06 1.2039694e-06
1.6847446e-06 4.6703676e-06 3.0707077e-05 5.337972e-07 3.9648803e-05 4.0641094e-06 1.5765971e-07 3.8308252e-07
1.3603792e-06 4.1757617e-06 1.3479774e-06 3.9737174e-06 2.5355557e-06 4.3126406e-06 4.965037e-06 1.4204962e-05
2.70565e-08 6.9552993e-07 6.089199e-09 2.6373048e-06 3.2297946e-06 9.4259167e-07 2.3330035e-06 1.8323004e-06
2.972618e-08 7.438651e-06 2.3040257e-06 1.0767502e-05 1.9356685e-05 2.443521e-07 2.4349351e-06 8.143652e-07
1.0901134e-06 1.2225479e-05 1.9109852e-06 3.120865e-06 2.2789195e-06 2.8199172e-06 1.4069512e-06 2.7953115e-06
