Assets/results/Maze03/Mouse/Mouse-77667.pt (torch, 455069 bytes, 33 tensors)

network_body._body_endoder.seq_layers.0.weight f4 [128, 9]
-0.20419407 0.07179713 0.3635616 -0.2987155 -0.18185142 0.2678079 -0.41003546 -0.19150905
0.7054542 0.58900756 -0.41396108 -0.10498656 -0.4821762 -0.2568036 -0.031055091 -0.43832755
-0.41739923 0.052686423 -0.028332332 -0.033682946 0.052595828 -0.07675312 0.52061915 -0.013291674
-0.1469902 -0.26027808 0.31415632 0.38388285 0.15738836 0.31955183 -0.33006722 0.17761186
-0.14116675 -0.25225687 0.10385063 -0.082475066 -0.22857554 -0.20824592 -0.34452677 0.3546347
0.16116957 0.27143762 0.14726774 0.572828 0.71960026 0.3395624 0.09874569 0.30512258
-0.14962591 0.3614408 0.048559602 -0.8909296 0.0010275078 0.031186434 -0.36694905 -0.10332978
-0.20310467 -0.049246896 0.08698641 0.36184624 0.16083987 -0.32095927 -0.1020619 0.582013
-0.18073328 -0.22886056 0.11011093 -0.017665196 -0.17943554 0.29584858 0.53183717 -0.2655955
0.015996384 0.09075104 0.13003244 0.37983513 -0.10137939 -0.069002055 0.21703877 0.23546869
0.034547396 -0.19951317 -0.2295394 -0.20530437 -0.3076652 -0.35598892 0.21206538 -0.0632549
0.035534255 0.29256177 0.053921446 0.6047611 -0.34045202 -0.052745514 -0.044096123 -0.4892916
-0.40962628 -0.70564085 -0.097689845 -0.002389455 0.30721322 0.22085024 -0.5147273 -0.31354707
-0.17111546 0.19822623 0.44363084 0.067355976 0.13101669 0.059884977 0.18986875 -0.009859783
0.41585314 0.2678863 0.46836242 -0.673308 -0.86369205 -0.33385828 -0.7790038 0.035489544
-0.45844108 0.10443108 -0.05335981 -0.5396622 -0.103406176 0.41023722 -0.052646305 0.26566795
-0.3134821 -0.5655232 -0.32161453 0.095211364 -0.23704085 -0.09728733 -0.28659052 0.38616264
-0.3423499 0.0014253381 0.41203204 0.013711682 -0.3740952 0.16933975 -0.26596397 -0.070434704
-0.3405336 0.07042759 -0.14197868 0.41963264 0.39154196 0.29675728 -0.2903919 -0.6026742
0.15877433 -0.2625973 -0.3583436 -0.10010762 0.014221172 0.13840076 -0.13586211 0.26376015
-0.53403157 0.14071748 0.15109685 0.6709904 -0.3043903 0.28816244 -0.09223535 -0.052523263
0.035982437 -0.12092776 -0.42461476 -0.4094229 -0.5494458 0.12970017 0.18691175 -0.2964177
0.13939154 -0.62575567 0.18698469 0.24953961 0.099977605 1.0710654 0.084495895 0.8139334
0.051711988 0.38828352 0.8915296 0.20505257 0.52874947 0.26614544 0.0412241 -0.30732864
0.24413726 0.23258196 0.109623425 0.15724905 0.45312643 0.06828272 0.20777984 0.15778825
0.07705799 0.29233107 -0.32986844 0.18091719 -0.51974267 -0.3214242 -0.6844483 0.0720651
0.47656873 0.085650824 0.488059 -0.17148642 -0.11531306 -0.11772284 0.21928573 -0.09907728
-0.006355033 0.17875138 -0.02239055 -0.5128502 -0.022377783 -0.17291634 -0.16005649 0.22502862
-0.5720783 -0.40175363 -0.20357665 0.09458077 -0.1289658 -0.5717646 0.17629421 0.32053116
-0.19210194 0.11120312 -0.43144986 0.21652631 0.08244189 -0.16333579 -0.040293295 -0.19767015
-0.064787075 -0.12175694 -0.10018303 0.11311589 -0.4350171 0.3356987 0.2642994 -0.30988672
0.03701282 -0.5163658 0.1666448 0.31193653 -0.0964688 -0.047886677 -0.25862846 -0.8698385
00000000: 4018 51be 600a 933d bf24 ba3e 3df1 98be
00000010: 4237 3abe 1e1e 893e 2bf0 d1be f31a 44be
00000020: a598 343f 33c9 163f b5f2 d3be 3203 d7bd
00000030: cddf f6be c37b 83be 3f67 febc 786c e0be
00000040: 5ab5 d5be b8cd 573d 3519 e8bc 21f7 09bd
00000050: b96e 573d bd30 9dbd 4c47 053f 52c5 59bc
00000060: 9984 16be 2b43 85be 19d9 a03e 4b8c c43e
00000070: 6a2a 213e 4c9c a33e 92fe a8be e2df 353e
00000080: 048e 10be d027 81be a4af d43d b0e8 a8bd
00000090: b50f 6abe 6b3e 55be d065 b0be ae92 b53e
000000a0: a309 253e dff9 8a3e 5bcd 163e dba4 123f
000000b0: b937 383f 1fdb ad3e 2e3b ca3d 0739 9c3e
000000c0: 8937 19be c50e b93e 6fe6 463d f613 64bf
000000d0: 71ad 863a b17a ff3c bfe0 bbbe 909e d3bd
000000e0: acfa 4fbe 1db7 49bd ee25 b23d e943 b93e
000000f0: 35b3 243e c654 a4be d405 d1bd cefe 143f
00000100: 2512 39be 6c5a 6abe d781 e13d 9ab6 90bc
00000110: f3bd 37be 7779 973e 7b26 083f 22fc 87be
00000120: d90a 833c aedb b93d 3927 053e c079 c23e
00000130: ff9f cfbd f350 8dbd 693f 5e3e b41e 713e
00000140: 9281 0d3d 2e4d 4cbe 600c 6bbe 4f3b 52be
00000150: 4b86 9dbe 2e44 b6be ab27 593e c98b 81bd
00000160: 5e8c 113d a8ca 953e bcdc 5c3d a0d1 1a3f
00000170: ba4f aebe ae0b 58bd 239e 34bd 6e84 fabe
00000180: 89ba d1be e1a4 34bf 9d11 c8bd 6798 1cbb
00000190: 0d4b 9d3e 9126 623e 2bc5 03bf 3e89 a0be
000001a0: e438 2fbe d1fb 4a3e 9523 e33e eef1 893d
000001b0: 3d29 063e f349 753d f46c 423e ed8a 21bc
000001c0: b4ea d43e 6528 893e 33cd ef3e ea5d 2cbf
000001d0: ec1a 5dbf 79ef aabe cb6c 47bf 7c5d 113d
000001e0: cab8 eabe f6df d53d d18f 5abd 4d27 0abf
000001f0: 9ec6 d3bd 9d0a d23e a7a3 57bd a105 883e
00000200: ba80 a0be 21c6 10bf a9aa a4be 2dfe c23d
00000210: d6ba 72be 943e c7bd febb 92be 1cb7 c53e
00000220: 7c48 afbe 69d2 ba3a ddf5 d23e f6a6 603c
00000230: 6889 bfbe 6667 2d3e 6e2c 88be 1240 90bd
00000240: 6c5a aebe 573c 903d dc62 11be 17da d63e
00000250: 3078 c83e 92f0 973e 3fae 94be db48 1abf
00000260: bd95 223e 2773 86be d078 b7be 3905 cdbd
00000270: ebff 683c eeb8 0d3e 701f 0bbe 920b 873e
00000280: 4bb6 08bf 3e18 103e 22b9 1a3e 07c6 2b3f
00000290: 0cd9 9bbe 078a 933e e3e5 bcbd a222 57bd
000002a0: 5262 133d f9a8 f7bd 1b67 d9be e19f d1be
000002b0: 7ba8 0cbf 1fd0 043e cb65 3f3e 10c4 97be
000002c0: a8bc 0e3e 8631 20bf ea78 3f3e 5087 7f3e
000002d0: 0fc1 cc3d ac18 893f 2f0c ad3d f05d 503f
000002e0: f3cf 533d 19cd c63e 493b 643f 4df9 513e
000002f0: 205c 073f 3744 883e 9ada 283d 2e5a 9dbe
00000300: 1eff 793e f729 6e3e 3f82 e03d e505 213e
00000310: 3000 e83e d0d7 8b3d 3dc4 543e 3e93 213e
00000320: 94d0 9d3d 6bac 953e 84e4 a8be 5b42 393e
00000330: db0d 05bf b691 a4be 0138 2fbf de96 933d
00000340: d100 f43e b369 af3d dfe2 f93e 239a 2fbe
00000350: 4129 ecbd ac18 f1bd 708c 603e 07e9 cabd
00000360: e13d d0bb 9a0a 373e 636c b7bc 274a 03bf
00000370: 9d51 b7bc fb10 31be d9e5 23be e76d 663e
00000380: b973 12bf a7b2 cdbe 6676 50be 90b3 c13d
00000390: 9c0f 04be 2a5f 12bf 7886 343e a91c a43e
000003a0: 5fb6 44be 76be e33d ffe6 dcbe 13b9 5d3e
000003b0: 4bd7 a83d 7f41 27be 950a 25bd 0b6a 4abe
000003c0: 16af 84bd b45b f9bd c32c cdbd 4ea9 e73d
000003d0: 90ba debe b3e0 ab3e 4052 873e 79a9 9ebe
000003e0: c19a 173d 8d30 04bf efa4 2a3e 25b6 9f3e
000003f0: 6f91 c5bd d224 44bd f36a 84be bcad 5ebf

network_body._body_endoder.seq_layers.0.bias f4 [128]
0.028556703 0.046073798 0.0077497475 0.03022078 -0.014279074 0.039754502 0.023862699 0.027373003
-0.0010329707 0.033017486 -0.042228855 0.02736248 0.029602341 0.054925036 0.00012911481 0.01298828
0.06287084 -0.013170854 0.039847154 0.008221517 0.015558586 -0.030739645 -0.008272038 -0.0017384497
0.030689264 0.017468989 -0.0060274825 0.040307928 0.008616856 0.029780036 0.014327501 -0.0041385405
0.024542766 0.026663085 0.07191442 0.017846107 0.03986348 -0.005115145 0.03437305 -0.043699592
0.025862541 0.00918061 0.051169448 0.02508612 0.03104485 0.017194742 -0.0124811 0.00878817
0.019926686 0.045870215 0.0070243995 0.028814407 0.042356115 0.017379468 0.022064636 0.030825961
0.03132759 0.027787793 0.025074624 0.013489721 -0.01216178 0.0052949795 -0.03015035 0.02653882
0.027106222 0.0038092094 0.0015836055 0.023859104 -0.066208765 0.009074633 0.021856902 0.047798943
0.0142039675 0.016268615 0.023785455 -0.018034367 0.019198729 0.015592125 -0.00054275186 0.04782408
0.0021206944 0.04680192 -0.009100355 0.02754971 0.06760447 -0.0023513534 0.040273078 0.02617549
-0.0014838938 0.0136233345 0.012294359 0.048661277 0.06673365 0.03249851 0.0016762845 -0.009060039
0.007427346 0.0027964038 0.0205036 0.031571794 0.022100419 0.01121411 0.012434898 0.029696489
0.015872063 0.10752787 -0.012288005 0.021696784 0.04240947 -0.012912307 0.051039428 -0.004179482
-0.029925201 0.008525272 -0.042259578 0.051499147 0.020038897 -0.03208452 0.044644695 0.017070428
0.020361451 0.035681494 0.04329522 0.056189973 -0.014927067 0.019580467 0.0676787 0.02323939
00000000: bfef e93c e1b7 3c3d 98f1 fd3b 9291 f73c
00000010: c7f2 69bc 9ed5 223d b57b c33c 593d e03c
00000020: bf64 87ba 583d 073d 2af8 2cbd 4827 e03c
00000030: 9c80 f23c 13f9 603d fe62 0739 cbcc 543c
00000040: 6dc2 803d 91ca 57bc c536 233d 8bb3 063c
00000050: 71e9 7e3c b5d1 fbbc 7187 07bc b1dc e3ba
00000060: 0d68 fb3c 201b 8f3c 3082 c5bb ed19 253d
00000070: b72d 0d3c 43f5 f33c e5bd 6a3c 989c 87bb
00000080: e90d c93c 8b6c da3c de47 933d 0032 923c
00000090: e347 233d f29c a7bb c1ca 0c3d 58fe 32bd
000000a0: aedd d33c 456a 163c 0e97 513d 6881 cd3c
000000b0: c551 fe3c fddb 8c3c 877d 4cbc 42fc 0f3c
000000c0: 4a3d a33c 68e2 3b3d ef2c e63b 310c ec3c
000000d0: 9b7d 2d3d 635f 8e3c e5c0 b43c ba86 fc3c
000000e0: 5c51 003d 3aa3 e33c 4c69 cd3c fe03 5d3c
000000f0: 3442 47bc 8281 ad3b defd f6bc f067 d93c
00000100: de0d de3c eea3 793b fc90 cf3a 2b74 c33c
00000110: 7698 87bd c5ad 143c 3f0d b33c d3c8 433d
00000120: c2b7 683c c245 853c b7d9 c23c cfbc 93bc
00000130: a746 9d3c 1d76 7f3c 7647 0eba 2fe3 433d
00000140: 59fb 0a3b 5fb3 3f3d a819 15bc eeaf e13c
00000150: 3674 8a3d 2a19 1abb 62f5 243d fb6d d63c
00000160: 377f c2ba 6834 5f3c 476e 493c 0c51 473d
00000170: a7ab 883d 281d 053d c6b6 db3a 8f70 14bc
00000180: 1861 f33b df43 373b 2af7 a73c 6d51 013d
00000190: f00b b53c 63bb 373c bebb 4b3c 0d46 f33c
000001a0: 2106 823c 9237 dc3d a153 49bc 74bd b13c
000001b0: 8db5 2d3d 248e 53bc b80e 513d 09f4 88bb
000001c0: b225 f5bc 95ad 0b3c 6118 2dbd c5f0 523d
000001d0: 9d28 a43c 0f6b 03bd 5bdd 363d 48d7 8b3c
000001e0: 0fcd a63c c226 123d 5456 313d 7527 663d
000001f0: a890 74bc 3767 a03c 219b 8a3d 8960 be3c

network_body._body_endoder.seq_layers.2.weight f4 [128, 128]
-0.02400308 0.07856948 0.08801519 0.044959877 -0.0685513 -0.06225927 -0.09071354 -0.12551929
-0.09693317 0.04991149 -0.004717709 -0.08691919 0.03227927 0.13026258 0.050105613 0.09281147
0.12734687 0.0178686 0.081343286 0.08093614 -0.09501223 -0.15144825 0.021093044 -0.045461025
-0.07208151 -0.04872853 -0.053629793 -0.085459955 0.053716622 -0.030471036 0.044915933 0.10380228
-0.13561001 0.048104316 0.030810105 0.06533141 0.07036772 0.07016654 0.05433404 0.09965575
0.026314216 0.049037818 -0.0037248766 -0.12632965 0.20510885 -0.06712423 -0.04595958 0.029227776
-0.046166427 0.068251826 0.09701776 0.07036461 0.082084976 -0.060754407 0.011346031 0.029333072
-0.11955845 -0.120780885 0.030356262 -0.14233471 -0.042674474 0.090040065 -0.10048958 0.06732966
0.096710294 0.17838174 -0.044322945 -0.08465437 0.011595905 -0.05301852 -0.0124029 -0.0582961
0.17428255 -0.044326574 0.04726072 -0.1125641 -0.06812954 0.06312912 0.045136757 -0.1305812
-0.025504127 -0.018606685 0.1818045 0.05825295 0.12642449 0.03930097 0.069049925 -0.13746206
0.049884826 0.15428232 -0.008552712 0.113047935 -0.13561651 -0.19704548 -0.009487957 -0.0107582435
0.009060199 0.12048866 -0.051355455 -0.18106307 0.24307941 0.21768685 -0.0046065785 -0.043002907
0.06914837 0.043679703 0.0070738173 0.1825761 -0.06773641 -0.006325741 0.001108049 -0.061813958
-0.098860875 -0.09326904 0.12464276 -0.02259222 -0.058714088 0.0027791464 -0.10047448 0.04050197
-0.2108 -0.09054499 0.121867746 -0.06280327 -0.20223446 0.020692034 0.13048169 0.028433926
0.08903379 -0.17642954 -0.155134 0.03585197 -0.16205058 -0.05888682 -0.1289719 0.061077874
0.09836294 0.037886724 -0.1319713 -0.030986205 -0.27682775 0.033073112 0.09019294 -0.08200571
-0.06983358 -0.08356925 0.061120972 -0.092115484 0.04679341 0.011525871 -0.040457774 0.083397664
-0.1729061 -0.0056331977 0.033164527 0.051816747 -0.10178228 0.051274057 0.056697212 0.054931156
0.08221003 -0.08157874 0.090703726 -0.12717901 -0.08429626 -0.093537085 -0.007028827 0.025955617
0.11638382 -0.011980686 0.23306373 0.10070763 0.060319223 0.041840747 -0.017945427 -0.08269959
-0.10001767 -0.038454406 -0.13602531 -0.004282659 -0.05798929 -0.06697572 0.011668222 0.12755594
-0.0014992028 0.09747293 0.039068587 -0.010493047 0.08271 0.045945477 -0.044999443 0.0045198975
-0.030222587 0.13879777 -0.028078517 0.09125706 -0.045810595 0.19290942 -0.14870882 -0.0065042507
0.052865908 0.08427836 0.0026853185 -0.14076293 -0.07709682 0.03633284 -0.031885035 0.18109606
-0.065739326 -0.029640567 0.06134169 -0.19887125 0.09666562 -0.022813471 0.10770703 -0.055353597
-0.0524575 0.1712026 -0.07968219 -0.06582424 0.18891548 -0.012184292 -0.12097797 -0.02086344
0.020090047 -0.17544866 -0.045638893 -0.024892608 0.10734813 0.015265847 0.0485967 -0.08693226
0.049402747 0.025254289 -0.15178637 -0.15143937 -0.03375009 -0.026917262 -0.11561427 -0.10057546
-0.121438995 0.06161127 -0.020085474 -0.10684924 -0.002613715 -0.056501064 -0.12722455 0.02222357
0.062451623 0.0974436 0.011362334 0.086551234 -0.0511694 -0.008267668 -0.14162824 0.10589789
00000000: 1ba2 c4bc 09e9 a03d 4f41 b43d d927 383d
00000010: a064 8cbd 9403 7fbd 05c8 b9bd 2188 00be
00000020: e684 c6bd fe6f 4c3d 0397 9abb b002 b2bd
00000030: 4537 043d 8e63 053e 8b3b 4d3d f113 be3d
00000040: 3867 023e 2c61 923c 4f97 a63d d9c1 a53d
00000050: c695 c2bd 4015 1bbe 52cb ac3c 5735 3abd
00000060: 799f 93bd 9197 47bd eaaa 5bbd a105 afbd
00000070: f605 5c3d 659e f9bc c5f9 373d 4a96 d43d
00000080: 5add 0abe 0809 453d 7965 fc3c 79cc 853d
00000090: f41c 903d 7ab3 8f3d 5f8d 5e3d 5018 cc3d
000000a0: e990 d73c e1db 483d 0f1d 74bb 8f5c 01be
000000b0: 0e08 523e 6e78 89bd 1d40 3cbd 176f ef3c
000000c0: 0219 3dbd 9dc7 8b3d 3fb1 c63d 521b 903d
000000d0: 2b1c a83d 9dd9 78bd b4e4 393c e94b f03c
000000e0: 10db f4bd f85b f7bd b2ad f83c 31c0 11be
000000f0: 6ecb 2ebd ed66 b83d 7bcd cdbd 22e4 893d
00000100: 0c10 c63d b4a9 363e fa8b 35bd 455f adbd
00000110: c0fc 3d3c f329 59bd 8835 4bbc e4c7 6ebd
00000120: 2077 323e c88f 35bd 7594 413d 0288 e6bd
00000130: 8087 8bbd d749 813d 52e1 383d 14b7 05be
00000140: 08ee d0bc 0c6d 98bc f52a 3a3e a59a 6e3d
00000150: 6c75 013e 0efa 203d 0c6a 8d3d dbc2 0cbe
00000160: 0854 4c3d 2ffc 1d3e ad20 0cbc ad85 e73d
00000170: 0edf 0abe 4ac6 49be 6073 1bbc 5843 30bc
00000180: 3b71 143c c2c2 f63d 195a 52bd 9968 39be
00000190: cfe9 783e 4de9 5e3e c8f2 96bb d123 30bd
000001a0: a99d 8d3d 7de9 323d 7bcb e73b 3bf5 3a3e
000001b0: 63b9 8abd 2948 cfbb f43b 913a a230 7dbd
000001c0: 9277 cabd d703 bfbd b444 ff3d 5213 b9bc
000001d0: 2f7e 70bd 5722 363b 90c5 cdbd 65e5 253d
000001e0: f5db 57be a76f b9bd cc95 f93d 009f 80bd
000001f0: 8d16 4fbe 5782 a93c fe9c 053e 44ee e83c
00000200: 5957 b63d f2a9 34be 73db 1ebe 84d9 123d
00000210: 96f0 25be 4e33 71bd 3611 04be cb2c 7a3d
00000220: 8272 c93d 1c2f 1b3d 7c23 07be c8d6 fdbc
00000230: 5ebc 8dbe ac77 073d 13b7 b83d 9cf2 a7bd
00000240: e804 8fbd 5b26 abbd fc59 7a3d 0ba7 bcbd
00000250: 72aa 3f3d 02d7 3c3c 0db7 25bd 65cc aa3d
00000260: 4c0e 31be b096 b8bb 87d7 073d cc3d 543d
00000270: 3a73 d0bd bf04 523d 563b 683d 7eff 603d
00000280: bb5d a83d c112 a7bd e0c2 b93d 373b 02be
00000290: 84a3 acbd 5f90 bfbd 1352 e6bb e0a0 d43c
000002a0: a45a ee3d a44a 44bc 42a8 6e3e cd3f ce3d
000002b0: 4a11 773d 3461 2b3d 4a02 93bc 675e a9bd
000002c0: 10d6 ccbd 5e82 1dbd 384a 0bbe 8c55 8cbb
000002d0: 2e86 6dbd 912a 89bd 122c 3f3c 069e 023e
000002e0: e680 c4ba e39f c73d 6206 203d 07eb 2bbc
000002f0: dc63 a93d 5331 3c3d 5651 38bd a61b 943b
00000300: 5c95 f7bc 0121 0e3e eb04 e6bc fbe4 ba3d
00000310: e4a3 3bbd 0c8a 453e 2047 18be 9c21 d5bb
00000320: ec89 583d 229a ac3d 2bfc 2f3b 2824 10be
00000330: f0e4 9dbd bed1 143d e299 02bd 3f71 393e
00000340: 57a2 86bd c6d0 f2bc 6d41 7b3d e8a4 4bbe
00000350: a0f8 c53d 51e3 babc 8195 dc3d 74ba 62bd
00000360: addd 56bd bc4f 2f3e 6b30 a3bd dcce 86bd
00000370: 0f73 413e a0a0 47bc 4cc3 f7bd cee9 aabc
00000380: e293 a43c d0a8 33be d9ef 3abd 95eb cbbc
00000390: 56d9 db3d 9a1d 7a3c 550d 473d 8a09 b2bd
000003a0: 895a 4a3d 15e2 ce3c e36d 1bbe ec12 1bbe
000003b0: 893d 0abd 9781 dcbc 2dc7 ecbd 82fa cdbd
000003c0: 02b5 f8bd 195c 7c3d 4b8a a4bc c6d3 dabd
000003d0: dc4a 2bbb a96d 67bd 2747 02be 340e b63c
000003e0: 46cd 7f3d 8390 c73d 1529 3a3c c641 b13d
000003f0: 0197 51bd 1d75 07bc fe06 11be fee0 d83d

network_body._body_endoder.seq_layers.2.bias f4 [128]
-0.0016166493 0.028099043 0.03273975 0.031476874 0.015374315 0.019302214 0.001611292 0.011345919
0.030209044 0.038043305 0.025972765 -0.0074905963 0.020867022 0.016827295 0.029679583 0.0021821035
0.027472753 0.017677817 0.012137056 0.010786101 0.007072393 0.014610063 0.038427923 0.0154249845
0.019776596 0.00969371 0.0010805452 -0.013088239 -0.033046786 -0.015197503 -0.019492956 0.029594935
0.026753893 0.029756403 0.018984308 0.0019460643 0.0164164 0.032088842 0.020903738 0.027987335
0.023631392 0.029227985 0.036141865 0.012851341 0.023960646 0.017492551 0.030511305 0.02639785
0.028714066 0.01135347 -0.009260573 0.008401964 0.010501818 0.009296545 0.015551997 0.029840907
0.022006052 0.010800791 0.010713211 -0.009149853 -0.02004651 0.015699549 0.01008964 0.026458932
0.04015768 0.0020393648 0.011933398 0.015999392 0.016933588 0.022447973 0.023706479 0.0077214204
-0.004347017 -0.016686587 0.024383724 0.0421264 0.011126488 0.036138084 -0.024445435 -0.022223776
0.020395184 0.016742233 0.0050867395 0.018469103 0.035785582 -0.007353322 0.006659266 0.035446163
0.0045269975 0.026344925 -0.0072311834 0.013575828 0.010062877 0.003547112 0.00053041644 0.022176716
0.022906039 0.004722372 0.009594261 0.015939651 0.004767752 0.0010169016 0.0136348065 -0.012814368
-0.014044684 0.003927808 -0.0046413518 -0.024090422 0.0061505646 -0.005270843 0.026622316 0.031052832
0.04485035 -0.0011603128 0.02055129 -0.022223078 0.0070950864 0.018248485 0.019021304 0.006518703
-0.025333414 0.004650514 0.022553047 0.009256072 0.032719284 0.02267978 -0.012233055 -0.009345431
00000000: c0e5 d3ba f72f e63c 1e1a 063d e5ed 003d
00000010: 8de4 7b3c ad1f 9e3c fd31 d33a 3ce4 393c
00000020: f578 f73c 4cd3 1b3d d6c4 d43c ad73 f5bb
00000030: 51f1 aa3c 65d9 893c 9922 f33c 9f01 0f3b
00000040: 8a0e e13c 12d1 903c 81da 463c 30b8 303c
00000050: 88bf e73b 0c5f 6f3c 9966 1d3d 13b9 7c3c
00000060: 8702 a23c 5ed2 1e3c 15a1 8d3a 0e70 56bc
00000070: 115c 07bd f3fe 78bc b1af 9fbc 1471 f23c
00000080: fb2a db3c b3c3 f33c fb84 9b3c 1513 ff3a
00000090: b07b 863c 976f 033d 513e ab3c b245 e53c
000000a0: 9f96 c13c 876f ef3c 7e09 143d 6e8e 523c
000000b0: 1e49 c43c 8a4c 8f3c d8f2 f93c 4e40 d83c
000000c0: c339 eb3c e803 3a3c a9b9 17bc 64a8 093c
000000d0: d10f 2c3c 8950 183c cecd 7e3c eb74 f43c
000000e0: 0946 b43c cdf5 303c 7786 2f3c 44e9 15bc
000000f0: 9438 a4bc 579c 803c 044f 253c 67c0 d83c
00000100: 617c 243d dda6 053b 4d84 433c 2811 833c
00000110: 4fb8 8a3c d0e4 b73c 1734 c23c f803 fd3b
00000120: 6c71 8ebb 4fb2 88bc 60c0 c73c bb8c 2c3d
00000130: e04b 363c 8705 143d cb41 c8bc a30e b6bc
00000140: cd13 a73c 0227 893c aaae a63b 844c 973c
00000150: e793 123d 23f4 f0bb f935 da3b ff2f 113d
00000160: 3557 943b 50d1 d73c 90f3 ecbb 266d 5e3c
00000170: c4de 243c aa76 683b a50b 0b3a f2ab b53c
00000180: 72a5 bb3c 21be 9a3b 3f31 1d3c df93 823c
00000190: cd3a 9c3b 8e49 853a 8664 5f3c 5bf3 51bc
000001a0: ad1b 66bc d7b4 803b 7b16 98bb 4759 c5bc
000001b0: ad8a c93b 09b7 acbb 0b17 da3c 8262 fe3c
000001c0: 00b5 373d a315 98ba 2e5b a83c 2c0d b6bc
000001d0: e67d e83b d97d 953c 91d2 9b3c d89a d53b
000001e0: 0588 cfbc 5763 983b 2bc1 b83c c8a6 173c
000001f0: a804 063d f2ca b93c 276d 48bc 941d 19bc

action_model._discrete_distribution.branches.0.weight f4 [5, 128]
-0.022024237 0.04514316 0.050440226 0.007242002 0.019711843 0.062077567 -0.015886832 0.027332682
0.076904975 0.092427924 0.010257278 0.013834834 -0.115997545 -0.018858565 0.041263126 -0.026184019
0.036209 -0.0118977185 -0.09145239 -0.025220718 0.034880172 -0.032739386 0.05791142 -0.09445518
0.03765686 0.010497335 -0.0038959074 -0.006733601 -0.020807529 -0.01962919 -0.019789904 -0.041408367
0.019833062 0.047145963 0.0013825529 -0.03030506 -0.016732331 0.05568282 0.032711294 0.048602767
0.061289135 0.012526626 -0.07362848 -0.06086265 -0.09089024 0.0077904956 0.015144979 0.06902148
0.104618825 -0.01721396 -0.039913774 0.005929427 -0.0006798724 0.018492194 0.01192079 -0.06737399
-0.046223916 -0.07527558 0.023473157 -0.05253087 -0.0146964975 -0.0042328867 0.000110483015 -0.058576725
0.058216024 -0.09448333 0.05423654 -0.119825706 0.04169361 0.031029051 0.012908721 -0.027721182
-0.0015786312 -0.018523633 0.009265257 0.0815 -0.06800305 0.054225303 0.00474679 -0.006039399
0.031650044 0.02651479 0.038656186 0.06115079 0.038743977 0.022299672 0.0076357904 0.06912985
0.014605071 -0.055028204 -0.055686377 -0.02610472 -0.11658945 -0.011443201 -0.05334973 0.0047165477
-0.032667216 0.039089747 -0.026671752 -0.009556668 -0.013537785 0.010835606 0.00546562 -0.0074108294
-0.009767987 -0.023365747 -0.016566716 -0.013511256 -0.025917139 -0.036926355 0.039317846 0.051944222
0.090824634 -0.06324753 -0.042692278 0.00021326172 -0.037542123 0.032352485 -0.06150582 -0.0019414145
-0.0025173705 -0.015578216 -0.09832408 0.035295133 0.06886689 0.001001746 0.007057812 0.000881394
-0.013742204 -0.014956254 -0.00546512 0.021894956 0.008818617 -0.017622223 0.03292744 -0.04643602
-0.01472919 -0.115683265 0.024428897 -0.0043261233 0.079884395 0.019408634 -0.060495056 0.008179841
-0.071458295 -0.071063705 0.046303798 0.011094327 -0.03013347 0.047188006 0.013602107 0.06929538
0.04861998 -0.036423728 -0.06047182 -0.00010992451 0.011987701 0.0051069944 0.0062612575 -0.059844177
-0.08696859 -0.035629846 0.016950155 0.017189668 0.032745354 -0.071577676 0.04459349 -0.02073634
-0.05066233 0.0033223147 -0.025689622 -0.02615056 -0.026967267 0.016966982 -0.09962437 -0.08028302
-0.06020632 0.052846145 0.037767094 0.01805226 -0.0029645849 -0.055712536 0.020535303 -0.033848833
0.06730887 -0.0066231103 -0.08099202 0.029357908 0.020123838 0.05973669 -0.009851813 -0.038624756
0.01182185 0.032161146 -0.051134616 0.07959129 -0.09951866 0.024186956 0.034341265 0.027426945
-0.059858214 -0.0072222594 0.04831654 -0.11908708 0.014209676 -0.021470262 0.013630829 0.02097008
-0.0070261615 -0.0032936179 0.005301059 -0.036925822 -0.01386428 0.017687457 0.05376764 -0.10348766
-0.04037296 -0.043507557 0.05408157 -0.05729385 0.06401094 0.012995567 -0.019344201 -0.019372098
0.053297557 -0.010964621 0.0022885886 0.057427656 0.012781865 -0.013760153 0.021630878 0.0056141773
0.025508134 -0.010669943 -0.02190386 0.0146817975 -0.04968279 0.03797689 -0.10541153 0.022170601
-0.09505131 0.07613975 -0.0014104182 0.025149247 0.0166748 -0.049422987 0.00079622853 0.027634194
0.0022112555 0.025046382 -0.023011556 0.029548606 -0.022261897 -0.07689807 0.013313924 0.005068475
00000000: 2c6c b4bc 09e8 383d 699a 4e3d 514e ed3b
00000010: bb7a a13c 0c45 7e3d 1a25 82bc cae8 df3c
00000020: 5b80 9d3d da4a bd3d 240e 283c 80ab 623c
00000030: 1f90 edbd 477d 9abc 8603 293d de7f d6bc
00000040: e34f 143d a6ee 42bc 644b bbbd ae9b cebc
00000050: 83de 0e3d bc19 06bd 8634 6d3d b871 c1bd
00000060: 143e 1a3d 04fd 2b3c 7b52 7fbb 8aa5 dcbb
00000070: 8d74 aabc 65cd a0bc 701e a2bc d29b 29bd
00000080: f278 a23c 201c 413d c736 b53a 5142 f8bc
00000090: 3e12 89bc ab13 643d 47fc 053d b213 473d
000000a0: 510a 7b3d 7a3c 4d3c 87ca 96bd 1d4b 79bd
000000b0: aa24 babd 6a47 ff3b a522 783c 225b 8d3d
000000c0: 6542 d63d 4a04 8dbc a07c 23bd a44b c23b
000000d0: 7739 32ba f17c 973c 6b4f 433c 60fb 89bd
000000e0: 4a55 3dbd 152a 9abd c74a c03c 9c2a 57bd
000000f0: 94c9 70bc 07b4 8abb 1eb3 e738 26ee 6fbd
00000100: ed73 6e3d 7a80 c1bd 2227 5e3d 2e67 f5bd
00000110: ebc6 2a3d a330 fe3c 1a7f 533c 8817 e3bc
00000120: 13ea ceba e0be 97bc 4ecd 173c 79e9 a63d
00000130: 2f45 8bbd 5a1b 5e3d f68a 9b3b 27e6 c5bb
00000140: 7aa3 013d 8b35 d93c f355 1e3d 4079 7a3d
00000150: 01b2 1e3d cdad b63c a735 fa3b f393 8d3d
00000160: 1c4a 6f3c 4165 61bd 6617 64bd 91d9 d5bc
00000170: 73c6 eebd 447c 3bbc 3f85 5abd 458d 9a3b
00000180: 0fce 05bd 921c 203d b87e dabc 9293 1cbc
00000190: 96cd 5dbc d387 313c f218 b33b 8bd6 f2bb
000001a0: e809 20bc 8669 bfbc ecb6 87bc 515e 5dbc
000001b0: 2e50 d4bc 1740 17bd c00b 213d 77c3 543d
000001c0: 4402 ba3d ec87 81bd 19de 2ebd 029f 5f39
000001d0: c5c5 19bd 0a84 043d 87ed 7bbd 1077 feba
000001e0: 78fa 24bb c63b 7fbc 235e c9bd a191 103d
000001f0: 160a 8d3d 054d 833a 3845 e73b 5a0d 673a
00000200: fb26 61bc 130b 75bc c014 b3bb 0d5d b33c
00000210: f67b 103c 7b5c 90bc ecde 063d b233 3ebd
00000220: b352 71bc 59eb ecbd 1c1f c83c 27c2 8dbb
00000230: 6e9a a33d dbfe 9e3c aac9 77bd bd04 063c
00000240: ba58 92bd d989 91bd 0da9 3d3d fbc4 353c
00000250: 78da f6bc 3648 413d 5fdb 5e3c bcea 8d3d
00000260: bf25 473d 0c31 15bd 4db1 77bd 4687 e6b8
00000270: 1068 443c 9358 a73b 3c2b cd3b 2b1f 75bd
00000280: 971c b2bd 9af0 11bd 0ddb 8a3c 59d1 8c3c
00000290: fe1f 063d 5197 92bd aaa7 363d 42df a9bc
000002a0: 4e83 4fbd 31bb 593b 0b73 d2bc b339 d6bc
000002b0: 75ea dcbc 57fe 8a3c dd07 ccbd 6d6b a4bd
000002c0: e79a 76bd 3375 583d abb1 1a3d 55e2 933c
000002d0: 7b49 42bb d432 64bd a739 a83c 13a5 0abd
000002e0: 3cd9 893d ad06 d9bb 25df a5bd ff7f f03c
000002f0: bfda a43c 76ae 743d 8069 21bc fe34 1ebd
00000300: 6fb0 413c 68bb 033d 8872 51bd c200 a33d
00000310: 70d0 cbbd b923 c63c 6da9 0c3d 79ae e03c
00000320: e32d 75bd b4a8 ecbb 90e7 453d ede3 f3bd
00000330: b3cf 683c 67e2 afbc d753 5f3c 72c9 ab3c
00000340: b73b e6bb bdd9 57bb 82b4 ad3b 883f 17bd
00000350: 0127 63bc 49e5 903c 753b 5c3d 57f1 d3bd
00000360: 1e5e 25bd fb34 32bd a384 5d3d f5ac 6abd
00000370: 2b18 833d 5ceb 543c bb77 9ebc 3cb2 9ebc
00000380: 8a4e 5a3d f4a4 33bc 25fc 153b 4339 6b3d
00000390: 076b 513c 4472 61bc 3d33 b13c 22f7 b73b
000003a0: 6ff6 d03c fcd0 2ebc b96f b3bc ec8b 703c
000003b0: 2e80 4bbd a88d 1b3d 00e2 d7bd 1f9f b53c
000003c0: 43aa c2bd 28ef 9b3d c8dd b8ba cb05 ce3c
000003d0: 9799 883c c26f 4abd feb9 503a 1b61 e23c
000003e0: b6ea 103b 122e cd3c bb82 bcbc eb0f f23c
000003f0: 955e b6bc bc7c 9dbd a522 5a3c 7315 a63b

action_model._discrete_distribution.branches.0.bias f4 [5]
0.0069436696 -0.009606781 -0.016350307 -0.014638854 0.029768076
00000000: b987 e33b c365 1dbc 14f1 85bc ced7 6fbc
00000010: 2edc f33c

exp_avg f4 [128, 9]
-1.8503179e-05 5.4568085e-05 0.00010793501 1.0677769e-05 -2.4409787e-06 -4.87715e-05 -0.00017077505 -5.9623384e-05
-2.1506808e-05 -1.6624082e-05 7.0268025e-06 -9.561455e-06 -1.4016213e-05 -5.863612e-05 -3.7845588e-05 -7.398484e-05
-8.601044e-05 -3.8242906e-05 0.00012432353 2.4539917e-05 -1.4759516e-05 6.782125e-05 0.00031310253 0.00021284077
0.00025046634 0.00057792733 0.00010664392 -0.0003285885 4.9822607e-05 -0.00037958557 -0.00023818568 -0.00083060446
-0.00073649036 -0.0010048416 -0.0011989147 -0.0005887794 -0.00017517364 -3.3818885e-06 -0.00029721914 -0.00015239656
-0.00047488807 -0.00067721755 -0.00058173155 -0.0007930864 -0.00035068122 -0.00021411061 5.2085838e-05 -0.000116581745
-0.00013030267 -0.00045595676 -0.00018809791 -0.000594676 -0.00060924934 -0.00033555878 0.0001456984 1.0069105e-05
0.00019173026 0.00013631805 0.00035316273 0.00054010877 0.00053041446 0.00070107204 0.00026708175 -0.00015978247
-4.3381606e-05 -0.00037593252 -0.00019647366 -0.00052078144 -0.0007104119 -0.00047618066 -0.0006526632 -0.00035516665
0.00019560663 -8.249973e-05 -0.000110847905 9.28842e-05 0.00045793463 0.00042250007 0.00064133765 0.0007724346
0.00022976707 -2.3729886e-05 2.3655687e-06 6.94262e-05 -2.7736933e-05 -6.0402836e-05 -9.7080985e-05 -8.817517e-05
-0.00013222561 -1.7109198e-05 3.1167951e-06 9.88872e-06 -1.4419035e-05 -3.458614e-07 -1.6343412e-05 -1.2984008e-05
-2.5276979e-05 -3.7003185e-05 -9.571354e-06 -0.0002380999 -4.932805e-05 -0.000291931 -0.00024926974 -0.00067550695
-0.00085080625 -0.00062616915 -0.00094538106 -0.0003974993 0.0003498476 2.4868581e-05 0.00021135871 0.0002683875
0.00080612965 0.0008344739 0.0011177533 0.0015542352 0.0004884428 -2.1226135e-05 -1.8496579e-06 -2.9504708e-05
-2.942661e-05 -3.0194904e-05 5.4552593e-06 -6.741461e-05 1.7841801e-05 -5.1849274e-05 -5.0661656e-06 4.5074553e-06
3.9292536e-06 -3.604878e-06 -1.7240247e-05 -8.660736e-06 -3.1990567e-05 -4.1455492e-05 -1.0568833e-05 0.00028740973
-8.381262e-05 -3.1573592e-05 0.00015697585 0.00085460197 0.00052706903 0.0008091334 0.0011487404 0.00036863307
0.00017599114 3.193402e-05 0.00012535023 0.00011820549 0.00044978232 0.0005073494 0.00050312735 0.00094783364
0.00024204787 0.00013530502 1.0194599e-05 9.865579e-05 0.00010615553 0.00032583816 0.00031280614 0.0003890984
0.0005535867 0.00019552532 -1.1748141e-05 -3.6869774e-06 1.1034961e-05 -8.952226e-06 -2.9375504e-05 -2.7389655e-05
-2.4518757e-05 -5.7032674e-05 -4.820674e-06 -2.734428e-05 2.8967263e-06 -4.9331284e-05 -3.237181e-05 -7.69702e-05
-0.00011764101 -6.179593e-05 -9.078814e-05 -7.205691e-05 0.00026860365 -0.00013675912 -0.00030247777 0.000120264216
0.0005626357 0.00047790766 0.0008529569 0.0009784938 0.00030229654 7.886095e-05 -2.0435074e-05 -5.950304e-05
2.5576594e-05 0.0001451619 3.482926e-05 0.00020280447 0.00024128162 5.9429774e-05 1.6407123e-05 1.2373811e-05
3.6143505e-05 1.7527524e-05 6.0024054e-06 7.0962036e-05 4.183238e-05 6.4597836e-05 4.1187683e-05 -9.2031434e-05
-8.660108e-06 -9.5821306e-05 -7.335853e-05 -0.00019885335 -0.00025517843 -0.0002774122 -0.00037235278 -0.00014307874
-7.05128e-05 8.162226e-06 -4.081427e-05 -4.453353e-05 -0.0001767847 -0.00018068273 -0.00021342054 -0.00027076644
-0.00010534675 3.6949932e-05 -1.4497821e-05 9.583086e-05 1.5790165e-05 6.333727e-05 0.00013038925 0.00014561995
0.00012304512 8.896937e-05 -2.5429072e-05 2.4177805e-05 3.520403e-05 -5.342756e-06 -0.000100300094 -5.688745e-05
-7.842612e-05 -0.00012792424 -3.0426125e-05 -0.00026253948 3.708101e-05 -0.00022503106 -0.00017840514 -0.0005414105
-0.0007552269 -0.00085985917 -0.0010434435 -0.0004385358 1.7634453e-05 8.025034e-06 8.443573e-05 2.3912397e-05
00000000: 4637 9bb7 09e0 6438 2b5b e238 ab24 3337
00000010: b2cf 23b6 0090 4cb8 1412 33b9 1f14 7ab8
00000020: 8569 b4b7 f273 8bb7 c6c7 eb36 236a 20b7
00000030: 2d27 6bb7 0ef0 75b8 64bc 1eb8 4f28 9bb8
00000040: 8160 b4b8 0267 20b8 d85c 0239 12db cd37
00000050: a39f 77b7 423b 8e38 e927 a439 022e 5f39
00000060: 0651 8339 0c80 173a 05a6 df38 6746 acb9
00000070: 9ef8 5038 1d03 c7b9 7bc1 79b9 ecbc 59ba
00000080: 0811 41ba e4b4 83ba e724 9dba 5158 1aba
00000090: d1ae 37b9 67f4 62b6 14d4 9bb9 a4cc 1fb9
000000a0: 66fa f8b9 4d87 31ba 587f 18ba 21e7 4fba
000000b0: a3db b7b9 e182 60b9 be76 5a38 597d f4b8
000000c0: dba1 08b9 7b0d efb9 263c 45b9 08e4 1bba
000000d0: 08b6 1fba f0ed afb9 9ec6 1839 7aee 2837
000000e0: 330b 4939 99f0 0e39 b328 b939 1696 0d3a
000000f0: 830b 0b3a 26c8 373a 1b07 8c39 488b 27b9
00000100: a5f4 35b8 cf18 c5b9 7f04 4eb9 0d85 08ba
00000110: f03a 3aba e3a7 f9b9 7c17 2bba a935 bab9
00000120: c11b 4d39 b503 adb8 0477 e8b8 d3ca c238
00000130: f216 f039 0083 dd39 711f 283a 357d 4a3a
00000140: a1ed 7039 8b0f c7b7 29c0 1e36 e898 9138
00000150: 9cac e8b7 0d59 7db8 f597 cbb8 afea b8b8
00000160: 0ba6 0ab9 b985 8fb7 222a 5136 bbe7 2537
00000170: 49e9 71b7 d4ae b9b4 3619 89b7 e4d5 59b7
00000180: e609 d4b7 de33 1bb8 a794 20b7 75aa 79b9
00000190: 97e5 4eb8 510e 99b9 6bb0 82b9 8114 31ba
000001a0: a408 5fba 8025 24ba 73d3 77ba 7467 d0b9
000001b0: c06b b739 df9c d037 2ca0 5d39 5cb6 8c39
000001c0: 7252 533a 98c0 5a3a 9481 923a 7bb7 cb3a
000001d0: d70a 003a c70e b2b7 c341 f8b5 e180 f7b7
000001e0: 2ad9 f6b7 104b fdb7 520c b736 f160 8db8
000001f0: faaa 9537 bc78 59b8 08fe a9b6 bf3e 9736
00000200: 08d8 8336 55eb 71b6 269f 90b7 944d 11b7
00000210: 9c2d 06b8 7fe0 2db8 cb50 31b7 7baf 9639
00000220: 8fc4 afb8 e36d 04b8 e299 2439 5e07 603a
00000230: 012b 0a3a 061c 543a 5591 963a 1845 c139
00000240: 438a 3839 e5f0 0538 7270 0339 17e5 f738
00000250: c3d0 eb39 a4ff 043a 4ee4 033a 0a78 783a
00000260: 3bce 7d39 aae0 0d39 7809 2b37 6de5 ce38
00000270: d19f de38 42d5 aa39 2100 a439 e7ff cb39
00000280: 931e 113a ee05 4d39 e219 45b7 ca6d 77b6
00000290: cc22 3937 8531 16b7 6a6b f6b7 d6c2 e5b7
000002a0: a1ad cdb7 5e36 6fb8 46c1 a1b6 6561 e5b7
000002b0: 6165 4236 10e9 4eb8 f7c6 07b8 106b a1b8
000002c0: 09b6 f6b8 7098 81b8 8365 beb8 421d 97b8
000002d0: 5fd3 8c39 ff66 0fb9 e195 9eb9 5c36 fc38
000002e0: d87d 133a ae8f fa39 f898 5f3a ce40 803a
000002f0: 8e7d 9e39 2662 a538 fd6b abb7 e792 79b8
00000300: 518d d637 9a36 1839 a215 1238 e9a7 5439
00000310: 8b00 7d39 3c44 7938 07a2 8937 1d99 4f37
00000320: cb98 1738 1208 9337 4568 c936 74d1 9438
00000330: 2d75 2f38 b378 8738 f0c0 2c38 0001 c1b8
00000340: e14a 11b7 acf3 c8b8 10d8 99b8 4a83 50b9
00000350: 78c9 85b9 a371 91b9 5838 c3b9 6807 16b9
00000360: 45e0 93b8 7ef0 0837 fd2f 2bb8 84c9 3ab8
00000370: 485f 39b9 a775 3db9 a4c9 5fb9 a8f5 8db9
00000380: 9bed dcb8 b0fa 1a38 ab3b 73b7 cdf8 c838
00000390: 1f75 8437 f0d3 8438 19b9 0839 8fb1 1839
000003a0: ac05 0139 1195 ba38 8450 d5b7 71d1 ca37
000003b0: 0aa8 1338 ed45 b3b6 3458 d2b8 6f9a 6eb8
000003c0: b478 a4b8 6723 06b9 9b3b ffb7 74a5 89b9
000003d0: 6e87 1b38 51f6 6bb9 4412 3bb9 72ed 0dba
000003e0: 6bfa 45ba 2c68 61ba 27c4 88ba 47eb e5b9
000003f0: b3ed 9337 42a3 0637 1613 b138 7b97 c837

exp_avg_sq f4 [128, 9]
1.7481237e-06 2.5818856e-08 6.839056e-06 1.2808017e-06 1.0198581e-05 6.7354244e-06 2.3324374e-06 2.4995018e-06
4.100217e-06 1.8350943e-07 1.1756887e-09 4.4044717e-07 5.820846e-08 5.765852e-07 2.7554003e-07 2.713112e-07
2.570355e-07 2.2499289e-07 1.0596694e-06 2.066392e-08 3.5808373e-06 6.559283e-07 6.217777e-06 4.2245206e-06
1.3430898e-06 1.5562457e-06 2.076605e-06 3.6427275e-06 1.3923976e-07 8.329466e-06 1.249788e-06 8.979257e-06
3.5264825e-06 1.2296888e-05 1.2870044e-05 4.3527157e-06 1.2184886e-06 2.5831215e-08 3.1361278e-06 5.9084493e-07
5.151065e-06 3.8117128e-06 2.8204108e-06 4.019619e-06 1.7516438e-06 2.5139427e-06 6.7122464e-08 9.20697e-06
1.5556736e-06 1.32550485e-05 5.816933e-06 5.2219634e-06 5.8232704e-06 5.3290237e-06 2.7911648e-07 4.455022e-09
7.4402675e-07 1.4817492e-07 1.4753753e-06 1.3283192e-06 1.3818174e-06 1.5182015e-06 4.6611675e-07 2.807821e-06
7.3852334e-08 4.2124325e-06 8.834728e-07 6.8221275e-06 5.414365e-06 6.204113e-06 7.365404e-06 2.2534828e-06
1.7413668e-06 7.382074e-08 3.1860939e-06 6.476245e-07 3.4255074e-06 2.3396299e-06 5.9928975e-06 5.6238555e-06
1.8251155e-06 1.0680911e-07 1.7464937e-09 1.5316401e-07 2.6406159e-08 1.4204775e-07 1.6016472e-07 2.9932528e-07
3.2336445e-07 7.8649386e-08 3.01061e-08 5.011183e-09 6.188551e-08 1.4608725e-08 9.853826e-08 2.9269927e-08
2.744121e-08 1.000266e-08 4.003551e-08 1.8787564e-06 8.062597e-08 3.7040645e-06 5.662451e-07 4.4321564e-06
3.293442e-06 5.1835336e-06 6.38581e-06 1.9010814e-06 2.4772826e-06 5.194342e-08 5.199058e-06 9.0979853e-07
9.271611e-06 6.1480036e-06 8.161198e-06 7.6574615e-06 2.823356e-06 1.6656493e-07 2.763196e-10 8.9374123e-07
1.0551998e-07 1.3711253e-06 7.566417e-07 1.1966135e-07 2.715559e-07 4.779435e-07 1.3381823e-08 5.6526656e-10
1.52165e-08 1.7412838e-09 2.7420121e-08 2.8125692e-08 2.4347006e-08 3.0760145e-08 7.9086515e-09 4.47696e-06
9.14421e-08 8.567545e-06 1.6980135e-06 9.033775e-06 3.5780886e-06 1.3371853e-05 1.1503907e-05 4.6927717e-06
1.8340216e-06 1.9484503e-08 7.5652233e-06 1.4053799e-06 1.3330187e-05 9.515966e-06 2.2768943e-06 3.3759818e-06
4.4324383e-06 3.8749755e-07 8.839093e-09 1.0081021e-06 1.7622449e-07 1.2790405e-06 5.466855e-07 1.5965034e-06
1.3848073e-06 5.8073664e-07 5.0322164e-08 1.2463907e-08 3.141798e-08 1.2095186e-08 3.754202e-08 2.7232678e-08
7.160531e-08 7.452968e-08 2.8616595e-08 3.015372e-08 6.0220123e-10 1.2116011e-07 1.6589071e-08 1.8122643e-07
1.2864129e-07 3.7248334e-08 9.8747726e-08 6.653099e-08 6.713465e-06 3.1115846e-07 1.1790699e-05 2.6396397e-06
1.7146536e-05 1.2810135e-05 1.9289833e-05 1.6601098e-05 7.019035e-06 2.7199266e-07 7.1864825e-09 4.891277e-07
1.1415851e-07 7.6717936e-07 4.9035316e-07 7.617271e-07 6.614076e-07 2.9316885e-07 1.0688999e-07 3.1228058e-09
1.9048944e-07 3.096015e-08 3.084222e-07 2.582375e-07 9.901357e-08 1.87797e-07 9.331258e-08 1.76127e-07
2.40091e-08 4.095531e-07 8.707613e-08 5.9185595e-07 4.5133632e-07 4.7462618e-07 6.4148355e-07 2.5004164e-07
6.808592e-08 2.3019382e-09 1.4760865e-07 1.8769793e-08 2.1405629e-07 1.414616e-07 2.6517438e-07 3.2885586e-07
7.6786684e-08 1.29204e-07 4.593589e-09 2.494616e-07 4.1095205e-08 1.8312859e-07 1.9842527e-07 5.061237e-07
4.5163114e-07 1.336495e-07 6.658292e-08 4.030967e-09 1.4909595e-07 2.5974545e-08 1.7476212e-07 6.8773296e-08
2.0323006e-07 1.7983486e-07 8.2827896e-08 2.3855455e-06 6.951389e-08 6.2952763e-06 1.0311068e-06 5.819197e-06
3.6922634e-06 7.6185197e-06 8.812343e-06 3.4945424e-06 2.5238555e-07 4.4663246e-09 8.101065e-07 1.2602197e-07
00000000: 13a1 ea35 44c8 dd32 0b7b e536 03e8 ab35
00000010: 921a 2b37 db00 e236 f886 1c36 1dbd 2736
00000020: 9994 8936 b00a 4534 de95 a130 9976 ec34
00000030: e100 7a33 a2c6 1a35 efed 9334 baa8 9134
00000040: b1fe 8934 9395 7134 f739 8e35 7180 b132
00000050: 514e 7036 0d13 3035 4ca2 d036 5bc0 8d36
00000060: 3744 b435 32e0 d035 cd5b 0b36 9575 7436
00000070: ef81 1534 c9be 0b37 64be a735 9da5 1637
00000080: 82a8 6c36 bb4e 4e37 6bec 5737 8b0d 9236
00000090: f38a a335 71e3 dd32 4476 5236 8e9a 1e35
000000a0: 50d7 ac36 bacc 7f36 4a46 3d36 44e0 8636
000000b0: 061a eb35 35b5 2836 f724 9033 a377 1a37
000000c0: 8acc d035 0062 5e37 132f c336 5338 af36
000000d0: 8365 c336 f7cf b236 7ad9 9534 ca12 9931
000000e0: 21b9 4735 031a 1f34 8205 c635 b348 b235
000000f0: e276 b935 02c5 cb35 993e fa34 ff6d 3c36
00000100: c098 9e33 8558 8d36 ca27 6d35 a1e9 e436
00000110: 0bad b536 ed2c d036 5724 f736 8a3a 1736
00000120: e8b8 e935 6287 9e33 add0 5536 6bd8 2d35
00000130: c5e1 6536 8902 1d36 9916 c936 8db4 bc36
00000140: 7ef6 f435 ee5e e533 4909 f030 6775 2434
00000150: c2d3 e232 ca85 1834 bef9 2b34 f4b2 a034
00000160: df9a ad34 f5e5 a833 024e 0133 d52e ac31
00000170: ebe5 8433 daf9 7a32 fb9b d333 406d fb32
00000180: dcb7 eb32 2ad8 2b32 82f3 2b33 9429 fc35
00000190: 9924 ad33 5893 7836 1100 1835 efb7 9436
000001a0: e704 5d36 37ee ad36 b145 d636 a928 ff35
000001b0: 643f 2636 6518 5f33 9173 ae36 e138 7435
000001c0: 448d 1b37 f34a ce36 14ec 0837 8c78 0037
000001d0: e378 3d36 05d9 3234 87e8 972f 6ee9 6f35
000001e0: 399a e233 8207 b835 061c 4b35 437c 0034
000001f0: 5cca 9134 074c 0035 e1e5 6532 1961 1b30
00000200: 70b5 8232 fa51 ef30 7c89 eb32 0d99 f132
00000210: a223 d132 231d 0433 9ede 0732 cb38 9636
00000220: d35e c433 53bd 0f37 4de7 e335 c58f 1737
00000230: 181f 7036 ac57 6037 e800 4137 9a76 9d36
00000240: 8128 f635 e05e a732 c6d8 fd36 7ca0 bc35
00000250: b8a4 5f37 c3a6 1f37 bfcc 1836 ed8e 6236
00000260: 5bba 9436 4209 d034 beda 1732 204e 8735
00000270: 3838 3d34 7fab ab35 f1bf 1235 7047 d635
00000280: 9edd b935 ebe3 1b35 ce21 5833 d820 5632
00000290: 6ff0 0633 31cb 4f32 e33d 2133 4bed e932
000002a0: 6fc5 9933 200d a033 8fd0 f532 5e82 0133
000002b0: 2588 2530 3d18 0234 c17f 8e32 2497 4234
000002c0: a620 0a34 fafa 1f33 230f d433 ccdf 8e33
000002d0: 3a44 e136 4b0d a734 abd0 4537 aa24 3136
000002e0: e8d5 8f37 1ceb 5637 9ad0 a137 9642 8b37
000002f0: 0d85 eb36 6306 9234 f8ec f631 994c 0335
00000300: 4e27 f533 2af0 4d35 d0a0 0335 7d79 4c35
00000310: 968b 3135 d264 9d34 658b e533 fb98 5631
00000320: 5789 4c34 0cf9 0433 3995 a534 e4a3 8a34
00000330: 49a1 d433 3fa5 4934 2263 c833 6c1d 3d34
00000340: 923c ce32 8de0 db34 9cfe ba33 08e0 1e35
00000350: 314f f234 20d0 fe34 6a32 2c35 763d 8634
00000360: a136 9233 2030 1e31 5b7e 1e34 363b a132
00000370: 58d7 6534 abe4 1734 4a5d 8e34 9b8d b034
00000380: ede5 a433 53bb 0a34 a3d5 9d31 beed 8534
00000390: a880 3033 01a2 4434 b90e 5534 8edc 0735
000003a0: b677 f234 4b81 0f34 59fc 8e33 c380 8a31
000003b0: 2f17 2034 a11e df32 3fa6 3b34 85b0 9333
000003c0: 7437 5a34 a118 4134 1edf b133 5c17 2036
000003d0: aa47 9533 033c d336 8f64 8a35 8642 c336
000003e0: 9ac8 7736 96a2 ff36 bad8 1337 c883 6a36
000003f0: 9b7f 8734 3576 9931 1876 5935 a850 0734

exp_avg f4 [128]
-1.7924433e-05 -6.0780378e-05 0.00036137505 -0.0010893685 -0.00074444886 -0.0005527027 0.0005823333 -0.00068288617
0.0006173076 -8.210629e-05 -1.6783219e-05 -0.00086923863 0.0011481752 -4.7479625e-05 -2.5079205e-05 0.000875357
0.0006567291 0.00042084808 -3.3070606e-05 -0.00012291606 0.00078407134 0.00017859592 6.7674926e-05 -0.00032378922
-0.00024068244 0.00014907554 -9.152427e-05 -0.00091060664 0.0001120161 0.00030680705 -2.6024854e-05 0.0009511645
-0.00034340555 -0.00018491878 -0.00046385705 0.0005216024 0.00031409474 0.0012908432 0.0026782674 6.5785553e-06
0.00093874853 -0.00071611675 -0.00041816125 -0.0001676436 0.00020281893 9.647445e-05 -5.1236802e-05 -0.00019060163
0.00041560567 0.0014700615 0.00023201738 7.807384e-05 -0.00056293205 3.3603104e-05 -0.00094338454 -0.0011652627
0.0007132823 0.00079341605 0.0019844375 0.0005435347 0.00019578863 -0.00050910213 1.3399678e-06 -4.3301876e-05
0.00031009354 0.00014219628 -0.0010869281 -0.0010550965 0.0001369524 -0.000350757 0.0009611693 8.3041756e-05
-0.0008312978 7.393157e-05 -0.00030400982 0.0002833941 -2.1469896e-05 0.00091027207 -0.00081157597 -0.0026580256
4.7290665e-05 0.001871104 4.3831278e-05 0.00054340705 -0.0008170631 -9.060091e-05 -0.000865547 0.00026866473
0.00049567746 -0.0011538503 0.0018370425 8.5233536e-05 -0.0031314213 -0.001362603 -0.00011305958 0.00018219967
-0.00030698584 0.0009856715 0.00039247453 -0.0015915085 -0.00084308727 -0.0005282143 0.0012433784 -0.0019150504
-9.663845e-05 -0.0006416944 -3.6805968e-06 -0.00015622514 0.0013844718 0.00012479813 0.0005832016 0.0009274668
3.9167997e-05 -6.442073e-05 -0.0004781029 0.0022794795 0.0011028476 7.1753944e-05 1.5776777e-05 0.00033874504
-0.00056537054 -0.0022595713 -0.0004814749 -0.0011828904 0.0007692383 -0.0015739922 0.00023955372 -0.0005899683
00000000: 6d5c 96b7 6fee 7eb8 f076 bd39 24c9 8eba
00000010: 1e27 43ba 40e3 10ba baa7 183a b703 33ba
00000020: d0d2 213a 7b30 acb8 b0c9 8cb7 9edd 63ba
00000030: 5e7e 963a dc24 47b8 2f61 d2b7 3778 653a
00000040: 5828 2c3a 46a5 dc39 4bb5 0ab8 07e3 00b9
00000050: 238a 4d3a 7a45 3b39 b3ec 8d38 41c2 a9b9
00000060: b35f 7cb9 2951 1c39 b8f0 bfb8 c7b5 6eba
00000070: 30ea ea38 f2da a039 f34f dab7 9257 793a
00000080: 1d0b b4b9 c2e6 41b9 d731 f3b9 25bc 083a
00000090: 15ad a439 8331 a93a df85 2f3b 5cbd dc36
000000a0: 5916 763a c8b9 3bba a73c dbb9 7cc9 2fb9
000000b0: cbab 5439 5352 ca38 19e7 56b8 3cdc 47b9
000000c0: a6e5 d939 14af c03a b149 7339 93bb a338
000000d0: bb91 13ba 0ff1 0c38 774d 77ba babb 98ba
000000e0: 91fb 3a3a 40fd 4f3a 560d 023b ff7b 0e3a
000000f0: 9c4c 4d39 4475 05ba f1d8 b335 099f 35b8
00000100: 0d94 a239 861a 1539 4177 8eba 2a4b 8aba
00000110: e19a 0f39 cfe5 b7b9 fbf6 7b3a b426 ae38
00000120: 73eb 59ba b60b 9b38 8263 9fb9 8394 9439
00000130: 401a b4b7 539f 6e3a f1bf 54ba 4532 2ebb
00000140: f759 4638 d53f f53a 7ad7 3738 6e73 0e3a
00000150: 2d30 56ba fe00 beb8 e0e5 62ba 92db 8c39
00000160: 5af0 013a cb3c 97ba ebc8 f03a 68bf b238
00000170: 8838 4dbb 5f99 b2ba 661a edb8 da0c 3f39
00000180: f1f2 a0b9 a631 813a 0ac5 cd39 2a9a d0ba
00000190: a102 5dba dd77 0aba dbf8 a23a 6e02 fbba
000001a0: 5faa cab8 6237 28ba 2c00 77b6 5ed0 23b9
000001b0: 2a77 b53a 3edc 0239 ffe1 183a 3e21 733a
000001c0: 5148 2438 9e19 87b8 e3a9 fab9 5263 153b
000001d0: 6d8d 903a 9b7a 9638 5f58 8437 9799 b139
000001e0: 6035 14ba 5115 14bb 786e fcb9 370b 9bba
000001f0: b5a6 493a 6a4e ceba b630 7b39 1aa8 1aba

exp_avg_sq f4 [128]
1.1364389e-05 7.8459567e-07 6.4673754e-06 1.6679676e-05 6.6998473e-06 1.5256666e-05 2.1311464e-06 1.0927429e-05
7.4367035e-06 3.9248368e-07 1.0469858e-07 8.341577e-06 1.2630577e-05 1.4026665e-06 4.938376e-08 1.76067e-05
1.3588082e-05 2.10901e-06 1.00220184e-07 2.1685634e-07 2.8435667e-05 1.1563493e-06 4.1777918e-07 9.219743e-07
3.890364e-07 5.855646e-07 2.973057e-07 1.1866886e-05 1.660436e-06 1.5626027e-06 3.887506e-07 1.0647942e-05
2.4038945e-05 2.9486776e-07 5.622941e-06 8.273336e-06 7.912402e-07 2.3892519e-05 6.614978e-05 7.3367275e-08
3.7798713e-05 2.7123617e-06 4.8677953e-06 1.2336287e-06 1.0578156e-05 2.3962375e-06 2.5464686e-08 1.3552736e-06
1.0582706e-05 1.8495424e-05 4.208554e-06 7.377197e-07 7.362534e-06 5.2389255e-06 1.2829372e-05 1.6576474e-05
1.955688e-05 2.3004037e-05 4.191887e-05 7.6109523e-06 1.031041e-06 1.6849558e-06 1.2578746e-08 3.9188685e-06
1.0799015e-05 4.0800337e-06 1.0709429e-05 1.36351755e-05 3.9969086e-07 1.6883782e-06 4.3494797e-06 1.151107e-06
1.8828954e-05 1.0342931e-07 8.527815e-07 4.65775e-06 8.5015427e-07 1.0302855e-05 5.412793e-06 4.113753e-05
8.907351e-07 2.7311999e-05 1.3326185e-07 5.0222375e-06 3.2179958e-06 2.693461e-06 6.843916e-06 2.7080384e-06
6.852537e-06 1.1797395e-05 6.3904314e-05 1.6079704e-06 8.019604e-05 1.7788552e-05 1.922943e-07 9.005341e-07
2.7726257e-06 1.0189939e-05 4.666321e-06 1.6157665e-05 6.1548794e-06 8.432342e-06 1.0777826e-05 3.5308203e-05
5.804825e-08 1.9090019e-06 2.8757936e-08 7.3544916e-06 1.3001624e-05 1.2489606e-06 4.809318e-06 5.321883e-06
5.139491e-08 9.808347e-06 5.1645584e-06 3.7195372e-05 4.8557933e-05 1.1923331e-06 6.7977367e-06 8.484244e-06
1.8970101e-06 3.638006e-05 5.5143996e-06 9.7069105e-06 5.428404e-06 1.5866468e-05 6.7760684e-06 4.839394e-06
00000000: aea9 3e37 019d 5235 5502 d936 55eb 8b37
00000010: 40cf e036 e2f6 7f37 d104 0f36 f354 3737
00000020: cc88 f936 8cb6 d234 a7d6 e033 cdf2 0b37
00000030: eae7 5337 4143 bc35 051a 5433 1ab2 9337
00000040: 5ef8 6337 8488 0d36 a138 d733 04d9 6834
00000050: 2189 ee37 dc33 9b35 224b e034 977d 7735
00000060: c1dc d034 b12f 1d35 629d 9f34 e317 4737
00000070: 26dc de35 9fba d135 7ab5 d034 90a4 3237
00000080: 3ea7 c937 514e 9e34 b2ac bc36 b5cd 0a37
00000090: 9d65 5435 cb6c c837 e5b9 8a38 168e 9d33
000000a0: 0f8a 1e38 0506 3636 0b56 a336 2993 a535
000000b0: d678 3137 0ccf 2036 70bd da32 d9e6 b535
000000c0: 608c 3137 9f26 9b37 3437 8d36 b607 4635
000000d0: af0b f736 07ca af36 bc3d 5737 b50d 8b37
000000e0: 140e a437 cbf8 c037 0bd2 2f38 9561 ff36
000000f0: 4d62 8a35 a426 e235 e919 5832 d37e 8336
00000100: 6b2d 3537 39e7 8836 a6ac 3337 a2c2 6437
00000110: 1895 d634 3c9c e235 bff1 9136 bc7f 9a35
00000120: dff2 9d37 dd1c de33 b3ea 6435 c549 9c36
00000130: 2836 6435 6dda 2c37 8a9f b536 168b 2c38
00000140: da1a 6f35 121c e537 bd16 0f34 b184 a836
00000150: bff4 5736 4fc1 3436 caa4 e536 bfbb 3536
00000160: d8ee e536 6ded 4537 5e04 8638 71d1 d735
00000170: ec2e a838 a038 9537 7479 4e34 3bbc 7135
00000180: 5911 3a36 74f5 2a37 6493 9c36 528a 8737
00000190: 0386 ce36 a278 0d37 69d2 3437 e517 1438
000001a0: ba50 7933 671c 0036 5f07 f732 9ac6 f636
000001b0: 8d21 5a37 f6a1 a735 ba5f a136 a092 b236
000001c0: 4dbd 5c33 888e 2437 384b ad36 3a02 1c38
000001d0: afaa 4b38 4108 a035 1d18 e436 8d57 0e37
000001e0: c59c fe35 cb96 1838 5508 b936 ddda 2237
000001f0: a325 b636 fb18 8537 fc5d e336 1462 a236
