Assets/results/Maze03/Mouse/Mouse-14313.pt (torch, 455069 bytes, 33 tensors)

network_body._body_endoder.seq_layers.0.weight f4 [128, 9]
0	0xbe6c5d06	-0.2308236
1	0x3d93706a	0.07199176
2	0x3eaf66bf	0.34258077
3	0xbe99a9e0	-0.30012417
4	0xbe5101d5	-0.20410855
5	0x3e6380d0	0.22217107
6	0xbebb086d	-0.36529866
7	0xbe1e9a51	-0.15488555
8	0x3f347b6c	0.70500827
9	0x3f0e40a1	0.55567366
10	0xbed6aff4	-0.41931117
11	0xbe1d0af6	-0.15336213
12	0xbeec8a1c	-0.4619912
13	0xbe98a5cd	-0.29813996
14	0xbd9eb7e1	-0.07749916
15	0xbed42c7f	-0.41440198
16	0xbee5bdc8	-0.44871354
17	0x3d4d2472	0.050083585
18	0xbd3a7fa4	-0.045531884
19	0xbcd82fec	-0.026390038
20	0x3d09784a	0.033561982
21	0xbdba0886	-0.09083657
22	0x3efcc5ce	0.49369663
23	0xbd85c2da	-0.065313056
24	0xbdfd90a3	-0.12381103
25	0xbe4e0c4a	-0.20121875
26	0x3e9d6fb5	0.30749288
27	0x3eb56349	0.3542731
28	0x3e162b67	0.14664994
29	0x3e9a4cae	0.30136627
30	0xbe96c48f	-0.29446837
31	0x3e23a39a	0.15980378
32	0xbe2d7f4b	-0.1694309
33	0xbe5dfc2d	-0.21678229
34	0x3d837391	0.06418527
35	0xbda3e185	-0.08001999
36	0xbe66b064	-0.22528225
37	0xbe548044	-0.20752054
38	0xbea5fc7f	-0.32419202
39	0x3ec4cb1b	0.38436207
40	0x3e42a09b	0.19006579
41	0x3ea5b1d3	0.32362232
42	0x3e1c0da7	0.15239583
43	0x3f058801	0.5216065
44	0x3f39cf64	0.7258208
45	0x3e9f878e	0.31158108
46	0x3db964de	0.09052442
47	0x3e916238	0.28395247
48	0xbe0b2d84	-0.13591582
49	0x3ea999a8	0.33125043
50	0xbb46170d	-0.0030226142
51	0xbf53b2c8	-0.82694674
52	0xbb8ec385	-0.004356804
53	0x3cf2f5cc	0.02965822
54	0xbec461f7	-0.3835599
55	0xbd9b401e	-0.07580589
56	0xbe694a50	-0.22782254
57	0xbdb05da1	-0.08611608
58	0x3d0c01eb	0.034181517
59	0x3e9a1623	0.30095014
60	0x3e1e9264	0.15485531
61	0xbe8f33c3	-0.2796918
62	0xbdf79067	-0.120880894
63	0x3f11bf99	0.5693298
64	0xbe421667	-0.18953858
65	0xbe828338	-0.25490737
66	0x3ddc446a	0.107552364
67	0xbc895331	-0.016763302
68	0xbe05a711	-0.13052012
69	0x3e8b6c1e	0.27230924
70	0x3ef9bd00	0.48777008
71	0xbe8f0d64	-0.27939904
72	0x3c8e6653	0.017382776
73	0x3db20b48	0.08693558
74	0x3ddb7f03	0.10717585
75	0x3eb25650	0.34831476
76	0xbdefad5a	-0.11702986
77	0xbd2609fe	-0.040536873
78	0x3e3d3335	0.18476565
79	0x3e7d5192	0.24738148
80	0x3c950c8c	0.01819446
81	0xbe5def96	-0.21673426
82	0xbe6e9270	-0.23298049
83	0xbe514271	-0.20435502
84	0xbe9f1ce6	-0.31076735
85	0xbeb48383	-0.35256585
86	0x3e357a43	0.1772242
87	0xbd871ceb	-0.065973125
88	0x3c8e84aa	0.017397244
89	0x3e9026a0	0.2815447
90	0x3da14536	0.07874529
91	0x3f21758b	0.6306998
92	0xbea44b2a	-0.32088596
93	0xbcf3ddfc	-0.029768936
94	0xbcbded02	-0.023184303
95	0xbee290f7	-0.44251224
96	0xbec68a46	-0.3877737
97	0xbf257733	-0.6463501
98	0xbd973c14	-0.07384506
99	0xbc8a9375	-0.016916016
100	0x3e94c6ed	0.29058018
101	0x3e47b094	0.19500953
102	0xbf042e51	-0.51633173
103	0xbea2e9b1	-0.31818917
104	0xbe0e6fec	-0.13909882
105	0x3e397ed9	0.18114795
106	0x3ece96b2	0.40349346
107	0x3d57cada	0.05268369
108	0x3dfdcdbf	0.123927586
109	0x3d9e905a	0.077423766
110	0x3e304de1	0.17217208
111	0xbd817f9d	-0.063231684
112	0x3ebf4467	0.37356874
113	0x3e5433ed	0.20722933
114	0x3eee5272	0.46547276
115	0xbf1f7994	-0.6229489
116	0xbf665aa0	-0.8998203
117	0xbebe9d0f	-0.372292
118	0xbf4be550	-0.7964678
119	0xbc56d3f3	-0.013112056
120	0xbef20cee	-0.4727549
121	0x3d36ae2d	0.0445997
122	0xbdf9d583	-0.12198927
123	0xbeff02da	-0.49806863
124	0xbd572467	-0.05252495
125	0x3ecce32c	0.40017068
126	0xbd7370b4	-0.059433654
127	0x3e8a9d20	0.27073002
128	0xbeac79f0	-0.3368678
129	0xbf119ddb	-0.56881493
130	0xbeb76895	-0.35821977
131	0x3d8e50bd	0.06948993
132	0xbe6e704b	-0.23285024
133	0xbdc2e5fe	-0.09516524
134	0xbe92f9d3	-0.28706226
135	0x3ec6e050	0.38843012
136	0xbeafed7e	-0.3436088
137	0xbc5574f5	-0.013028373
138	0x3eb93fe7	0.36181566
139	0xbaf1a978	-0.0018437346
140	0xbeac2cea	-0.33628017
141	0x3dec286b	0.115311466
142	0xbe80572f	-0.25066516
143	0xbdcd84b7	-0.10035079
144	0xbec5190b	-0.3849567
145	0x3d9c73e6	0.076392934
146	0xbe4e9ff1	-0.201782
147	0x3ec03700	0.37541962
148	0x3eab583d	0.33465758
149	0x3e6c115a	0.23053494
150	0xbe987ba6	-0.29781836
151	0xbf067f38	-0.5253787
152	0x3e01028d	0.1259863
153	0xbe83d185	-0.25745788
154	0xbeab4560	-0.33451366
155	0xbdc6959b	-0.09696504
156	0xbc218462	-0.009858223
157	0x3df722f8	0.12067217
158	0xbe37e5a5	-0.17958696
159	0x3e886397	0.2663848
160	0xbefc380d	-0.49261513
161	0x3e06e564	0.13173443
162	0x3dff84c8	0.12476498
163	0x3f29ddac	0.6635387
164	0xbeb29452	-0.34878784
165	0x3e8bd414	0.2731024
166	0xbdeeaf75	-0.116545595
167	0xbd50cc53	-0.05097611
168	0x3bb672cd	0.0055678845
169	0xbe278c7a	-0.16362181
170	0xbee55595	-0.44791856
171	0xbed20ae5	-0.41023937
172	0xbf0bbbf0	-0.54583645
173	0x3ddf88c3	0.10914757
174	0x3e32e9b8	0.17471969
175	0xbeadabcf	-0.33920142
176	0x3dfb407e	0.1226816
177	0xbf22b55f	-0.63558
178	0x3e1aaaef	0.15104268
179	0x3e7746f3	0.24148159
180	0x3db3a201	0.08771134
181	0x3f884a1e	1.0647619
182	0x3d75bd06	0.05999472
183	0x3f4bdd65	0.79634696
184	0x3d53706e	0.051620893
185	0x3eda345f	0.4261808
186	0x3f5aa8f0	0.8541403
187	0x3e43b502	0.19112018
188	0x3f02b8af	0.51063055
189	0x3e922bde	0.28549093
190	0x3d202f68	0.03910771
191	0xbe9885b8	-0.2978952
192	0x3e7089d9	0.23490085
193	0x3e7caeea	0.246761
194	0x3e296074	0.165407
195	0x3e0839b5	0.13303263
196	0x3ef34227	0.47511408
197	0x3d901793	0.070357464
198	0x3e57c037	0.21069418
199	0x3e36de72	0.17858294
200	0x3d7fd842	0.0624621
201	0x3e912a59	0.2835262
202	0xbebd7b8d	-0.37008324
203	0x3e12359c	0.14278263
204	0xbf01b946	-0.5067333
205	0xbe78fb5b	-0.24314635
206	0xbf2cebf1	-0.6754752
207	0x3d9ce7b5	0.07661382
208	0x3ef0f58d	0.4706234
209	0x3dce6647	0.100781016
210	0x3f013df0	0.50485134
211	0xbe031e1c	-0.12804455
212	0xbd9d8c01	-0.07692719
213	0xbded7541	-0.1159463
214	0x3e407967	0.18796311
215	0xbdca22e1	-0.09869934
216	0xbcb1ec3d	-0.021719093
217	0x3e3377d2	0.17526177
218	0xbd4fe4c8	-0.050755292
219	0xbf04439b	-0.5166566
220	0xbd069601	-0.0328579
221	0xbdf19b71	-0.11797226
222	0xbe4da0ed	-0.2008092
223	0x3e13713f	0.14398669
224	0xbf171146	-0.5901073
225	0xbece0764	-0.40240014
226	0xbe488aba	-0.1958417
227	0x3dc1de3e	0.094662175
228	0xbe244c7e	-0.16044804
229	0xbf125193	-0.5715572
230	0x3e32114b	0.17389409
231	0x3e9bb39e	0.30410475
232	0xbe4d90ff	-0.20074843
233	0x3db8df08	0.09026915
234	0xbedb4e2c	-0.42833078
235	0x3e6c3be8	0.23069727
236	0x3dc688e3	0.09694078
237	0xbe08deac	-0.13366193
238	0xbd414b08	-0.047190696
239	0xbe75ebe7	-0.24015771
240	0xbcdf662f	-0.027270405
241	0xbe05f88e	-0.13083097
242	0xbdad6f2f	-0.08468472
243	0x3d9e476d	0.07728467
244	0xbee67acd	-0.45015565
245	0x3e9f08d0	0.3106141
246	0x3e8f6964	0.28010094
247	0xbea5d074	-0.323856
248	0xb86abc09	-5.596507e-05
249	0xbef70001	-0.4824219
250	0x3e11b8c5	0.1423064
251	0x3e9ce5b1	0.3064399
252	0xbdd1e40a	-0.10248573
253	0xbd3264d8	-0.043553203
254	0xbe862c32	-0.26205593
255	0xbf5d4cc8	-0.86445284

network_body._body_endoder.seq_layers.0.bias f4 [128]
0	0x3c04ad72	0.008097993
1	0x3c444a1f	0.0119805625
2	0xbc40491e	-0.0117361825
3	0x3a26e363	0.0006366281
4	0xbc081836	-0.008306554
5	0x3c6093e4	0.013707135
6	0x3bbefacc	0.005828237
7	0x3c201c45	0.009772365
8	0xbbba6d62	-0.005689309
9	0x3ca3da74	0.020001628
10	0xbc6a81b9	-0.014313155
11	0x3bd1b463	0.0063996776
12	0x3c6d9cd8	0.0145027265
13	0x3c8476cb	0.016169926
14	0xbc2d3bdb	-0.010573353
15	0x3c1e2d8e	0.009654416
16	0x3c51b08a	0.012798438
17	0xbc0c2e68	-0.008555986
18	0x3bf2b2b9	0.0074065593
19	0xbc12896d	-0.008943898
20	0x394cb257	0.00019521393
21	0xbc4f29c0	-0.012644231
22	0xbbde2f8e	-0.0067805713
23	0x3b0d3b71	0.0021550322
24	0x3bcdd9cc	0.006282067
25	0x3c8b2521	0.016985478
26	0xba59fa46	-0.0008315187
27	0x3c1ee4f4	0.009698141
28	0x3b946abb	0.004529325
29	0x3c80cb5f	0.015721975
30	0x3c377bd0	0.011198953
31	0xbbd9e97c	-0.006650148
32	0x3bd0ee40	0.006376058
33	0x3c207e51	0.009795741
34	0x3cc62df3	0.024191832
35	0xbc2c70a6	-0.010524904
36	0x3cafe3f0	0.021470994
37	0xbb520b4e	-0.0032050195
38	0x3bdc0dcd	0.0067155124
39	0x3aa2f296	0.0012431915
40	0x3c5291d6	0.012852153
41	0xbc096b51	-0.008387403
42	0x3cea8e3a	0.028632272
43	0x3aa6145a	0.001267086
44	0x3c3920c9	0.0112993205
45	0x3aaa1508	0.0012976239
46	0xbc5dca7c	-0.013537046
47	0x3bc3f746	0.005980405
48	0x3bb191a9	0.0054189754
49	0x3c0578a0	0.008146435
50	0x3c21fd80	0.009887099
51	0x3ca56534	0.020189859
52	0x3b547e1f	0.0032423807
53	0x3b5a8af6	0.0033346987
54	0x3bbd36fb	0.0057743764
55	0xbbecc2cf	-0.0072253714
56	0x3c3f8eab	0.01169173
57	0x3c0fe72f	0.008783146
58	0x37cbbda2	2.428779e-05
59	0xbbc0e91c	-0.005887164
60	0x3b375613	0.0027974888
61	0x3b6cd55e	0.003613792
62	0x3b97880d	0.004624373
63	0x3bc9e289	0.0061610383
64	0x3c7c97ee	0.015417082
65	0x3b703530	0.0036652796
66	0xbbda8efe	-0.006669878
67	0x3bd0b06f	0.006368689
68	0xbc4d01ba	-0.012512619
69	0xba1d3ad4	-0.0005997841
70	0xbbb4c5bf	-0.0055167372
71	0x3c7b7763	0.015348288
72	0x3bac7c2b	0.0052638254
73	0x3bf0af74	0.0073451344
74	0x3bb53759	0.0055302796
75	0xbbc81485	-0.0061059617
76	0x3a900ecf	0.0010990741
77	0x3a941528	0.0011297809
78	0xba805c85	-0.0009793198
79	0x3bafdc48	0.0053668357
80	0x3bd5cd6f	0.0065247337
81	0x3c170af3	0.009218919
82	0xbacc9002	-0.0015606883
83	0x3bb8817f	0.0056306715
84	0x3cacc589	0.021090286
85	0xbbe64029	-0.0070266915
86	0x3b57abe2	0.0032908847
87	0x3b76ed10	0.0037677921
88	0xbb23d49f	-0.0024998558
89	0x3b7c2bc9	0.0038478246
90	0x3bb6f845	0.0055837953
91	0x3c7ffdfa	0.015624518
92	0x3c7bb6ae	0.015363378
93	0x3b668e36	0.003517998
94	0x39be4e5d	0.0003629801
95	0xbb2873f7	-0.0025703886
96	0xbc75a25f	-0.014992326
97	0xba924d10	-0.0011161882
98	0x3c2cf9fb	0.010557647
99	0xbc08bc7c	-0.008345719
100	0xbaad306c	-0.0013213283
101	0x3b2835ee	0.002566691
102	0x3c44fea6	0.012023604
103	0xbb2eb6a7	-0.0026659162
104	0x3b3d4b01	0.0028883817
105	0x3ca89cac	0.02058252
106	0xbc99e520	-0.018786013
107	0x3b781913	0.0037856742
108	0x3c23a355	0.009987672
109	0xbae658ab	-0.0017574033
110	0x3c90f7c3	0.017696267
111	0xbc4e7752	-0.01260169
112	0xbc642324	-0.013924394
113	0xbb9fd9d5	-0.0048782625
114	0xbc88dd5a	-0.016707111
115	0x3c91dbff	0.017805098
116	0x3c09d47b	0.008412476
117	0xbc200a16	-0.00976803
118	0x3c728871	0.014803038
119	0x3bd8a335	0.0066112527
120	0x3c20abbe	0.0098065715
121	0x3be7b0e7	0.007070649
122	0x3bd5f817	0.0065298188
123	0x3baa2bf4	0.005193228
124	0xbca1cf22	-0.019752089
125	0xbbf109d0	-0.007355906
126	0x3c9ad47d	0.01890015
127	0x3b734fe3	0.0037126474

network_body._body_endoder.seq_layers.2.weight f4 [128, 128]
0	0xbd729ca1	-0.059231404
1	0x3d4cd2e5	0.050005812
2	0x3d6a3c59	0.05718646
3	0x3d036763	0.03208102
4	0xbd5f3059	-0.054489467
5	0xbdd6b895	-0.10484425
6	0xbe05b11a	-0.1305584
7	0xbdaadec1	-0.08343268
8	0xbd6947b7	-0.05695316
9	0x3d7a01d2	0.061036892
10	0xbc59a549	-0.013284036
11	0xbcbc2f2b	-0.02297171
12	0xbc9197cb	-0.017772576
13	0x3dea3e8a	0.1143771
14	0x3d4123b6	0.047153197
15	0x3e04ddfb	0.12975304
16	0x3d7adc75	0.0612454
17	0x3c9479e7	0.018124534
18	0x3d8c8672	0.06861581
19	0x3dacc718	0.084364116
20	0xbdab11b4	-0.08352986
21	0xbe13b84c	-0.14425772
22	0xbc63f796	-0.01391401
23	0xbc9a9801	-0.01887131
24	0xbd8ac487	-0.06775766
25	0xbcfac3dd	-0.030610973
26	0xbd50ea5a	-0.051004745
27	0xbd66fce9	-0.056393538
28	0x3cde10ee	0.027107682
29	0xbc10ea55	-0.008844932
30	0x3d73c72f	0.05951613
31	0x3def3f67	0.11682015
32	0xbddd95bd	-0.10819576
33	0x3d91d779	0.07121176
34	0x3cf28e12	0.02960876
35	0x3dd04d11	0.10170949
36	0x3d3acb21	0.045603875
37	0x3daca31a	0.08429547
38	0x3da53b91	0.08068002
39	0x3db99cf5	0.0906314
40	0x3d956f72	0.07296647
41	0x3d306cb8	0.043072432
42	0x3d06ed18	0.032940954
43	0xbda182c1	-0.078862675
44	0x3e22b48d	0.15889187
45	0xbcae755b	-0.021296194
46	0xbd1f8868	-0.038948447
47	0x3d1716a2	0.03688682
48	0xbde85cb3	-0.11345806
49	0x3d4842a4	0.04889168
50	0x3cea6d8a	0.028616685
51	0x3db6d2ea	0.089269474
52	0x3d1ce619	0.038305376
53	0xbd162714	-0.03665836
54	0xbc8089ee	-0.01569077
55	0x3d1f841f	0.03894436
56	0xbd82e0f6	-0.06390564
57	0xbdce20b1	-0.10064829
58	0x3d904e7e	0.07046221
59	0xbe16c5ed	-0.1472394
60	0xbcb4730b	-0.022027513
61	0x3e037c27	0.12840329
62	0xbdcd87b0	-0.10035646
63	0x3d4a8c82	0.049450405
64	0x3d3ff5b8	0.046865195
65	0x3e0cb470	0.13740706
66	0xbc8a2316	-0.016862433
67	0xbcbc9f41	-0.023025157
68	0x3b5f949a	0.0034115673
69	0xbd18e5e1	-0.037328605
70	0xbd828f81	-0.063750274
71	0xbdf71b98	-0.1206581
72	0x3e08a982	0.13345912
73	0xbd193af7	-0.03740975
74	0x3d8fff4e	0.070311174
75	0xbd8eb096	-0.06967275
76	0xbdaf52f9	-0.08560748
77	0x3dc07b25	0.09398488
78	0x3d880f50	0.06643546
79	0xbdbde052	-0.09271301
80	0xbd1bfa12	-0.038080283
81	0xbd5f8e98	-0.054579347
82	0x3e35776b	0.17721336
83	0x3ca1104a	0.019661088
84	0x3e17d16b	0.1482598
85	0x3d2a7f94	0.041625574
86	0x3d00103e	0.03126549
87	0xbdcafaca	-0.099111155
88	0x3cba49b4	0.022740223
89	0x3e24619b	0.16052859
90	0x3cc2ab65	0.023763368
91	0x3d9ebb11	0.07750524
92	0xbdbfd5ec	-0.09366974
93	0xbe43cff8	-0.19122303
94	0x3c068e76	0.008212676
95	0xbcda68f0	-0.026661366
96	0x3d7bf42e	0.061512165
97	0x3dd04b18	0.10170573
98	0xbc079a7d	-0.008276579
99	0xbe0b82c5	-0.13624103
100	0x3e66c0e8	0.22534525
101	0x3e5430e6	0.20721778
102	0xbcafdcf1	-0.021467658
103	0xbc1ecba8	-0.00969211
104	0x3d755c02	0.0599022
105	0x3d93df8a	0.07220371
106	0x3a5b942a	0.0008376265
107	0x3e1db60f	0.15401481
108	0xbd6b4c03	-0.057445537
109	0x3c1a9995	0.009436031
110	0x3ca56181	0.020188095
111	0xbd9d25c4	-0.07673219
112	0xbdc1d43f	-0.09464311
113	0xbdb2181c	-0.08696005
114	0x3e0c015d	0.13672395
115	0xbd642c5e	-0.055706374
116	0xbc86c566	-0.016451549
117	0xbd213346	-0.03935554
118	0xbe17f141	-0.14838125
119	0xbd22bba2	-0.03972972
120	0xbe3a2247	-0.18177138
121	0xbd18e6fe	-0.037329666
122	0x3e2b9cad	0.16758986
123	0xbdb98dc2	-0.09060241
124	0xbe48f151	-0.19623305
125	0x3d4dd130	0.050248325
126	0x3d6bd856	0.05757936
127	0x3c582352	0.013192015
128	0x3dbbf07e	0.091767296
129	0xbe26ad0f	-0.16276954
130	0xbde1de26	-0.110286996
131	0xbae9b79a	-0.0017831207
132	0xbe309aa8	-0.17246497
133	0xbd8c1a99	-0.068410106
134	0xbda5b643	-0.08091404
135	0x3ccfe2bd	0.025376672
136	0x3d96a9fe	0.07356642
137	0x3d0a071e	0.033698194
138	0xbdcf47aa	-0.10121091
139	0xbdac7169	-0.08420069
140	0xbe425f24	-0.18981606
141	0x3d30a982	0.043130405
142	0x3dd94ab5	0.10609952
143	0xbd9d6ccc	-0.07686767
144	0xbbe67ec6	-0.0070341555
145	0xbd260fb7	-0.04054233
146	0x3dbbf471	0.09177483
147	0xbdc249a0	-0.09486699
148	0x3d386d02	0.045025833
149	0xbb9fe8c4	-0.0048800427
150	0xbc9b9e70	-0.018996447
151	0x3d4dffed	0.050292898
152	0xbe3d1c98	-0.18467939
153	0xbbc5a2b6	-0.0060313595
154	0x3d4cd276	0.0500054
155	0xbce23f8d	-0.027618194
156	0xbd7407f9	-0.059577916
157	0x3d5fe63f	0.05466294
158	0x3d56ac59	0.052410457
159	0x3d7ef7d2	0.06224806
160	0x3d62b43f	0.055347677
161	0xbdf0014f	-0.117189996
162	0x3d738775	0.059455354
163	0xbe06027a	-0.13086882
164	0xbd808919	-0.06276149
165	0xbd8f4880	-0.0699625
166	0x3d57c1e5	0.052675147
167	0x3d57767a	0.052603222
168	0x3dcbd1e6	0.09952144
169	0xbc6f0365	-0.014588212
170	0x3e31e8b1	0.17373921
171	0x3d50c807	0.05097201
172	0x3ddc971a	0.10771008
173	0x3cc5ebbb	0.024160257
174	0xbb9ed28b	-0.004846876
175	0xbdc6cc53	-0.097069405
176	0xbd080cf6	-0.033215486
177	0x3d13a798	0.0360485
178	0xbdbb1701	-0.09135247
179	0xbc7e3c9a	-0.015517378
180	0xbd87b1e2	-0.06625725
181	0xbd995882	-0.07487585
182	0xb9bd8be6	-0.00036153122
183	0x3da49894	0.080369145
184	0xbcfd411d	-0.030914837
185	0x3dfa93a3	0.12235191
186	0x3db2e1c3	0.08734467
187	0xbbecaa06	-0.007222417
188	0x3d6077fb	0.054801922
189	0xbd0b74da	-0.034046985
190	0xbcb85dbf	-0.02250564
191	0x3c382580	0.011239409
192	0x3cdf7e89	0.027282016
193	0x3e1ba402	0.15199283
194	0xbd7f71a2	-0.062364228
195	0x3d531309	0.051531825
196	0xbcaee306	-0.021348488
197	0x3e31d61f	0.17366837
198	0xbda5e7b8	-0.081008375
199	0x3cb9d68e	0.022685315
200	0x3d3c26db	0.045935493
201	0x3dbf57c4	0.09342912
202	0xbba2bf08	-0.0049666204
203	0xbe2339a3	-0.15939955
204	0xbd5a0710	-0.05322939
205	0x3d9e5cb7	0.07732528
206	0xbd54714e	-0.05186587
207	0x3df33d8e	0.11876975
208	0xbd271a45	-0.040796537
209	0x3d28c760	0.041205764
210	0x3db16767	0.086623006
211	0xbe16161d	-0.14656873
212	0x3d9d1021	0.07669092
213	0xbcdaaff9	-0.026695238
214	0x3dfffd92	0.124995366
215	0xbd8cc58b	-0.06873616
216	0xbc9d8e9c	-0.01923304
217	0x3e162151	0.14661147
218	0xbdac35a2	-0.08408667
219	0xbce7e0b2	-0.028305385
220	0x3de9e1fa	0.11420055
221	0xbd5666a0	-0.052343965
222	0xbdea6195	-0.114443935
223	0xbb4e8210	-0.0031510629
224	0xbcf7fa6d	-0.03027078
225	0xbe1e06d2	-0.15432289
226	0xbd79c578	-0.060979337
227	0xbe0a8415	-0.13526948
228	0x3dc53569	0.09629328
229	0xba5e88c4	-0.00084890076
230	0x3db3bcde	0.08776258
231	0xbe089457	-0.13337837
232	0x3d813a36	0.06309931
233	0xbc4cd3c2	-0.012501659
234	0xbe04805f	-0.12939595
235	0xbe03cb33	-0.12870483
236	0x3cd7cbc6	0.026342284
237	0xbd3412c2	-0.0439632
238	0xbdc48c8c	-0.0959712
239	0xbd8994ae	-0.067178115
240	0xbde4d0d4	-0.11172643
241	0x3d2abf49	0.04168633
242	0xbd314d6d	-0.04328673
243	0xbd2653bb	-0.040607195
244	0xbbed58fb	-0.0072432733
245	0xbd05aaf3	-0.032633733
246	0xbdec380e	-0.11534129
247	0x3d96b8c0	0.07359457
248	0x3cb0556d	0.02152511
249	0x3d0cfa95	0.03441866
250	0xbd31c09f	-0.04339659
251	0x3d61cb2a	0.055125393
252	0xbbdedf08	-0.0068014897
253	0xbd64011f	-0.05566513
254	0xbdcb0383	-0.09912779
255	0x3da855f5	0.0821952

network_body._body_endoder.seq_layers.2.bias f4 [128]
0	0xba0714fc	-0.0005152968
1	0x3b9c046f	0.0047612707
2	0x3bb774ac	0.005598625
3	0x3c423b70	0.011854991
4	0x3abb73ff	0.0014301537
5	0xba07fca9	-0.00051874906
6	0xb8e841bc	-0.00011074866
7	0xb931e650	-0.00016965833
8	0x3b9a6ce9	0.00471269
9	0x3c15ba0e	0.009138597
10	0x3be2c3d4	0.006920317
11	0x3a923864	0.0011155722
12	0xb94160eb	-0.00018442019
13	0x3c080ac9	0.008303353
14	0x3c1f2887	0.009714252
15	0xbbae8358	-0.005325716
16	0x3c12faf9	0.008970969
17	0xbb221698	-0.0024732705
18	0xbadfccd0	-0.0017074589
19	0xbafc5aad	-0.0019253098
20	0xbb87ca05	-0.0041439557
21	0x39c32095	0.00037217574
22	0x3c2a7225	0.010403191
23	0xb92b157f	-0.00016315839
24	0x3b1e313e	0.0024138237
25	0xbb991d54	-0.0046726856
26	0xbba470a0	-0.0050183088
27	0xbc370b3f	-0.011172115
28	0xbc8923d7	-0.016740723
29	0xbc443e57	-0.011977754
30	0xbc064423	-0.008194956
31	0x3bb77a29	0.0055992794
32	0x3c3c1f58	0.011482082
33	0x3c4da216	0.012550851
34	0x3b2a6933	0.0026002645
35	0xba8cd5c4	-0.001074486
36	0x3b6ec3e2	0.0036432673
37	0x3b99c3b7	0.0046925205
38	0x3c0c26a6	0.008554136
39	0x3b87878b	0.004136031
40	0x3a90674f	0.0011017116
41	0x3c3ee9a8	0.011652388
42	0x3c948c63	0.018133348
43	0x3a554f8c	0.00081371586
44	0x3bedb980	0.0072547793
45	0x3b68bd84	0.003551335
46	0x3c3b3a85	0.011427526
47	0x3b0b71d9	0.0021277575
48	0xbb013c1d	-0.0019719668
49	0xb9dc6234	-0.00042034837
50	0xbc6036f5	-0.013684978
51	0x39973f45	0.00028848104
52	0x3b5ab3ff	0.0033371446
53	0xbb1189e1	-0.0022207426
54	0x3b03651e	0.0020049284
55	0x3c235608	0.009969242
56	0x3bc48df9	0.00599837
57	0x3a3fccfa	0.00073166157
58	0xbb8c5eb9	-0.0042837528
59	0xbc19c3af	-0.0093850335
60	0xbadb1f34	-0.0016717673
61	0x3b460a54	0.0030218558
62	0x3b26ccf1	0.0025451744
63	0x3bcdca08	0.0062801875
64	0x3c3390e1	0.010959835
65	0xbbbb4937	-0.005715515
66	0xbb0d3792	-0.0021548015
67	0xbb453e86	-0.0030097081
68	0xb9d2290d	-0.00040084907
69	0x3abe2066	0.0014505505
70	0x3b010a9c	0.0019690162
71	0x3b40c8c6	0.0029416545
72	0xbc3fea26	-0.01171354
73	0xbbec55d5	-0.0072123804
74	0x3bb309f5	0.0054638335
75	0x3c229c3c	0.0099249445
76	0x3a2bdbed	0.0006555904
77	0x3c2212bc	0.009892162
78	0xbc37d6a7	-0.011220611
79	0xbc2f96e6	-0.010717129
80	0x3be516d3	0.0069912462
81	0xb9f6db1b	-0.00047084023
82	0x397f2820	0.00024333643
83	0xbb6e5f68	-0.0036372785
84	0x3c493a12	0.012281911
85	0xbbe77a8a	-0.0070641683
86	0x3b155edd	0.0022792139
87	0x3bb93f69	0.005653311
88	0xbbbe74cd	-0.0058122636
89	0x3ba39c79	0.004993018
90	0xbbfe14f1	-0.0077539613
91	0x3b318f93	0.0027093634
92	0xbb1146c4	-0.0022167424
93	0xb906b2d2	-0.00012845852
94	0xbc3e8065	-0.011627291
95	0x3bb32bb7	0.0054678577
96	0x3c0befc1	0.0085410485
97	0xbc032409	-0.008004197
98	0x396876a8	0.00022169447
99	0x3b8d9a10	0.004321344
100	0xba22de51	-0.00062129373
101	0xbb8b6f30	-0.004255198
102	0x3bb03ac4	0.005378099
103	0xbc2122b3	-0.009834933
104	0xbb21f52f	-0.0024712791
105	0xbbc18d78	-0.005906757
106	0xbbb62be3	-0.005559431
107	0xbc2794aa	-0.010228315
108	0x3b5087c8	0.0031819213
109	0xb9e9a44b	-0.0004456363
110	0x3b7b7fed	0.003837581
111	0x3b55a15d	0.00325974
112	0x3c7a87fe	0.015291212
113	0x395a66e0	0.00020828424
114	0x3bc0bfa9	0.0058822227
115	0xbb4279e4	-0.0029674703
116	0x3b03347c	0.0020020297
117	0xba929ef4	-0.0011186288
118	0x3c0f3fb5	0.008743216
119	0x3b8b1ccb	0.0042453757
120	0xbc361f70	-0.011115894
121	0xb98118d5	-0.000246233
122	0xba642282	-0.0008702652
123	0xbb95068f	-0.004547901
124	0x3c42e07b	0.011894341
125	0x3beb657a	0.007183728
126	0xb9be0c64	-0.00036248856
127	0x3a05d234	0.000510487

action_model._discrete_distribution.branches.0.weight f4 [5, 128]
0	0xbc0aaab9	-0.008463555
1	0x3c6a5cde	0.014304368
2	0x3cc475c4	0.023981936
3	0xbaeb613a	-0.0017958053
4	0x3c4a80af	0.012359782
5	0x3c5c3339	0.013439947
6	0xbc151c23	-0.009100947
7	0x3b7e04c1	0.0038760158
8	0x3d0d1c74	0.034450963
9	0x3d0fba8a	0.035090007
10	0x3ba020a4	0.0048867036
11	0x3c5b2f27	0.013377941
12	0xbd17dbaa	-0.037074722
13	0xbc56164d	-0.01306684
14	0x3c4dd81a	0.01256373
15	0xbbaccddb	-0.0052735633
16	0x3c6f5d84	0.014609698
17	0x3b8c224b	0.004276549
18	0xbca99540	-0.02070105
19	0xbc8cb81c	-0.017177634
20	0x3b9361b5	0.0044977316
21	0xbc0c7d2f	-0.008574768
22	0x3cec91d2	0.028878126
23	0xbc9fd6b2	-0.019511554
24	0x3cc56b07	0.024098886
25	0x3bd58e58	0.006517213
26	0x3bb7d650	0.005610265
27	0x3b4a4e11	0.0030869285
28	0xbc45a97d	-0.012064335
29	0xbc8f8af1	-0.017522307
30	0xbb9d05e0	-0.00479196
31	0xbc53b59b	-0.012921716
32	0xba54f72d	-0.000812399
33	0x3c61a52a	0.013772288
34	0xbb27b0a3	-0.0025587461
35	0xbb5f0c2a	-0.003403435
36	0x3a952b5d	0.0011380721
37	0x3c031898	0.008001469
38	0x3cb37731	0.02190742
39	0x3c8e77bd	0.01739108
40	0x3c23e8d3	0.01000424
41	0x3b654990	0.0034986474
42	0xbca8a688	-0.02058722
43	0xbc805a08	-0.01566793
44	0xbce3b31c	-0.027795367
45	0x3accb540	0.0015617982
46	0x3bbd4ab6	0.0057767285
47	0x3c8d9a58	0.01728551
48	0x3cff675e	0.031177219
49	0x39fbd4b1	0.00048032918
50	0xbc337370	-0.010952815
51	0xbbd404cf	-0.0064703
52	0x3b78d50c	0.0037968783
53	0xbb1bee77	-0.002379326
54	0x3c0373e2	0.008023234
55	0xbccca3ee	-0.024980512
56	0xbcbba948	-0.022907868
57	0xbcabe43c	-0.020982854
58	0x3bec295b	0.0072070784
59	0xbc6ca73f	-0.014444171
60	0xbc17238d	-0.009224785
61	0xb94450c2	-0.00018722101
62	0x3b2f8dc5	0.0026787382
63	0xbc82f914	-0.01598791
64	0x3ced3dc6	0.02896012
65	0xbcadd5c6	-0.0212201
66	0x3b8644fe	0.00409758
67	0xbc9208e2	-0.017826501
68	0x3a0f1c2b	0.00054592144
69	0x3c65941f	0.014012366
70	0x3c4c0106	0.012451416
71	0xbb802451	-0.0039105793
72	0xba81c9b0	-0.0009902027
73	0xbc2ef683	-0.01067889
74	0x3b9ecad7	0.0048459577
75	0x3ce7d6b9	0.02830063
76	0xbca627d6	-0.020282667
77	0x3cbe2ef9	0.023215758
78	0x3b400018	0.002929693
79	0xbb128436	-0.0022356636
80	0x3c0255f0	0.007955059
81	0x3c6f4ec8	0.014606185
82	0x3c290c1c	0.0103178285
83	0x3cb6d6dc	0.02231925
84	0x3c4a2e11	0.012340085
85	0x3beaf4eb	0.00717031
86	0xba534529	-0.0008059317
87	0x3bc5ad9b	0.0060326583
88	0x3bc6168e	0.006045169
89	0xbc93ae60	-0.018027484
90	0xbc3cd2d9	-0.011524879
91	0xbc019e93	-0.007911342
92	0xbce41820	-0.027843535
93	0x3b456426	0.0030119508
94	0xbc850b0c	-0.01624062
95	0x3b6c31b8	0.0036040377
96	0xbc5f8072	-0.013641464
97	0x3c2f6c76	0.010707011
98	0xbbdeae51	-0.0067956825
99	0x3a880f51	0.0010380541
100	0xbabb3fb6	-0.0014285955
101	0x3c3092c6	0.010777181
102	0x3b0a0670	0.0021060966
103	0x3ab9cf96	0.0014176245
104	0x3b88abcc	0.0041708704
105	0xbb6d20fc	-0.003618299
106	0x3a417896	0.00073803344
107	0xbbf9da48	-0.007624898
108	0xbae2b4f3	-0.0017296359
109	0xbc672f81	-0.014110447
110	0x3c4a30c0	0.0123407245
111	0x3ce5b9f3	0.028042769
112	0x3d33dca3	0.043911587
113	0xbc972001	-0.018447878
114	0xbc9c54b5	-0.01908336
115	0x3b2ff4bc	0.0026848754
116	0xbbd836a7	-0.006598312
117	0x3c066cd9	0.008204662
118	0xbc84c75a	-0.01620834
119	0x3b99bd0c	0.0046917256
120	0x3b3c9836	0.0028777248
121	0xbbdac40b	-0.006676202
122	0xbd06402a	-0.032776035
123	0x3c626585	0.013818149
124	0x3cb0c685	0.021579036
125	0x3b231683	0.0024885244
126	0x3be03017	0.0068416703
127	0xbba713b8	-0.005098786
128	0xbb084e85	-0.0020798754
129	0x3ae06088	0.0017118612
130	0x3b551758	0.0032515135
131	0x3c0ca5de	0.008584468
132	0xbb22b19e	-0.0024825106
133	0x3bc630b3	0.006048286
134	0x3c64cbfd	0.01396465
135	0xbc4edaef	-0.01262544
136	0x3bf76e0e	0.0075509613
137	0xbd01f88f	-0.031731185
138	0x3c4ee5fa	0.012628073
139	0xbbe75ba8	-0.007060487
140	0x3ccc925a	0.02497213
141	0x3b56aac3	0.003275559
142	0xbd034d01	-0.03205586
143	0xbbc7c073	-0.00609594
144	0xbd04515a	-0.032304145
145	0xbca484ca	-0.02008285
146	0x3b4e4979	0.0031476899
147	0x3b97d775	0.004633839
148	0xbbccbd0a	-0.006248121
149	0x3c2eaa1e	0.010660676
150	0x3cb1cdba	0.021704543
151	0x3c962c4d	0.018331671
152	0x3d1c683d	0.038185347
153	0xbc65a6a2	-0.014016779
154	0xbbb78c34	-0.0056014303
155	0x3a204082	0.0006113128
156	0x3bec62c9	0.0072139245
157	0xba137e3f	-0.0005626417
158	0x3badd03a	0.0053043636
159	0xbccf030d	-0.02527001
160	0xbd0cbac6	-0.03435781
161	0x39f65524	0.0004698421
162	0x3a44f8b8	0.00075138686
163	0xbabf29d8	-0.0014584614
164	0x3be4104f	0.006959952
165	0xbc76efcc	-0.0150718205
166	0x3d1c2320	0.038119435
167	0xbba5ed03	-0.0050636544
168	0xbc83e827	-0.01610191
169	0xbb01833e	-0.0019762064
170	0xbc5e70f0	-0.013576731
171	0xbc58fdf1	-0.013244138
172	0xbc9dc995	-0.01926116
173	0x3b9d4538	0.0047995113
174	0xbd4877c5	-0.048942346
175	0xbcdd65eb	-0.027026137
176	0xbbc1422f	-0.0058977823
177	0x3ccbece0	0.024893224
178	0x3c876df6	0.016531926
179	0x3c0835d2	0.008313613
180	0xbbe8e708	-0.007107619
181	0xbcb96f2a	-0.022636015
182	0x3bef6e81	0.0073068743
183	0xbc507a46	-0.012724465
184	0x3cc4e46a	0.024034698
185	0xbc7e803f	-0.015533506
186	0xbd0357f3	-0.032066297
187	0x3a7561b0	0.0009360565
188	0x3c61eb9a	0.013789082
189	0x3d04c710	0.032416403
190	0xbc309309	-0.010777243
191	0xbc8c8734	-0.017154314
192	0x3c8e5ef9	0.01737927
193	0x3bb7d3a8	0.005609948
194	0xbc048022	-0.00808719
195	0x3c9a2a31	0.018818947
196	0xbcf31b30	-0.02967605
197	0x3cc4cdd9	0.024023937
198	0x3c19bd31	0.009383486
199	0x3b76844c	0.0037615476
200	0xbc92507e	-0.017860647
201	0x3b1d65d0	0.0024016984
202	0x3cfcd1df	0.030861793
203	0xbd0824bf	-0.03323817
204	0xbbfe4011	-0.007759102
205	0xbb9f3c63	-0.0048594936
206	0x3c5691e9	0.013096311
207	0x3c2c10fe	0.010502098
208	0x3a412f85	0.00073694467
209	0xbb5f70c6	-0.0034094318
210	0x3c67f79c	0.014158156
211	0xbb85b7de	-0.0040807566
212	0xbaaa4ef9	-0.0012993506
213	0x3c734ebc	0.014850315
214	0x3d13c2da	0.036074497
215	0xbcab1642	-0.020884637
216	0xbc129ffd	-0.008949277
217	0xbc7dafc1	-0.0154837975
218	0x3c5d3382	0.01350105
219	0xbca1756d	-0.019709313
220	0x3c995807	0.018718733
221	0xbb5adbf6	-0.0033395267
222	0xbc33f250	-0.010983065
223	0xbc168272	-0.009186374
224	0x3cbc3429	0.02297409
225	0x3b880b38	0.004151728
226	0x3b424e94	0.0029648887
227	0x3cdf75c6	0.027277838
228	0xbbd14464	-0.0063863266
229	0xbb31d28b	-0.002713355
230	0x3c099088	0.008396275
231	0x3b04e423	0.0020277582
232	0x3c7e8f29	0.015537062
233	0xbbd7d6e1	-0.006586895
234	0xbc4b16f2	-0.012395607
235	0x3c2409fa	0.010012144
236	0xbcdb2fa4	-0.026756115
237	0x3c1bbb1a	0.009505058
238	0xbd081e78	-0.033232182
239	0x3cc39ca0	0.023878396
240	0xbd42b2f5	-0.047533948
241	0x3d0047be	0.03131842
242	0xba9fd33e	-0.0012193692
243	0x3c9cb4e8	0.019129232
244	0xbbf68797	-0.007523488
245	0xbcba4610	-0.022738487
246	0xbbdc6683	-0.0067260875
247	0x3c8ca051	0.017166289
248	0x3bab6c0b	0.0052313856
249	0x3baa29aa	0.005192955
250	0xbc70c648	-0.014695711
251	0x3cb16613	0.021655118
252	0x3aabeb72	0.0013116433
253	0xbcba3e78	-0.022734866
254	0x3bd112d1	0.006380417
255	0x3bf05651	0.0073345085

action_model._discrete_distribution.branches.0.bias f4 [5]
0	0x3b59a6d5	0.0033211012
1	0xbaffbb35	-0.0019510748
2	0xbb9bbcf4	-0.0047527496
3	0xbc25acd5	-0.010112007
4	0x3c516484	0.012780312

exp_avg f4 [128, 9]
0	0xb912f13e	-0.00014013515
1	0xb8eb1b95	-0.00011210811
2	0xb798a933	-1.8198602e-05
3	0xb83a6312	-4.4438122e-05
4	0xb8a2d2c4	-7.76402e-05
5	0xb97e5f9d	-0.00024258946
6	0x380037cf	3.0569554e-05
7	0xb71bf109	-9.29484e-06
8	0xb910c92a	-0.0001380785
9	0xb82a3281	-4.0578194e-05
10	0xb8082869	-3.246256e-05
11	0xb6b89378	-5.500795e-06
12	0xb783d5e9	-1.5716027e-05
13	0xb68d0a9c	-4.2033626e-06
14	0xb803dacd	-3.1436608e-05
15	0xb78df70d	-1.6923552e-05
16	0xb80e9ec5	-3.4003304e-05
17	0xb822472f	-3.8690105e-05
18	0xb8a573dd	-7.889394e-05
19	0xb8845cb4	-6.311518e-05
20	0xb76df453	-1.4183187e-05
21	0xb7f9e09b	-2.9787703e-05
22	0xb896f145	-7.197497e-05
23	0xb8e7f779	-0.00011061034
24	0xb797ad03	-1.8081168e-05
25	0x3807b9a2	3.2359392e-05
26	0xb896c5c8	-7.189397e-05
27	0xb973876b	-0.00023224733
28	0xb942d2bc	-0.00018579786
29	0xb81656a2	-3.584347e-05
30	0xb8c0b81d	-9.189567e-05
31	0xb9020d1b	-0.00012402648
32	0xb914a5a1	-0.00014176081
33	0xb8a6dfcc	-7.957182e-05
34	0xb91d64ac	-0.0001501019
35	0xb964d479	-0.00021822927
36	0xb8dd59ce	-0.000105548286
37	0xb8b114a6	-8.443864e-05
38	0xb735aa47	-1.08280865e-05
39	0xb82ac929	-4.0718503e-05
40	0x37b08410	2.1042331e-05
41	0x38322441	4.247227e-05
42	0xb8b2a02a	-8.517534e-05
43	0xb9556504	-0.00020350894
44	0xb8dade65	-0.00010436474
45	0xb93053b1	-0.00016815845
46	0xb90d0fc1	-0.00013452677
47	0xb7e2d0e4	-2.7038572e-05
48	0xb879174d	-5.9387927e-05
49	0xb921a559	-0.00015415753
50	0xb93f404c	-0.00018239132
51	0xb7ee8ea3	-2.8438231e-05
52	0x36d1addd	6.2489257e-06
53	0xb926f98f	-0.00015923961
54	0x36bfd0c5	5.7165475e-06
55	0x369973d6	4.5732404e-06
56	0x31ffb2b3	7.4417925e-09
57	0x362c8434	2.570695e-06
58	0xb60b296f	-2.0736732e-06
59	0x348f8e09	2.673917e-07
60	0x360116af	1.9235702e-06
61	0x374aa2b0	1.2078017e-05
62	0x36d35576	6.298239e-06
63	0xb85388d3	-5.0433748e-05
64	0xb8293a52	-4.0347055e-05
65	0xb64ce7d1	-3.0533304e-06
66	0xb85ec5d2	-5.311316e-05
67	0x38837895	6.269027e-05
68	0x38f0a500	0.000114748254
69	0xb886819b	-6.413759e-05
70	0xb9679f7b	-0.00022089288
71	0xb832c788	-4.2624335e-05
72	0x39018f4b	0.0001235578
73	0x38cf4ba9	9.884622e-05
74	0x37837dcc	1.5674996e-05
75	0x37d2e0d1	2.513864e-05
76	0x380caa9d	3.3537497e-05
77	0x3922e6b7	0.00015535472
78	0xb44ea694	-1.9245846e-07
79	0x389d0e60	7.489021e-05
80	0x39032599	0.0001250714
81	0xb58afbe8	-1.0355116e-06
82	0xb55e5f4c	-8.284012e-07
83	0x35d17f67	1.5608792e-06
84	0x368c23b8	4.1764833e-06
85	0x37351eb8	1.0795593e-05
86	0xb81d64c4	-3.7525562e-05
87	0x38093da1	3.272074e-05
88	0xb7099217	-8.1998505e-06
89	0xb6893b01	-4.089787e-06
90	0x38cd466a	9.7882774e-05
91	0x38a43856	7.830623e-05
92	0x3777bf42	1.4766878e-05
93	0x381da95d	3.758945e-05
94	0x38bebc8e	9.095027e-05
95	0x38deab71	0.00010617718
96	0x3753f8cc	1.2634508e-05
97	0xb57dc568	-9.453711e-07
98	0x38c369cc	9.318031e-05
99	0x36330bb9	2.6679902e-06
100	0x360f3cc5	2.1344033e-06
101	0x35869d81	1.0029618e-06
102	0xb7ea1502	-2.7904756e-05
103	0x38489484	4.782203e-05
104	0x38a7d053	8.001984e-05
105	0xb72ed9c7	-1.0421913e-05
106	0xb8ea4faa	-0.00011172828
107	0x372fef7d	1.0486573e-05
108	0xb6160d5a	-2.2359513e-06
109	0xb5f014db	-1.7887463e-06
110	0xb5e8a099	-1.7332087e-06
111	0xb6767c10	-3.672907e-06
112	0xb76eeaea	-1.4240601e-05
113	0xb7d607b6	-2.5514379e-05
114	0x361bcac3	2.3214823e-06
115	0x38090021	3.2663465e-05
116	0x3340ff74	4.4935817e-08
117	0xb6aa7a43	-5.080628e-06
118	0xb68861d1	-4.064503e-06
119	0xb52928f0	-6.301698e-07
120	0xb61aa324	-2.3042749e-06
121	0xb61d1c81	-2.3411415e-06
122	0xb632cc78	-2.6643083e-06
123	0x33ab7f57	7.985971e-08
124	0xb6c668ff	-5.913083e-06
125	0xb6a4618e	-4.8989377e-06
126	0x36271cb0	2.4901638e-06
127	0x3605b085	1.9921292e-06
128	0x351dfc4a	5.8854187e-07
129	0x35df8ea1	1.6656305e-06
130	0x3724c4c6	9.820977e-06
131	0x32075482	7.877249e-09
132	0xb5a0eadb	-1.1989281e-06
133	0xb65ea39f	-3.3175818e-06
134	0x3611e400	2.1739397e-06
135	0x388b14f7	6.6319415e-05
136	0x385e87ef	5.3055523e-05
137	0x374af8f5	1.2098103e-05
138	0x379f6e05	1.9005509e-05
139	0x37cc5876	2.4359888e-05
140	0x38c19138	9.230006e-05
141	0xb71bf3af	-9.295457e-06
142	0x380f18bd	3.4116896e-05
143	0x3881562a	6.167249e-05
144	0xb90b4509	-0.0001328179
145	0xb8ded4dc	-0.00010625433
146	0xb7d13acf	-2.4942126e-05
147	0xb87bb1aa	-6.0008526e-05
148	0xb923d27c	-0.00015623303
149	0xb93181f4	-0.00016928447
150	0xb7bf8da9	-2.283494e-05
151	0x388854a5	6.5007516e-05
152	0xb8f937fd	-0.00011883674
153	0x37632f6b	1.3541295e-05
154	0x3735bf91	1.0833043e-05
155	0x356a19a8	8.720913e-07
156	0x371d50ef	9.376773e-06
157	0x35756b7b	9.1426017e-07
158	0xb79bcb90	-1.8572231e-05
159	0x371803d5	9.060798e-06
160	0x381d3980	3.7485268e-05
161	0x375afdda	1.3052917e-05
162	0xb8ba7715	-8.891352e-05
163	0xb8952c0f	-7.11308e-05
164	0xb7301e10	-1.0497417e-05
165	0xb82e4910	-4.1552878e-05
166	0xb73fe86a	-1.14386e-05
167	0xb863abf0	-5.4281147e-05
168	0xb6034178	-1.955863e-06
169	0xb8ffddbb	-0.00012200648
170	0xb8b2ad80	-8.520018e-05
171	0x37c37941	2.3302275e-05
172	0x379c60fe	1.8641815e-05
173	0x360bbccb	2.0822506e-06
174	0x37049000	7.901341e-06
175	0x37172e0d	9.011023e-06
176	0x38046cd9	3.1572625e-05
177	0xb60e5095	-2.1206554e-06
178	0x373cb808	1.1248521e-05
179	0x37c85fd2	2.3886478e-05
180	0xb8f7f241	-0.00011823001
181	0xb8c65b69	-9.458402e-05
182	0xb7572d6b	-1.2825573e-05
183	0xb8cc8a51	-9.7532415e-05
184	0xb69b915d	-4.6362825e-06
185	0x391044c6	0.0001375853
186	0xb8bab271	-8.9024084e-05
187	0xb99b446c	-0.00029614882
188	0xb8dc80e8	-0.00010514428
189	0x37f1d6cf	2.8829467e-05
190	0x37c178b0	2.3063592e-05
191	0x36b0d162	5.269584e-06
192	0x36cf6d32	6.1817927e-06
193	0x377b9cde	1.4997289e-05
194	0x388a89bb	6.606007e-05
195	0xb7f345ab	-2.9000299e-05
196	0x371e798d	9.445835e-06
197	0x37e85597	2.7696411e-05
198	0x384fb122	4.9517614e-05
199	0x38262752	3.9614104e-05
200	0x36af62ce	5.226909e-06
201	0x3796ceec	1.7977749e-05
202	0x375a37a7	1.300677e-05
203	0x381deb9b	3.765114e-05
204	0x371fd015	9.525586e-06
205	0x383ea5f8	4.54541e-05
206	0x384f9dfb	4.9499777e-05
207	0xb7cdbd78	-2.4526133e-05
208	0xb7a4979c	-1.9620922e-05
209	0xb6629e07	-3.3768608e-06
210	0xb79e605f	-1.8879944e-05
211	0xb595caa9	-1.1160347e-06
212	0xb73125b7	-1.0558803e-05
213	0xb6afac0d	-5.2354358e-06
214	0xb8148785	-3.5412162e-05
215	0xb7b93eee	-2.2083022e-05
216	0xb69e2434	-4.7129815e-06
217	0xb67d06c1	-3.770387e-06
218	0xb5cf04b4	-1.5424071e-06
219	0xb692edc5	-4.378819e-06
220	0xb6bf5fa7	-5.703379e-06
221	0x372f837b	1.04614255e-05
222	0xb752f3b1	-1.2573714e-05
223	0xb6163c49	-2.2386832e-06
224	0xb6417245	-2.8825755e-06
225	0x37fada8f	2.9904097e-05
226	0x37c8aedc	2.3923283e-05
227	0x369f4c93	4.7474837e-06
228	0x376cf69d	1.4124115e-05
229	0x36e728d0	6.8890877e-06
230	0x37889ceb	1.6285534e-05
231	0x38030c09	3.1244042e-05
232	0x371d50d4	9.3767485e-06
233	0x37e333ca	2.7084625e-05
234	0xb7c2b158	-2.3209184e-05
235	0xb79bc112	-1.8567345e-05
236	0xb6818209	-3.8596377e-06
237	0xb6aae37f	-5.092879e-06
238	0xb75976a8	-1.2961835e-05
239	0xb7bd1516	-2.2540375e-05
240	0xb726553f	-9.914219e-06
241	0xb6897483	-4.096482e-06
242	0xb7bb202b	-2.2307117e-05
243	0xb901e77d	-0.00012388635
244	0xb8cfd8ca	-9.910909e-05
245	0xb76a00b1	-1.3947648e-05
246	0xb81d4d48	-3.750369e-05
247	0xb8325a55	-4.2522635e-05
248	0xb930b7e9	-0.0001685318
249	0x377d433f	1.5095632e-05
250	0xb88f4d85	-6.8332105e-05
251	0xb902af24	-0.00012463011
252	0xb69a50ff	-4.598987e-06
253	0xb676e7ea	-3.6791848e-06
254	0xb5ac9e58	-1.2861083e-06
255	0xb5cac7fd	-1.5108377e-06

exp_avg_sq f4 [128, 9]
0	0x334b45c7	4.7328083e-08
1	0x33037472	3.060672e-08
2	0x30a1acf9	1.1763454e-09
3	0x3215d0ac	8.720388e-09
4	0x32e9bffc	2.7212074e-08
5	0x331e27f1	3.6823568e-08
6	0x325ade13	1.2739764e-08
7	0x32ef0781	2.7826674e-08
8	0x3343acb6	4.5559055e-08
9	0x31cdac95	5.9859055e-09
10	0x3183fe73	3.8415293e-09
11	0x2ef6737e	1.12073004e-10
12	0x30aa4a17	1.2390186e-09
13	0x3125b48e	2.4113294e-09
14	0x316ec07a	3.4742969e-09
15	0x31214fea	2.347401e-09
16	0x31849123	3.8582058e-09
17	0x31c253c1	5.655665e-09
18	0x33a41de2	7.642281e-08
19	0x335711a9	5.007465e-08
20	0x316ec284	3.4744128e-09
21	0x329ef4f5	1.8505014e-08
22	0x33844235	6.158772e-08
23	0x3349526e	4.687393e-08
24	0x32db1d2a	2.5508218e-08
25	0x333714c3	4.262689e-08
26	0x33992ac9	7.1324e-08
27	0x33ca9226	9.432942e-08
28	0x3382b503	6.0865226e-08
29	0x31569bfd	3.1229768e-09
30	0x32d672de	2.4965114e-08
31	0x33307498	4.1084235e-08
32	0x331ff746	3.7244966e-08
33	0x3375509e	5.711683e-08
34	0x33a3b280	7.622748e-08
35	0x33bcc040	8.789402e-08
36	0x339a6906	7.1902875e-08
37	0x334a5d67	4.711674e-08
38	0x31f5509a	7.139602e-09
39	0x331a3f04	3.591323e-08
40	0x3391c093	6.787118e-08
41	0x338f606c	6.6764954e-08
42	0x337f406b	5.9430402e-08
43	0x338e2796	6.619591e-08
44	0x339c5d93	7.281337e-08
45	0x33e213c5	1.0527541e-07
46	0x33910d15	6.754468e-08
47	0x3146a149	2.8904472e-09
48	0x32b7b76b	2.1387413e-08
49	0x338e8a82	6.637585e-08
50	0x33847e38	6.169688e-08
51	0x330a781d	3.223987e-08
52	0x3395ea25	6.980944e-08
53	0x33d2a20a	9.808362e-08
54	0x3092c359	1.0678419e-09
55	0x30450d0e	7.1686734e-10
56	0x2f04c5f1	1.2075653e-10
57	0x301d305d	5.7184996e-10
58	0x306f7f4a	8.712858e-10
59	0x30a3f516	1.1929469e-09
60	0x309539db	1.085762e-09
61	0x3081b07d	9.436146e-10
62	0x309ab78d	1.1257143e-09
63	0x34937725	2.7467573e-07
64	0x343c9411	1.756273e-07
65	0x31b4cdfa	5.2621063e-09
66	0x3394b50e	6.924721e-08
67	0x336c7544	5.5054684e-08
68	0x3372adec	5.6503197e-08
69	0x3473e78e	2.2715378e-07
70	0x34940940	2.7573878e-07
71	0x34869fb5	2.5075647e-07
72	0x3415e906	1.396148e-07
73	0x33c12c6f	8.995345e-08
74	0x314cf805	2.982689e-09
75	0x3333710d	4.1779504e-08
76	0x32ac3132	2.0045807e-08
77	0x32f3aea9	2.836835e-08
78	0x34085fb8	1.270081e-07
79	0x3419f113	1.4336938e-07
80	0x340a77f5	1.2895892e-07
81	0x317dfeb1	3.696112e-09
82	0x3129c5ea	2.4705238e-09
83	0x2f4b4dfd	1.849045e-10
84	0x30999ab0	1.117618e-09
85	0x309c7119	1.1382638e-09
86	0x30fbf417	1.8332028e-09
87	0x316639ab	3.3502185e-09
88	0x31893d78	3.994213e-09
89	0x318157eb	3.7643892e-09
90	0x328693be	1.5666838e-08
91	0x322ddd78	1.01202815e-08
92	0x307fddb1	9.30835e-10
93	0x3205d93a	7.7910105e-09
94	0x32658af6	1.336115e-08
95	0x323d73a8	1.1027545e-08
96	0x3197fa50	4.4231356e-09
97	0x31ba1edd	5.416821e-09
98	0x324ed20b	1.2038536e-08
99	0x346fd429	2.2335793e-07
100	0x3419d231	1.4325703e-07
101	0x3186d0ce	3.9236516e-09
102	0x335ff529	5.2144205e-08
103	0x32f37c9c	2.8345589e-08
104	0x330cafc0	3.2756134e-08
105	0x345091db	1.9424571e-07
106	0x347b6c93	2.3415696e-07
107	0x345c1755	2.0497585e-07
108	0x3287625f	1.5760802e-08
109	0x322f4c67	1.02037125e-08
110	0x302580c3	6.020963e-10
111	0x3196a186	4.3839377e-09
112	0x323502e4	1.0536244e-08
113	0x3272c0ff	1.4130136e-08
114	0x320a41ff	8.047663e-09
115	0x3193f145	4.3056922e-09
116	0x3262babb	1.3197389e-08
117	0x3094a656	1.0815693e-09
118	0x304e91fe	7.514983e-10
119	0x2f16302e	1.3659537e-10
120	0x2f7fb99f	2.3258061e-10
121	0x30b50d92	1.317334e-09
122	0x309afb7c	1.1276451e-09
123	0x2f900743	2.6198607e-10
124	0x305fad9e	8.137365e-10
125	0x30a28abc	1.1826482e-09
126	0x31472f0e	2.8985059e-09
127	0x31045063	1.9254223e-09
128	0x2e9b5164	7.063042e-11
129	0x302e12bf	6.332747e-10
130	0x30911520	1.0556143e-09
131	0x30e41967	1.6596403e-09
132	0x30f4ea3d	1.7819911e-09
133	0x31427541	2.8297367e-09
134	0x3142c329	2.8341651e-09
135	0x3314dc0c	3.4659067e-08
136	0x32be958d	2.2186919e-08
137	0x306a996b	8.5346724e-10
138	0x3238b745	1.075188e-08
139	0x32089ab6	7.951419e-09
140	0x3214dbc0	8.664699e-09
141	0x32f3feee	2.8404852e-08
142	0x3303cdf3	3.0688124e-08
143	0x3307f6d5	3.165663e-08
144	0x331ea8b2	3.694067e-08
145	0x32cc7c42	2.3805232e-08
146	0x30d78664	1.5681505e-09
147	0x322118d7	9.377081e-09
148	0x3325e737	3.8627345e-08
149	0x3320fb28	3.748133e-08
150	0x31c67a32	5.7764504e-09
151	0x3204e720	7.735963e-09
152	0x33109faa	3.3672826e-08
153	0x32695d5b	1.3583612e-08
154	0x32164c58	8.748508e-09
155	0x3023606c	5.943608e-10
156	0x3194a35e	4.3259396e-09
157	0x31afa5c4	5.1120157e-09
158	0x31b54b25	5.2763363e-09
159	0x3251cb72	1.2211659e-08
160	0x324d09a4	1.19347625e-08
161	0x325aa376	1.2726437e-08
162	0x33998cdb	7.150239e-08
163	0x33480006	4.656615e-08
164	0x30e6f0e3	1.6803167e-09
165	0x32abdc44	2.0007185e-08
166	0x329a3a8c	1.7954584e-08
167	0x32b9b265	2.1617959e-08
168	0x33663e10	5.3607494e-08
169	0x3390e84d	6.747778e-08
170	0x338a592e	6.4423475e-08
171	0x312a871f	2.4815063e-09
172	0x30e3b337	1.656736e-09
173	0x2f818479	2.355909e-10
174	0x30770095	8.9858904e-10
175	0x30c9a069	1.4670266e-09
176	0x314d0250	2.983274e-09
177	0x309ea4cc	1.1542851e-09
178	0x3150f533	3.0407363e-09
179	0x31431a14	2.8391058e-09
180	0x35a1b58e	1.2048274e-06
181	0x354f2680	7.7169534e-07
182	0x32fbbbb2	2.93056e-08
183	0x34aaa134	3.1782258e-07
184	0x34c1e1a9	3.611324e-07
185	0x34c96fb9	3.7520456e-07
186	0x3567d5c0	8.6365253e-07
187	0x35991100	1.1404336e-06
188	0x3594f491	1.1098037e-06
189	0x32cd8dad	2.3929568e-08
190	0x32856fe0	1.5534113e-08
191	0x30741eb9	8.881034e-10
192	0x3207b7a9	7.899794e-09
193	0x322b62b3	9.975952e-09
194	0x3224cc5a	9.5925206e-09
195	0x328bf19d	1.6291603e-08
196	0x32b3f1b9	2.0948265e-08
197	0x32bfdb3d	2.2335024e-08
198	0x31a13702	4.6919704e-09
199	0x314ecf66	3.0094838e-09
200	0x2f63d04f	2.0719536e-10
201	0x31019443	1.8856248e-09
202	0x313130bf	2.57846e-09
203	0x318c6e4c	4.0870756e-09
204	0x30b01007	1.2810241e-09
205	0x31230d0d	2.372704e-09
206	0x31840dd0	3.843276e-09
207	0x33a1057a	7.498143e-08
208	0x33507800	4.8537913e-08
209	0x312bdbc4	2.5008697e-09
210	0x32c75ef1	2.3209823e-08
211	0x32c6f4b1	2.3161506e-08
212	0x32baf2f0	2.1763725e-08
213	0x3386878d	6.264518e-08
214	0x33a2f031	7.5874034e-08
215	0x33925220	6.813593e-08
216	0x30dbe35f	1.599897e-09
217	0x309315d1	1.0701858e-09
218	0x2ea26d76	7.386351e-11
219	0x2fcd0b0e	3.7297138e-10
220	0x308ee21d	1.0396125e-09
221	0x3049c0b0	7.33972e-10
222	0x305e98e8	8.098042e-10
223	0x30dfc905	1.6282519e-09
224	0x30ccffbb	1.4915637e-09
225	0x31972fb2	4.4001007e-09
226	0x31466d5f	2.8874962e-09
227	0x2f652f38	2.0844204e-10
228	0x30be2bc5	1.383676e-09
229	0x3033f911	6.5473765e-10
230	0x3107249c	1.9665896e-09
231	0x31a362d0	4.755158e-09
232	0x3197a559	4.4134763e-09
233	0x31955ef3	4.347265e-09
234	0x32451617	1.1471932e-08
235	0x31fd80f7	7.3779307e-09
236	0x2fa04f13	2.9160016e-10
237	0x3153803d	3.0777436e-09
238	0x31439661	2.8461715e-09
239	0x311c4c10	2.2744224e-09
240	0x32230f86	9.491378e-09
241	0x323e8bdd	1.1091257e-08
242	0x32348d47	1.0509502e-08
243	0x32e62852	2.679386e-08
244	0x329389d7	1.7175735e-08
245	0x300f7310	5.218661e-10
246	0x31b7741d	5.3392015e-09
247	0x320a52ac	8.051455e-09
248	0x327ba8b4	1.46484815e-08
249	0x323f9f06	1.1153821e-08
250	0x32c14b9a	2.2502537e-08
251	0x32dd9c47	2.5798853e-08
252	0x32c14672	2.2500192e-08
253	0x327f96a6	1.4877207e-08
254	0x3094fb2e	1.0839807e-09
255	0x31b52874	5.2723923e-09

exp_avg f4 [128]
0	0xb91cbd0f	-0.00014947749
1	0xb8358b36	-4.3283413e-05
2	0xb8b07b97	-8.4153544e-05
3	0xb981e1d3	-0.0002477305
4	0xb8ec1b8d	-0.00011258489
5	0xb93c1502	-0.00017936903
6	0x36cc9a73	6.097654e-06
7	0xb861a30b	-5.3796026e-05
8	0x390a3273	0.000131795
9	0xb5943f81	-1.1045341e-06
10	0x38daf5c6	0.00010440829
11	0x363efacd	2.8458192e-06
12	0xb6200e0f	-2.385004e-06
13	0xb6b5d7c6	-5.4193397e-06
14	0x363240cd	2.6561786e-06
15	0x38945aa4	7.074073e-05
16	0xb9148de8	-0.00014167244
17	0x377254b2	1.4444044e-05
18	0xb8c6e569	-9.484107e-05
19	0x37d08157	2.485576e-05
20	0xb9043ce5	-0.00012611186
21	0x3800fb1c	3.0751442e-05
22	0x385d89c1	5.28188e-05
23	0xb7db74d0	-2.616123e-05
24	0xb6a8af1e	-5.0271765e-06
25	0x3805c9e6	3.1897704e-05
26	0xb7cfac11	-2.4756448e-05
27	0xb90a9086	-0.00013214545
28	0xb6a49a8f	-4.905574e-06
29	0xb668e528	-3.470408e-06
30	0x37ca2681	2.4098206e-05
31	0x37bd5f8e	2.2575052e-05
32	0xb914e60b	-0.00014200078
33	0xb7c4d43b	-2.3463848e-05
34	0xb974af60	-0.00023334986
35	0x37b7649d	2.1862152e-05
36	0xb799e069	-1.834352e-05
37	0x385a007a	5.1975694e-05
38	0x39038a95	0.0001254476
39	0x36097fdc	2.0489015e-06
40	0x391e82e8	0.0001511682
41	0xb6db93ae	-6.543901e-06
42	0xb89e99d4	-7.56268e-05
43	0x37a278d3	1.9368168e-05
44	0xb921f948	-0.00015447021
45	0xb6f8a159	-7.4097593e-06
46	0xb7e1eaad	-2.693137e-05
47	0xb90c1200	-0.00013358146
48	0xb87e7aca	-6.0672675e-05
49	0x389d0018	7.486361e-05
50	0x37887e75	1.627135e-05
51	0x38510fcf	4.9844206e-05
52	0xb7fdebd1	-3.026976e-05
53	0xb5b42ece	-1.3424667e-06
54	0xb97d2e73	-0.00024145264
55	0xb8560fe9	-5.1036393e-05
56	0x38c82f4a	9.5455514e-05
57	0xb86ced47	-5.6487766e-05
58	0x38b190ee	8.467013e-05
59	0xb8e0530e	-0.000106966225
60	0x38c4c32b	9.382361e-05
61	0x382beaa1	4.0988092e-05
62	0x372a9910	1.0168427e-05
63	0xb93dd72d	-0.00018104604
64	0xb90c7296	-0.00013394127
65	0x37f67f96	2.9384897e-05
66	0xb8d7ea11	-0.00010295597
67	0xb901128f	-0.00012309312
68	0x371e0148	9.417832e-06
69	0xb9419140	-0.00018460024
70	0xb78682be	-1.6034926e-05
71	0x36fb1262	7.482523e-06
72	0xb95931d2	-0.00020713292
73	0xb81bd221	-3.7150578e-05
74	0xb8fd6cd1	-0.00012084249
75	0x38858a3d	6.367683e-05
76	0xb8033a27	-3.1286992e-05
77	0x380d3c14	3.367297e-05
78	0xb962db7c	-0.00021634804
79	0xb95a5238	-0.00020820729
80	0x3818a4e9	3.639321e-05
81	0xb89f74ae	-7.603444e-05
82	0xb5424bb7	-7.238081e-07
83	0xb94368b9	-0.00018635661
84	0xb82ee571	-4.1698517e-05
85	0x3780c493	1.5350326e-05
86	0xb923479c	-0.00015571568
87	0xb8c4c6ee	-9.383062e-05
88	0x359aa1c1	1.1520971e-06
89	0xb9a54101	-0.00031519684
90	0x3927da63	0.00016007716
91	0xb8920eb7	-6.964563e-05
92	0xba172808	-0.0005766158
93	0xb91248b0	-0.00013950723
94	0xb8137fd2	-3.5166573e-05
95	0xb85afee4	-5.2212636e-05
96	0xb7f2ee33	-2.8959568e-05
97	0x383ef660	4.5528985e-05
98	0x38dbd96e	0.00010483233
99	0xb86fe12a	-5.719174e-05
100	0xb9586925	-0.00020638535
101	0xb9494baa	-0.00019197041
102	0x3892b141	6.9948386e-05
103	0xb98ce087	-0.00026870167
104	0x3763c55c	1.3576206e-05
105	0xb8bcee0a	-9.008877e-05
106	0x37ace9d3	2.061288e-05
107	0xb98ce6e3	-0.00026874905
108	0xb891d103	-6.95307e-05
109	0xb84b552f	-4.8478305e-05
110	0xb80fc7da	-3.4279983e-05
111	0x38cbcf7b	9.7184406e-05
112	0x37836fc2	1.5668458e-05
113	0xb935def1	-0.00017344557
114	0x383d6311	4.5153374e-05
115	0x37b27091	2.1271671e-05
116	0x3829ce4e	4.0484876e-05
117	0xb65694c6	-3.1975082e-06
118	0xb9ac3860	-0.000328484
119	0x36daea17	6.524158e-06
120	0xb72996c3	-1.0108287e-05
121	0xb8e73240	-0.00011024298
122	0xb8282c6c	-4.0095692e-05
123	0xb890c630	-6.9033704e-05
124	0xb73fc5b9	-1.1430523e-05
125	0xb8fcaa95	-0.0001204807
126	0xb94c91fe	-0.00019509342
127	0xb8fba21b	-0.00011998807

exp_avg_sq f4 [128]
0	0x336cb9fc	5.5117184e-08
1	0x31ebc903	6.8622525e-09
2	0x33c84948	9.3265555e-08
3	0x33f20c56	1.1271247e-07
4	0x33ecf2a2	1.1033741e-07
5	0x34035939	1.2232785e-07
6	0x30f1349d	1.7550011e-09
7	0x34a9c3c9	3.1621155e-07
8	0x343009e6	1.6394878e-07
9	0x31a8d936	4.9141375e-09
10	0x329b15e0	1.8054322e-08
11	0x3489b615	2.565072e-07
12	0x329ff73b	1.8622464e-08
13	0x30df444d	1.6244798e-09
14	0x31743412	3.5536272e-09
15	0x332d9bdc	4.0421455e-08
16	0x333e31a1	4.428296e-08
17	0x328efbbd	1.6645453e-08
18	0x33b3d04f	8.373228e-08
19	0x3184cfc9	3.865328e-09
20	0x35bbac2d	1.3982695e-06
21	0x32fa4482	2.9134984e-08
22	0x31b8e64e	5.3812874e-09
23	0x33c047af	8.953736e-08
24	0x310b55f8	2.027603e-09
25	0x31c6310a	5.7681335e-09
26	0x3266b6f6	1.34293625e-08
27	0x3304792a	3.0843843e-08
28	0x32f6168e	2.8648426e-08
29	0x31c2c3e3	5.668413e-09
30	0x32cb09ca	2.3636762e-08
31	0x33d5c296	9.9539804e-08
32	0x34acf9e3	3.2219313e-07
33	0x30cd9729	1.4958675e-09
34	0x34228aa5	1.5137864e-07
35	0x30942834	1.0779844e-09
36	0x30cb15bc	1.4776371e-09
37	0x331a68fc	3.5951402e-08
38	0x33a571e4	7.704128e-08
39	0x2ec7c293	9.0840356e-11
40	0x3580a292	9.584057e-07
41	0x321154af	8.459366e-09
42	0x32978eb5	1.764361e-08
43	0x3369e2b6	5.4455732e-08
44	0x338681c9	6.263469e-08
45	0x32536632	1.2305053e-08
46	0x3181557e	3.7641135e-09
47	0x33a3eb7d	7.633114e-08
48	0x33a6ab48	7.761133e-08
49	0x33071a67	3.145615e-08
50	0x311012f6	2.0965536e-09
51	0x3375facf	5.7271617e-08
52	0x32143bf4	8.628366e-09
53	0x341b2d0c	1.4451888e-07
54	0x3432a534	1.6637642e-07
55	0x33240df6	3.8196923e-08
56	0x35713718	8.985967e-07
57	0x343fe88f	1.7872865e-07
58	0x33666691	5.364433e-08
59	0x341d4e9f	1.4650367e-07
60	0x32ab1d4f	1.9920348e-08
61	0x3176d2f9	3.5917636e-09
62	0x308d258d	1.0269773e-09
63	0x33f3bf23	1.1350337e-07
64	0x33a71f85	7.782277e-08
65	0x328d203b	1.6429217e-08
66	0x3394e182	6.932807e-08
67	0x348303bf	2.4403377e-07
68	0x30a9ab13	1.2344991e-09
69	0x33808e4f	5.98635e-08
70	0x330892b6	3.17984e-08
71	0x31e5ab62	6.684261e-09
72	0x33b897b6	8.595764e-08
73	0x31861a08	3.9028727e-09
74	0x33ff2456	1.1880972e-07
75	0x33366c61	4.2473747e-08
76	0x330085fa	2.9924173e-08
77	0x3337e15a	4.2812964e-08
78	0x345593a1	1.9890878e-07
79	0x33a901f4	7.870031e-08
80	0x3260bca8	1.30814115e-08
81	0x33621c12	5.2645255e-08
82	0x308f92e3	1.0446367e-09
83	0x33c44a2f	9.140455e-08
84	0x31194445	2.2303237e-09
85	0x3474733d	2.2766194e-07
86	0x333359ab	4.1758238e-08
87	0x33ac8881	8.034204e-08
88	0x33e8f586	1.0848002e-07
89	0x34a2c123	3.0315377e-07
90	0x35467552	7.393147e-07
91	0x32738c8b	1.4176417e-08
92	0x34fd5619	4.7187567e-07
93	0x338a8e4d	6.45201e-08
94	0x3349b66b	4.6964868e-08
95	0x32f62738	2.8656004e-08
96	0x32c579bd	2.2989179e-08
97	0x3427e7a7	1.5637362e-07
98	0x34512ac8	1.9480206e-07
99	0x32903303	1.6787004e-08
100	0x3413758b	1.3733204e-07
101	0x33ede577	1.1077912e-07
102	0x32f595b9	2.858984e-08
103	0x3402c591	1.2179068e-07
104	0x3105764b	1.942129e-09
105	0x325159c0	1.2185808e-08
106	0x3121cca9	2.354492e-09
107	0x34715169	2.2474491e-07
108	0x33b2f820	8.3339046e-08
109	0x33925585	6.814211e-08
110	0x32a79496	1.9508928e-08
111	0x32582c0f	1.25828725e-08
112	0x2f9a5e7d	2.8079575e-10
113	0x347ad563	2.3360694e-07
114	0x33c2df3a	9.074434e-08
115	0x331e2d6a	3.6828546e-08
116	0x344ce671	1.9082815e-07
117	0x315ed823	3.2428111e-09
118	0x349ca8b7	2.918002e-07
119	0x30bfb324	1.3947994e-09
120	0x314abd56	2.9502494e-09
121	0x336a6304	5.4572425e-08
122	0x32b33f65	2.0867171e-08
123	0x324aed2b	1.1811873e-08
124	0x32b853de	2.1458558e-08
125	0x33bef11f	8.891424e-08
126	0x336282d9	5.273873e-08
127	0x33ab9728	7.990303e-08
