Assets/results/Maze03/Mouse/Mouse-14313.onnx (onnx, 78683 bytes, 6 tensors)

network_body._body_endoder.seq_layers.0.weight f4 [128, 9]
00000000: 065d 6cbe 6a70 933d bf66 af3e e0a9 99be
00000010: d501 51be d080 633e 6d08 bbbe 519a 1ebe
00000020: 6c7b 343f a140 0e3f f4af d6be f60a 1dbe
00000030: 1c8a ecbe cda5 98be e1b7 9ebd 7f2c d4be
00000040: c8bd e5be 7224 4d3d a47f 3abd ec2f d8bc
00000050: 4a78 093d 8608 babd cec5 fc3e dac2 85bd
00000060: a390 fdbd 4a0c 4ebe b56f 9d3e 4963 b53e
00000070: 672b 163e ae4c 9a3e 8fc4 96be 9aa3 233e
00000080: 4b7f 2dbe 2dfc 5dbe 9173 833d 85e1 a3bd
00000090: 64b0 66be 4480 54be 7ffc a5be 1bcb c43e
000000a0: 9ba0 423e d3b1 a53e a70d 1c3e 0188 053f
000000b0: 64cf 393f 8e87 9f3e de64 b93d 3862 913e
000000c0: 842d 0bbe a899 a93e 0d17 46bb c8b2 53bf
000000d0: 85c3 8ebb ccf5 f23c f761 c4be 1e40 9bbd
000000e0: 504a 69be a15d b0bd eb01 0c3d 2316 9a3e
000000f0: 6492 1e3e c333 8fbe 6790 f7bd 99bf 113f
00000100: 6716 42be 3883 82be 6a44 dc3d 3153 89bc
00000110: 11a7 05be 1e6c 8b3e 00bd f93e 640d 8fbe
00000120: 5366 8e3c 480b b23d 037f db3d 5056 b23e
00000130: 5aad efbd fe09 26bd 3533 3d3e 9251 7d3e
00000140: 8c0c 953c 96ef 5dbe 7092 6ebe 7142 51be
00000150: e61c 9fbe 8383 b4be 437a 353e eb1c 87bd
00000160: aa84 8e3c a026 903e 3645 a13d 8b75 213f
00000170: 2a4b a4be fcdd f3bc 02ed bdbc f790 e2be
00000180: 468a c6be 3377 25bf 143c 97bd 7593 8abc
00000190: edc6 943e 94b0 473e 512e 04bf b1e9 a2be
000001a0: ec6f 0ebe d97e 393e b296 ce3e daca 573d
000001b0: bfcd fd3d 5a90 9e3d e14d 303e 9d7f 81bd
000001c0: 6744 bf3e ed33 543e 7252 ee3e 9479 1fbf
000001d0: a05a 66bf 0f9d bebe 50e5 4bbf f3d3 56bc
000001e0: ee0c f2be 2dae 363d 83d5 f9bd da02 ffbe
000001f0: 6724 57bd 2ce3 cc3e b470 73bd 209d 8a3e
00000200: f079 acbe db9d 11bf 9568 b7be bd50 8e3d
00000210: 4b70 6ebe fee5 c2bd d3f9 92be 50e0 c63e
00000220: 7eed afbe f574 55bc e73f b93e 78a9 f1ba
00000230: ea2c acbe 6b28 ec3d 2f57 80be b784 cdbd
00000240: 0b19 c5be e673 9c3d f19f 4ebe 0037 c03e
00000250: 3d58 ab3e 5a11 6c3e a67b 98be 387f 06bf
00000260: 8d02 013e 85d1 83be 6045 abbe 9b95 c6bd
00000270: 6284 21bc f822 f73d a5e5 37be 9763 883e
00000280: 0d38 fcbe 64e5 063e c884 ff3d acdd 293f
00000290: 5294 b2be 14d4 8b3e 75af eebd 53cc 50bd
000002a0: cd72 b63b 7a8c 27be 9555 e5be e50a d2be
000002b0: f0bb 0bbf c388 df3d b8e9 323e cfab adbe
000002c0: 7e40 fb3d 5fb5 22bf efaa 1a3e f346 773e
000002d0: 01a2 b33d 1e4a 883f 06bd 753d 65dd 4b3f
000002e0: 6e70 533d 5f34 da3e f0a8 5a3f 02b5 433e
000002f0: afb8 023f de2b 923e 682f 203d b885 98be
00000300: d989 703e eaae 7c3e 7460 293e b539 083e
00000310: 2742 f33e 9317 903d 37c0 573e 72de 363e
00000320: 42d8 7f3d 592a 913e 8d7b bdbe 9c35 123e
00000330: 46b9 01bf 5bfb 78be f1eb 2cbf b5e7 9c3d
00000340: 8df5 f03e 4766 ce3d f03d 013f 1c1e 03be
00000350: 018c 9dbd 4175 edbd 6779 403e e122 cabd
00000360: 3dec b1bc d277 333e c8e4 4fbd 9b43 04bf
00000370: 0196 06bd 719b f1bd eda0 4dbe 3f71 133e
00000380: 4611 17bf 6407 cebe ba8a 48be 3ede c13d
00000390: 7e4c 24be 9351 12bf 4b11 323e 9eb3 9b3e
000003a0: ff90 4dbe 08df b83d 2c4e dbbe e83b 6c3e
000003b0: e388 c63d acde 08be 084b 41bd e7eb 75be
000003c0: 2f66 dfbc 8ef8 05be 2f6f adbd 6d47 9e3d
000003d0: cd7a e6be d008 9f3e 6469 8f3e 74d0 a5be
000003e0: 09bc 6ab8 0100 f7be c5b8 113e b1e5 9c3e
000003f0: 0ae4 d1bd d864 32bd 322c 86be c84c 5dbf
-0.2308236 0.07199176 0.34258077 -0.30012417 -0.20410855 0.22217107 -0.36529866 -0.15488555
0.70500827 0.55567366 -0.41931117 -0.15336213 -0.4619912 -0.29813996 -0.07749916 -0.41440198
-0.44871354 0.050083585 -0.045531884 -0.026390038 0.033561982 -0.09083657 0.49369663 -0.065313056
-0.12381103 -0.20121875 0.30749288 0.3542731 0.14664994 0.30136627 -0.29446837 0.15980378
-0.1694309 -0.21678229 0.06418527 -0.08001999 -0.22528225 -0.20752054 -0.32419202 0.38436207
0.19006579 0.32362232 0.15239583 0.5216065 0.7258208 0.31158108 0.09052442 0.28395247
-0.13591582 0.33125043 -0.0030226142 -0.82694674 -0.004356804 0.02965822 -0.3835599 -0.07580589
-0.22782254 -0.08611608 0.034181517 0.30095014 0.15485531 -0.2796918 -0.120880894 0.5693298
-0.18953858 -0.25490737 0.107552364 -0.016763302 -0.13052012 0.27230924 0.48777008 -0.27939904
0.017382776 0.08693558 0.10717585 0.34831476 -0.11702986 -0.040536873 0.18476565 0.24738148
0.01819446 -0.21673426 -0.23298049 -0.20435502 -0.31076735 -0.35256585 0.1772242 -0.065973125
0.017397244 0.2815447 0.07874529 0.6306998 -0.32088596 -0.029768936 -0.023184303 -0.44251224
-0.3877737 -0.6463501 -0.07384506 -0.016916016 0.29058018 0.19500953 -0.51633173 -0.31818917
-0.13909882 0.18114795 0.40349346 0.05268369 0.123927586 0.077423766 0.17217208 -0.063231684
0.37356874 0.20722933 0.46547276 -0.6229489 -0.8998203 -0.372292 -0.7964678 -0.013112056
-0.4727549 0.0445997 -0.12198927 -0.49806863 -0.05252495 0.40017068 -0.059433654 0.27073002
-0.3368678 -0.56881493 -0.35821977 0.06948993 -0.23285024 -0.09516524 -0.28706226 0.38843012
-0.3436088 -0.013028373 0.36181566 -0.0018437346 -0.33628017 0.115311466 -0.25066516 -0.10035079
-0.3849567 0.076392934 -0.201782 0.37541962 0.33465758 0.23053494 -0.29781836 -0.5253787
0.1259863 -0.25745788 -0.33451366 -0.09696504 -0.009858223 0.12067217 -0.17958696 0.2663848
-0.49261513 0.13173443 0.12476498 0.6635387 -0.34878784 0.2731024 -0.116545595 -0.05097611
0.0055678845 -0.16362181 -0.44791856 -0.41023937 -0.54583645 0.10914757 0.17471969 -0.33920142
0.1226816 -0.63558 0.15104268 0.24148159 0.08771134 1.0647619 0.05999472 0.79634696
0.051620893 0.4261808 0.8541403 0.19112018 0.51063055 0.28549093 0.03910771 -0.2978952
0.23490085 0.246761 0.165407 0.13303263 0.47511408 0.070357464 0.21069418 0.17858294
0.0624621 0.2835262 -0.37008324 0.14278263 -0.5067333 -0.24314635 -0.6754752 0.07661382
0.4706234 0.100781016 0.50485134 -0.12804455 -0.07692719 -0.1159463 0.18796311 -0.09869934
-0.021719093 0.17526177 -0.050755292 -0.5166566 -0.0328579 -0.11797226 -0.2008092 0.14398669
-0.5901073 -0.40240014 -0.1958417 0.094662175 -0.16044804 -0.5715572 0.17389409 0.30410475
-0.20074843 0.09026915 -0.42833078 0.23069727 0.09694078 -0.13366193 -0.047190696 -0.24015771
-0.027270405 -0.13083097 -0.08468472 0.07728467 -0.45015565 0.3106141 0.28010094 -0.323856
-5.596507e-05 -0.4824219 0.1423064 0.3064399 -0.10248573 -0.043553203 -0.26205593 -0.86445284

network_body._body_endoder.seq_layers.0.bias f4 [128]
00000000: 72ad 043c 1f4a 443c 1e49 40bc 63e3 263a
00000010: 3618 08bc e493 603c ccfa be3b 451c 203c
00000020: 626d babb 74da a33c b981 6abc 63b4 d13b
00000030: d89c 6d3c cb76 843c db3b 2dbc 8e2d 1e3c
00000040: 8ab0 513c 682e 0cbc b9b2 f23b 6d89 12bc
00000050: 57b2 4c39 c029 4fbc 8e2f debb 713b 0d3b
00000060: ccd9 cd3b 2125 8b3c 46fa 59ba f4e4 1e3c
00000070: bb6a 943b 5fcb 803c d07b 373c 7ce9 d9bb
00000080: 40ee d03b 517e 203c f32d c63c a670 2cbc
00000090: f0e3 af3c 4e0b 52bb cd0d dc3b 96f2 a23a
000000a0: d691 523c 516b 09bc 3a8e ea3c 5a14 a63a
000000b0: c920 393c 0815 aa3a 7cca 5dbc 46f7 c33b
000000c0: a991 b13b a078 053c 80fd 213c 3465 a53c
000000d0: 1f7e 543b f68a 5a3b fb36 bd3b cfc2 ecbb
000000e0: ab8e 3f3c 2fe7 0f3c a2bd cb37 1ce9 c0bb
000000f0: 1356 373b 5ed5 6c3b 0d88 973b 89e2 c93b
00000100: ee97 7c3c 3035 703b fe8e dabb 6fb0 d03b
00000110: ba01 4dbc d43a 1dba bfc5 b4bb 6377 7b3c
00000120: 2b7c ac3b 74af f03b 5937 b53b 8514 c8bb
00000130: cf0e 903a 2815 943a 855c 80ba 48dc af3b
00000140: 6fcd d53b f30a 173c 0290 ccba 7f81 b83b
00000150: 89c5 ac3c 2940 e6bb e2ab 573b 10ed 763b
00000160: 9fd4 23bb c92b 7c3b 45f8 b63b fafd 7f3c
00000170: aeb6 7b3c 368e 663b 5d4e be39 f773 28bb
00000180: 5fa2 75bc 104d 92ba fbf9 2c3c 7cbc 08bc
00000190: 6c30 adba ee35 283b a6fe 443c a7b6 2ebb
000001a0: 014b 3d3b ac9c a83c 20e5 99bc 1319 783b
000001b0: 55a3 233c ab58 e6ba c3f7 903c 5277 4ebc
000001c0: 2423 64bc d5d9 9fbb 5add 88bc ffdb 913c
000001d0: 7bd4 093c 160a 20bc 7188 723c 35a3 d83b
000001e0: beab 203c e7b0 e73b 17f8 d53b f42b aa3b
000001f0: 22cf a1bc d009 f1bb 7dd4 9a3c e34f 733b
0.008097993 0.0119805625 -0.0117361825 0.0006366281 -0.008306554 0.013707135 0.005828237 0.009772365
-0.005689309 0.020001628 -0.014313155 0.0063996776 0.0145027265 0.016169926 -0.010573353 0.009654416
0.012798438 -0.008555986 0.0074065593 -0.008943898 0.00019521393 -0.012644231 -0.0067805713 0.0021550322
0.006282067 0.016985478 -0.0008315187 0.009698141 0.004529325 0.015721975 0.011198953 -0.006650148
0.006376058 0.009795741 0.024191832 -0.010524904 0.021470994 -0.0032050195 0.0067155124 0.0012431915
0.012852153 -0.008387403 0.028632272 0.001267086 0.0112993205 0.0012976239 -0.013537046 0.005980405
0.0054189754 0.008146435 0.009887099 0.020189859 0.0032423807 0.0033346987 0.0057743764 -0.0072253714
0.01169173 0.008783146 2.428779e-05 -0.005887164 0.0027974888 0.003613792 0.004624373 0.0061610383
0.015417082 0.0036652796 -0.006669878 0.006368689 -0.012512619 -0.0005997841 -0.0055167372 0.015348288
0.0052638254 0.0073451344 0.0055302796 -0.0061059617 0.0010990741 0.0011297809 -0.0009793198 0.0053668357
0.0065247337 0.009218919 -0.0015606883 0.0056306715 0.021090286 -0.0070266915 0.0032908847 0.0037677921
-0.0024998558 0.0038478246 0.0055837953 0.015624518 0.015363378 0.003517998 0.0003629801 -0.0025703886
-0.014992326 -0.0011161882 0.010557647 -0.008345719 -0.0013213283 0.002566691 0.012023604 -0.0026659162
0.0028883817 0.02058252 -0.018786013 0.0037856742 0.009987672 -0.0017574033 0.017696267 -0.01260169
-0.013924394 -0.0048782625 -0.016707111 0.017805098 0.008412476 -0.00976803 0.014803038 0.0066112527
0.0098065715 0.007070649 0.0065298188 0.005193228 -0.019752089 -0.007355906 0.01890015 0.0037126474

network_body._body_endoder.seq_layers.2.weight f4 [128, 128]
00000000: a19c 72bd e5d2 4c3d 593c 6a3d 6367 033d
00000010: 5930 5fbd 95b8 d6bd 1ab1 05be c1de aabd
00000020: b747 69bd d201 7a3d 49a5 59bc 2b2f bcbc
00000030: cb97 91bc 8a3e ea3d b623 413d fbdd 043e
00000040: 75dc 7a3d e779 943c 7286 8c3d 18c7 ac3d
00000050: b411 abbd 4cb8 13be 96f7 63bc 0198 9abc
00000060: 87c4 8abd ddc3 fabc 5aea 50bd e9fc 66bd
00000070: ee10 de3c 55ea 10bc 2fc7 733d 673f ef3d
00000080: bd95 ddbd 79d7 913d 128e f23c 114d d03d
00000090: 21cb 3a3d 1aa3 ac3d 913b a53d f59c b93d
000000a0: 726f 953d b86c 303d 18ed 063d c182 a1bd
000000b0: 8db4 223e 5b75 aebc 6888 1fbd a216 173d
000000c0: b35c e8bd a442 483d 8a6d ea3c ead2 b63d
000000d0: 19e6 1c3d 1427 16bd ee89 80bc 1f84 1f3d
000000e0: f6e0 82bd b120 cebd 7e4e 903d edc5 16be
000000f0: 0b73 b4bc 277c 033e b087 cdbd 828c 4a3d
00000100: b8f5 3f3d 70b4 0c3e 1623 8abc 419f bcbc
00000110: 9a94 5f3b e1e5 18bd 818f 82bd 981b f7bd
00000120: 82a9 083e f73a 19bd 4eff 8f3d 96b0 8ebd
00000130: f952 afbd 257b c03d 500f 883d 52e0 bdbd
00000140: 12fa 1bbd 988e 5fbd 6b77 353e 4a10 a13c
00000150: 6bd1 173e 947f 2a3d 3e10 003d cafa cabd
00000160: b449 ba3c 9b61 243e 65ab c23c 11bb 9e3d
00000170: ecd5 bfbd f8cf 43be 768e 063c f068 dabc
00000180: 2ef4 7b3d 184b d03d 7d9a 07bc c582 0bbe
00000190: e8c0 663e e630 543e f1dc afbc a8cb 1ebc
000001a0: 025c 753d 8adf 933d 2a94 5b3a 0fb6 1d3e
000001b0: 034c 6bbd 9599 1a3c 8161 a53c c425 9dbd
000001c0: 3fd4 c1bd 1c18 b2bd 5d01 0c3e 5e2c 64bd
000001d0: 66c5 86bc 4633 21bd 41f1 17be a2bb 22bd
000001e0: 4722 3abe fee6 18bd ad9c 2b3e c28d b9bd
000001f0: 51f1 48be 30d1 4d3d 56d8 6b3d 5223 583c
00000200: 7ef0 bb3d 0fad 26be 26de e1bd 9ab7 e9ba
00000210: a89a 30be 991a 8cbd 43b6 a5bd bde2 cf3c
00000220: fea9 963d 1e07 0a3d aa47 cfbd 6971 acbd
00000230: 245f 42be 82a9 303d b54a d93d cc6c 9dbd
00000240: c67e e6bb b70f 26bd 71f4 bb3d a049 c2bd
00000250: 026d 383d c4e8 9fbb 709e 9bbc edff 4d3d
00000260: 981c 3dbe b6a2 c5bb 76d2 4c3d 8d3f e2bc
00000270: f907 74bd 3fe6 5f3d 59ac 563d d2f7 7e3d
00000280: 3fb4 623d 4f01 f0bd 7587 733d 7a02 06be
00000290: 1989 80bd 8048 8fbd e5c1 573d 7a76 573d
000002a0: e6d1 cb3d 6503 6fbc b1e8 313e 07c8 503d
000002b0: 1a97 dc3d bbeb c53c 8bd2 9ebb 53cc c6bd
000002c0: f60c 08bd 98a7 133d 0117 bbbd 9a3c 7ebc
000002d0: e2b1 87bd 8258 99bd e68b bdb9 9498 a43d
000002e0: 1d41 fdbc a393 fa3d c3e1 b23d 06aa ecbb
000002f0: fb77 603d da74 0bbd bf5d b8bc 8025 383c
00000300: 897e df3c 02a4 1b3e a271 7fbd 0913 533d
00000310: 06e3 aebc 1fd6 313e b8e7 a5bd 8ed6 b93c
00000320: db26 3c3d c457 bf3d 08bf a2bb a339 23be
00000330: 1007 5abd b75c 9e3d 4e71 54bd 8e3d f33d
00000340: 451a 27bd 60c7 283d 6767 b13d 1d16 16be
00000350: 2110 9d3d f9af dabc 92fd ff3d 8bc5 8cbd
00000360: 9c8e 9dbc 5121 163e a235 acbd b2e0 e7bc
00000370: fae1 e93d a066 56bd 9561 eabd 1082 4ebb
00000380: 6dfa f7bc d206 1ebe 78c5 79bd 1584 0abe
00000390: 6935 c53d c488 5eba debc b33d 5794 08be
000003a0: 363a 813d c2d3 4cbc 5f80 04be 33cb 03be
000003b0: c6cb d73c c212 34bd 8c8c c4bd ae94 89bd
000003c0: d4d0 e4bd 49bf 2a3d 6d4d 31bd bb53 26bd
000003d0: fb58 edbb f3aa 05bd 0e38 ecbd c0b8 963d
000003e0: 6d55 b03c 95fa 0c3d 9fc0 31bd 2acb 613d
000003f0: 08df debb 1f01 64bd 8303 cbbd f555 a83d
-0.059231404 0.050005812 0.05718646 0.03208102 -0.054489467 -0.10484425 -0.1305584 -0.08343268
-0.05695316 0.061036892 -0.013284036 -0.02297171 -0.017772576 0.1143771 0.047153197 0.12975304
0.0612454 0.018124534 0.06861581 0.084364116 -0.08352986 -0.14425772 -0.01391401 -0.01887131
-0.06775766 -0.030610973 -0.051004745 -0.056393538 0.027107682 -0.008844932 0.05951613 0.11682015
-0.10819576 0.07121176 0.02960876 0.10170949 0.045603875 0.08429547 0.08068002 0.0906314
0.07296647 0.043072432 0.032940954 -0.078862675 0.15889187 -0.021296194 -0.038948447 0.03688682
-0.11345806 0.04889168 0.028616685 0.089269474 0.038305376 -0.03665836 -0.01569077 0.03894436
-0.06390564 -0.10064829 0.07046221 -0.1472394 -0.022027513 0.12840329 -0.10035646 0.049450405
0.046865195 0.13740706 -0.016862433 -0.023025157 0.0034115673 -0.037328605 -0.063750274 -0.1206581
0.13345912 -0.03740975 0.070311174 -0.06967275 -0.08560748 0.09398488 0.06643546 -0.09271301
-0.038080283 -0.054579347 0.17721336 0.019661088 0.1482598 0.041625574 0.03126549 -0.099111155
0.022740223 0.16052859 0.023763368 0.07750524 -0.09366974 -0.19122303 0.008212676 -0.026661366
0.061512165 0.10170573 -0.008276579 -0.13624103 0.22534525 0.20721778 -0.021467658 -0.00969211
0.0599022 0.07220371 0.0008376265 0.15401481 -0.057445537 0.009436031 0.020188095 -0.07673219
-0.09464311 -0.08696005 0.13672395 -0.055706374 -0.016451549 -0.03935554 -0.14838125 -0.03972972
-0.18177138 -0.037329666 0.16758986 -0.09060241 -0.19623305 0.050248325 0.05757936 0.013192015
0.091767296 -0.16276954 -0.110286996 -0.0017831207 -0.17246497 -0.068410106 -0.08091404 0.025376672
0.07356642 0.033698194 -0.10121091 -0.08420069 -0.18981606 0.043130405 0.10609952 -0.07686767
-0.0070341555 -0.04054233 0.09177483 -0.09486699 0.045025833 -0.0048800427 -0.018996447 0.050292898
-0.18467939 -0.0060313595 0.0500054 -0.027618194 -0.059577916 0.05466294 0.052410457 0.06224806
0.055347677 -0.117189996 0.059455354 -0.13086882 -0.06276149 -0.0699625 0.052675147 0.052603222
0.09952144 -0.014588212 0.17373921 0.05097201 0.10771008 0.024160257 -0.004846876 -0.097069405
-0.033215486 0.0360485 -0.09135247 -0.015517378 -0.06625725 -0.07487585 -0.00036153122 0.080369145
-0.030914837 0.12235191 0.08734467 -0.007222417 0.054801922 -0.034046985 -0.02250564 0.011239409
0.027282016 0.15199283 -0.062364228 0.051531825 -0.021348488 0.17366837 -0.081008375 0.022685315
0.045935493 0.09342912 -0.0049666204 -0.15939955 -0.05322939 0.07732528 -0.05186587 0.11876975
-0.040796537 0.041205764 0.086623006 -0.14656873 0.07669092 -0.026695238 0.124995366 -0.06873616
-0.01923304 0.14661147 -0.08408667 -0.028305385 0.11420055 -0.052343965 -0.114443935 -0.0031510629
-0.03027078 -0.15432289 -0.060979337 -0.13526948 0.09629328 -0.00084890076 0.08776258 -0.13337837
0.06309931 -0.012501659 -0.12939595 -0.12870483 0.026342284 -0.0439632 -0.0959712 -0.067178115
-0.11172643 0.04168633 -0.04328673 -0.040607195 -0.0072432733 -0.032633733 -0.11534129 0.07359457
0.02152511 0.03441866 -0.04339659 0.055125393 -0.0068014897 -0.05566513 -0.09912779 0.0821952

network_body._body_endoder.seq_layers.2.bias f4 [128]
00000000: fc14 07ba 6f04 9c3b ac74 b73b 703b 423c
00000010: ff73 bb3a a9fc 07ba bc41 e8b8 50e6 31b9
00000020: e96c 9a3b 0eba 153c d4c3 e23b 6438 923a
00000030: eb60 41b9 c90a 083c 8728 1f3c 5883 aebb
00000040: f9fa 123c 9816 22bb d0cc dfba ad5a fcba
00000050: 05ca 87bb 9520 c339 2572 2a3c 7f15 2bb9
00000060: 3e31 1e3b 541d 99bb a070 a4bb 3f0b 37bc
00000070: d723 89bc 573e 44bc 2344 06bc 297a b73b
00000080: 581f 3c3c 16a2 4d3c 3369 2a3b c4d5 8cba
00000090: e2c3 6e3b b7c3 993b a626 0c3c 8b87 873b
000000a0: 4f67 903a a8e9 3e3c 638c 943c 8c4f 553a
000000b0: 80b9 ed3b 84bd 683b 853a 3b3c d971 0b3b
000000c0: 1d3c 01bb 3462 dcb9 f536 60bc 453f 9739
000000d0: ffb3 5a3b e189 11bb 1e65 033b 0856 233c
000000e0: f98d c43b facc 3f3a b95e 8cbb afc3 19bc
000000f0: 341f dbba 540a 463b f1cc 263b 08ca cd3b
00000100: e190 333c 3749 bbbb 9237 0dbb 863e 45bb
00000110: 0d29 d2b9 6620 be3a 9c0a 013b c6c8 403b
00000120: 26ea 3fbc d555 ecbb f509 b33b 3c9c 223c
00000130: eddb 2b3a bc12 223c a7d6 37bc e696 2fbc
00000140: d316 e53b 1bdb f6b9 2028 7f39 685f 6ebb
00000150: 123a 493c 8a7a e7bb dd5e 153b 693f b93b
00000160: cd74 bebb 799c a33b f114 febb 938f 313b
00000170: c446 11bb d2b2 06b9 6580 3ebc b72b b33b
00000180: c1ef 0b3c 0924 03bc a876 6839 109a 8d3b
00000190: 51de 22ba 306f 8bbb c43a b03b b322 21bc
000001a0: 2ff5 21bb 788d c1bb e32b b6bb aa94 27bc
000001b0: c887 503b 4ba4 e9b9 ed7f 7b3b 5da1 553b
000001c0: fe87 7a3c e066 5a39 a9bf c03b e479 42bb
000001d0: 7c34 033b f49e 92ba b53f 0f3c cb1c 8b3b
000001e0: 701f 36bc d518 81b9 8222 64ba 8f06 95bb
000001f0: 7be0 423c 7a65 eb3b 640c beb9 34d2 053a
-0.0005152968 0.0047612707 0.005598625 0.011854991 0.0014301537 -0.00051874906 -0.00011074866 -0.00016965833
0.00471269 0.009138597 0.006920317 0.0011155722 -0.00018442019 0.008303353 0.009714252 -0.005325716
0.008970969 -0.0024732705 -0.0017074589 -0.0019253098 -0.0041439557 0.00037217574 0.010403191 -0.00016315839
0.0024138237 -0.0046726856 -0.0050183088 -0.011172115 -0.016740723 -0.011977754 -0.008194956 0.0055992794
0.011482082 0.012550851 0.0026002645 -0.001074486 0.0036432673 0.0046925205 0.008554136 0.004136031
0.0011017116 0.011652388 0.018133348 0.00081371586 0.0072547793 0.003551335 0.011427526 0.0021277575
-0.0019719668 -0.00042034837 -0.013684978 0.00028848104 0.0033371446 -0.0022207426 0.0020049284 0.009969242
0.00599837 0.00073166157 -0.0042837528 -0.0093850335 -0.0016717673 0.0030218558 0.0025451744 0.0062801875
0.010959835 -0.005715515 -0.0021548015 -0.0030097081 -0.00040084907 0.0014505505 0.0019690162 0.0029416545
-0.01171354 -0.0072123804 0.0054638335 0.0099249445 0.0006555904 0.009892162 -0.011220611 -0.010717129
0.0069912462 -0.00047084023 0.00024333643 -0.0036372785 0.012281911 -0.0070641683 0.0022792139 0.005653311
-0.0058122636 0.004993018 -0.0077539613 0.0027093634 -0.0022167424 -0.00012845852 -0.011627291 0.0054678577
0.0085410485 -0.008004197 0.00022169447 0.004321344 -0.00062129373 -0.004255198 0.005378099 -0.009834933
-0.0024712791 -0.005906757 -0.005559431 -0.010228315 0.0031819213 -0.0004456363 0.003837581 0.00325974
0.015291212 0.00020828424 0.0058822227 -0.0029674703 0.0020020297 -0.0011186288 0.008743216 0.0042453757
-0.011115894 -0.000246233 -0.0008702652 -0.004547901 0.011894341 0.007183728 -0.00036248856 0.000510487

action_model._discrete_distribution.branches.0.weight f4 [5, 128]
00000000: b9aa 0abc de5c 6a3c c475 c43c 3a61 ebba
00000010: af80 4a3c 3933 5c3c 231c 15bc c104 7e3b
00000020: 741c 0d3d 8aba 0f3d a420 a03b 272f 5b3c
00000030: aadb 17bd 4d16 56bc 1ad8 4d3c dbcd acbb
00000040: 845d 6f3c 4b22 8c3b 4095 a9bc 1cb8 8cbc
00000050: b561 933b 2f7d 0cbc d291 ec3c b2d6 9fbc
00000060: 076b c53c 588e d53b 50d6 b73b 114e 4a3b
00000070: 7da9 45bc f18a 8fbc e005 9dbb 9bb5 53bc
00000080: 2df7 54ba 2aa5 613c a3b0 27bb 2a0c 5fbb
00000090: 5d2b 953a 9818 033c 3177 b33c bd77 8e3c
000000a0: d3e8 233c 9049 653b 88a6 a8bc 085a 80bc
000000b0: 1cb3 e3bc 40b5 cc3a b64a bd3b 589a 8d3c
000000c0: 5e67 ff3c b1d4 fb39 7073 33bc cf04 d4bb
000000d0: 0cd5 783b 77ee 1bbb e273 033c eea3 ccbc
000000e0: 48a9 bbbc 3ce4 abbc 5b29 ec3b 3fa7 6cbc
000000f0: 8d23 17bc c250 44b9 c58d 2f3b 14f9 82bc
00000100: c63d ed3c c6d5 adbc fe44 863b e208 92bc
00000110: 2b1c 0f3a 1f94 653c 0601 4c3c 5124 80bb
00000120: b0c9 81ba 83f6 2ebc d7ca 9e3b b9d6 e73c
00000130: d627 a6bc f92e be3c 1800 403b 3684 12bb
00000140: f055 023c c84e 6f3c 1c0c 293c dcd6 b63c
00000150: 112e 4a3c ebf4 ea3b 2945 53ba 9bad c53b
00000160: 8e16 c63b 60ae 93bc d9d2 3cbc 939e 01bc
00000170: 2018 e4bc 2664 453b 0c0b 85bc b831 6c3b
00000180: 7280 5fbc 766c 2f3c 51ae debb 510f 883a
00000190: b63f bbba c692 303c 7006 0a3b 96cf b93a
000001a0: ccab 883b fc20 6dbb 9678 413a 48da f9bb
000001b0: f3b4 e2ba 812f 67bc c030 4a3c f3b9 e53c
000001c0: a3dc 333d 0120 97bc b554 9cbc bcf4 2f3b
000001d0: a736 d8bb d96c 063c 5ac7 84bc 0cbd 993b
000001e0: 3698 3c3b 0bc4 dabb 2a40 06bd 8565 623c
000001f0: 85c6 b03c 8316 233b 1730 e03b b813 a7bb
00000200: 854e 08bb 8860 e03a 5817 553b dea5 0c3c
00000210: 9eb1 22bb b330 c63b fdcb 643c efda 4ebc
00000220: 0e6e f73b 8ff8 01bd fae5 4e3c a85b e7bb
00000230: 5a92 cc3c c3aa 563b 014d 03bd 73c0 c7bb
00000240: 5a51 04bd ca84 a4bc 7949 4e3b 75d7 973b
00000250: 0abd ccbb 1eaa 2e3c bacd b13c 4d2c 963c
00000260: 3d68 1c3d a2a6 65bc 348c b7bb 8240 203a
00000270: c962 ec3b 3f7e 13ba 3ad0 ad3b 0d03 cfbc
00000280: c6ba 0cbd 2455 f639 b8f8 443a d829 bfba
00000290: 4f10 e43b ccef 76bc 2023 1c3d 03ed a5bb
000002a0: 27e8 83bc 3e83 01bb f070 5ebc f1fd 58bc
000002b0: 95c9 9dbc 3845 9d3b c577 48bd eb65 ddbc
000002c0: 2f42 c1bb e0ec cb3c f66d 873c d235 083c
000002d0: 08e7 e8bb 2a6f b9bc 816e ef3b 467a 50bc
000002e0: 6ae4 c43c 3f80 7ebc f357 03bd b061 753a
000002f0: 9aeb 613c 10c7 043d 0993 30bc 3487 8cbc
00000300: f95e 8e3c a8d3 b73b 2280 04bc 312a 9a3c
00000310: 301b f3bc d9cd c43c 31bd 193c 4c84 763b
00000320: 7e50 92bc d065 1d3b dfd1 fc3c bf24 08bd
00000330: 1140 febb 633c 9fbb e991 563c fe10 2c3c
00000340: 852f 413a c670 5fbb 9cf7 673c deb7 85bb
00000350: f94e aaba bc4e 733c dac2 133d 4216 abbc
00000360: fd9f 12bc c1af 7dbc 8233 5d3c 6d75 a1bc
00000370: 0758 993c f6db 5abb 50f2 33bc 7282 16bc
00000380: 2934 bc3c 380b 883b 944e 423b c675 df3c
00000390: 6444 d1bb 8bd2 31bb 8890 093c 23e4 043b
000003a0: 298f 7e3c e1d6 d7bb f216 4bbc fa09 243c
000003b0: a42f dbbc 1abb 1b3c 781e 08bd a09c c33c
000003c0: f5b2 42bd be47 003d 3ed3 9fba e8b4 9c3c
000003d0: 9787 f6bb 1046 babc 8366 dcbb 51a0 8c3c
000003e0: 0b6c ab3b aa29 aa3b 48c6 70bc 1366 b13c
000003f0: 72eb ab3a 783e babc d112 d13b 5156 f03b
-0.008463555 0.014304368 0.023981936 -0.0017958053 0.012359782 0.013439947 -0.009100947 0.0038760158
0.034450963 0.035090007 0.0048867036 0.013377941 -0.037074722 -0.01306684 0.01256373 -0.0052735633
0.014609698 0.004276549 -0.02070105 -0.017177634 0.0044977316 -0.008574768 0.028878126 -0.019511554
0.024098886 0.006517213 0.005610265 0.0030869285 -0.012064335 -0.017522307 -0.00479196 -0.012921716
-0.000812399 0.013772288 -0.0025587461 -0.003403435 0.0011380721 0.008001469 0.02190742 0.01739108
0.01000424 0.0034986474 -0.02058722 -0.01566793 -0.027795367 0.0015617982 0.0057767285 0.01728551
0.031177219 0.00048032918 -0.010952815 -0.0064703 0.0037968783 -0.002379326 0.008023234 -0.024980512
-0.022907868 -0.020982854 0.0072070784 -0.014444171 -0.009224785 -0.00018722101 0.0026787382 -0.01598791
0.02896012 -0.0212201 0.00409758 -0.017826501 0.00054592144 0.014012366 0.012451416 -0.0039105793
-0.0009902027 -0.01067889 0.0048459577 0.02830063 -0.020282667 0.023215758 0.002929693 -0.0022356636
0.007955059 0.014606185 0.0103178285 0.02231925 0.012340085 0.00717031 -0.0008059317 0.0060326583
0.006045169 -0.018027484 -0.011524879 -0.007911342 -0.027843535 0.0030119508 -0.01624062 0.0036040377
-0.013641464 0.010707011 -0.0067956825 0.0010380541 -0.0014285955 0.010777181 0.0021060966 0.0014176245
0.0041708704 -0.003618299 0.00073803344 -0.007624898 -0.0017296359 -0.014110447 0.0123407245 0.028042769
0.043911587 -0.018447878 -0.01908336 0.0026848754 -0.006598312 0.008204662 -0.01620834 0.0046917256
0.0028777248 -0.006676202 -0.032776035 0.013818149 0.021579036 0.0024885244 0.0068416703 -0.005098786
-0.0020798754 0.0017118612 0.0032515135 0.008584468 -0.0024825106 0.006048286 0.01396465 -0.01262544
0.0075509613 -0.031731185 0.012628073 -0.007060487 0.02497213 0.003275559 -0.03205586 -0.00609594
-0.032304145 -0.02008285 0.0031476899 0.004633839 -0.006248121 0.010660676 0.021704543 0.018331671
0.038185347 -0.014016779 -0.0056014303 0.0006113128 0.0072139245 -0.0005626417 0.0053043636 -0.02527001
-0.03435781 0.0004698421 0.00075138686 -0.0014584614 0.006959952 -0.0150718205 0.038119435 -0.0050636544
-0.01610191 -0.0019762064 -0.013576731 -0.013244138 -0.01926116 0.0047995113 -0.048942346 -0.027026137
-0.0058977823 0.024893224 0.016531926 0.008313613 -0.007107619 -0.022636015 0.0073068743 -0.012724465
0.024034698 -0.015533506 -0.032066297 0.0009360565 0.013789082 0.032416403 -0.010777243 -0.017154314
0.01737927 0.005609948 -0.00808719 0.018818947 -0.02967605 0.024023937 0.009383486 0.0037615476
-0.017860647 0.0024016984 0.030861793 -0.03323817 -0.007759102 -0.0048594936 0.013096311 0.010502098
0.00073694467 -0.0034094318 0.014158156 -0.0040807566 -0.0012993506 0.014850315 0.036074497 -0.020884637
-0.008949277 -0.0154837975 0.01350105 -0.019709313 0.018718733 -0.0033395267 -0.010983065 -0.009186374
0.02297409 0.004151728 0.0029648887 0.027277838 -0.0063863266 -0.002713355 0.008396275 0.0020277582
0.015537062 -0.006586895 -0.012395607 0.010012144 -0.026756115 0.009505058 -0.033232182 0.023878396
-0.047533948 0.03131842 -0.0012193692 0.019129232 -0.007523488 -0.022738487 -0.0067260875 0.017166289
0.0052313856 0.005192955 -0.014695711 0.021655118 0.0013116433 -0.022734866 0.006380417 0.0073345085

action_model._discrete_distribution.branches.0.bias f4 [5]
00000000: d5a6 593b 35bb ffba f4bc 9bbb d5ac 25bc
00000010: 8464 513c
0.0033211012 -0.0019510748 -0.0047527496 -0.010112007 0.012780312
