Assets/results/Maze13/Mouse/Mouse-250044.onnx (onnx, 17067 bytes, 4 tensors)

network_body._body_endoder.seq_layers.0.weight f4 [64, 45]
-0.12927079 -0.09429782 -0.018006003 0.12986544 0.09596112 0.2404335 0.17734948 -0.046821374
0.013435539 -0.39717886 0.059429187 0.20735505 -0.09845436 0.104861364 -0.073890194 0.07391046
-0.09859409 0.06951544 0.052246146 0.10414296 -0.2182577 -0.13939673 -0.0907069 -0.19281553
-0.10970589 0.18939933 -0.2018268 -0.10654864 0.00038788392 -0.342712 -0.00062938745 -0.063986465
-0.034749594 0.09011148 0.0711297 0.10323041 -0.17696439 0.044477064 -0.06541285 0.019881625
-0.069805264 -0.06701189 -0.032814343 0.11136378 0.18477537 -0.1209206 -0.0050905147 0.16628282
-0.05336132 0.04524713 0.20972502 0.050788395 -0.1026982 0.037961923 0.1224258 -0.18274891
0.06394871 0.08747029 0.2033188 0.15667805 -0.22499856 0.15184988 -0.034093056 0.0040704226
0.047343314 0.1721489 0.18472815 -0.0035172345 0.005300497 -0.08455453 0.0052898712 -0.13659662
-0.0002437362 0.27825233 0.15359862 0.14901748 0.0052936217 0.23541924 0.23660378 -0.24024399
0.14993487 0.056571234 0.12938918 -0.2837739 0.040844027 -0.086865954 0.18211417 -0.34452185
-0.029637644 -0.11488525 0.11502253 0.034770012 0.15102324 -0.0012951901 -0.09053289 -0.0058830874
0.009611275 -0.045057517 0.053288635 -0.03727042 0.106685415 -0.106669776 -0.18171017 0.09719502
-0.020534733 0.06746573 -0.065314844 0.15613364 -0.16176309 -0.12550734 0.22230297 -0.14688307
-0.096264206 0.074771084 -0.0051495573 -0.018836472 0.005514216 -0.14232151 -0.0039767106 -0.24856502
-0.050130356 0.18379624 0.17573786 -0.14452167 0.3289606 0.05008011 0.015033779 0.15049762
0.060130775 -0.20999457 0.12157139 0.26287818 0.026158316 0.2019886 0.025678918 -0.26583123
-0.09725375 -0.10628867 0.06191899 0.27844158 -0.112333305 0.06723101 -0.04012446 -0.29958138
-0.06407064 0.0008596552 -0.06975246 -0.16691555 0.27995294 -0.18353216 0.03042525 -0.061423264
-0.17544657 0.12182629 0.14272569 -0.04940107 0.029845256 -0.01136721 0.31579423 0.5235248
0.1841669 -0.2910345 -0.05654937 0.052280404 0.1459704 0.065710075 -0.056914408 0.048093636
-0.14852451 -0.15017167 -0.056698985 0.0025745227 -0.13434303 -0.1440105 0.044750076 -0.032511387
0.17205895 0.20955811 -0.11484576 0.15450428 -0.19775517 -0.019844642 0.039640307 0.21621522
-0.26220313 0.0898405 -0.14207022 -0.123503804 -0.009864026 0.06625408 -0.18082039 0.08545272
0.032099992 -0.025213124 0.07523068 -0.13349138 -0.08255007 -0.057829972 -0.14369372 0.2742242
0.115718305 -0.108416714 -0.4358348 -0.088922456 0.1157607 0.15566663 -0.16043842 -0.194919
-0.13368909 0.02096166 -0.292634 0.01729164 -0.124434926 -0.11919068 -0.12005792 -0.23301175
0.20601447 0.13332807 0.27582988 -0.019750508 -0.09929938 -0.059152797 0.17810765 0.06275086
-0.14917737 -0.05845061 -0.32426846 -0.17876488 0.019921081 -0.17004457 0.1725204 -0.013781707
-0.040465325 0.0495262 0.094964705 -0.0698312 0.052667543 0.07748812 0.25324017 -0.28126383
-0.059821907 0.14690454 0.18307818 -0.06723107 -0.037747297 0.07712271 -0.14759402 -0.27840886
-0.14736214 -0.121590145 0.078829326 0.22616227 -0.15501104 -0.2154556 -0.017886713 -0.24780104
00000000: 905f 04be 371f c1bd 5381 93bc 72fb 043e
00000010: 4487 c43d 3334 763e 1a9b 353e c5c7 3fbd
00000020: bc20 5c3c 075b cbbe 056c 733d e254 543e
00000030: 71a2 c9bd 8ec1 d63d be53 97bd 5e5e 973d
00000040: b3eb c9bd 1c5e 8e3d 0e00 563d e748 d53d
00000050: f27e 5fbe 04be 0ebe 8ac4 b9bd 6f71 45be
00000060: 7bad e0bd e6f1 413e afab 4ebe 2c36 dabd
00000070: e65c cb39 f277 afbe 7afd 24ba 560b 83bd
00000080: 9755 0ebd 5e8c b83d 73ac 913d 776a d33d
00000090: 2736 35be 952d 363d 2cf7 85bd cade a23c
000000a0: 10f6 8ebd 883d 89bd 5568 06bd b212 e43d
000000b0: c135 3d3e 38a5 f7bd 55ce a6bb 0b46 2a3e
000000c0: 6691 5abd 0e55 393d 28c2 563e 7e07 503d
000000d0: 6f53 d2bd f67d 1b3d 61ba fa3d 8822 3bbe
000000e0: 8bf7 823d a023 b33d ce32 503e 3670 203e
000000f0: 0666 66be 897e 1b3e 29a5 0bbd 2e61 853b
00000100: 10eb 413d cd47 303e 6029 3d3e 6781 66bb
00000110: cbaf ad3b ed2a adbd a856 ad3b fcdf 0bbe
00000120: 7093 7fb9 1777 8e3e f548 1d3e 0a98 183e
00000130: 1e76 ad3b be11 713e 4348 723e 8502 76be
00000140: 8788 193e 3db7 673d 997e 043e d04a 91be
00000150: 114c 273d c7e6 b1bd 237c 3a3e 2b65 b0be
00000160: a5ca f2bc f548 ebbd ef90 eb3d 006b 0e3d
00000170: d6a5 1a3e 5ec3 a9ba 4f69 b9bd eac6 c0bb
00000180: 9c78 1d3c 3b8e 38bd 2f45 5a3d dea8 18bd
00000190: e27d da3d af75 dabd 3b12 3abe 2f0e c73d
000001a0: 7538 a8bc 792b 8a3d cac3 85bd 7fe1 1f3e
000001b0: 39a5 25be ff84 00be 64a3 633e 8468 16be
000001c0: 2b26 c5bd 9521 993d 9ebd a8bb f24e 9abc
000001d0: 99b0 b43b bbbc 11be 114f 82bb d487 7ebe
000001e0: 7d55 4dbd 1535 3c3e a0f4 333e 7dfd 13be
000001f0: 866d a83e cd20 4d3d 3d50 763c 0c1c 1a3e
00000200: b04b 763d d108 57be 6cfa f83d f897 863e
00000210: f749 d63c 19d6 4e3e 985c d23c 081b 88be
00000220: f92c c7bd e0ad d9bd c49e 7d3d e58f 8e3e
00000230: 010f e6bd 69b0 893d 8c59 24bd bb62 99be
00000240: 7837 83bd 7c5a 613a 61da 8ebd e9eb 2abe
00000250: fe55 8f3e dbef 3bbe 603e f93c f696 7bbd
00000260: 44a8 33be 1080 f93d af26 123e c758 4abd
00000270: 0a7e f43c 893d 3abc c8af a13e b905 063f
00000280: 3f96 3c3e 7902 95be 50a0 67bd fa23 563d
00000290: 4479 153e 0193 863d 151f 69bd d5fd 443d
000002a0: cf16 18be 9ac6 19be 323d 68bd 53b9 283b
000002b0: 3891 09be 7d77 13be db4b 373d a92a 05bd
000002c0: 3930 303e 6796 563e 4134 ebbd 5f36 1e3e
000002d0: 5580 4abe 3b91 a2bc e05d 223d 8667 5d3e
000002e0: 7d3f 86be 4cfe b73d db7a 11be 90ef fcbd
000002f0: b99c 21bc 38b0 873d fb28 39be d601 af3d
00000300: 487b 033d c18b cebc 8b12 9a3d f7b1 08be
00000310: 0310 a9bd 1fdf 6cbd 7224 13be 1d67 8c3e
00000320: b8fd ec3d 9509 debd bd25 dfbe fa1c b6bd
00000330: f213 ed3d 1367 1f3e f849 24be d998 47be
00000340: cbe5 08be cab7 ab3c 20d4 95be 33a7 8d3c
00000350: bdd7 febd 3e1a f4bd ede0 f5bd a29a 6ebe
00000360: 75f5 523e 2787 083e 9339 8d3e d1cb a1bc
00000370: 795d cbbd 344a 72bd da61 363e 8683 803d
00000380: f4c1 18be e869 6fbd 8406 a6be 240e 37be
00000390: 8931 a33c 2a20 2ebe 30a9 303e abcc 61bc
000003a0: f8be 25bd fcdb 4a3d db7c c23d a903 8fbd
000003b0: ecb9 573d 17b2 9e3d b2a8 813e d001 90be
000003c0: d107 75bd 256e 163e d978 3b3e 71b0 89bd
000003d0: e99c 1abd 83f2 9d3d e322 17be 9b8b 8ebe
000003e0: 1ae6 16be 4104 f9bd 4571 a13d 1597 673e
000003f0: 37bb 1ebe 65a0 5cbe 2887 92bc 8ebf 7dbe

network_body._body_endoder.seq_layers.0.bias f4 [64]
-0.012138202 0.01694391 0.018279046 0.0034565113 -0.006348454 0.006724932 -0.010459931 0.01609582
0.0039065424 0.0047049015 0.021979718 0.009562078 -0.00410216 -0.00052380475 -0.0029459512 -0.0013662442
-0.0039075017 0.01147882 0.007522601 0.01036193 0.019920534 0.0097709615 0.0057207374 -0.0025576765
0.0018248368 -0.0005810999 0.0077156797 -0.018410472 0.007911495 -0.0011436688 0.015184822 0.002429751
0.014615119 0.0075720716 -0.010142777 0.012575693 0.0010643998 0.005749264 0.010048927 0.015111778
0.016615331 0.014429292 0.014093493 0.00025791468 0.0047884695 0.0054651136 0.009944001 0.0071562817
0.001687011 -0.0047607473 0.0016846303 0.0159899 0.004458055 0.009106933 -0.0019301712 0.0061139725
0.00995117 0.0168319 0.0051899804 0.01377212 0.011463944 0.00877664 -0.008536373 0.021941433
00000000: 4fdf 46bc f4cd 8a3c f0bd 953c a386 623b
00000010: b106 d0bb d25c dc3b 2160 2bbc 62db 833c
00000020: 7402 803b 932b 9a3b cf0e b43c 43aa 1c3c
00000030: 6a6b 86bb f14f 09ba dc10 41bb 8c13 b3ba
00000040: 800a 80bb a911 3c3c 2780 f63b 16c5 293c
00000050: 6330 a33c 6216 203c 0675 bb3b b19e 27bb
00000060: 5d2f ef3a f454 18ba d0d3 fc3b 8fd1 96bc
00000070: 379f 013c 28e7 95ba c2c9 783c 753c 1f3b
00000080: 4174 6f3c 241f f83b e42d 26bc 480a 4e3c
00000090: 5583 8b3a 5264 bc3b 41a4 243c 6497 773c
000000a0: e01c 883c d668 6c3c 65e8 663c b938 8739
000000b0: 98e8 9c3b b214 b33b 2aec 223c 3e7f ea3b
000000c0: b21e dd3a 0b00 9cbb d0ce dc3a 40fd 823c
000000d0: e014 923b 3f35 153c ccfd fcba b857 c83b
000000e0: 3b0a 233c 0ee3 893c b610 aa3b 75a4 613c
000000f0: 44d3 3b3c e5cb 0f3c 25dc 0bbc 85be b33c

action_model._discrete_distribution.branches.0.weight f4 [5, 64]
0.009705902 -0.009671177 0.021390786 0.0029898195 -0.0018602271 -0.012667595 0.01559088 -0.017210806
-0.0229245 -0.0019915265 0.0044215554 0.010301473 -0.031852905 -0.00814251 0.018646851 0.016359977
-0.0052764923 -0.01140691 -0.013415721 0.009996082 0.017283686 0.0079921 0.018848887 -0.008811123
0.003354129 -0.03935126 -0.010497862 -0.0094344495 0.0055062445 0.005801205 0.021473391 0.0074475673
-0.007819878 0.02405599 -0.011096097 0.008673503 0.010414505 -0.0048806984 0.006270535 0.01562644
-0.009912324 0.0039601363 0.012961073 -0.00061344716 0.0073755197 0.01956155 0.0021222883 0.02031409
0.0027104183 -0.024640122 -0.025247296 0.006374293 -0.0040206667 -0.008132664 0.009086703 0.0127413375
0.013591555 0.03330874 0.025050411 0.009326142 0.003947819 -0.018046886 0.0007135621 0.0021101576
-0.013531078 0.014546996 -0.0027660462 0.010706215 -0.011273893 0.032352347 -0.014265672 0.016710958
0.008745361 0.009656926 0.015210186 -0.010071933 -0.007498015 0.0028047867 -0.028868716 -0.019164227
-0.023816952 0.025274333 0.029198103 -0.02924826 -0.005655936 -0.0029168385 0.0045355763 -0.00357115
0.008312548 -0.0068941936 -0.008423498 -0.0021587196 -0.012587514 -0.0019562924 0.012350275 0.0065292683
0.0113206 -0.002393526 -0.010047974 -0.020611253 0.014987262 -0.0079272315 0.025946984 0.021535615
0.0003158165 0.015572032 -0.0107192835 0.0051364955 -0.018724767 -0.008359966 0.004119832 0.0024791828
-0.023059327 -0.017969184 0.014174721 -0.0034761226 -0.021892196 0.021733362 0.002007868 0.00047854014
-0.008504513 -0.0020502673 -0.0074909613 -0.0033139864 -0.0005547359 0.0026831822 0.018086998 0.0018979026
0.019115161 -0.006722656 -0.016092595 0.003932927 0.015669199 0.030724159 0.015305063 -0.019366624
0.0027919104 0.009526478 -0.0085258465 -0.00834993 -0.012225669 -0.0198146 0.00069813785 0.009637704
0.026001934 0.0013941837 -0.009758507 0.0026060757 -0.008761616 -0.003974197 0.01280654 -0.007326257
-0.019021712 -0.00023436903 0.027892705 0.0136081595 -0.002050078 -0.010695154 -0.012021561 0.009677636
-0.003943226 -0.006331925 0.009122674 -0.013454851 0.010989058 -0.010169114 0.0048057497 0.0071402634
-0.014513198 -0.015130726 -0.017600305 0.016322738 0.009253811 -0.022257844 0.008512521 -0.0075726802
-0.012342072 0.003189444 0.007833825 -0.0044729793 0.021519866 -0.013221921 -0.012922934 0.011120107
0.011058043 0.027717322 0.0151253715 0.015413424 -0.014295949 -0.012115935 -0.00028407678 -0.01915392
-0.013339362 0.03936282 0.01070898 0.016062364 0.0014506661 -0.028376848 -0.0150434775 -0.0003353554
0.025248915 -0.015912121 0.010712435 0.022606596 0.021275993 0.028685462 -0.016788874 0.0028942225
-0.002969577 0.0079947645 0.019384269 0.003154173 0.0032628884 0.004581524 0.011804796 0.014159496
-0.0139548555 0.031059466 -0.0022349653 -0.027634202 0.023891326 -0.0013114872 0.019520512 -0.004267221
0.0016532567 -0.018855473 -0.02155445 0.026192995 -0.01567959 -0.048944987 0.015949557 -0.032810614
0.02166568 0.034315236 0.039674807 0.013441849 -0.0034541383 -0.00096791744 -0.03559833 -0.01838412
-0.0014474017 0.0011263414 0.017089885 -0.011883463 -0.013694146 -0.01594589 0.015455746 -0.02665716
0.01937202 -0.050008144 -0.014037502 0.023019329 0.026696375 0.015736371 -0.009689782 0.01888359
00000000: 8105 1f3c db73 1ebc bb3b af3c d9f0 433b
00000010: ddd2 f3ba bf8b 4fbc e470 7f3c adfd 8cbc
00000020: 29cc bbbc 4584 02bb b2e2 903b 82c7 283c
00000030: 3178 02bd 2a68 05bc 48c1 983c 5c05 863c
00000040: 6de6 acbb 0ce4 3abc 9dcd 5bbc 9bc6 233c
00000050: 8496 8d3c 4cf1 023c fb68 9a3c 875c 10bc
00000060: f2d0 5b3b c92e 21bd 39ff 2bbc f392 1abc
00000070: ba6d b43b 0918 be3b f7e8 af3c b90a f43b
00000080: f21e 00bc 1111 c53c 67cc 35bc 4f1b 0e3c
00000090: 9aa1 2a3c 44ee 9fbb 0f79 cd3b 0503 803c
000000a0: 4d67 22bc 08c4 813b ae5a 543c becf 20ba
000000b0: 58ae f13b 8b3f a03c 1716 0b3b bc69 a63c
000000c0: 46a1 313b 15da c9bc 6bd3 cebc 72df d03b
000000d0: ccbf 83bb dd3e 05bc 65e0 143c 0bc1 503c
000000e0: 1daf 5e3c bf6e 083d 8536 cd3c adcc 183c
000000f0: b55c 813b 10d7 93bc 580e 3b3a 924a 0a3b
00000100: 74b1 5dbc 8656 6e3c 8e46 35bb 1f69 2f3c
00000110: 22b6 38bc e583 043d 91ba 69bc 6be5 883c
00000120: b448 0f3c 1538 1e3c 2534 793c c004 25bc
00000130: e9b1 f5bb 83d0 373b 167e ecbc 4cfe 9cbc
00000140: c51b c3bc 1e0c cf3c dc30 ef3c 0c9a efbc
00000150: 6e55 b9bb 6e28 3fbb 2c9f 943b f409 6abb
00000160: 5a31 083c b0e8 e1bb b602 0abc 4e79 0dbb
00000170: dc3b 4ebc 2435 00bb cf58 4a3c 79f3 d53b
00000180: 0a7a 393c b4dc 1cbb 42a0 24bc eed8 a8bc
00000190: 228d 753c 38e1 01bc c58e d43c 756b b03c
000001a0: 2c94 a539 d621 7f3c ef9f 2fbc 0c50 a83b
000001b0: af64 99bc 3df8 08bc a8ff 863b c979 223b
000001c0: eae6 bcbc 1c34 93bc 173d 683c a9cf 63bb
000001d0: 4357 b3bc 2a0a b23c 6f96 033b 92e4 fa39
000001e0: 8356 0bbc c75d 06bb bd76 f5bb 772f 59bb
000001f0: b26b 11ba 54d8 2f3b 2f2b 943c 0bc3 f83a
00000200: 6697 9c3c ba49 dcbb 9ed4 83bc c8df 803b
00000210: b15c 803c 3bb1 fb3c 16c2 7a3c c1a6 9ebc
00000220: 7cf8 363b f214 1c3c feaf 0bbc 25ce 08bc
00000230: 2c4e 48bc 3a52 a2bc 3d03 373a 76e7 1d3c
00000240: 0202 d53c 0bbd b63a 25e2 1fbc b2ca 2a3b
00000250: e28c 0fbc fb39 82bb 86d2 513c 1911 f0bb
00000260: 6cd3 9bbc f5c0 75b9 3e7f e43c c2f4 5e3c
00000270: 9a5a 06bb ba3a 2fbc 15f6 44bc f38e 1e3c
00000280: 2d36 81bb 097c cfbb 4577 153c bc71 5cbc
00000290: 730b 343c 5b9c 26bc 8d79 9d3b dff8 e93b
000002a0: c4c8 6dbc dde6 77bc 842e 90bc 43b7 853c
000002b0: 4c9d 173c 1556 b6bc 1a78 0b3c 3f24 f8bb
000002c0: 6736 4abc fe05 513b 7259 003c 1292 92bb
000002d0: 6e4a b03c c2a0 58bc b7ba 53bc 1c31 363c
000002e0: cb2c 353c 700f e33c 68d0 773c 9688 7c3c
000002f0: 8e39 6abc ea81 46bc 24f0 94b9 aee8 9cbc
00000300: 578d 5abc e93a 213d b874 2f3c 3895 833c
00000310: 4724 be3a 9076 e8bc eb78 76bc a4d2 afb9
00000320: d0d6 ce3c 235a 82bc 3583 2f3c 7831 b93c
00000330: fe4a ae3c c6fd ea3c d288 89bc ffac 3d3b
00000340: 3c9d 42bb 79fc 023c c2cb 9e3c 3eb6 4e3b
00000350: 2fd6 553b 9c20 963b e768 413c 3bfd 673c
00000360: e8a2 64bc 6c70 fe3c 7f78 12bb 1f61 e2bc
00000370: beb7 c33c 35e6 abba 7be9 9f3c 0bd4 8bbb
00000380: 17b2 d83a cb76 9abc f592 b0bc b192 d63c
00000390: 7c72 80bc 8a7a 48bd a5a8 823c 6c64 06bd
000003a0: 397c b13c 228e 0c3d 0d82 223d 333b 5c3c
000003b0: d35e 62bb d7bb 7dba 8ecf 11bd 4b9a 96bc
000003c0: beb6 bdba bfa1 933a 1600 8c3c dbb2 42bc
000003d0: 695d 60bc f5a0 82bc 193a 7d3c 1e60 dabc
000003e0: 12b2 9e3c 57d5 4cbd 8dfd 65bc 0893 bc3c
000003f0: 5bb2 da3c 90e9 803c e4c1 1ebc c2b1 9a3c

action_model._discrete_distribution.branches.0.bias f4 [5]
0.009125901 0.004316752 -0.002242782 0.0074229715 -0.020865407
00000000: ce84 153c 8a73 8d3b a3fb 12bb 663c f33b
00000010: eeed aabc
