Assets/results/Maze13/Mouse/Mouse-250044.pt (torch, 721424 bytes, 33 tensors)

network_body._body_endoder.seq_layers.0.weight f4 [64, 45]
0	0xbe045f90	-0.12927079
1	0xbdc11f37	-0.09429782
2	0xbc938153	-0.018006003
3	0x3e04fb72	0.12986544
4	0x3dc48744	0.09596112
5	0x3e763433	0.2404335
6	0x3e359b1a	0.17734948
7	0xbd3fc7c5	-0.046821374
8	0x3c5c20bc	0.013435539
9	0xbecb5b07	-0.39717886
10	0x3d736c05	0.059429187
11	0x3e5454e2	0.20735505
12	0xbdc9a271	-0.09845436
13	0x3dd6c18e	0.104861364
14	0xbd9753be	-0.073890194
15	0x3d975e5e	0.07391046
16	0xbdc9ebb3	-0.09859409
17	0x3d8e5e1c	0.06951544
18	0x3d56000e	0.052246146
19	0x3dd548e7	0.10414296
20	0xbe5f7ef2	-0.2182577
21	0xbe0ebe04	-0.13939673
22	0xbdb9c48a	-0.0907069
23	0xbe45716f	-0.19281553
24	0xbde0ad7b	-0.10970589
25	0x3e41f1e6	0.18939933
26	0xbe4eabaf	-0.2018268
27	0xbdda362c	-0.10654864
28	0x39cb5ce6	0.00038788392
29	0xbeaf77f2	-0.342712
30	0xba24fd7a	-0.00062938745
31	0xbd830b56	-0.063986465
32	0xbd0e5597	-0.034749594
33	0x3db88c5e	0.09011148
34	0x3d91ac73	0.0711297
35	0x3dd36a77	0.10323041
36	0xbe353627	-0.17696439
37	0x3d362d95	0.044477064
38	0xbd85f72c	-0.06541285
39	0x3ca2deca	0.019881625
40	0xbd8ef610	-0.069805264
41	0xbd893d88	-0.06701189
42	0xbd066855	-0.032814343
43	0x3de412b2	0.11136378
44	0x3e3d35c1	0.18477537
45	0xbdf7a538	-0.1209206
46	0xbba6ce55	-0.0050905147
47	0x3e2a460b	0.16628282
48	0xbd5a9166	-0.05336132
49	0x3d39550e	0.04524713
50	0x3e56c228	0.20972502
51	0x3d50077e	0.050788395
52	0xbdd2536f	-0.1026982
53	0x3d1b7df6	0.037961923
54	0x3dfaba61	0.1224258
55	0xbe3b2288	-0.18274891
56	0x3d82f78b	0.06394871
57	0x3db323a0	0.08747029
58	0x3e5032ce	0.2033188
59	0x3e207036	0.15667805
60	0xbe666606	-0.22499856
61	0x3e1b7e89	0.15184988
62	0xbd0ba529	-0.034093056
63	0x3b85612e	0.0040704226
64	0x3d41eb10	0.047343314
65	0x3e3047cd	0.1721489
66	0x3e3d2960	0.18472815
67	0xbb668167	-0.0035172345
68	0x3badafcb	0.005300497
69	0xbdad2aed	-0.08455453
70	0x3bad56a8	0.0052898712
71	0xbe0bdffc	-0.13659662
72	0xb97f9370	-0.0002437362
73	0x3e8e7717	0.27825233
74	0x3e1d48f5	0.15359862
75	0x3e18980a	0.14901748
76	0x3bad761e	0.0052936217
77	0x3e7111be	0.23541924
78	0x3e724843	0.23660378
79	0xbe760285	-0.24024399
80	0x3e198887	0.14993487
81	0x3d67b73d	0.056571234
82	0x3e047e99	0.12938918
83	0xbe914ad0	-0.2837739
84	0x3d274c11	0.040844027
85	0xbdb1e6c7	-0.086865954
86	0x3e3a7c23	0.18211417
87	0xbeb0652b	-0.34452185
88	0xbcf2caa5	-0.029637644
89	0xbdeb48f5	-0.11488525
90	0x3deb90ef	0.11502253
91	0x3d0e6b00	0.034770012
92	0x3e1aa5d6	0.15102324
93	0xbaa9c35e	-0.0012951901
94	0xbdb9694f	-0.09053289
95	0xbbc0c6ea	-0.0058830874
96	0x3c1d789c	0.009611275
97	0xbd388e3b	-0.045057517
98	0x3d5a452f	0.053288635
99	0xbd18a8de	-0.03727042
100	0x3dda7de2	0.106685415
101	0xbdda75af	-0.106669776
102	0xbe3a123b	-0.18171017
103	0x3dc70e2f	0.09719502
104	0xbca83875	-0.020534733
105	0x3d8a2b79	0.06746573
106	0xbd85c3ca	-0.065314844
107	0x3e1fe17f	0.15613364
108	0xbe25a539	-0.16176309
109	0xbe0084ff	-0.12550734
110	0x3e63a364	0.22230297
111	0xbe166884	-0.14688307
112	0xbdc5262b	-0.096264206
113	0x3d992195	0.074771084
114	0xbba8bd9e	-0.0051495573
115	0xbc9a4ef2	-0.018836472
116	0x3bb4b099	0.005514216
117	0xbe11bcbb	-0.14232151
118	0xbb824f11	-0.0039767106
119	0xbe7e87d4	-0.24856502
120	0xbd4d557d	-0.050130356
121	0x3e3c3515	0.18379624
122	0x3e33f4a0	0.17573786
123	0xbe13fd7d	-0.14452167
124	0x3ea86d86	0.3289606
125	0x3d4d20cd	0.05008011
126	0x3c76503d	0.015033779
127	0x3e1a1c0c	0.15049762
128	0x3d764bb0	0.060130775
129	0xbe5708d1	-0.20999457
130	0x3df8fa6c	0.12157139
131	0x3e8697f8	0.26287818
132	0x3cd649f7	0.026158316
133	0x3e4ed619	0.2019886
134	0x3cd25c98	0.025678918
135	0xbe881b08	-0.26583123
136	0xbdc72cf9	-0.09725375
137	0xbdd9ade0	-0.10628867
138	0x3d7d9ec4	0.06191899
139	0x3e8e8fe5	0.27844158
140	0xbde60f01	-0.112333305
141	0x3d89b069	0.06723101
142	0xbd24598c	-0.04012446
143	0xbe9962bb	-0.29958138
144	0xbd833778	-0.06407064
145	0x3a615a7c	0.0008596552
146	0xbd8eda61	-0.06975246
147	0xbe2aebe9	-0.16691555
148	0x3e8f55fe	0.27995294
149	0xbe3befdb	-0.18353216
150	0x3cf93e60	0.03042525
151	0xbd7b96f6	-0.061423264
152	0xbe33a844	-0.17544657
153	0x3df98010	0.12182629
154	0x3e1226af	0.14272569
155	0xbd4a58c7	-0.04940107
156	0x3cf47e0a	0.029845256
157	0xbc3a3d89	-0.01136721
158	0x3ea1afc8	0.31579423
159	0x3f0605b9	0.5235248
160	0x3e3c963f	0.1841669
161	0xbe950279	-0.2910345
162	0xbd67a050	-0.05654937
163	0x3d5623fa	0.052280404
164	0x3e157944	0.1459704
165	0x3d869301	0.065710075
166	0xbd691f15	-0.056914408
167	0x3d44fdd5	0.048093636
168	0xbe1816cf	-0.14852451
169	0xbe19c69a	-0.15017167
170	0xbd683d32	-0.056698985
171	0x3b28b953	0.0025745227
172	0xbe099138	-0.13434303
173	0xbe13777d	-0.1440105
174	0x3d374bdb	0.044750076
175	0xbd052aa9	-0.032511387
176	0x3e303039	0.17205895
177	0x3e569667	0.20955811
178	0xbdeb3441	-0.11484576
179	0x3e1e365f	0.15450428
180	0xbe4a8055	-0.19775517
181	0xbca2913b	-0.019844642
182	0x3d225de0	0.039640307
183	0x3e5d6786	0.21621522
184	0xbe863f7d	-0.26220313
185	0x3db7fe4c	0.0898405
186	0xbe117adb	-0.14207022
187	0xbdfcef90	-0.123503804
188	0xbc219cb9	-0.009864026
189	0x3d87b038	0.06625408
190	0xbe3928fb	-0.18082039
191	0x3daf01d6	0.08545272
192	0x3d037b48	0.032099992
193	0xbcce8bc1	-0.025213124
194	0x3d9a128b	0.07523068
195	0xbe08b1f7	-0.13349138
196	0xbda91003	-0.08255007
197	0xbd6cdf1f	-0.057829972
198	0xbe132472	-0.14369372
199	0x3e8c671d	0.2742242
200	0x3decfdb8	0.115718305
201	0xbdde0995	-0.108416714
202	0xbedf25bd	-0.4358348
203	0xbdb61cfa	-0.088922456
204	0x3ded13f2	0.1157607
205	0x3e1f6713	0.15566663
206	0xbe2449f8	-0.16043842
207	0xbe4798d9	-0.194919
208	0xbe08e5cb	-0.13368909
209	0x3cabb7ca	0.02096166
210	0xbe95d420	-0.292634
211	0x3c8da733	0.01729164
212	0xbdfed7bd	-0.124434926
213	0xbdf41a3e	-0.11919068
214	0xbdf5e0ed	-0.12005792
215	0xbe6e9aa2	-0.23301175
216	0x3e52f575	0.20601447
217	0x3e088727	0.13332807
218	0x3e8d3993	0.27582988
219	0xbca1cbd1	-0.019750508
220	0xbdcb5d79	-0.09929938
221	0xbd724a34	-0.059152797
222	0x3e3661da	0.17810765
223	0x3d808386	0.06275086
224	0xbe18c1f4	-0.14917737
225	0xbd6f69e8	-0.05845061
226	0xbea60684	-0.32426846
227	0xbe370e24	-0.17876488
228	0x3ca33189	0.019921081
229	0xbe2e202a	-0.17004457
230	0x3e30a930	0.1725204
231	0xbc61ccab	-0.013781707
232	0xbd25bef8	-0.040465325
233	0x3d4adbfc	0.0495262
234	0x3dc27cdb	0.094964705
235	0xbd8f03a9	-0.0698312
236	0x3d57b9ec	0.052667543
237	0x3d9eb217	0.07748812
238	0x3e81a8b2	0.25324017
239	0xbe9001d0	-0.28126383
240	0xbd7507d1	-0.059821907
241	0x3e166e25	0.14690454
242	0x3e3b78d9	0.18307818
243	0xbd89b071	-0.06723107
244	0xbd1a9ce9	-0.037747297
245	0x3d9df283	0.07712271
246	0xbe1722e3	-0.14759402
247	0xbe8e8b9b	-0.27840886
248	0xbe16e61a	-0.14736214
249	0xbdf90441	-0.121590145
250	0x3da17145	0.078829326
251	0x3e679715	0.22616227
252	0xbe1ebb37	-0.15501104
253	0xbe5ca065	-0.2154556
254	0xbc928728	-0.017886713
255	0xbe7dbf8e	-0.24780104

network_body._body_endoder.seq_layers.0.bias f4 [64]
0	0xbc46df4f	-0.012138202
1	0x3c8acdf4	0.01694391
2	0x3c95bdf0	0.018279046
3	0x3b6286a3	0.0034565113
4	0xbbd006b1	-0.006348454
5	0x3bdc5cd2	0.006724932
6	0xbc2b6021	-0.010459931
7	0x3c83db62	0.01609582
8	0x3b800274	0.0039065424
9	0x3b9a2b93	0.0047049015
10	0x3cb40ecf	0.021979718
11	0x3c1caa43	0.009562078
12	0xbb866b6a	-0.00410216
13	0xba094ff1	-0.00052380475
14	0xbb4110dc	-0.0029459512
15	0xbab3138c	-0.0013662442
16	0xbb800a80	-0.0039075017
17	0x3c3c11a9	0.01147882
18	0x3bf68027	0.007522601
19	0x3c29c516	0.01036193
20	0x3ca33063	0.019920534
21	0x3c201662	0.0097709615
22	0x3bbb7506	0.0057207374
23	0xbb279eb1	-0.0025576765
24	0x3aef2f5d	0.0018248368
25	0xba1854f4	-0.0005810999
26	0x3bfcd3d0	0.0077156797
27	0xbc96d18f	-0.018410472
28	0x3c019f37	0.007911495
29	0xba95e728	-0.0011436688
30	0x3c78c9c2	0.015184822
31	0x3b1f3c75	0.002429751
32	0x3c6f7441	0.014615119
33	0x3bf81f24	0.0075720716
34	0xbc262de4	-0.010142777
35	0x3c4e0a48	0.012575693
36	0x3a8b8355	0.0010643998
37	0x3bbc6452	0.005749264
38	0x3c24a441	0.010048927
39	0x3c779764	0.015111778
40	0x3c881ce0	0.016615331
41	0x3c6c68d6	0.014429292
42	0x3c66e865	0.014093493
43	0x398738b9	0.00025791468
44	0x3b9ce898	0.0047884695
45	0x3bb314b2	0.0054651136
46	0x3c22ec2a	0.009944001
47	0x3bea7f3e	0.0071562817
48	0x3add1eb2	0.001687011
49	0xbb9c000b	-0.0047607473
50	0x3adcced0	0.0016846303
51	0x3c82fd40	0.0159899
52	0x3b9214e0	0.004458055
53	0x3c15353f	0.009106933
54	0xbafcfdcc	-0.0019301712
55	0x3bc857b8	0.0061139725
56	0x3c230a3b	0.00995117
57	0x3c89e30e	0.0168319
58	0x3baa10b6	0.0051899804
59	0x3c61a475	0.01377212
60	0x3c3bd344	0.011463944
61	0x3c0fcbe5	0.00877664
62	0xbc0bdc25	-0.008536373
63	0x3cb3be85	0.021941433

action_model._discrete_distribution.branches.0.weight f4 [5, 64]
0	0x3c1f0581	0.009705902
1	0xbc1e73db	-0.009671177
2	0x3caf3bbb	0.021390786
3	0x3b43f0d9	0.0029898195
4	0xbaf3d2dd	-0.0018602271
5	0xbc4f8bbf	-0.012667595
6	0x3c7f70e4	0.01559088
7	0xbc8cfdad	-0.017210806
8	0xbcbbcc29	-0.0229245
9	0xbb028445	-0.0019915265
10	0x3b90e2b2	0.0044215554
11	0x3c28c782	0.010301473
12	0xbd027831	-0.031852905
13	0xbc05682a	-0.00814251
14	0x3c98c148	0.018646851
15	0x3c86055c	0.016359977
16	0xbbace66d	-0.0052764923
17	0xbc3ae40c	-0.01140691
18	0xbc5bcd9d	-0.013415721
19	0x3c23c69b	0.009996082
20	0x3c8d9684	0.017283686
21	0x3c02f14c	0.0079921
22	0x3c9a68fb	0.018848887
23	0xbc105c87	-0.008811123
24	0x3b5bd0f2	0.003354129
25	0xbd212ec9	-0.03935126
26	0xbc2bff39	-0.010497862
27	0xbc1a92f3	-0.0094344495
28	0x3bb46dba	0.0055062445
29	0x3bbe1809	0.005801205
30	0x3cafe8f7	0.021473391
31	0x3bf40ab9	0.0074475673
32	0xbc001ef2	-0.007819878
33	0x3cc51111	0.02405599
34	0xbc35cc67	-0.011096097
35	0x3c0e1b4f	0.008673503
36	0x3c2aa19a	0.010414505
37	0xbb9fee44	-0.0048806984
38	0x3bcd790f	0.006270535
39	0x3c800305	0.01562644
40	0xbc22674d	-0.009912324
41	0x3b81c408	0.0039601363
42	0x3c545aae	0.012961073
43	0xba20cfbe	-0.00061344716
44	0x3bf1ae58	0.0073755197
45	0x3ca03f8b	0.01956155
46	0x3b0b1617	0.0021222883
47	0x3ca669bc	0.02031409
48	0x3b31a146	0.0027104183
49	0xbcc9da15	-0.024640122
50	0xbcced36b	-0.025247296
51	0x3bd0df72	0.006374293
52	0xbb83bfcc	-0.0040206667
53	0xbc053edd	-0.008132664
54	0x3c14e065	0.009086703
55	0x3c50c10b	0.0127413375
56	0x3c5eaf1d	0.013591555
57	0x3d086ebf	0.03330874
58	0x3ccd3685	0.025050411
59	0x3c18ccad	0.009326142
60	0x3b815cb5	0.003947819
61	0xbc93d710	-0.018046886
62	0x3a3b0e58	0.0007135621
63	0x3b0a4a92	0.0021101576
64	0xbc5db174	-0.013531078
65	0x3c6e5686	0.014546996
66	0xbb35468e	-0.0027660462
67	0x3c2f691f	0.010706215
68	0xbc38b622	-0.011273893
69	0x3d0483e5	0.032352347
70	0xbc69ba91	-0.014265672
71	0x3c88e56b	0.016710958
72	0x3c0f48b4	0.008745361
73	0x3c1e3815	0.009656926
74	0x3c793425	0.015210186
75	0xbc2504c0	-0.010071933
76	0xbbf5b1e9	-0.007498015
77	0x3b37d083	0.0028047867
78	0xbcec7e16	-0.028868716
79	0xbc9cfe4c	-0.019164227
80	0xbcc31bc5	-0.023816952
81	0x3ccf0c1e	0.025274333
82	0x3cef30dc	0.029198103
83	0xbcef9a0c	-0.02924826
84	0xbbb9556e	-0.005655936
85	0xbb3f286e	-0.0029168385
86	0x3b949f2c	0.0045355763
87	0xbb6a09f4	-0.00357115
88	0x3c08315a	0.008312548
89	0xbbe1e8b0	-0.0068941936
90	0xbc0a02b6	-0.008423498
91	0xbb0d794e	-0.0021587196
92	0xbc4e3bdc	-0.012587514
93	0xbb003524	-0.0019562924
94	0x3c4a58cf	0.012350275
95	0x3bd5f379	0.0065292683
96	0x3c397a0a	0.0113206
97	0xbb1cdcb4	-0.002393526
98	0xbc24a042	-0.010047974
99	0xbca8d8ee	-0.020611253
100	0x3c758d22	0.014987262
101	0xbc01e138	-0.0079272315
102	0x3cd48ec5	0.025946984
103	0x3cb06b75	0.021535615
104	0x39a5942c	0.0003158165
105	0x3c7f21d6	0.015572032
106	0xbc2f9fef	-0.0107192835
107	0x3ba8500c	0.0051364955
108	0xbc9964af	-0.018724767
109	0xbc08f83d	-0.008359966
110	0x3b86ffa8	0.004119832
111	0x3b2279c9	0.0024791828
112	0xbcbce6ea	-0.023059327
113	0xbc93341c	-0.017969184
114	0x3c683d17	0.014174721
115	0xbb63cfa9	-0.0034761226
116	0xbcb35743	-0.021892196
117	0x3cb20a2a	0.021733362
118	0x3b03966f	0.002007868
119	0x39fae492	0.00047854014
120	0xbc0b5683	-0.008504513
121	0xbb065dc7	-0.0020502673
122	0xbbf576bd	-0.0074909613
123	0xbb592f77	-0.0033139864
124	0xba116bb2	-0.0005547359
125	0x3b2fd854	0.0026831822
126	0x3c942b2f	0.018086998
127	0x3af8c30b	0.0018979026
128	0x3c9c9766	0.019115161
129	0xbbdc49ba	-0.006722656
130	0xbc83d49e	-0.016092595
131	0x3b80dfc8	0.003932927
132	0x3c805cb1	0.015669199
133	0x3cfbb13b	0.030724159
134	0x3c7ac216	0.015305063
135	0xbc9ea6c1	-0.019366624
136	0x3b36f87c	0.0027919104
137	0x3c1c14f2	0.009526478
138	0xbc0baffe	-0.0085258465
139	0xbc08ce25	-0.00834993
140	0xbc484e2c	-0.012225669
141	0xbca2523a	-0.0198146
142	0x3a37033d	0.00069813785
143	0x3c1de776	0.009637704
144	0x3cd50202	0.026001934
145	0x3ab6bd0b	0.0013941837
146	0xbc1fe225	-0.009758507
147	0x3b2acab2	0.0026060757
148	0xbc0f8ce2	-0.008761616
149	0xbb8239fb	-0.003974197
150	0x3c51d286	0.01280654
151	0xbbf01119	-0.007326257
152	0xbc9bd36c	-0.019021712
153	0xb975c0f5	-0.00023436903
154	0x3ce47f3e	0.027892705
155	0x3c5ef4c2	0.0136081595
156	0xbb065a9a	-0.002050078
157	0xbc2f3aba	-0.010695154
158	0xbc44f615	-0.012021561
159	0x3c1e8ef3	0.009677636
160	0xbb81362d	-0.003943226
161	0xbbcf7c09	-0.006331925
162	0x3c157745	0.009122674
163	0xbc5c71bc	-0.013454851
164	0x3c340b73	0.010989058
165	0xbc269c5b	-0.010169114
166	0x3b9d798d	0.0048057497
167	0x3be9f8df	0.0071402634
168	0xbc6dc8c4	-0.014513198
169	0xbc77e6dd	-0.015130726
170	0xbc902e84	-0.017600305
171	0x3c85b743	0.016322738
172	0x3c179d4c	0.009253811
173	0xbcb65615	-0.022257844
174	0x3c0b781a	0.008512521
175	0xbbf8243f	-0.0075726802
176	0xbc4a3667	-0.012342072
177	0x3b5105fe	0.003189444
178	0x3c005972	0.007833825
179	0xbb929212	-0.0044729793
180	0x3cb04a6e	0.021519866
181	0xbc58a0c2	-0.013221921
182	0xbc53bab7	-0.012922934
183	0x3c36311c	0.011120107
184	0x3c352ccb	0.011058043
185	0x3ce30f70	0.027717322
186	0x3c77d068	0.0151253715
187	0x3c7c8896	0.015413424
188	0xbc6a398e	-0.014295949
189	0xbc4681ea	-0.012115935
190	0xb994f024	-0.00028407678
191	0xbc9ce8ae	-0.01915392
192	0xbc5a8d57	-0.013339362
193	0x3d213ae9	0.03936282
194	0x3c2f74b8	0.01070898
195	0x3c839538	0.016062364
196	0x3abe2447	0.0014506661
197	0xbce87690	-0.028376848
198	0xbc7678eb	-0.0150434775
199	0xb9afd2a4	-0.0003353554
200	0x3cced6d0	0.025248915
201	0xbc825a23	-0.015912121
202	0x3c2f8335	0.010712435
203	0x3cb93178	0.022606596
204	0x3cae4afe	0.021275993
205	0x3ceafdc6	0.028685462
206	0xbc8988d2	-0.016788874
207	0x3b3dacff	0.0028942225
208	0xbb429d3c	-0.002969577
209	0x3c02fc79	0.0079947645
210	0x3c9ecbc2	0.019384269
211	0x3b4eb63e	0.003154173
212	0x3b55d62f	0.0032628884
213	0x3b96209c	0.004581524
214	0x3c4168e7	0.011804796
215	0x3c67fd3b	0.014159496
216	0xbc64a2e8	-0.0139548555
217	0x3cfe706c	0.031059466
218	0xbb12787f	-0.0022349653
219	0xbce2611f	-0.027634202
220	0x3cc3b7be	0.023891326
221	0xbaabe635	-0.0013114872
222	0x3c9fe97b	0.019520512
223	0xbb8bd40b	-0.004267221
224	0x3ad8b217	0.0016532567
225	0xbc9a76cb	-0.018855473
226	0xbcb092f5	-0.02155445
227	0x3cd692b1	0.026192995
228	0xbc80727c	-0.01567959
229	0xbd487a8a	-0.048944987
230	0x3c82a8a5	0.015949557
231	0xbd06646c	-0.032810614
232	0x3cb17c39	0.02166568
233	0x3d0c8e22	0.034315236
234	0x3d22820d	0.039674807
235	0x3c5c3b33	0.013441849
236	0xbb625ed3	-0.0034541383
237	0xba7dbbd7	-0.00096791744
238	0xbd11cf8e	-0.03559833
239	0xbc969a4b	-0.01838412
240	0xbabdb6be	-0.0014474017
241	0x3a93a1bf	0.0011263414
242	0x3c8c0016	0.017089885
243	0xbc42b2db	-0.011883463
244	0xbc605d69	-0.013694146
245	0xbc82a0f5	-0.01594589
246	0x3c7d3a19	0.015455746
247	0xbcda601e	-0.02665716
248	0x3c9eb212	0.01937202
249	0xbd4cd557	-0.050008144
250	0xbc65fd8d	-0.014037502
251	0x3cbc9308	0.023019329
252	0x3cdab25b	0.026696375
253	0x3c80e990	0.015736371
254	0xbc1ec1e4	-0.009689782
255	0x3c9ab1c2	0.01888359

action_model._discrete_distribution.branches.0.bias f4 [5]
0	0x3c1584ce	0.009125901
1	0x3b8d738a	0.004316752
2	0xbb12fba3	-0.002242782
3	0x3bf33c66	0.0074229715
4	0xbcaaedee	-0.020865407

exp_avg f4 [64, 45]
0	0xb899e6bf	-7.338588e-05
1	0x00000004	6e-45
2	0xb9806b40	-0.0002449397
3	0xb92a8d67	-0.0001626514
4	0xb97b3a56	-0.00023958957
5	0x38715819	5.7540925e-05
6	0xb97e27d8	-0.0002423817
7	0xb9980ca3	-0.00029001114
8	0xb97e5ec1	-0.00024258626
9	0xb899e6bf	-7.338588e-05
10	0x00000004	6e-45
11	0xb9830caf	-0.00024995717
12	0xb927e677	-0.00016012216
13	0xb9780d09	-0.00023655979
14	0xb9077321	-0.00012917492
15	0xb94653c1	-0.00018913952
16	0xb9358c78	-0.00017313834
17	0xb97faa55	-0.00024382149
18	0xb899e6bf	-7.338588e-05
19	0x00000004	6e-45
20	0xb9857a60	-0.00025458913
21	0xb91971a1	-0.00014633547
22	0xb8a979a1	-8.081203e-05
23	0xb8a1a0e2	-7.707045e-05
24	0xb981964b	-0.00024716774
25	0xb9867704	-0.00025647145
26	0xb978972e	-0.00023707442
27	0xb899e6bf	-7.338588e-05
28	0x00000004	6e-45
29	0xb98418f9	-0.00025195608
30	0xb9063769	-0.00012799878
31	0xb978b268	-0.00023717585
32	0xb9068ece	-0.00012832435
33	0xb97839f4	-0.00023672712
34	0xb9611cf7	-0.00021468462
35	0xb967b5fc	-0.00022097671
36	0xb899e6bf	-7.338588e-05
37	0x00000004	6e-45
38	0xb98a25da	-0.00026349613
39	0xb90d438e	-0.00013471974
40	0xb99bf08a	-0.0002974312
41	0x38b4aecd	8.615628e-05
42	0xb8f0827b	-0.00011468396
43	0xb949fd40	-0.00019263197
44	0xb9740a64	-0.00023273524
45	0x396ba2c7	0.00022471986
46	0x80000004	-6e-45
47	0x3a386131	0.00070335256
48	0x3a11423b	0.000554118
49	0x3a19b1b1	0.0005862965
50	0x396c09f3	0.0002251042
51	0x3a504df3	0.00079461857
52	0x3a7c5bb8	0.0009626704
53	0x3a44732b	0.0007493968
54	0x396ba2c7	0.00022471986
55	0x80000004	-6e-45
56	0x3a3d5250	0.00072220434
57	0x3a11be6e	0.0005559687
58	0x3a2ebe7d	0.0006665958
59	0x3a0a85b8	0.0005284208
60	0x3a140eea	0.00056479743
61	0x39faecbf	0.00047860105
62	0x3a4761c6	0.0007605817
63	0x396ba2c7	0.00022471986
64	0x80000004	-6e-45
65	0x3a3b17e1	0.0007137042
66	0x3a0aa11f	0.0005288291
67	0x39bd4727	0.00036101902
68	0x39d130ed	0.0003990004
69	0x3a575f61	0.00082158117
70	0x3a0b0a38	0.0005303952
71	0x3a418e43	0.00073835644
72	0x396ba2c7	0.00022471986
73	0x80000004	-6e-45
74	0x3a3a0e04	0.00070974254
75	0x3a000d5e	0.00048848044
76	0x3a1e215d	0.0006032193
77	0x3a444ece	0.00074885495
78	0x3a7736ad	0.00094304496
79	0x3a2da26f	0.0006623631
80	0x3a38ed45	0.0007054399
81	0x396ba2c7	0.00022471986
82	0x80000004	-6e-45
83	0x3a41e56a	0.0007396551
84	0x3a0098b9	0.000490557
85	0x3a21740d	0.00061589555
86	0x39920c6d	0.00027856548
87	0x39ece8cb	0.00045186872
88	0x3a5bfb92	0.0008391674
89	0x3a3dfb55	0.0007247229
90	0xb8d960d3	-0.00010365401
91	0x00000004	6e-45
92	0xb9ae1c43	-0.00033208923
93	0xb9869d68	-0.00025675748
94	0xb9abaeca	-0.0003274589
95	0xb9cc7e74	-0.00039004127
96	0xb9e363da	-0.0004337121
97	0xb9d17062	-0.00039947318
98	0xb9b421c9	-0.00034357447
99	0xb8d960d3	-0.00010365401
100	0x00000004	6e-45
101	0xb99fda86	-0.00030489656
102	0xb9841998	-0.0002519607
103	0xb9c4c11e	-0.00037527917
104	0xb9d266ce	-0.00040130917
105	0xba074e46	-0.0005161505
106	0xb967e163	-0.0002211384
107	0xb9a82c4c	-0.0003207646
108	0xb8d960d3	-0.00010365401
109	0x00000004	6e-45
110	0xb9974c7d	-0.00028857953
111	0xb9896c4b	-0.0002621136
112	0xba084fbc	-0.00051998696
113	0xb9ee1ffc	-0.00045418728
114	0xb9e1fcf5	-0.00043103812
115	0xb90c9aad	-0.00013409062
116	0xb9a6660a	-0.00031738012
117	0xb8d960d3	-0.00010365401
118	0x00000004	6e-45
119	0xb99fff36	-0.0003051699
120	0xb9a35119	-0.00031150205
121	0xb9fa9069	-0.0004779131
122	0xb9e970b6	-0.000445252
123	0xb9bb5115	-0.0003572783
124	0xb9144f7c	-0.0001414399
125	0xb9beb32f	-0.00036373126
126	0xb8d960d3	-0.00010365401
127	0x00000004	6e-45
128	0xb98ed355	-0.00027241805
129	0xb99a464f	-0.00029425553
130	0x374675ba	1.182913e-05
131	0xba187f56	-0.00058173144
132	0xba084d14	-0.0005199474
133	0xba1f8fc6	-0.00060867926
134	0xb9ace7d7	-0.0003297913
135	0x383e4401	4.5362864e-05
136	0x00000004	6e-45
137	0x392499eb	0.00015697598
138	0x38e5efcf	0.00010964239
139	0x39052bcc	0.00012700184
140	0x373abb8a	1.1130129e-05
141	0x393dcc32	0.00018100513
142	0x3969a41e	0.0002228175
143	0x39273e66	0.00015949606
144	0x383e4401	4.5362864e-05
145	0x00000004	6e-45
146	0x392990f8	0.00016171101
147	0x38e7321d	0.00011024273
148	0x3923e9c2	0.00015631973
149	0x3881f2db	6.196435e-05
150	0x39004d6e	0.00012235876
151	0x38f36d7d	0.00011607537
152	0x392a253c	0.00016226334
153	0x383e4401	4.5362864e-05
154	0x00000004	6e-45
155	0x3927a257	0.00015986837
156	0x38dbb2bc	0.00010476026
157	0x3898608c	7.265908e-05
158	0x385cb116	5.261701e-05
159	0x3928f83e	0.00016114206
160	0x390ce82e	0.00013437934
161	0x392511b6	0.00015742224
162	0x383e4401	4.5362864e-05
163	0x00000004	6e-45
164	0x39239310	0.00015599676
165	0x38cf5503	9.886364e-05
166	0x3902a065	0.00012457518
167	0x39106e35	0.00013773965
168	0x39429ccf	0.00018559697
169	0x3929aef3	0.0001618227
170	0x391d1d39	0.00014983573
171	0x383e4401	4.5362864e-05
172	0x00000004	6e-45
173	0x3928bb07	0.00016091402
174	0x38d1164b	9.970049e-05
175	0x3907d716	0.00012954729
176	0x383711cd	4.364718e-05
177	0x38e40914	0.00010873578
178	0x39441e25	0.00018703246
179	0x3920f78a	0.00015351005
180	0xb7505fdf	-1.2420088e-05
181	0x00000004	6e-45
182	0xb82a59ac	-4.0614672e-05
183	0xb7d82fcd	-2.5771466e-05
184	0xb833f5e3	-4.2905926e-05
185	0xb8187c5b	-3.635544e-05
186	0xb8479492	-4.7583664e-05
187	0xb869aac9	-5.5710585e-05
188	0xb822be8b	-3.8801267e-05
189	0xb7505fdf	-1.2420088e-05
190	0x00000004	6e-45
191	0xb82da532	-4.1400264e-05
192	0xb7c8de40	-2.3945351e-05
193	0xb7a56331	-1.9715722e-05
194	0xb7e54541	-2.7331176e-05
195	0xb87513ad	-5.8430876e-05
196	0xb88cfe8c	-6.723133e-05
197	0xb820374c	-3.8198472e-05
198	0xb7505fdf	-1.2420088e-05
199	0x00000004	6e-45
200	0xb826bbda	-3.9752435e-05
201	0xb7ce2567	-2.457453e-05
202	0x3716675a	8.96476e-06
203	0xb85b3c7c	-5.227e-05
204	0xb855eaf3	-5.100197e-05
205	0xb8948639	-7.082191e-05
206	0xb81d56d0	-3.7512567e-05
207	0xb7505fdf	-1.2420088e-05
208	0x00000004	6e-45
209	0xb82a605e	-4.0620907e-05
210	0xb7c5758b	-2.3538965e-05
211	0xb7874b0d	-1.6128202e-05
212	0xb89091a1	-6.8935806e-05
213	0xb81f3f4e	-3.796751e-05
214	0xb82fcbde	-4.1913117e-05
215	0xb81cb260	-3.7359423e-05
216	0xb7505fdf	-1.2420088e-05
217	0x00000004	6e-45
218	0xb82f8d61	-4.185492e-05
219	0xb7c3b7b8	-2.3331362e-05
220	0xb7e7f1a7	-2.7649874e-05
221	0xb7fd875f	-3.0222987e-05
222	0xb80888c3	-3.2552296e-05
223	0xb859ee95	-5.195903e-05
224	0xb820548a	-3.8225706e-05
225	0xb816a9b7	-3.5920846e-05
226	0x00000004	6e-45
227	0xb9299dd5	-0.00016175893
228	0xb8f0c8a1	-0.00011481462
229	0xb8fac0d7	-0.00011956848
230	0x38c7e3b5	9.531473e-05
231	0xb8ec7e6c	-0.00011276905
232	0xb98d8d0e	-0.0002699871
233	0xb92c25eb	-0.00016417324
234	0xb816a9b7	-3.5920846e-05
235	0x00000004	6e-45
236	0xb93511df	-0.00017268163
237	0xb90766ac	-0.00012912852
238	0xb9088057	-0.00013017781
239	0x38b0d9f6	8.4329324e-05
240	0x382d16e4	4.1267733e-05
241	0xb94cc31a	-0.00019527637
242	0xb93e4d91	-0.00018148708
243	0xb816a9b7	-3.5920846e-05
244	0x00000004	6e-45
245	0xb934353a	-0.00017185966
246	0xb8fbec14	-0.00012012586
247	0xb88a2766	-6.587691e-05
248	0x37fd768f	3.0215158e-05
249	0xb916c660	-0.00014379015
250	0xb9553429	-0.00020332694
251	0xb9399d6f	-0.00017701623
252	0xb816a9b7	-3.5920846e-05
253	0x00000004	6e-45
254	0xb9270e3c	-0.00015931664
255	0xb8d0ac78	-9.950338e-05

exp_avg_sq f4 [64, 45]
0	0x33bd06ac	8.802212e-08
1	0x25c5b136	3.4294135e-16
2	0x353a80c8	6.94778e-07
3	0x35222955	6.040985e-07
4	0x35848975	9.874772e-07
5	0x3568c530	8.671368e-07
6	0x358a1c9c	1.0290128e-06
7	0x354f4483	7.7213207e-07
8	0x3576ca27	9.193631e-07
9	0x33bd06ac	8.802212e-08
10	0x25c5cae0	3.4311526e-16
11	0x353cd54f	7.034586e-07
12	0x3521bb58	6.0249795e-07
13	0x357f214a	9.5043345e-07
14	0x354dc2a6	7.66517e-07
15	0x3588a3bc	1.0180443e-06
16	0x3555f043	7.969831e-07
17	0x3577e772	9.235147e-07
18	0x33bd06ac	8.802212e-08
19	0x25c5cd83	3.4313313e-16
20	0x353e1477	7.0810296e-07
21	0x351fd2f6	5.9539104e-07
22	0x35674208	8.6150294e-07
23	0x353466c7	6.7204786e-07
24	0x358a354c	1.0297313e-06
25	0x357c9f1b	9.4108844e-07
26	0x357722a5	9.2065085e-07
27	0x33bd06ac	8.802212e-08
28	0x25c5d339	3.4317183e-16
29	0x353d4b6f	7.0517757e-07
30	0x35208550	5.979864e-07
31	0x35662062	8.57288e-07
32	0x3549104e	7.490206e-07
33	0x358d2077	1.0514767e-06
34	0x357d9292	9.446313e-07
35	0x3577087c	9.2027017e-07
36	0x33bd06ac	8.802212e-08
37	0x25c5d7b3	3.4320216e-16
38	0x353d89ae	7.0608337e-07
39	0x3520bed6	5.988235e-07
40	0x3570c3d0	8.969191e-07
41	0x355a0552	8.121907e-07
42	0x35807058	9.56944e-07
43	0x357ab4f9	9.339561e-07
44	0x357732d1	9.208862e-07
45	0x353c873b	7.0232244e-07
46	0x26fa12f1	1.7352369e-15
47	0x36bcdef4	5.6287918e-06
48	0x36ac2807	5.1306592e-06
49	0x370e434c	8.479528e-06
50	0x37008b3e	7.661814e-06
51	0x36e4f04b	6.8229033e-06
52	0x36b29bd4	5.322954e-06
53	0x36ffeeb2	7.62738e-06
54	0x353c873b	7.0232244e-07
55	0x26fa1f5b	1.7355734e-15
56	0x36bd81df	5.647758e-06
57	0x36ac570f	5.1361344e-06
58	0x370f05a3	8.524777e-06
59	0x3700ae6e	7.670007e-06
60	0x36d7e8c6	6.4345977e-06
61	0x36ae6d1c	5.198306e-06
62	0x37002b63	7.639496e-06
63	0x353c873b	7.0232244e-07
64	0x26fa1988	1.7354155e-15
65	0x36bd5ef5	5.6436934e-06
66	0x36acb186	5.146666e-06
67	0x370b5678	8.305178e-06
68	0x37003437	7.641552e-06
69	0x36e54e3d	6.83384e-06
70	0x36b0925a	5.2622463e-06
71	0x370060b8	7.651914e-06
72	0x353c873b	7.0232244e-07
73	0x26fa2453	1.735708e-15
74	0x36bc8604	5.618438e-06
75	0x36ad6cc1	5.1684624e-06
76	0x37094375	8.181542e-06
77	0x3707d367	8.095848e-06
78	0x36e95589	6.9538987e-06
79	0x36aeba8d	5.2073215e-06
80	0x37006490	7.652809e-06
81	0x353c873b	7.0232244e-07
82	0x26fa283e	1.7358142e-15
83	0x36bc90cc	5.619693e-06
84	0x36ad27d6	5.1604393e-06
85	0x3708b03e	8.147266e-06
86	0x370a7377	8.252325e-06
87	0x36cddd4a	6.1352375e-06
88	0x36b6699f	5.4363186e-06
89	0x37002f75	7.640444e-06
90	0x34994462	2.8548226e-07
91	0x2623bac9	5.6805126e-16
92	0x361e46fc	2.3585153e-06
93	0x35fcc976	1.8834096e-06
94	0x36586991	3.2247956e-06
95	0x36381045	2.7427607e-06
96	0x364bd261	3.0371814e-06
97	0x362df738	2.592291e-06
98	0x364695f7	2.959159e-06
99	0x34994462	2.8548226e-07
100	0x2623bed9	5.681063e-16
101	0x361ec53e	2.3658645e-06
102	0x35fc65b2	1.880506e-06
103	0x365af327	3.2626065e-06
104	0x363a78f6	2.7786568e-06
105	0x364952ab	2.9999453e-06
106	0x362bd7b9	2.5606553e-06
107	0x3646a8e3	2.9602604e-06
108	0x34994462	2.8548226e-07
109	0x2623c436	5.68179e-16
110	0x361e367a	2.3575544e-06
111	0x35fb3d13	1.8718732e-06
112	0x364f7861	3.0915473e-06
113	0x364597f7	2.9443743e-06
114	0x364bf63d	3.0392687e-06
115	0x3633e37d	2.6805494e-06
116	0x3645c1d5	2.9468113e-06
117	0x34994462	2.8548226e-07
118	0x2623c632	5.682059e-16
119	0x361da270	2.3489374e-06
120	0x35fadb32	1.8690246e-06
121	0x3659f1be	3.2476232e-06
122	0x364d9f66	3.0640163e-06
123	0x3642f0fc	2.9048524e-06
124	0x363d4459	2.8202978e-06
125	0x36452c8c	2.9381217e-06
126	0x34994462	2.8548226e-07
127	0x2623c005	5.681222e-16
128	0x361d46f3	2.343612e-06
129	0x35fc08b9	1.8778002e-06
130	0x3658dba2	3.2314351e-06
131	0x364cca9b	3.05163e-06
132	0x36440b3b	2.9212813e-06
133	0x363e598a	2.8364325e-06
134	0x3645911b	2.943975e-06
135	0x32dba39f	2.5569362e-08
136	0x254239e5	1.6846433e-16
137	0x345c79b3	2.053337e-07
138	0x34319ec1	1.6542164e-07
139	0x34a8fec5	3.1477808e-07
140	0x34791ee7	2.3201174e-07
141	0x3493e5a4	2.754797e-07
142	0x346205f0	2.105005e-07
143	0x348ae69a	2.5872288e-07
144	0x32dba39f	2.5569362e-08
145	0x25423aa7	1.684669e-16
146	0x345c99f7	2.0545109e-07
147	0x34328f6b	1.6629717e-07
148	0x34a6162e	3.0936047e-07
149	0x347adec2	2.3364103e-07
150	0x34949a3e	2.7679374e-07
151	0x3458f707	2.0206436e-07
152	0x348b484d	2.5943373e-07
153	0x32dba39f	2.5569362e-08
154	0x254236b9	1.6845358e-16
155	0x3458f114	2.0204271e-07
156	0x34328949	1.6627486e-07
157	0x3493fbc0	2.7564056e-07
158	0x3493d427	2.7535245e-07
159	0x34a1fec3	3.017395e-07
160	0x34740008	2.2724282e-07
161	0x348a166a	2.5720811e-07
162	0x32dba39f	2.5569362e-08
163	0x25423bcd	1.6847079e-16
164	0x3458c00c	2.0186434e-07
165	0x3433e285	1.6753081e-07
166	0x3490d20b	2.6974917e-07
167	0x349290ff	2.7300118e-07
168	0x34996aba	2.8576125e-07
169	0x3466a2a4	2.1479588e-07
170	0x348a9050	2.5809504e-07
171	0x32dba39f	2.5569362e-08
172	0x254249f9	1.685188e-16
173	0x3458843b	2.0164673e-07
174	0x34346c3f	1.6803186e-07
175	0x34955dbc	2.7821613e-07
176	0x349b7e8f	2.8963083e-07
177	0x3491d733	2.7164933e-07
178	0x346d836d	2.2120157e-07
179	0x348aa9f1	2.5828152e-07
180	0x3141fc14	2.8228486e-09
181	0x251c8833	1.3576989e-16
182	0x32a49b37	1.9162696e-08
183	0x3247e1d7	1.1634675e-08
184	0x32a2a9d3	1.893651e-08
185	0x32e71fc2	2.6906381e-08
186	0x3304b25e	3.089587e-08
187	0x32f16efa	2.8106559e-08
188	0x32a88f33	1.9622894e-08
189	0x3141fc14	2.8228486e-09
190	0x251c9c18	1.358373e-16
191	0x32a6ec27	1.9432333e-08
192	0x3249494a	1.1716404e-08
193	0x32bf4d99	2.2270614e-08
194	0x32e9e82c	2.723035e-08
195	0x3316aa2e	3.5079374e-08
196	0x32f58682	2.8582921e-08
197	0x32aabe7b	1.9877225e-08
198	0x3141fc14	2.8228486e-09
199	0x251c9e76	1.3584532e-16
200	0x32a71db4	1.9454866e-08
201	0x3241f90f	1.1290708e-08
202	0x3219f5b7	8.961641e-09
203	0x32a5a55c	1.9283725e-08
204	0x332015b5	3.7272645e-08
205	0x33200efc	3.726653e-08
206	0x32a747a4	1.9473937e-08
207	0x3141fc14	2.8228486e-09
208	0x251c9d70	1.3584185e-16
209	0x32aa5b24	1.983205e-08
210	0x324402e0	1.1409355e-08
211	0x32a18453	1.8803041e-08
212	0x32ac75aa	2.0076943e-08
213	0x331a0492	3.5860076e-08
214	0x330fe66d	3.3504353e-08
215	0x32aa48ad	1.9823654e-08
216	0x3141fc14	2.8228486e-09
217	0x251ca3b4	1.3586308e-16
218	0x32ab3f1c	1.9935719e-08
219	0x3244a9be	1.14472964e-08
220	0x32a74dbd	1.947671e-08
221	0x32b0eeb0	2.059764e-08
222	0x3318ccde	3.5576583e-08
223	0x330b6782	3.24576e-08
224	0x32ab70de	1.9958346e-08
225	0x3473cc09	2.2705366e-07
226	0x267b3d9c	8.7166615e-16
227	0x3609bcc6	2.0524471e-06
228	0x35e777e3	1.7245733e-06
229	0x3621cd59	2.4110398e-06
230	0x35e275a3	1.6872549e-06
231	0x36311d2f	2.6392042e-06
232	0x3611a8e5	2.1704993e-06
233	0x36341f7b	2.6840414e-06
234	0x3473cc09	2.2705366e-07
235	0x267b5a00	8.720509e-16
236	0x360c25d9	2.0883656e-06
237	0x35e6cac1	1.7195345e-06
238	0x362b4542	2.55213e-06
239	0x35b93914	1.3800186e-06
240	0x363051dc	2.6273692e-06
241	0x361334af	2.1935373e-06
242	0x36355c18	2.7024707e-06
243	0x3473cc09	2.2705366e-07
244	0x267b69a1	8.722627e-16
245	0x360b858c	2.0790349e-06
246	0x35e5c73d	1.7119816e-06
247	0x36149573	2.214071e-06
248	0x35beecbe	1.4225004e-06
249	0x36352d39	2.6997425e-06
250	0x361aac90	2.3048233e-06
251	0x3634ae30	2.692348e-06
252	0x3473cc09	2.2705366e-07
253	0x267b6344	8.721765e-16
254	0x360b4e45	2.0758173e-06
255	0x35e8a57d	1.733351e-06

exp_avg f4 [64]
0	0xb9904853	-0.00027519706
1	0x3a5ce898	0.0008426993
2	0xb9cbcac7	-0.00038870258
3	0x39325fc1	0.00017011074
4	0xb84359df	-4.6575322e-05
5	0xb90d3f1d	-0.0001347032
6	0xb928df85	-0.00016104996
7	0x39d8fc8a	0.00041386887
8	0x39c447ae	0.0003743744
9	0xb9d6519d	-0.00040878067
10	0x392bd1c7	0.00016385979
11	0x376ed817	1.4236218e-05
12	0x3a77a880	0.00094474107
13	0x39e9a2a5	0.00044562403
14	0xba2e03c4	-0.00066381344
15	0xb9e73268	-0.0004409731
16	0xb9e25f72	-0.0004317719
17	0x39fb17e8	0.00047892262
18	0x3a5a9689	0.00083384715
19	0xba55a90c	-0.0008150495
20	0xba200212	-0.0006103824
21	0xb96bee88	-0.00022500206
22	0xb9c53178	-0.00037611625
23	0x395f7256	0.0002130953
24	0x391fa509	0.00015224902
25	0x39e23733	0.00043147206
26	0xb98969ae	-0.00026209414
27	0xb761d65b	-1.3460954e-05
28	0x389160fa	6.932202e-05
29	0xb7d04e07	-2.4831867e-05
30	0xb895d514	-7.1445626e-05
31	0xb9a06e90	-0.00030599954
32	0x3960e766	0.00021448507
33	0xba8dc7ec	-0.0010817028
34	0xb8ba2b90	-8.877285e-05
35	0xb7393be7	-1.1040806e-05
36	0xb9072ce4	-0.00012891326
37	0xb8594417	-5.1800245e-05
38	0x39a037bc	0.00030559103
39	0xba6da178	-0.0009064893
40	0x39e35f4f	0.00043367824
41	0x3a11da91	0.000556388
42	0x39243b9f	0.0001566247
43	0x38990983	7.29738e-05
44	0xba3854ff	-0.00070317084
45	0xb9ba2569	-0.00035504557
46	0xba032852	-0.00050032616
47	0xba452ef5	-0.0007521951
48	0xb974bfed	-0.00023341151
49	0xb88864b0	-6.50374e-05
50	0x398cacef	0.00026831726
51	0xba1a0bb4	-0.00058763777
52	0xb9ff3c94	-0.00048682524
53	0x3808e085	3.2634027e-05
54	0x390802e4	0.00012971048
55	0xba9ddd32	-0.0012044071
56	0xb9a22918	-0.00030929665
57	0xbaee5afc	-0.0018185074
58	0xbac43f8d	-0.0014972553
59	0xb9396242	-0.00017679579
60	0x39b945c2	0.00035337923
61	0x39992871	0.00029212565
62	0x38428131	4.6373523e-05
63	0x38aacd7b	8.1445054e-05

exp_avg_sq f4 [64]
0	0x35a622e0	1.2378114e-06
1	0x3725b2d3	9.876402e-06
2	0x3686b51a	4.014594e-06
3	0x34c10ac4	3.5956884e-07
4	0x332a7e89	3.9696292e-08
5	0x3656464d	3.1929405e-06
6	0x356b0ec6	8.756582e-07
7	0x360a57c5	2.061469e-06
8	0x35f31f1a	1.8113963e-06
9	0x365b46e8	3.2674816e-06
10	0x369bb296	4.64015e-06
11	0x36c467f8	5.8533587e-06
12	0x36ec84f7	7.0488272e-06
13	0x36084dac	2.031079e-06
14	0x3626cad0	2.485398e-06
15	0x35b41e5e	1.3419883e-06
16	0x361e89f1	2.3624127e-06
17	0x369e1e4c	4.712294e-06
18	0x3715d4cd	8.930639e-06
19	0x371e54c4	9.43727e-06
20	0x3705c7f8	7.973977e-06
21	0x35a2577f	1.2095405e-06
22	0x35904c57	1.0751054e-06
23	0x3510b398	5.3905524e-07
24	0x35282cbb	6.264997e-07
25	0x364b118f	3.0259578e-06
26	0x35d14dab	1.5594318e-06
27	0x3390b045	6.737586e-08
28	0x367d6c8a	3.7763116e-06
29	0x343b9c27	1.747254e-07
30	0x36f69bd8	7.349514e-06
31	0x359466d0	1.1056782e-06
32	0x3610fad2	2.1603669e-06
33	0x36c8c474	5.9833346e-06
34	0x34d76318	4.011897e-07
35	0x3660d8e3	3.3504846e-06
36	0x3567280e	8.6112493e-07
37	0x34c4f127	3.6683306e-07
38	0x36764cb7	3.670151e-06
39	0x3718f644	9.117244e-06
40	0x362e2658	2.595034e-06
41	0x36d2b92d	6.280045e-06
42	0x36c67267	5.914178e-06
43	0x34540c3f	1.9748494e-07
44	0x3695502f	4.4498806e-06
45	0x3620b784	2.3948678e-06
46	0x35f58b6d	1.8294501e-06
47	0x3683de31	3.9299707e-06
48	0x35d26169	1.5674569e-06
49	0x33f057e8	1.1191861e-07
50	0x35da94ae	1.6285537e-06
51	0x365f9d29	3.3321069e-06
52	0x36024a4d	1.9414758e-06
53	0x35833151	9.774614e-07
54	0x36159bb8	2.229337e-06
55	0x36df6a9b	6.6583284e-06
56	0x36c81da1	5.9639137e-06
57	0x3797e8f2	1.8109076e-05
58	0x370a3691	8.238146e-06
59	0x371dca6b	9.405058e-06
60	0x36c742e5	5.9384497e-06
61	0x35e909db	1.7362721e-06
62	0x35657776	8.5482986e-07
63	0x369b839c	4.6346813e-06

exp_avg f4 [5, 64]
0	0x3b358e71	0.002770331
1	0xbc55af8c	-0.013042342
2	0xbc824e96	-0.015906613
3	0xbb73ec1a	-0.0037219585
4	0x3bf57d83	0.007491769
5	0x3b6f5b6e	0.0036523002
6	0x3b9e3daa	0.0048291283
7	0x3a4ba4e7	0.0007768408
8	0x3b6a70ee	0.0035772878
9	0xbcbd00d3	-0.023071682
10	0xbcaeb255	-0.02132527
11	0xbd0a9c7b	-0.033840638
12	0xbbdd75dc	-0.0067584347
13	0x3a48b235	0.00076559494
14	0xbb3311e6	-0.00273239
15	0xbac1ce83	-0.0014786277
16	0xbb04efa6	-0.0020284443
17	0xbc343443	-0.010998788
18	0xbcbca75e	-0.023029026
19	0xbd090e6e	-0.033461027
20	0xbcda6b7e	-0.026662584
21	0xbcbb2d23	-0.022848671
22	0xbcb8ec67	-0.022573663
23	0x3ab86ac7	0.0014069908
24	0x3bb9358e	0.005652136
25	0x3b8f2e9f	0.0043695713
26	0xba105a42	-0.00055066135
27	0x3bf90137	0.007599022
28	0xbc4fdff8	-0.012687676
29	0x3b4dc6e1	0.0031399059
30	0xbd0d72f1	-0.034533445
31	0xbc2a5bd5	-0.010397871
32	0xbbe1f8c4	-0.0068961103
33	0xbcc1ce75	-0.023658017
34	0x3ba3294a	0.0049792873
35	0xbb8508a2	-0.004059867
36	0x3b3a4ae7	0.0028425993
37	0x3c06baf3	0.008223283
38	0xbcb7991d	-0.022411877
39	0xbc3a5581	-0.011372925
40	0xba785a2b	-0.00094738853
41	0xbc7d4b95	-0.015459915
42	0x3aa84ddb	0.0012840586
43	0x3b30bcf9	0.0026968105
44	0xbcf32716	-0.029681724
45	0xbb32385d	-0.002719424
46	0xb9ae2bfd	-0.0003322064
47	0xbc6f10a8	-0.0145913735
48	0xbba9cc2e	-0.005181811
49	0x3bf15417	0.0073647606
50	0x3bc9c3e1	0.006157384
51	0xbcb7d3ba	-0.022439826
52	0x3b234b19	0.0024916588
53	0x3b587d7f	0.0033033786
54	0xbcc00e58	-0.02344434
55	0xbcecf804	-0.028926857
56	0xbd3effd7	-0.046630707
57	0xbb4e120e	-0.0031443867
58	0xbd2fec13	-0.042949747
59	0xbd830098	-0.063965976
60	0xbce4a380	-0.027909994
61	0x3a2720a8	0.00063754106
62	0xb908170f	-0.0001297856
63	0xbc8ac5a4	-0.016939946
64	0xba40e8d5	-0.00073589134
65	0x3856f49d	5.124939e-05
66	0x3ba3d4a7	0.0049997154
67	0x3b0cff80	0.0021514595
68	0xbb3b2009	-0.002855303
69	0x39db877f	0.00041871888
70	0xbb95f2e9	-0.0045760763
71	0x3ada0ca7	0.0016635851
72	0xbb8b2754	-0.0042466316
73	0x3b5a4999	0.0033308028
74	0x3bed3027	0.007238406
75	0x3beec9d5	0.007287244
76	0x3b586274	0.0033017667
77	0xba3c8b59	-0.0007192395
78	0x3a599fa8	0.00083016837
79	0x3b61e6b2	0.003446978
80	0x3b71bdf6	0.0036886907
81	0x3ae4d4cb	0.0017458437
82	0x3ae2732d	0.0017276757
83	0x3c6fa01f	0.014625578
84	0x3c2c4ebd	0.01051682
85	0x3b92cbe3	0.0044798716
86	0x3c4132aa	0.011791864
87	0xbb2b31c2	-0.0026122187
88	0xba0868bd	-0.00052035955
89	0xbb0c2b57	-0.0021388137
90	0x3b4b8c05	0.00310588
91	0xbb441640	-0.0029920489
92	0x3b8216f4	0.0039700214
93	0xbac1afae	-0.0014777088
94	0x3c8e7316	0.017388862
95	0x3a17f757	0.00057970494
96	0x3be53a7d	0.0069954977
97	0x3c3f821d	0.011688736
98	0xba65078a	-0.000873678
99	0xbac82fe6	-0.0015273064
100	0xba2cce6a	-0.00065920374
101	0xba9f8879	-0.0012171409
102	0x3c18726f	0.009304627
103	0x3b5d2c05	0.0033748162
104	0x394d873c	0.00019600702
105	0x3ab86dc7	0.0014070802
106	0x3aa47615	0.0012547398
107	0x3a6a5444	0.0008938948
108	0x3c58950e	0.013219131
109	0xbb293daf	-0.002582412
110	0x39b41642	0.0003434886
111	0x3bcef03e	0.00631526
112	0x3b228675	0.002479938
113	0xbb46c069	-0.0030327088
114	0xbb2f9bb2	-0.0026795682
115	0x3b6fd3f1	0.0036594833
116	0x3b159557	0.002282461
117	0xbb26b635	-0.0025438194
118	0x3b7a6a9a	0.0038210512
119	0x3c1d86da	0.009614671
120	0x3c67586b	0.014120202
121	0x3c4d7b2a	0.012541572
122	0x3c6de113	0.014518994
123	0x3ca1cbe7	0.019750549
124	0xb91d66b7	-0.00015010951
125	0xbb0c35f9	-0.0021394475
126	0x3a3156c1	0.00067649415
127	0xbaaa66e5	-0.0013000636
128	0x38f73187	0.00011787103
129	0x3c161248	0.009159632
130	0xbaa970dc	-0.0012927311
131	0xbb1b2b16	-0.0023676804
132	0x3b16f012	0.0023031277
133	0xbb341130	-0.0027476065
134	0x3af627c9	0.0018780167
135	0x3b0687d1	0.002052773
136	0x3be74e9d	0.007058932
137	0xbc065b53	-0.008200484
138	0xbc041d9e	-0.008063702
139	0x3aadf0a9	0.0013270575
140	0xbb0dcdf2	-0.0021637646
141	0x3b1102f7	0.0022127011
142	0x3abc5e0d	0.0014371291
143	0xbb8a8fd1	-0.00422857
144	0xbb9d8f19	-0.0048083183
145	0x3add0185	0.0016861415
146	0x3c438409	0.011933335
147	0xbc4e92a2	-0.012608202
148	0xbbe087c0	-0.00685212
149	0xbaf100cb	-0.0018387077
150	0xbc9d1cf1	-0.01917884
151	0x3b989845	0.004656824
152	0xbb6e71b0	-0.003638368
153	0x3ba9fc0a	0.005187516
154	0xbb93dee1	-0.004512653
155	0x3b1d7b68	0.0024029855
156	0x3ab295c5	0.0013624957
157	0x3aadb80a	0.00132537
158	0xbc8e517a	-0.017372835
159	0xba9dca2e	-0.0012038404
160	0xbc153d16	-0.009108802
161	0xbc4507d9	-0.012025797
162	0x36fec017	7.592152e-06
163	0x3b887e03	0.0041654124
164	0xba5fd3d3	-0.0008538339
165	0xb9e02a37	-0.00042756062
166	0xbb3ff1b6	-0.0029288358
167	0xbbb838e1	-0.005622015
168	0x375d5c63	1.3194137e-05
169	0x3b6dd9a0	0.0036293045
170	0xbaa80d1f	-0.0012821293
171	0xbb0332ad	-0.0020019219
172	0xbbe2fe7c	-0.0069273096
173	0x3b319fbe	0.002710327
174	0xbb0d63b3	-0.0021574318
175	0xbb95c369	-0.004570414
176	0xbabb6eb0	-0.0014299955
177	0x3b5885e3	0.0033038787
178	0x3bba662a	0.0056884484
179	0xba75cf72	-0.000937692
180	0xbbc99b5e	-0.0061525544
181	0x3b740eee	0.0037240344
182	0x3a437c6b	0.00074571994
183	0xbc634d9d	-0.013873485
184	0xbb04b66e	-0.0020250338
185	0xbc96390c	-0.018337749
186	0xbca8544b	-0.020548007
187	0xbc505c33	-0.0127172945
188	0x3c55dcf3	0.013053167
189	0x3bf31f1f	0.0074194814
190	0xbb585546	-0.0033009811
191	0x3c195ef3	0.009361017
192	0xbb1713dd	-0.002305261
193	0x3be90b00	0.007111907
194	0x3c0e95db	0.0087027205
195	0xba31c925	-0.0006781987
196	0xbbab999a	-0.0052368166
197	0xbad30dc3	-0.0016102124
198	0xbb131b24	-0.0022446597
199	0xba7705cd	-0.00094231666
200	0xbb57bae2	-0.0032917787
201	0x3c91d389	0.017801063
202	0x3c7b8eef	0.015353902
203	0x3c979c99	0.018507289
204	0x3bdec5b0	0.0067984685
205	0xbac279a5	-0.0014837278
206	0xb9838bc4	-0.000250904
207	0x39a857a6	0.0003210876
208	0x39be5898	0.00036305632
209	0x3c085bd4	0.008322675
210	0x3c13e03f	0.009025632
211	0x3cd2f555	0.025751749
212	0x3c9956c4	0.01871813
213	0x3c5f1550	0.013615921
214	0x3caf2802	0.021381382
215	0xba89aa17	-0.0010502961
216	0xbb06be7b	-0.0020560313
217	0xbb80ae9e	-0.003927066
218	0x3967458e	0.00022055788
219	0xbbb6dc5b	-0.0055804676
220	0x3bc86906	0.0061160354
221	0xbade13f8	-0.0016943207
222	0x3cac53da	0.021036077
223	0x3bf3a38f	0.007435269
224	0x3be0810b	0.0068513206
225	0x3c6b13c4	0.014347974
226	0xbb666688	-0.0035156328
227	0x3a8ddd07	0.0010823318
228	0xbb22548d	-0.0024769634
229	0xbb9ded5e	-0.004819556
230	0x3c49d9e2	0.012320014
231	0x3bcad38b	0.0061897687
232	0x3b0dcf7c	0.0021638563
233	0x3c14eba9	0.009089389
234	0xba9b3120	-0.0011840202
235	0xba1c1773	-0.0005954422
236	0x3c959047	0.018257273
237	0xb9b9638f	-0.00035360127
238	0x3a093e8f	0.0005235457
239	0x3c133cb2	0.008986639
240	0x3b58b0a9	0.0033064282
241	0xbbb357ae	-0.0054730987
242	0xbb8b56e7	-0.004252303
243	0x3c63e5fc	0.013909813
244	0x3a1080af	0.00055123394
245	0xbb32067c	-0.002716451
246	0x3c5b15b8	0.013371877
247	0x3caea112	0.021317039
248	0x3cee7f6a	0.02911349
249	0x3bdaab24	0.0066732336
250	0x3d04ccbd	0.032421816
251	0x3d1c2056	0.038116775
252	0x3c6db312	0.014508026
253	0xbb6eb70d	-0.0036425025
254	0x3b0fcda8	0.002194265
255	0x3be3f526	0.006956714

exp_avg_sq f4 [5, 64]
0	0x38e850f8	0.00011077704
1	0x3afc21ec	0.0019236184
2	0x3a9b565c	0.0011851299
3	0x39924aaa	0.0002790292
4	0x39db3ce9	0.00041816317
5	0x38f8a4da	0.000118562675
6	0x39863676	0.00025599048
7	0x38eebd4b	0.00011383983
8	0x38edad62	0.00011333336
9	0x3b2d8922	0.0026479443
10	0x3b7b6e37	0.0038365254
11	0x3bdcbdf1	0.00673651
12	0x3abce2f4	0.0014410899
13	0x387acadd	5.9793576e-05
14	0x388bf66e	6.6739376e-05
15	0x38ac82e5	8.22598e-05
16	0x38fb7053	0.00011989535
17	0x3ad4631c	0.0016203853
18	0x3b80a6ec	0.0039261486
19	0x3bcf804a	0.006332432
20	0x3bb51eb7	0.005527343
21	0x3b249a1b	0.0025116268
22	0x3b550f22	0.003251024
23	0x38f0dee0	0.000114856055
24	0x394b9549	0.00019415202
25	0x391d1112	0.00014979046
26	0x38c6a9fc	9.473038e-05
27	0x39dca47a	0.00042084215
28	0x3adf5dd0	0.0017041508
29	0x39352ce5	0.0001727823
30	0x3be7f205	0.0070784115
31	0x3a816abf	0.0009873732
32	0x3ada8302	0.0016671123
33	0x3b0ec06d	0.0021782175
34	0x39625a88	0.00021586765
35	0x39b68c81	0.0003481843
36	0x3906c071	0.00012850926
37	0x39b9c294	0.00035430922
38	0x3b95a433	0.004566693
39	0x3aee52a8	0.0018182592
40	0x393b08fa	0.00017837054
41	0x3aac1598	0.0013128994
42	0x399353ff	0.00028100607
43	0x390661d7	0.00012815684
44	0x3bab388e	0.0052252477
45	0x39a3618d	0.00031162464
46	0x38ab1260	8.157338e-05
47	0x3a904300	0.0011006296
48	0x3a5273b0	0.0008028103
49	0x39b01c1d	0.00033590282
50	0x39586813	0.00020638136
51	0x3b2f6f7c	0.002676933
52	0x38fb41ef	0.00011980894
53	0x38de19eb	0.000105906125
54	0x3b291736	0.0025801188
55	0x3b5e9123	0.003396102
56	0x3c9e6296	0.019334119
57	0x3a8f11fe	0.0010915396
58	0x3bd03833	0.0063543557
59	0x3c97e2a3	0.018540686
60	0x3b9fd995	0.0048782327
61	0x393ce238	0.0001801335
62	0x394d38c9	0.00019571478
63	0x3a973a59	0.0011537775
64	0x38c9d064	9.623243e-05
65	0x3ae22e2d	0.0017256193
66	0x3a73c36c	0.00092988345
67	0x396fb5b4	0.00022860506
68	0x39b716cf	0.00034921474
69	0x38d46856	0.00010128382
70	0x3961aa9d	0.0002152123
71	0x38e78535	0.0001103975
72	0x38b6ac95	8.710582e-05
73	0x3b09943e	0.00209929
74	0x3b53aa99	0.003229773
75	0x3bb610b6	0.0055561913
76	0x3a9cd8a9	0.0011966425
77	0x38685d2e	5.539989e-05
78	0x386b1ebf	5.6057e-05
79	0x388e8782	6.796328e-05
80	0x38da12b8	0.00010398537
81	0x3abddac6	0.0014484755
82	0x3b5a8a63	0.0033346645
83	0x3bb14f2b	0.005411049
84	0x3b9bfe0b	0.004760509
85	0x3b0556e3	0.0020345978
86	0x3b29a544	0.002588586
87	0x38bbad38	8.9491194e-05
88	0x39309a5c	0.00016842171
89	0x390406ab	0.00012590985
90	0x38bc4fe7	8.9794215e-05
91	0x39b684c9	0.00034812678
92	0x3ac4bfde	0.0015010794
93	0x391a860a	0.00014736518
94	0x3bc2a2c8	0.005939815
95	0x3a62e155	0.0008654793
96	0x3ab9ca65	0.0014174698
97	0x3ae3374b	0.0017335204
98	0x393f5bd7	0.00018249392
99	0x398f08a6	0.0002728153
100	0x38f9e282	0.000119154356
101	0x399e5efa	0.0003020687
102	0x3b82b11f	0.0039883996
103	0x3ad9a56d	0.0016605087
104	0x392e8837	0.00016644677
105	0x3a8e673d	0.0010864508
106	0x398507f4	0.00025373662
107	0x38ecb3d3	0.00011286852
108	0x3b8f56d3	0.004374364
109	0x39883be8	0.00025984575
110	0x38942bd7	7.065356e-05
111	0x3a621290	0.0008623982
112	0x3a2ef701	0.00066743797
113	0x399073e6	0.0002755217
114	0x392d7e48	0.00016545609
115	0x3b12fbc9	0.0022427908
116	0x38bf7aee	9.130487e-05
117	0x38ba77d2	8.8914894e-05
118	0x3b085e0e	0.0020808014
119	0x3b317211	0.0027076046
120	0x3c89f5b1	0.016840788
121	0x3a748e9a	0.00093291106
122	0x3ba4037c	0.005005298
123	0x3c79cd38	0.015246682
124	0x3b86a010	0.0041084364
125	0x3933d6b7	0.00017150758
126	0x392e19bd	0.00016603521
127	0x3a7fea99	0.0009762436
128	0x38c7766d	9.511118e-05
129	0x3ad8c119	0.001653704
130	0x3a6f085c	0.0009118372
131	0x398122af	0.0002463064
132	0x39bbbd14	0.00035808294
133	0x38d10ee7	9.9686724e-05
134	0x395f25ba	0.00021280991
135	0x38c22164	9.25686e-05
136	0x38dedcdb	0.000106269224
137	0x3b12101d	0.0022287436
138	0x3b5745d1	0.003284801
139	0x3bb81c9e	0.005618646
140	0x3a9d052d	0.0011979692
141	0x38612e88	5.3687516e-05
142	0x38704213	5.7281995e-05
143	0x389fccb5	7.6198405e-05
144	0x38e36a6a	0.00010844025
145	0x3ac091be	0.0014691872
146	0x3b5f2fc7	0.0034055577
147	0x3bb5c87d	0.0055475817
148	0x3b9c3030	0.0047664866
149	0x3b036e30	0.002005469
150	0x3b2ea9ff	0.0026651619
151	0x38d217e3	0.000100180296
152	0x391efa85	0.0001516138
153	0x3909b2de	0.00013131971
154	0x38d5cf73	0.00010195272
155	0x39ba92f2	0.00035586167
156	0x3abfa4d1	0.0014621263
157	0x3923db73	0.00015626643
158	0x3bc5ca23	0.0060360595
159	0x3a59bca0	0.00083060004
160	0x3acbc7db	0.0015547232
161	0x3aec698a	0.0018036824
162	0x393dccd0	0.00018100743
163	0x39944461	0.00028279706
164	0x38e4df68	0.000109135
165	0x399e8e2b	0.00030242032
166	0x3b81a89c	0.0039568674
167	0x3adf9e9e	0.0017060821
168	0x39260b2c	0.00015835156
169	0x3a8d46e0	0.0010778569
170	0x398a96b4	0.00026433694
171	0x38f24b58	0.00011553493
172	0x3b8d5af3	0.0043138205
173	0x3992279b	0.00027876798
174	0x3890555c	6.8823545e-05
175	0x3a602e04	0.0008551779
176	0x3a2e672e	0.0006652948
177	0x3992d85d	0.00028008493
178	0x39343e50	0.00017189351
179	0x3b16fd49	0.0023039153
180	0x38f80fe0	0.000118285185
181	0x38af5731	8.360891e-05
182	0x3b0d675a	0.0021576495
183	0x3b346179	0.0027523919
184	0x3c8a2b02	0.01686621
185	0x3a857337	0.0010181431
186	0x3bae37d0	0.005316712
187	0x3c7cef58	0.015437923
188	0x3b847327	0.0040420475
189	0x393e55ed	0.00018151822
190	0x392c579e	0.00016435838
191	0x3a7bcd23	0.0009605458
192	0x38e15dab	0.00010746283
193	0x3b0a99b3	0.002114874
194	0x3a9167bb	0.0011093536
195	0x3992a187	0.00027967637
196	0x39d25d34	0.00040123763
197	0x38fa001b	0.000119209486
198	0x3970b44c	0.0002295535
199	0x38e79e2e	0.000110444016
200	0x38ea431a	0.00011170488
201	0x3b2400b2	0.0025024829
202	0x3b6f33ec	0.0036499454
203	0x3bd623d5	0.006535033
204	0x3ab9ae2b	0.0014166286
205	0x387d1146	6.0335988e-05
206	0x3887c562	6.474067e-05
207	0x38a1e865	7.720365e-05
208	0x38fe4948	0.000121253135
209	0x3aceaa70	0.0015767347
210	0x3b81b226	0.0039580045
211	0x3bc71305	0.0060752654
212	0x3baa2805	0.005192759
213	0x3b1efb2c	0.0024258597
214	0x3b48838a	0.0030595982
215	0x38d611a5	0.00010207602
216	0x39485eae	0.00019108757
217	0x3916d27d	0.00014383528
218	0x38c6d8c0	9.4817486e-05
219	0x39cf8b80	0.00039586052
220	0x3ae03b40	0.0017107502
221	0x3925fab1	0.00015829016
222	0x3bdac83c	0.006676702
223	0x3a79109d	0.0009501072
224	0x3ac58a7c	0.0015071179
225	0x3b05c88c	0.0020413725
226	0x395cf8a3	0.0002107346
227	0x39b4c5be	0.00034479605
228	0x39029039	0.00012451493
229	0x39b73ab2	0.0003494821
230	0x3b936292	0.0044978345
231	0x3ae011a3	0.00170951
232	0x393f7861	0.00018260024
233	0x3ab37251	0.0013690685
234	0x399979ed	0.00029273276
235	0x390a8d63	0.00013213376
236	0x3ba0bd06	0.004905346
237	0x39a39da1	0.00031207225
238	0x38a3cb6f	7.810338e-05
239	0x3a87424c	0.0010319441
240	0x3a4a1356	0.000770857
241	0x39a259cc	0.00030965952
242	0x395820d5	0.00020611596
243	0x3b28a50a	0.0025733137
244	0x38eacb8e	0.000111959045
245	0x38d34d3b	0.00010075649
246	0x3b22b0f6	0.0024824715
247	0x3b4ebdbf	0.0031546203
248	0x3c9b18f6	0.0189328
249	0x3a8397a8	0.0010039704
250	0x3bc3d63d	0.005976467
251	0x3c90ef1e	0.017692145
252	0x3ba0cfa8	0.004907567
253	0x39515648	0.00019963935
254	0x39482212	0.00019086179
255	0x3a9cad95	0.0011953587

exp_avg f4 [5]
0	0xbce77ca4	-0.028257675
1	0x3c3d3f0d	0.011550677
2	0xbc14d539	-0.009084039
3	0x3ca3f12a	0.020012457
4	0x3bbd5a4a	0.0057785856

exp_avg_sq f4 [5]
0	0x3bc1b99b	0.0059120185
1	0x3ba23ecb	0.004951333
2	0x3ba4b747	0.005026731
3	0x3bb8301f	0.005620971
4	0x3b56db4a	0.0032784515
