Assets/results/Maze10/Mouse/Mouse-250045.onnx (onnx, 17067 bytes, 4 tensors)

network_body._body_endoder.seq_layers.0.weight f4 [64, 45]
00000000: a186 2cbe 5976 a33d 3691 8bbe 5a64 f63a
00000010: 5c72 753d cb38 6b3e f1ea aabd 2bd3 24be
00000020: b8a0 e0bd a8d7 b93c 68ed 903c 8a34 73be
00000030: bc98 153e 0d82 a13e 3eb0 023e ef77 083d
00000040: c7c2 b0bd 2e77 183e 7d49 383e 3cd0 d33b
00000050: c8f2 e13d 64db 11bd d35d 313e 61da 393e
00000060: cab4 78bd b059 a33b 763b c63e ae3c 0cbe
00000070: baa3 2f3e beed abbc aee3 0b3e 1d0d b93d
00000080: 2e71 3c3e 3560 083e 6c0c 4c3c eb00 ed3d
00000090: 0683 d23d efa0 693e fa3c 863e c062 ee3d
000000a0: 62d4 93bd 2073 d1bd 7cd0 243d eb04 963e
000000b0: 0519 90be df66 e7bd 16b6 df3c d422 01be
000000c0: 912c 173e 004d 813e b388 afbd 3030 383d
000000d0: 183e afbe 52aa 7e3d 0471 2a3e 5da5 eabd
000000e0: c812 3ebc 4ec5 2d3d bcb5 c33d 539b a23d
000000f0: 6162 6cbe 7968 b73d f16b 21be a72a 0ebe
00000100: 8819 233d ed19 c33c b387 21be f382 6f3e
00000110: 0a39 573e 262b be3d 7c6f 3fbb 3674 35be
00000120: b0ee 2f3e 7c6e 1cbd 16f9 063e 032c 653d
00000130: c542 203e 800f 2b3e 818f cb3d dcab 6a3d
00000140: 1561 2b3e bde5 52be 4eb6 b7bd ccbe 8cbd
00000150: 0cf9 f33d ed9c 2d3d df68 f23c 4c36 22be
00000160: bcef da3d f696 79bd 22ed e8bd 688f 6bbe
00000170: 100d ecbd bd9e 5fbd 224b 17be c566 7a3c
00000180: 4db4 873e b656 3e3e e4ac 2dbe 2db6 403e
00000190: f9b7 6d3c cee9 533e 9d8f 973d 5580 a0bb
000001a0: e774 25be 36c6 ee3d cd7a df3d 0c56 07be
000001b0: 6e32 a63d 4591 683e f190 993d 2996 c9bd
000001c0: 8aad 42be 05fa 153e 576f c8bd a64e 893d
000001d0: dc25 32bd 9881 ec3d b3da 413e cc5a d33d
000001e0: 633a 0a3e a4c9 c13e 990b 13be a824 6e3e
000001f0: 6022 783e 172e bc3c 0d32 3a3d c72a 7a3e
00000200: 2ecd 0cbe 47a4 6a3e 5cc4 cebc cc75 c83d
00000210: 015b 07be 7b98 4fba 5ab3 c83d 57ea 7c3e
00000220: 84b2 9cbe ecf9 1fbe 3517 f4bc b493 8fbd
00000230: de5a 4e3e cc76 4b3d 62b8 093e 2711 da3d
00000240: e439 68bc 5e22 133d e73b 8d3b 73b6 19bd
00000250: a64d 37be ead3 4abe 52f9 df3d c73f e53b
00000260: f019 e83d af40 c9bd 5e79 a23c f6b2 cebd
00000270: a8db 23bd 3ab1 14bd d284 41bd 74c7 10bd
00000280: 40ee 0abe ce0f 5f3d f84f 543d 703a d53e
00000290: 3985 92be d568 71bc a28e a9be 9959 02ba
000002a0: f89c debd 08aa a93d ee0a 963d 553a 493d
000002b0: b1bc 453c 6570 893e af12 593e 0f0f d93e
000002c0: a255 6d3d b6cc 07be 3fbe 6a3c 1e5c 3bbc
000002d0: c3b2 183e a8cd 0dbe a21a 3dbe fa7c 873e
000002e0: d851 84bd e9d1 433e 5bfe e83d f23a 2f3e
000002f0: d818 35be 86b8 2fbe 9fea 1abd 7b5b 2d3e
00000300: fac4 7fbe 038e ca3d 7c35 32be 2a32 95bc
00000310: 8c7c 4ebd c3d3 11be e54a 2abd 19b7 ab3d
00000320: f4c1 853d 97ac 643d 65f6 c2bd 58f7 81bd
00000330: 9367 1bbe c982 113d 5c5c 48bc b406 023e
00000340: 9dac 5c3d ec45 f03c 4cf4 8cbd 384b 343e
00000350: c527 4e3e d304 483c bbfd 87bc 2661 2d3d
00000360: d612 05be 25dc 61be 654e 77bd 354b 183e
00000370: 9a62 efbc d545 fa3d 71e4 2cbe 1bd3 d63b
00000380: b9fc 0fbd 2d13 2c3e 932f 793e ab14 1abe
00000390: 97cb 2e3e c59e 6abd 1139 a5bd 0959 29bd
000003a0: 687b ff3d b834 8fbd ceb5 1cbd 7433 403e
000003b0: e05f 2a3e a51a 903d cd47 db3d c54b 8abe
000003c0: 3e52 493e 38f7 4a3e 32da 95be 9d76 7a3e
000003d0: 6176 39be 6d28 533d 8285 513d 174b dabd
000003e0: 390a 90bd a73d aa3e aea9 c9bc 9601 8cbd
000003f0: 4106 d0bd 9135 e7bd 13e4 8fbd 73ca ebbc
-0.16848232 0.079815574 -0.27259225 0.0018798218 0.059923515 0.22970884 -0.08345593 -0.16096179
-0.10968155 0.02268584 0.01769133 -0.23750511 0.14609045 0.31544533 0.12762544 0.033317503
-0.08630901 0.14889213 0.17996784 0.0064640325 0.11032635 -0.035609618 0.17320947 0.18149711
-0.06071929 0.004985057 0.3871724 -0.13695022 0.171523 -0.020987388 0.13661072 0.09035704
0.1840255 0.1331795 0.0124541335 0.11572441 0.10278897 0.22815298 0.26218396 0.11639929
-0.07218243 -0.102270365 0.04023789 0.29300627 -0.28144088 -0.11298918 0.027308505 -0.12610942
0.14763094 0.2525406 -0.08570995 0.04496783 -0.3422706 0.06217415 0.16644675 -0.11457322
-0.0116011575 0.042424493 0.095561475 0.07939782 -0.23084404 0.089554735 -0.15763833 -0.13883458
0.03981927 0.023816073 -0.15774421 0.23389797 0.21017852 0.09285574 -0.0029210737 -0.17720112
0.17180896 -0.038191304 0.13180956 0.055950176 0.1565047 0.16705132 0.099394806 0.057292804
0.16736253 -0.2059545 -0.08970319 -0.06872329 0.11912736 0.042385984 0.029591022 -0.15841025
0.10690257 -0.060934983 -0.113733545 -0.23003924 -0.11525929 -0.054594744 -0.14774755 0.015283291
0.26504746 0.18587765 -0.16960484 0.18819495 0.0145091945 0.20694658 0.07400439 -0.004898111
-0.16157876 0.116588995 0.10912094 -0.13216418 0.081150874 0.22711666 0.074983485 -0.09843094
-0.19011512 0.14646156 -0.097868614 0.06704454 -0.043493137 0.115481555 0.18931083 0.103200525
0.13498835 0.37849152 -0.14359893 0.23256171 0.24231863 0.022971196 0.04545789 0.24430381
-0.13750145 0.2291423 -0.025240116 0.09788093 -0.13218309 -0.00079191447 0.097998336 0.24698769
-0.30604947 -0.15622681 -0.029796222 -0.07010594 0.2015185 0.04967384 0.13449243 0.10647803
-0.014173958 0.035921447 0.0043101194 -0.037527513 -0.17900714 -0.19807401 0.10936226 0.0069961282
0.11333072 -0.098267905 0.019833263 -0.10092728 -0.040004402 -0.03630183 -0.047245808 -0.035346463
-0.13567448 0.054458432 0.051834077 0.41646147 -0.28617266 -0.014734467 -0.33116633 -0.00049724575
-0.10869783 0.08284384 0.073263034 0.049127895 0.012068913 0.26843563 0.21198533 0.423943
0.057942994 -0.13261685 0.014327585 -0.011435537 0.14911942 -0.13847983 -0.18467191 0.26462537
-0.06460923 0.19123043 0.113766395 0.1711233 -0.17685258 -0.17160234 -0.03782141 0.16929428
-0.24977484 0.09890368 -0.17403215 -0.018212397 -0.050411746 -0.14240937 -0.04157533 0.083845325
0.06531134 0.055828657 -0.09519652 -0.06346005 -0.15176229 0.035525117 -0.012229051 0.1269787
0.053875554 0.029330216 -0.068825334 0.17606819 0.20132358 0.012208181 -0.01660048 0.042328976
-0.12995467 -0.22056635 -0.060377497 0.14872439 -0.029221822 0.12220351 -0.16884018 0.0065559275
-0.035153124 0.1680419 0.24334554 -0.15046947 0.17069851 -0.05728032 -0.08067525 -0.041344676
0.1247471 -0.06992477 -0.03825932 0.18769628 0.16638136 0.07036332 0.10707054 -0.27010933
0.19660279 0.19820869 -0.29268032 0.2445931 -0.18111564 0.051552225 0.051152714 -0.106588535
-0.070332 0.33250162 -0.024617042 -0.0683624 -0.10157443 -0.11289514 -0.070259236 -0.028783059

network_body._body_endoder.seq_layers.0.bias f4 [64]
00000000: cdee aa3c 5d06 8c3c 3858 4b3c ca9a 0d3b
00000010: 3eb8 f73b 72c2 8e3c 76dc ae3c e4b1 9b3b
00000020: 799f 71bb 016e 5dbc 31e2 b73b 61eb 283b
00000030: d549 c33c cb2e a63c 97ed 443c f1ed 74bc
00000040: 3117 25bc 1d99 cb3b 3953 273c 48d0 db3a
00000050: 2392 c63c 3b7c 823c 796e 683c 1b54 47bc
00000060: eb1b 743b 4152 4bbb 4a19 623c a033 863c
00000070: bf95 683c 3e49 85bc 727c 433c 7474 0dbc
00000080: 97cd 123c 92c1 a53c c17e b23c 2dc8 3abc
00000090: 0387 38ba fe22 3cbc e0f2 85bb 1ffb 633c
000000a0: d583 a53c aefa 12bc cf4b 853c d610 05bb
000000b0: 1db6 7f3c 8f36 b7bc 490f c0bc cec4 84bc
000000c0: 8a57 6bbc d070 83bc a6a7 c73b 4997 703b
000000d0: 0af9 e7bb de4f 803c 4671 0b3a d1df c83b
000000e0: fe03 4e3c 88e7 393c b8a2 c0bb fbba 803b
000000f0: 350b a73c 007e 3d3b 1f54 c63c dbf3 8abc
0.020865822 0.017092878 0.01241117 0.0021607154 0.007559805 0.017426703 0.021345358 0.004751431
-0.0036868735 -0.0135149965 0.005611681 0.0025775062 0.023838917 0.020285985 0.012019536 -0.014949308
-0.01007633 0.006213321 0.010212713 0.0016770447 0.024239605 0.015928378 0.014186495 -0.012166048
0.0037248086 -0.003102437 0.013799975 0.016382039 0.0141958585 -0.016270276 0.011931526 -0.008633722
0.008960149 0.020233903 0.021788957 -0.011400265 -0.0007039161 -0.011482952 -0.004087791 0.013914852
0.020204464 -0.0089708995 0.0162715 -0.0020304224 0.015607384 -0.022364883 -0.023444789 -0.016207125
-0.014364133 -0.016045004 0.0060929833 0.0036711267 -0.0070792483 0.015663084 0.0005319308 0.0061301966
0.012574194 0.011346705 -0.0058787726 0.00392854 0.020391086 0.0028914213 0.024210034 -0.016961982

action_model._discrete_distribution.branches.0.weight f4 [5, 64]
00000000: f864 903c e748 a5bc 89c2 8d3c 5ebd 8cba
00000010: a150 5abc c25d a83c 98f4 49bc 0c75 a93c
00000020: 0cbe 3a3a d901 1bbc d4e3 8bbb aae5 37bc
00000030: a164 aa3b eb40 e93b ff87 af3b a7df 23bc
00000040: bc63 39bc 6a08 b43a 3aa5 ddbc eeaf 23bb
00000050: 5efb a73c f37d 313d 898a 97bc ed26 2fbb
00000060: 564e 193c fc63 ecbc e407 0bbc a026 d63c
00000070: 9170 ef3b 4def 9dbc 7675 32bc 6b8e 54bc
00000080: 45c5 04bd 4b0a dc3c e34d ee3c 1ea5 57bc
00000090: f16e 9bbc 8be9 70bc 973d b93b da7e 0bbb
000000a0: 5509 fabb 6f87 0dbc 7658 c23c c811 f7bb
000000b0: 060a 1dbb ef67 5bbc c590 66bc 9bb1 80bc
000000c0: 9623 9bbc eae9 08bc 5abf 273d 227e 08bd
000000d0: a06d 3f3c 7233 34bc 0c67 e2bb 4643 74bc
000000e0: bd14 853c c38d ad3c ca54 b5bb 5a07 bfbc
000000f0: a0b1 193d c33a ec3b efdf a33c 2dd6 adbb
00000100: e6d8 88bb e81c bbbc 7203 953c 0376 dc3a
00000110: 2e78 1ebc f7b6 c43b 9dad 04bd 3953 c7bb
00000120: a574 71bc 768b 3fbc e598 1fba 5ed2 6a3c
00000130: 4f5f d83a b55d 4b3c 0c82 353c 0a58 7c3b
00000140: 2bae 1b3b af09 0fbb ba66 10bc deae 703c
00000150: acbb 9abb 8aea 0c3c 3e2a 75bb 4aeb 693c
00000160: c765 2aba 2c37 da3a 6c0d 5c3b 472e 32bc
00000170: b5cd e4bb 67af 48bc da8e 23bb 47f1 ab3c
00000180: e829 84bc f301 b93a b61e 463c 684b 18bb
00000190: f9a4 633b 2f8b 593c 534e c73c e924 6c3c
000001a0: 5d7c 4fbc b83c 80bc 10c9 383b 43bb 283c
000001b0: 247d 07ba a48f 0c3a c381 ad3b f499 bfba
000001c0: 6ea4 9dbb 73b4 b93c 556e b1bc d885 26bd
000001d0: 64ff 523c 0bdb 1e3b 791f abbb 5673 52ba
000001e0: 1c11 68bc dd15 20bb 8e9a 4a3c 5dd4 aebb
000001f0: 19d9 e63b 0f9e ec3a e59f 40bb 5932 ad3c
00000200: 6261 4e3b 1a94 3e3c 3c4f 1a3c 8a32 84ba
00000210: 4870 ba3c 64ae afba d19f 6d3c 558d 9bbb
00000220: 0fe3 66bc 9310 713b 74c6 fa3c 7e6c 89bc
00000230: 9ea0 963c 7162 3e3b 9f5c c83a 44ad 92bc
00000240: 0492 383c d41f 983c 9673 d53b 04da bdba
00000250: 3f74 873c e98c e5bb 3844 f63c 98ab f4bc
00000260: ea6c 623a 1b64 913b 25cc 753c a3be 88bc
00000270: 26fa 5f3c 52db 8c3a c779 b13c d768 bd3b
00000280: f681 e43c 2bd9 3dbc c05d a5ba 3ab5 0eba
00000290: df0b 003c 6027 a8bc 0ada 913c e6e1 8f3b
000002a0: 004c b63c 905f 14bb 0893 e939 1dea 1f3c
000002b0: 3b0d 093c bd3e 94bc 6b24 fbbb 4714 893b
000002c0: f115 9ebc e812 92bb 8437 cabc 96fa ba3c
000002d0: e939 6b3c 21be 2d3d 1b57 9a3b 1cd6 68bb
000002e0: 56b3 78bb 295d 7c3c b254 103b b549 ca3c
000002f0: 2089 f7bb 80c8 3eba ffb5 0c3c ed09 01bd
00000300: 7b4f 97bb 6a42 b83c 0f4b 8a3a 752f a53c
00000310: 0e21 0b3b 360b 11bc 90c3 d63c a389 98bb
00000320: 8794 b8bc 863a b83a 0d1e c53c ff43 e43c
00000330: 44af 6f3c e384 363c 584d 9bbb c0d1 0abd
00000340: 2527 8fbc 4523 d33c 2433 873c 9c6e 2b3b
00000350: 5921 f73b f813 26bb cbc7 fb3c 3826 17ba
00000360: 938f 133c 4151 19bc 3845 d73a db6e 27bc
00000370: c9ba 803c a94f 9cbc baa0 b23c 5242 5c3c
00000380: 86b5 2d3c ae30 2dbc 994e 21ba 3dd6 15bb
00000390: e5ab d7bb ae1f 09ba 820e 8abb 933a 123c
000003a0: e6ff 003d 6581 873c df84 d93c cc64 b23b
000003b0: 9f88 46bb 3937 3abc 3b22 79bc 9de3 fc3b
000003c0: a25d aebb 0a61 2abc f19c 24bb a26e 6d3c
000003d0: b2c6 573c 3795 623c 1b54 c9bc 0ea6 283c
000003e0: 7165 6f3c d30e 7fbc 46b2 f13b e422 be3b
000003f0: 9b0a 03bb db64 64bc beff aabb baca f8bb
0.01762627 -0.020176364 0.017304676 -0.0010737588 -0.0133248875 0.02055252 -0.012326382 0.020685695
0.0007123656 -0.00946089 -0.0042691026 -0.01122419 0.005199984 0.0071183345 0.005356788 -0.010002053
-0.011315282 0.0013735418 -0.027056325 -0.0024976688 0.020505603 0.043333005 -0.018498676 -0.0026726082
0.009357056 -0.02885627 -0.008485768 0.026141465 0.00730712 -0.019279147 -0.010892263 -0.012973408
-0.032414693 0.026860377 0.029089874 -0.013161926 -0.0189738 -0.0147041185 0.005653094 -0.0021285326
-0.007630507 -0.008638247 0.023723822 -0.0075399615 -0.0023962273 -0.013391479 -0.014072602 -0.015709689
-0.018937867 -0.008356551 0.04095397 -0.033323415 0.0116838515 -0.010998594 -0.006909257 -0.014908617
0.01624524 0.021185761 -0.0055337893 -0.023318935 0.037522912 0.0072091534 0.02000424 -0.0053050728
-0.004176247 -0.022840932 0.01819012 0.0016819838 -0.009672208 0.0060032564 -0.032392133 -0.006082919
-0.014737283 -0.011690965 -0.0006088152 0.014332382 0.0016507896 0.012412478 0.011078369 0.0038504624
0.0023754935 -0.002182584 -0.008813554 0.014690129 -0.0047220793 0.00860084 -0.0037409212 0.014277289
-0.00065001514 0.0016648523 0.0033577336 -0.010875291 -0.00698253 -0.01224885 -0.0024956972 0.020989073
-0.016133264 0.0014114961 0.012092283 -0.0023238305 0.0034735783 0.013277813 0.02432934 0.014413097
-0.012663928 -0.015653953 0.0028196014 0.010298553 -0.0005168489 0.00053619803 0.00529501 -0.0014618025
-0.0048108613 0.022669053 -0.021659056 -0.040654987 0.012878273 0.0024239447 -0.0052222577 -0.00080280507
-0.014164235 -0.0024427094 0.01236595 -0.0053353743 0.007044923 0.0018052476 -0.002939218 0.021142172
0.003149115 0.01163199 0.009418305 -0.0010085863 0.022758618 -0.0013403413 0.014503435 -0.0047470727
-0.014092221 0.003678356 0.030612208 -0.016775366 0.018387135 0.0029050375 0.0015286392 -0.017904885
0.011265282 0.018569864 0.006514023 -0.0014484529 0.016534923 -0.007005323 0.030061826 -0.029866979
0.0008637445 0.0044369823 0.015002285 -0.016692465 0.01367048 0.0010746515 0.021664513 0.00578032
0.027894001 -0.011587421 -0.0012616441 -0.0005443875 0.00781533 -0.020526588 0.017804164 0.004390943
0.022253036 -0.0022639968 0.0004455077 0.009760407 0.008364971 -0.018096322 -0.0076642535 0.0041833255
-0.019297572 -0.00445782 -0.024684675 0.022824567 0.014357069 0.04241765 0.004710091 -0.003552801
-0.003794869 0.0154030705 0.0022023139 0.02469335 -0.0075541884 -0.00072778016 0.008588313 -0.031503607
-0.004617629 0.022492606 0.0010550934 0.02016423 0.002122942 -0.008852771 0.026216298 -0.0046550795
-0.02253176 0.0014055527 0.02406218 0.027864454 0.014629189 0.011140081 -0.0047394447 -0.03389144
-0.01747472 0.025773654 0.016503878 0.0026158458 0.007541817 -0.0025341492 0.030734917 -0.0005765888
0.009006399 -0.009357751 0.0016423827 -0.010219301 0.015714066 -0.019080954 0.021805156 0.013443546
0.010602361 -0.010570688 -0.00061533746 -0.0022863292 -0.0065817707 -0.0005230856 -0.0042131552 0.008925098
0.031494044 0.016541192 0.026552616 0.005444145 -0.0030293835 -0.011365705 -0.015205915 0.0077175633
-0.0053212205 -0.0103991125 -0.0025117958 0.014491709 0.013169931 0.013829521 -0.024576237 0.010293497
0.014611588 -0.015567499 0.007375988 0.005802499 -0.0019995335 -0.013940061 -0.005218475 -0.0075925263

action_model._discrete_distribution.branches.0.bias f4 [5]
00000000: 626a 323c 8984 87bb 2ae2 f33b aae0 e03b
00000010: edb1 c4bc
0.010889621 -0.0041356725 0.0074427323 0.0068627195 -0.024010623
