Assets/results/Maze08/Mouse.onnx (onnx, 17067 bytes, 4 tensors)

network_body._body_endoder.seq_layers.0.weight f4 [64, 45]
00000000: 5803 fa3c 49b7 0dbd cf11 e43d 66ca a53c
00000010: 5601 07be 5ee9 fb3c 69a9 493d a8ac 173e
00000020: 19de 4d3d da68 ba3c c2a2 2abd b7a1 d0bd
00000030: 31f0 15be d1e2 8d3d 5e63 aabe e3ee 443d
00000040: 79d5 8ebb 74a3 0a3d f7f7 8a3d c337 a03c
00000050: 5b47 853e 272f b93c d78d 213d e889 033e
00000060: 1e3a b0bc 36a4 b73e 6c4a 72be d14d 383e
00000070: 465a 623e f9c5 edbd 4833 17be 242a 493d
00000080: be51 18bd 08e3 ccbe d20a 693e b632 2bbd
00000090: 8c18 423d 3f1b 113e 5406 153c fbe0 c4be
000000a0: bc5f 86bd d421 8a3d 8342 76bd 3c17 2fbd
000000b0: 025b 2b3e cf7c c43d 418a 07bd 220f 703d
000000c0: d71a c5bb 0b1c 113e dd81 86ba d26f ff3d
000000d0: 4e58 21be df84 5f3d ca99 f03c abdb 9f3d
000000e0: 8e3b 94bd b40c 043d 9269 39bd b779 d53d
000000f0: 918e 7c3d 68a4 563e ad35 a5bd 1218 393e
00000100: cc88 85be 6645 6dbd a770 933d 8f39 b53d
00000110: 1441 82be 7f57 47be bce3 ecbd 226a aebe
00000120: cfa5 753d 1280 52bd d1ff 76bb d2c7 56bd
00000130: 4b05 a3bd 30d1 d43d 4c50 5b3e 44cc 52bd
00000140: 8f44 2e3e 7448 6ebe 934d 123e 5328 ed3c
00000150: 30e1 34bd f483 103e 9a0d 753e ea2a 81bd
00000160: 0301 a0bb 9614 11bc e5fc 933d 3d68 613e
00000170: a8f1 49bc 6699 26be 3021 1f3e 7a55 41be
00000180: 3168 093e d8fc a93d 7014 50bd 80cb 4b3e
00000190: f612 39be 4c25 33bd 8698 25be a5f6 d6bd
000001a0: da0a 5fbe c7cd 2e3e 451f d53c 70eb 7d3c
000001b0: 40c5 2f3d ce96 74be 534f ad3c 261b 8ebd
000001c0: 1a92 f1bb 1f1c 1fbe 1eff 9cbe 00c8 8bbd
000001d0: 5513 54be b017 45be 4a6d ec3d 7edd 253e
000001e0: 2aee 08bd 0631 aabc 2f5d 163c 9d81 c5bd
000001f0: 39b6 bfbd 3d94 40be 95bb 803d ad65 33be
00000200: 8c34 6ebe 6011 a9bd 782c 143e 9c77 4cbe
00000210: 1583 1a3e bd0b 753e 4350 b8bb 3ad6 4fbd
00000220: 68ad 1d3e a924 e7bc 8353 713d 5ea2 96be
00000230: 8b59 2b3e c630 2c3b 42a8 a0bd 372d 663e
00000240: 7ae6 cdbd 5ace 12bd 175a 8a3a ddcb 6b3c
00000250: 99ba c33d 5358 09bd 1861 a73d 5027 c63b
00000260: 9c31 1abe 9bc7 fabd ec4d 8e3c cb70 3abd
00000270: 8fe2 4f3d e652 56be 875d b63c 7d15 adbe
00000280: 91f6 62be 279e 143e 1720 613e bf03 023e
00000290: df80 8dbd 464f 85be 1973 373d b5f9 2d3d
000002a0: e833 c5bd 0f1f 1abd 056a 643d 6be7 7a3e
000002b0: e5e4 b5bd 4e45 cabd ed57 75bd cf1d 063e
000002c0: 488c 24be 98ae e03e d9e6 00be 9442 fabd
000002d0: 808f 59be b844 34bd c8c2 e7bd d96e 75be
000002e0: 3d09 0d3e 8250 8d3e de11 323d 4f5f b0bd
000002f0: 9ae0 963d b510 a9bd 7bd3 e23d cabc e63d
00000300: 2803 2d3e 7fd5 5b3e 878f 0c3d 2fff 7dbe
00000310: 0e69 2e3e 950b ddbc 16d5 0fbd f69b 0fbe
00000320: 6ca2 5d3d d6f7 663d 588a dfbd 53bd 7dbe
00000330: d94a cc3d e8d5 a63d d5e7 25bd 4d86 963d
00000340: f1da bdbd 1666 febd bdb1 75bd dbe9 72be
00000350: fc3f 343e ce0c 1dbe 02f4 b13e da56 c8bd
00000360: 5ebf bdbc 7074 363e 8907 36be ea97 c83d
00000370: c649 3b3e 1ef7 27bd 2c0c cebd f8c7 f7bd
00000380: 00a0 edbc 999a a93d a5e5 d3be 79e1 0dbe
00000390: d779 0fbe a327 b5be cea2 593e f83a 153e
000003a0: 28b1 0dbe 7b9b 4fbe 38cd 58be a3a1 593d
000003b0: 0ba8 bdbd 928a bf3c 3348 21be f4e7 043c
000003c0: cd84 51bd f9be 1bbd a908 89bd f681 853d
000003d0: b4a4 493e 8121 4bb9 6150 61be 2c7b 8ebd
000003e0: 12dc adbd 2b77 c93e b1e4 103e 787b 00bd
000003f0: 9c6d cc3d e10c b6bd 5fe2 95bc 7332 083e
0.030519173 -0.034598622 0.11136209 0.020238113 -0.13184103 0.030750927 0.049233828 0.14811957
0.050260637 0.022755075 -0.041659124 -0.10187095 -0.14642407 0.069280274 -0.33278936 0.048079383
-0.004358944 0.033847287 0.06785577 0.01955784 0.26031002 0.022605492 0.03944191 0.12845576
-0.021512087 0.3586747 -0.23661202 0.17998435 0.22104749 -0.11610026 -0.14765656 0.049112454
-0.03718733 -0.4001696 0.22758034 -0.04179641 0.04738669 0.1417055 0.009095747 -0.38452896
-0.06561229 0.067447335 -0.060122024 -0.042746767 0.16733935 0.09594118 -0.033090834 0.05860818
-0.0060151624 0.14170854 -0.0010262091 0.124725 -0.15756342 0.054570075 0.029370207 0.0780557
-0.07237922 0.032238677 -0.045266695 0.10423606 0.0616594 0.20961154 -0.080668785 0.18075588
-0.2608093 -0.05792751 0.07199221 0.08848869 -0.25440276 -0.19466971 -0.115668744 -0.34065348
0.05997258 -0.05139167 -0.00376891 -0.052436657 -0.07959994 0.10391462 0.2141735 -0.051464334
0.1701834 -0.23269826 0.14287405 0.028949892 -0.044160068 0.14112836 0.2393097 -0.06307013
-0.004882933 -0.008855006 0.0722597 0.2201242 -0.012325682 -0.16269454 0.15540004 -0.18880263
0.13418652 0.08300179 -0.05080074 0.19901848 -0.1807364 -0.04373674 -0.16171464 -0.104962625
-0.21781483 0.17070685 0.026015887 0.015498027 0.04291272 -0.23885652 0.021155989 -0.06938772
-0.007372153 -0.15538071 -0.3066339 -0.06825256 -0.207105 -0.19247317 0.11544283 0.16197774
-0.033430256 -0.02077533 0.00917749 -0.096438624 -0.09360928 -0.18806548 0.062857784 -0.17519255
-0.23262233 -0.08255267 0.14470088 -0.19967502 0.15089066 0.23930259 -0.0056248023 -0.05074141
0.1539818 -0.028215723 0.058917534 -0.2942075 0.16733377 0.0026274188 -0.07844593 0.22478186
-0.100537255 -0.035841323 0.0010555413 0.0143918665 0.09557075 -0.0335315 0.08172816 0.006047167
-0.15057987 -0.12245103 0.01737114 -0.045517724 0.050753172 -0.2093006 0.022261394 -0.33805457
-0.2216437 0.14513455 0.21984898 0.12696742 -0.06909346 -0.26037043 0.0447875 0.042474467
-0.09629041 -0.037627276 0.05576517 0.24502341 -0.08881549 -0.098765 -0.059898306 0.13097309
-0.16069138 0.43883204 -0.12588061 -0.1221973 -0.21246147 -0.044010848 -0.113164485 -0.23968066
0.13773055 0.27600485 0.04347407 -0.08611929 0.07367058 -0.0825514 0.11075493 0.112664774
0.16895735 0.21468161 0.034316566 -0.24804376 0.17032263 -0.026983062 -0.035115324 -0.14024338
0.054109976 0.0563887 -0.10915059 -0.24779253 0.099752136 0.08146268 -0.040504295 0.073498346
-0.092702754 -0.12421815 -0.059983958 -0.23722021 0.17602533 -0.15336916 0.34756476 -0.097821906
-0.02316254 0.17817855 -0.17776312 0.097946 0.18289861 -0.041007154 -0.10060915 -0.12098688
-0.029006958 0.0828144 -0.41386142 -0.13855542 -0.14011322 -0.35381803 0.21253511 0.14573276
-0.13837111 -0.20274155 -0.21172035 0.053132664 -0.09260567 0.023381505 -0.15750198 0.008111943
-0.05115204 -0.038023923 -0.06691105 0.06518929 0.19691736 -0.0001937207 -0.22003318 -0.06957087
-0.08489241 0.3934873 0.14149739 -0.03136775 0.09981844 -0.08889175 -0.018296419 0.13300495

network_body._body_endoder.seq_layers.0.bias f4 [64]
00000000: c107 84ba 37d4 423a 1703 69ba c145 08ba
00000010: 8281 4eba e5cd 3fba e256 1a3a a3f9 04ba
00000020: e164 6f3a f267 a8b9 0ab7 d3b9 9876 073a
00000030: 02dd aeb9 bab2 49ba a4da 2a38 662b 8fb8
00000040: 7ad4 96b8 3a9d 7bba 78e8 5a3a 65cd 19b8
00000050: 9c5c 063a 2e66 f139 9a3c 5939 ffb1 14ba
00000060: cc2e 733a 7e96 a1ba 2d53 e4b9 e6c7 3d39
00000070: d970 d339 7cb0 25b8 9da2 75ba cc16 ae39
00000080: 701c 9836 6a94 abb8 35cd ff39 8148 3fba
00000090: cc53 2d3a 72e2 df38 1c23 8e39 8ce6 bcb9
000000a0: ab2a 903a fee8 363a b91b c13a d0f4 b639
000000b0: fa95 ae38 bb11 06b8 e92f 6938 d0d7 51ba
000000c0: eeb6 6c3a fa11 8aba 97fc a9b9 0030 773a
000000d0: 070d a3ba 4e0d 4cba 8536 3eba b883 5bba
000000e0: 84a3 b3ba 9e29 12ba 7605 7fb9 f934 d3b9
000000f0: 2103 a8b9 2b00 93b8 feff 13ba 17a9 29ba
-0.0010073112 0.0007432135 -0.0008888705 -0.00051983824 -0.00078775745 -0.00073167525 0.00058875803 -0.0005072599
0.00091321586 -0.00032120902 -0.0004038143 0.0005167513 -0.0003335253 -0.0007694174 4.0734783e-05 -6.826855e-05
-7.192134e-05 -0.0009598319 0.00083506806 -3.666933e-05 0.0005125494 0.00046043232 0.00020717309 -0.00056722754
0.00092766876 -0.0012328175 -0.0004354952 0.00018098913 0.00040329134 -3.950343e-05 -0.00093702396 0.0003320485
4.5332636e-06 -8.18156e-05 0.0004879028 -0.00072968757 0.0006611913 0.00010675647 0.0002711051 -0.00036029925
0.0010999044 0.00069774676 0.0014732993 0.00034896145 8.324902e-05 -3.1964602e-05 5.559615e-05 -0.0008004876
0.0009029944 -0.0010533922 -0.00032422386 0.0009429455 -0.0012439796 -0.0007783965 -0.0007256049 -0.00083738146
-0.0013705348 -0.00055756595 -0.0002432073 -0.00040284524 -0.00032045788 -7.0095375e-05 -0.0005645751 -0.0006472035

action_model._discrete_distribution.branches.0.weight f4 [5, 64]
00000000: d509 9cbb 7d6a eeba a964 6d3c e2d2 c13a
00000010: e617 403b 43e4 813c 47e9 9939 c22d 343c
00000020: db46 55bc 04be d23c 86f3 8c3c 0232 d13b
00000030: 7ad9 e73c 57e6 c03c ba7d 2dbc 05b7 66bc
00000040: 0cd7 5b3c fe91 2e3c 2dcb 433c 160c 11bd
00000050: 96da 9bbc 1e01 a13b 550d 333c d131 e43b
00000060: 8a99 23bc 3520 e03b 0e13 c93b a57b ce3c
00000070: ade0 5dbc 70b8 b93b d83a ebba e700 8abc
00000080: 3ff0 0ebc 98ba 0fbc b0c2 0cbd 5a5d 8abb
00000090: fc5b 973b 5ae5 6e3b 7243 b2bc fe0b 04bb
000000a0: 9ed2 3dbb 1007 83ba bb58 58bc 5c43 2e3c
000000b0: b80c 6c3c 9bf2 27bb 4de9 a83b 9e7f 0bbc
000000c0: a3ae e23b 1a42 213c 40b5 143c 615a 87bc
000000d0: e791 743b 49cb ddbb 14ad 3dbc 0aec 223c
000000e0: 976f 3dbb 9172 923b bcd9 b9bb 225f b03c
000000f0: 6666 87bc 483c c13c 1818 51bc dec5 493c
00000100: 8138 9cba c94e e0bb 3bec 893c a96a 903a
00000110: 5ea6 ca3c 31f7 18bb 5e59 8a3c 30eb 663b
00000120: b7bb 46bc a7cb 053d c16b 31bb ada6 733b
00000130: 0bb6 463c e25a a03c 4606 993c 0ac4 5d3c
00000140: 433f b23b 546c f7bb 9e32 86bc 0594 133b
00000150: 2f77 263c fd41 893c cfdb ec3c f4ae e43a
00000160: cafe 1abc baf7 9bbb 75d8 ad3c a04e 7fbc
00000170: 6cef 06bd f29e 86bc 1cdb 3abc 36f6 0c39
00000180: 38e6 393c cf5a 803a 019c d638 1ae9 43bc
00000190: ccfc f139 2e5d 0fbc b662 993c 3eb1 adb8
000001a0: d8ee 0e3c 2d8e ffba d454 923b aa73 043c
000001b0: ddea 96bc a457 903c 7210 2f3c dda0 69bc
000001c0: 4e52 e03b adef 533b 2914 91bc c31c 783b
000001d0: 0994 1b3b fd10 71bb 63ce 213a f8b9 e83b
000001e0: d64d d7bb 7d75 87bb 3827 d33a 926c 033b
000001f0: 7ac8 403c 01f4 90bb be38 f83b 17f9 84ba
00000200: 1f9c a1bc 58fb d93c 4451 ccbb 27ae 32ba
00000210: 9542 0cbb f76d 4b3c b974 053c b679 0dbc
00000220: 5c21 3fbc 8841 35bc 0d99 f0bc 2b83 97bb
00000230: cbc7 debb 6793 dc3b 141d c6bc ff8c ccbb
00000240: 5134 2dbb 8edc 6dbc 8b54 9a3c a4a2 8b3b
00000250: 4769 313c 7d6e 003c 3b77 843b c58f 39bc
00000260: 2490 8c3c dd57 36bc 2ce2 9ebc bf25 30ba
00000270: 66a3 3c3c 03b5 7b3c d7ab 23bc de96 3b3c
00000280: e4bd a73c 9837 973b 08c2 f0bb b10d 90bb
00000290: e9d6 24bc f794 343c 3ede 9fba 0ffd 65bc
000002a0: fb5a c13c 9192 563a 08e1 deba 761f 11bb
000002b0: 4d68 c63b 13ea 80bc 8caa cdbb 8574 8abc
000002c0: c0b0 d03c 9b3e b1bb e9a7 5abb 956d ad3c
000002d0: cbc8 5dbc 0d6e 3dbb 1e5e efbb 7c01 573b
000002e0: e665 51bc 8de1 cb3b cce1 6ebb a2a0 83bc
000002f0: bfad 823c 5137 da3b 178e 6cbc 416d bcbc
00000300: a1b7 4e3b dea5 013b 602c 3f3b da3b c7bb
00000310: a041 16bb f688 e53b a510 573b dc11 dabb
00000320: 3e8c eebb 3b5e bfbc 2720 b03b b49c 233c
00000330: e145 d23b af2b 9dbb b49d 8b3c bb1c 333c
00000340: a20b a03c e6cf ba3a 02c7 903c 0dea c9bc
00000350: ec1a d43b a497 603c 2cad c839 6222 223c
00000360: 1479 8dba 39b7 22bc aad1 213c 2dcf 393c
00000370: e5e3 963a 87f8 d9bb 0a74 04bd 151f e4bc
00000380: 056f 7cbb 4302 19bd 4ec2 7e3c c79d 933b
00000390: 1043 f03b 7b5d 0e3c 6712 8b3c 92c8 1e3c
000003a0: 77d4 9f3c 82e6 43bc 3c50 27bb e1c6 1b3c
000003b0: 0bd0 12bb 2b50 543c 71bb cebc f046 0d3c
000003c0: d02e 23bc 9f74 f9b9 b3e5 eb3a c1ef e739
000003d0: 18d8 97bc 8ba1 d03a 8cbc 15bc 9563 8fbc
000003e0: dcd0 4ebc 2526 ccbb 83b0 5b3c a4e6 89bc
000003f0: 933b b1bc 144f f7bb 0b41 34bb e582 9abb
-0.0047619143 -0.0018189695 0.014489331 0.001478758 0.002931112 0.015855914 0.0002935624 0.010997238
-0.013017382 0.025725372 0.017205965 0.006384135 0.028301943 0.023547335 -0.010589058 -0.014081721
0.01341797 0.010654924 0.011950296 -0.035411917 -0.019025128 0.0049134633 0.010928472 0.0069639464
-0.009985337 0.006839777 0.0061363047 0.025205443 -0.013542336 0.0056677386 -0.0017946614 -0.016846133
-0.008724271 -0.008772515 -0.034365356 -0.004222554 0.0046191197 0.0036452622 -0.021760676 -0.002014875
-0.002896465 -0.0009996612 -0.013204749 0.010636177 0.014407329 -0.0025626782 0.0051547647 -0.008514313
0.006917791 0.00984242 0.0090764165 -0.016522588 0.003731841 -0.0067686182 -0.01157691 0.009943971
-0.0028905624 0.004469224 -0.005671708 0.021529738 -0.01652832 0.023588315 -0.012762092 0.012315242
-0.0011918695 -0.0068453294 0.016836276 0.0011018115 0.024737533 -0.0023340697 0.016888317 0.0035235398
-0.012129716 0.03266492 -0.0027072283 0.0037178204 0.012128363 0.019574586 0.01867975 0.013535509
0.0054396703 -0.0075507555 -0.016381558 0.0022518646 0.0101602515 0.016755098 0.028913407 0.001744716
-0.0094601605 -0.004759756 0.021221379 -0.0155827105 -0.032943174 -0.016433213 -0.011404779 0.00013443161
0.011346392 0.0009792688 0.00010233373 -0.011957431 0.0004615545 -0.008750243 0.018723827 -8.282297e-05
0.008723937 -0.0019497328 0.0044656787 0.008084217 -0.018422538 0.017619915 0.010685073 -0.014259544
0.006845749 0.0032338903 -0.017709808 0.003785894 0.002373936 -0.0036783807 0.00061724166 0.0071022473
-0.006570558 -0.0041338787 0.001610971 0.0020053727 0.011766547 -0.004423619 0.0075751236 -0.0010145035
-0.019727765 0.026609108 -0.0062352736 -0.0006816112 -0.002140199 0.012416354 0.008145505 -0.008634975
-0.011665668 -0.011062987 -0.029369855 -0.0046237907 -0.0067987195 0.006731439 -0.024183787 -0.006242394
-0.0026428888 -0.014517916 0.018839141 0.0042613316 0.010828323 0.007838842 0.0040425337 -0.011325781
0.017158575 -0.011129347 -0.019394957 -0.0006719492 0.011513567 0.015362981 -0.0099897 0.011449544
0.02047629 0.0046147816 -0.007347349 -0.0043961634 -0.010061004 0.011021844 -0.0012196971 -0.014037385
0.023602953 0.0008185292 -0.001700432 -0.0022143996 0.006054914 -0.015736615 -0.0062764343 -0.016901264
0.025474906 -0.0054090745 -0.0033364242 0.021170417 -0.013536642 -0.0028904707 -0.007304921 0.0032807281
-0.012780642 0.006221956 -0.0036450503 -0.016067807 0.01595199 0.0066594263 -0.014438174 -0.023001315
0.0031542557 0.0019782702 0.0029170737 -0.006080133 -0.00229273 0.0070048524 0.0032816317 -0.006654961
-0.0072799018 -0.023360362 0.0053749266 0.009986091 0.0064170216 -0.0047964673 0.017042972 0.010932143
0.019536797 0.0014252632 0.01767302 -0.024647737 0.006472936 0.013708029 0.00038275996 0.009895893
-0.001079353 -0.009931379 0.009876648 0.011340898 0.001151201 -0.006651941 -0.032337226 -0.027846852
-0.0038518321 -0.037355673 0.015549256 0.0045048925 0.007332213 0.00868928 0.016976548 0.009691374
0.01951049 -0.011956813 -0.002553 0.009507866 -0.0022401835 0.012958567 -0.025235863 0.00862287
-0.009959891 -0.0004757987 0.0017997533 0.00044238384 -0.018535659 0.0015917284 -0.009139191 -0.01750354
-0.012623038 -0.006230133 0.013408783 -0.01683361 -0.021634853 -0.0075472686 -0.002750459 -0.004715311

action_model._discrete_distribution.branches.0.bias f4 [5]
00000000: fc8c 88b9 0679 9239 6306 643a cd39 8339
00000010: 8f9c 91ba
-0.00026044983 0.0002793746 0.00086984615 0.00025029332 -0.001110928
